ckps/source/uda/office-caltech/dslr_0/source_B.pt (torch, 532830 bytes, 6 tensors)

bn.weight f4 [256]
00000000: 5225 7e3f 3487 7e3f 3e22 7e3f 6f6d 7e3f
00000010: 44f9 7d3f 9d2c 7e3f fc4a 7e3f 135f 7e3f
00000020: 133d 7e3f fd6b 7e3f 8295 7e3f a4fd 7d3f
00000030: e2a4 7d3f b358 7e3f e025 7d3f f861 7e3f
00000040: 35cd 7e3f 2b60 7e3f 2f3c 7e3f 774f 7e3f
00000050: 4af9 7d3f 1054 7e3f 1857 7e3f 5e71 7e3f
00000060: 0135 7e3f 8f7a 7e3f a646 7e3f 7e4f 7e3f
00000070: eba8 7e3f cd12 7e3f 2e49 7e3f ad68 7e3f
00000080: 3c70 7e3f c575 7e3f 42f0 7c3f d16d 7e3f
00000090: 6861 7e3f cf60 7e3f ee5f 7e3f 1289 7e3f
000000a0: ba36 7e3f 8357 7e3f 3852 7e3f 5a62 7e3f
000000b0: f4fd 7d3f d030 7e3f 3e0b 7e3f ba93 7e3f
000000c0: 8b15 7e3f f5eb 7d3f eb9b 7e3f 715b 7e3f
000000d0: 28ef 7d3f fc26 7e3f a65a 7e3f 735e 7e3f
000000e0: 8378 7e3f 2c62 7e3f 7258 7e3f dc22 7e3f
000000f0: 2c22 7e3f b658 7e3f 5f61 7e3f a350 7e3f
00000100: fe59 7e3f 17d7 7e3f f1a0 7d3f fa31 7e3f
00000110: 2983 7e3f 72c0 7d3f e846 7e3f 6c81 7e3f
00000120: 6560 7e3f 4d6a 7e3f a589 7e3f 0995 7e3f
00000130: 9a3a 7e3f 16a2 7e3f bce4 7e3f 044d 7e3f
00000140: c35c 7e3f d152 7e3f 2c7c 7e3f 6bd4 7e3f
00000150: d78b 7e3f 2532 7e3f 2c1f 7e3f 816d 7e3f
00000160: 4cf6 7d3f 2879 7e3f 7f25 7e3f 4d54 7e3f
00000170: e82f 7e3f b830 7e3f 498c 7e3f 0164 7e3f
00000180: 0f1f 7e3f 5954 7e3f 5526 7e3f f65d 7e3f
00000190: b96c 7e3f b1ab 7d3f 16de 7d3f 18fd 7d3f
000001a0: 5119 7e3f 1017 7e3f 4d2a 7e3f b33a 7e3f
000001b0: 7d64 7e3f f67b 7e3f cd77 7e3f 70a1 7d3f
000001c0: 84bf 7d3f d152 7e3f 9b74 7e3f 799b 7d3f
000001d0: 276a 7e3f 7e6a 7e3f 2f55 7e3f 2b0a 7e3f
000001e0: 1624 7e3f a375 7e3f 7a6f 7e3f 7569 7e3f
000001f0: 0360 7e3f 1d49 7e3f 334c 7e3f d06b 7e3f
00000200: ae61 7e3f 281e 7e3f 22f0 7d3f b839 7e3f
00000210: 8f7d 7e3f f85c 7e3f 604c 7e3f defb 7d3f
00000220: a867 7e3f 233a 7e3f dc4c 7e3f f644 7e3f
00000230: 3b75 7e3f a35b 7e3f d671 7e3f 6dec 7d3f
00000240: 6652 7e3f 5f30 7e3f 0077 7e3f 088f 7e3f
00000250: 5a32 7e3f 166e 7e3f 2241 7e3f 631d 7e3f
00000260: 7271 7e3f d29d 7e3f 7b6f 7e3f 5c61 7e3f
00000270: 0f21 7e3f c670 7e3f 9e58 7e3f 0d28 7e3f
00000280: af57 7e3f d267 7e3f dd1f 7e3f db2f 7e3f
00000290: db65 7e3f 0c7c 7e3f 9e68 7e3f 858e 7e3f
000002a0: 417b 7e3f 0769 7e3f 0a23 7e3f 1314 7e3f
000002b0: 5c2a 7e3f c175 7e3f 786a 7e3f 091b 7e3f
000002c0: ba8b 7e3f 535d 7e3f bb45 7e3f df52 7e3f
000002d0: f25a 7e3f 9949 7e3f 3467 7e3f cb90 7e3f
000002e0: 7a0d 7e3f 8f19 7e3f 4370 7e3f 667c 7e3f
000002f0: 0490 7e3f 8b74 7e3f 4b65 7e3f 0317 7e3f
00000300: 870b 7e3f d23e 7e3f 0d57 7e3f 6a48 7e3f
00000310: 4d4c 7e3f 3632 7e3f 79ac 7e3f b854 7e3f
00000320: 1f9a 7e3f 887e 7e3f cb1f 7e3f 54f3 7e3f
00000330: fc70 7e3f 925b 7e3f ba0a 7e3f 04ff 7d3f
00000340: 7b42 7e3f c7ec 7d3f bd71 7e3f b86f 7e3f
00000350: 1441 7e3f 3b5d 7e3f d345 7e3f 4e69 7e3f
00000360: f56d 7e3f e58c 7e3f 0139 7e3f c67c 7e3f
00000370: ff8c 7e3f 857d 7e3f 8c65 7e3f 0561 7e3f
00000380: 513f 7e3f 5e86 7e3f 224c 7e3f 6a58 7e3f
00000390: e900 7e3f a14a 7e3f 2b41 7e3f c025 7e3f
000003a0: 4b65 7e3f 5159 7e3f a47e 7e3f 1012 7e3f
000003b0: a161 7e3f 2a67 7e3f 5e52 7e3f cb5b 7e3f
000003c0: f68c 7e3f 5c3a 7e3f 5c98 7e3f 2744 7e3f
000003d0: 1737 7e3f d94d 7e3f 1f25 7e3f 326a 7e3f
000003e0: cc7b 7e3f c54f 7e3f 3408 7e3f ec75 7e3f
000003f0: 9678 7e3f 6966 7e3f 656b 7e3f 8cc3 7e3f
0.99275696 0.99425054 0.99271 0.9938573 0.99208474 0.99286824 0.9933317 0.9936382
0.9931194 0.9938353 0.9944688 0.9921515 0.99079716 0.99354094 0.9888592 0.9936824
0.9953187 0.9936549 0.9931058 0.99340004 0.9920851 0.9934702 0.99351645 0.99391735
0.9929963 0.9940576 0.9932655 0.99340045 0.994765 0.9924744 0.99330413 0.9937847
0.99390006 0.9939845 0.98804104 0.99386317 0.9936738 0.9936647 0.9936513 0.994279
0.99302256 0.9935228 0.99344206 0.9936882 0.99215627 0.9929323 0.99235904 0.9944416
0.9925162 0.99188167 0.9945666 0.9935828 0.9919305 0.99278235 0.9935707 0.9936287
0.99402636 0.9936855 0.99353707 0.9927194 0.9927089 0.9935411 0.99367326 0.9934179
0.9935607 0.9954695 0.990737 0.9929501 0.99418885 0.99121773 0.99326944 0.9941623
0.99365836 0.9938095 0.9942878 0.9944616 0.9930817 0.99466074 0.9956777 0.99336267
0.99360293 0.9934512 0.9940822 0.99542874 0.9943213 0.99295264 0.99266315 0.9938584
0.99203944 0.9940362 0.99275964 0.9934738 0.9929185 0.9929309 0.9943281 0.99371344
0.9926614 0.99347454 0.9927724 0.99362123 0.9938465 0.99090105 0.99167 0.99214315
0.9925738 0.9925394 0.99283296 0.9930832 0.9937208 0.994079 0.9940155 0.9907446
0.99120355 0.9934512 0.99396676 0.9906536 0.99380726 0.99381244 0.9934873 0.99234265
0.9927381 0.9939825 0.9938885 0.99379665 0.9936525 0.9933031 0.9933502 0.9938326
0.993678 0.99264765 0.9919454 0.9930682 0.9941034 0.9936061 0.9933529 0.99212444
0.99376917 0.9930746 0.9933603 0.99323976 0.9939763 0.99358577 0.9939245 0.9918888
0.9934448 0.9929256 0.9940033 0.99437 0.9929558 0.9938673 0.99318135 0.9926359
0.99391854 0.99459565 0.99388856 0.9936731 0.99269193 0.9939083 0.9935397 0.9927986
0.99352545 0.9937717 0.9926737 0.9929177 0.9937417 0.9940803 0.99378383 0.9943622
0.9940682 0.9937901 0.99272215 0.9924938 0.99283385 0.9939843 0.9938121 0.9926
0.99431956 0.9936115 0.9932515 0.993452 0.9935752 0.9933105 0.99376225 0.99439687
0.99239314 0.9925775 0.9939005 0.99408567 0.994385 0.9939658 0.9937331 0.99253863
0.9923634 0.99314606 0.9935158 0.99329245 0.99335176 0.99295366 0.9948192 0.9934802
0.9945392 0.9941182 0.9926726 0.9959004 0.9939115 0.99358475 0.9923512 0.9921725
0.9932019 0.9918942 0.993923 0.9938922 0.9931805 0.9936101 0.99325293 0.9937943
0.9938653 0.9943374 0.9930573 0.9940914 0.9943389 0.9941028 0.993737 0.9936679
0.99315363 0.9942378 0.9933492 0.9935366 0.9922014 0.99332625 0.9931819 0.9927635
0.9937331 0.99355036 0.9941199 0.9924631 0.9936772 0.99376166 0.9934443 0.99358815
0.9943384 0.993078 0.9945123 0.9932274 0.9930281 0.99337536 0.9927539 0.9938079
0.9940765 0.9934047 0.99231267 0.99398685 0.9940275 0.99375015 0.9938262 0.9951713

bn.bias f4 [256]
00000000: bee7 cebb 9fd6 723b 641d 143b 270e 83bb
00000010: 5611 ffb9 4375 8a3b a0f6 bf3a 59fb 02bc
00000020: 5b98 3bba e8ce b73a 6cf6 353b 2de3 663b
00000030: 7e77 403a 8257 c53a 393e a53b c556 243c
00000040: 5944 1bbc a38e 5938 6cd1 903b 67a0 b0bb
00000050: 97a8 50bb 23a2 abba 06d3 a8bb 230f 7839
00000060: 4b95 9ebb 1319 0fbb ea99 8bba 8693 d4ba
00000070: a0eb 093c 29b4 55bb 8713 53bb 72ac 64ba
00000080: ff4b bfba f33a b03b f8c0 a5bb ba5f ed3a
00000090: ceff ad3b 2b7c b0bb 1a53 b5ba 52b7 5c3b
000000a0: 147d ddb7 df29 d7ba 389d 7439 a9ca b1bb
000000b0: a28e 83b9 3457 0b3b e3c7 6a3a c777 fc3b
000000c0: 7348 25bb ab2f 81bb 4c6e b3bb 60e3 2e3b
000000d0: ce14 b53b adbe 9dbb 8ab3 2abb 791b 6b3b
000000e0: 06e3 a4ba 6b8d f43a 3162 ba38 9a68 b4ba
000000f0: 8494 7cba 4701 963b 74e4 ea38 eefe a33b
00000100: 50b8 bbb9 dffb da3b 69ef 61bb 547e ae39
00000110: 701f 443a bc73 bb3b 2f78 04bb 2d84 61bb
00000120: 8c38 753b 2d3a afbb ef89 903a fb00 f63b
00000130: 61ec 273b 4689 edbb b335 d7bb ce8d 2f3b
00000140: a7b1 39ba 8692 0d3b a283 db39 a346 dfbb
00000150: 6019 db3a 30c4 6bba e067 d93a f465 5a3b
00000160: bc43 873a 655e bfbb 374f 6bbb 11c3 14bb
00000170: 230e 133b cdd4 b3b9 8c53 59ba d342 05bb
00000180: dfd1 35bb 43e5 2f3b cc1f fd3b 0d61 323b
00000190: abf7 8bb9 3347 f239 8906 ad3b 80bd a539
000001a0: 87ea ba3a d4c0 f83a f8ec d83a e71b 6a3b
000001b0: 484d d83b 7913 b53b 78ae 313c 9454 aebb
000001c0: c99e 6a3a 7315 3c3a fc0e df3b d46e e33a
000001d0: aabb b83b 2b87 073c 84ba 193b 4f1a 313b
000001e0: 9ec9 ccb9 67b5 ca3b 836c 4a3a 72f2 1f3b
000001f0: 592f 8a3a 7bb1 913a e95f 00bc 1115 3ebb
00000200: b482 5bbb 2558 8fb9 9915 863b b5ef 4d3b
00000210: 4ffc dd3b 9ed4 0abb a4c2 043b 31bc 93bb
00000220: c238 8ebb 4edb 9939 d093 4fbb cbe8 35ba
00000230: 49ce 9d3a fbb1 dcba 5913 1ebc d66b eb3b
00000240: 3c8c d9b9 092b 8939 5761 03bc 71c0 57bb
00000250: 7e85 663b ddeb e9ba 29ca a33b 300a 5bba
00000260: 67d7 ab3b 76dc 55bb a122 87bb 594e cc3a
00000270: a5a5 f73a d4e5 d4ba 27a3 dbba 1c41 da3b
00000280: 3531 c7ba b463 91b9 5aca 893a 27bd 183b
00000290: eedc 233c ff57 903a bb1b bbba 94f8 3b3b
000002a0: c4ef b6ba 9a76 c8ba 92d8 9dbb bd38 083a
000002b0: b743 cbbb ef61 74bb cb45 04bc 5501 d9bb
000002c0: c0d8 4d3b 41b7 a9bb 6aa8 0bbc d483 fdbb
000002d0: 147c d53a 95e8 88bb 62a9 36bb f698 eb3b
000002e0: 28eb 683b a0fb 47bb e63d e0ba a570 cf3b
000002f0: 635c 983a 8068 153c 6bf5 79bb 1787 b2bb
00000300: a9f0 d23b 140b 0ebc 4418 85b7 268b b03b
00000310: be11 243b 351e febb 3ec3 11bc 5ffc 57bb
00000320: 3b00 243a 7671 96bb 8d3c 893a f988 eb3b
00000330: 4dbb 953b 2970 f93b cb86 083b e191 22bb
00000340: 1415 97ba 31a4 05bb ee0d 74bb 26d7 9bbb
00000350: c089 41b6 96f6 b43b f4d3 22bb e53f 0d3b
00000360: 8945 4dba eba3 32bc dc0a 253b 5264 843b
00000370: 9dd5 95bb 459e 053b 04a0 d8bb f307 7e3b
00000380: fe34 2abb 8a06 4fba d7a2 213a 2ccc d839
00000390: 8d76 c73a 3767 b9bb 7a0c 813b f92b 5f3b
000003a0: 61bb 6c3b 27eb 78bb 55ec cc3b c944 1e3a
000003b0: 87d9 78bb 195c 083c c157 393a d5a1 84bb
000003c0: 6cef a9bb 614a 81ba 87b2 96bb ae50 2b3b
000003d0: d502 d5b9 975b 67bb bea5 4bbb c2c2 2fbb
000003e0: aac1 fbbb 01e2 e13b e890 4eba 5434 d438
000003f0: e644 84b9 b1af b33a 1259 1f3a 8e8e d33b
-0.006314247 0.0037054194 0.0022600526 -0.00399949 -0.00048650306 0.0042254045 0.0014645644 -0.007994496
-0.00071561866 0.0014023455 0.0027765287 0.0035230622 0.00073420245 0.0015055987 0.005042818 0.010030453
-0.009476745 5.1869672e-05 0.0044194963 -0.005390215 -0.0031838769 -0.0013094585 -0.005152109 0.00023656762
-0.0048395745 -0.0021835014 -0.0010650728 -0.0016218282 0.008417994 -0.0032608605 -0.0032207684 -0.0008723206
-0.0014594792 0.005378121 -0.005058404 0.0018110194 0.0053100353 -0.0053858957 -0.001383397 0.0033678603
-2.6403497e-05 -0.0016415677 0.00023328222 -0.0054257703 -0.00025092537 0.0021261694 0.0008956177 0.0077047083
-0.0025220185 -0.00394245 -0.005475795 0.002668582 0.0055261618 -0.00481399 -0.0026046955 0.003587453
-0.0012579865 0.0018657868 8.887461e-05 -0.0013764084 -0.00096351677 0.004577789 0.00011200542 0.005004755
-0.00035804743 0.0066828574 -0.0034474975 0.00033281988 0.0007481491 0.0057205837 -0.0020213237 -0.0034411058
0.0037417738 -0.0053475113 0.0011027436 0.007507441 0.002562307 -0.0072490303 -0.0065676807 0.0026787403
-0.0007083662 0.0021602227 0.0004186901 -0.0068138405 0.0016715936 -0.0008993773 0.0016586743 0.003332493
0.0010319869 -0.00584011 -0.003590537 -0.0022699276 0.0022438846 -0.0003430009 -0.00082903425 -0.002033402
-0.00277435 0.0026839531 0.0077247377 0.0027218491 -0.00026696673 0.00046210884 0.00528032 0.0003161244
0.0014260568 0.0018978366 0.0016550114 0.0035722197 0.0066010095 0.005526003 0.010844819 -0.005320141
0.00089500524 0.0007174827 0.006807206 0.0017351755 0.0056376057 0.008271973 0.002345712 0.0027023738
-0.0003906013 0.0061861756 0.0007721858 0.0024405983 0.0010542675 0.0011115515 -0.007835367 -0.0029004256
-0.0033494653 -0.00027340758 0.00409193 0.0031423394 0.0067744623 -0.0021183859 0.0020257616 -0.004508518
-0.004340262 0.0002934583 -0.0031673796 -0.0006939291 0.0012039627 -0.001683771 -0.0096481675 0.007184486
-0.00041493948 0.0002616274 -0.008018813 -0.00329211 0.0035174782 -0.0017846782 0.0049984646 -0.0008355705
0.005244184 -0.0032632626 -0.004124001 0.0015587314 0.001889397 -0.001624281 -0.0016756997 0.0066605937
-0.001519716 -0.0002773084 0.0010512576 0.0023306103 0.010001404 0.0011012553 -0.0014275232 0.00286821
-0.0013956954 -0.0015294135 -0.004817077 0.0005196443 -0.0062031406 -0.0037289818 -0.008073281 -0.0066224732
0.003140971 -0.0051793163 -0.00852404 -0.0077366624 0.0016287589 -0.0041781166 -0.0027871956 0.007189865
0.0035540555 -0.003051497 -0.0017108291 0.006330567 0.0011624213 0.009119153 -0.0038140665 -0.005448233
0.0064373803 -0.008669633 -1.5866135e-05 0.0053876815 0.002503499 -0.007755066 -0.008896647 -0.0032956821
0.0006256138 -0.0045911623 0.0010470316 0.0071879593 0.004569447 0.0076122475 0.0020832296 -0.002480619
-0.0011526668 -0.0020392055 -0.0037239748 -0.0047558723 -2.8839422e-06 0.0055225594 -0.0024845572 0.0021552977
-0.0007830491 -0.010903339 0.0025183475 0.0040402794 -0.004572584 0.0020388525 -0.006610872 0.0038762062
-0.0025971527 -0.0007897398 0.00061659276 0.0004135085 0.0015217826 -0.005658056 0.003938255 0.003405331
0.0036122429 -0.0037981959 0.006253759 0.00060374715 -0.0037971453 0.008322739 0.00070702663 -0.004047612
-0.005186012 -0.0009864086 -0.004598919 0.0026140618 -0.00040628636 -0.0035302395 -0.0031074132 -0.0026818966
-0.0076829987 0.006893397 -0.0007879869 0.000101186946 -0.00025228335 0.0013708976 0.0006078641 0.006456203

bn.running_mean f4 [256]
00000000: da9c 933f 4335 913d 4218 0fc0 d7aa 81bf
00000010: 1bfd 383c def8 503e 5a60 32c0 2182 323e
00000020: ef05 0140 3806 bc3d db4e 6cbe eb4b a83f
00000030: 7017 09c0 2a96 c83d 6ff2 433f 613e 5b3f
00000040: 9323 6bbe 63b1 dd3e 5a60 b2be 9a21 e93f
00000050: 4fdf f5bc e059 ffbf ff65 ec3e 97a4 123f
00000060: c45a ef3f 31be ba3f 2478 76bf 0881 9f3e
00000070: 5089 663e f3e9 96be c91c f73a a43d 27bf
00000080: f928 e9be c3f3 05bf a34a ca3f 3cd5 e7be
00000090: 1b4f 883d 5845 45be 14af adbe 6f8d a43d
000000a0: b463 353f 55b1 22bf 224e 26bf 1fdc 9bbf
000000b0: 88da 513d 9aef edbf 6da6 0b40 07f9 343f
000000c0: 8344 a43f b59f 613f df1d e2be 4f56 103f
000000d0: 047f ae3e f283 85bf 8ac3 d43e 7533 9c3e
000000e0: 3913 953f 2343 46bf b69c c2bf f29c 9c3e
000000f0: 4570 d3be c905 a63f 54d1 52bd 3d73 9fbf
00000100: e9ef 68bf 5b33 ab3e ce1b 39bf 4c10 c7bf
00000110: 0a86 dcbf 1c58 abbe 7bba 023f aee4 f0bd
00000120: 6f35 d6be e42b ffbe 9e3f 293f c546 84bf
00000130: e607 363f 30c6 22be b544 42be d2ff 3c3f
00000140: ff5e 01c0 cc0c d63f 2fbb 85be 5a3a 2e3e
00000150: 45fe 52bf 211d 883f 50f5 27be 42bb 3fbe
00000160: 1cd5 afbf 8684 913f 346e 7dbf baae 093e
00000170: d48e 3d3f 0697 ae3e 1fa2 91bf e3cd 3e3f
00000180: c6f4 a43e 7d58 633f 0fa6 203e de1b a33d
00000190: 9711 90bd 68da f4bf 6c47 483c 695e 4abf
000001a0: 2f4a 0e40 2997 d1be 1bb8 cd3e 2f34 313e
000001b0: 0795 8a3e 7353 df3f cde3 713f e791 9ebd
000001c0: c9b6 c9bf 14c1 14c0 8b7f febe aa16 233f
000001d0: 77e1 ec3f 734f b0be e5b0 0f3f 0ecc 033f
000001e0: dfd0 143e ca47 52bf 9d0f 8dbf 388d 6dbf
000001f0: 32f7 08be 78db 0c40 1578 13bf f3f2 9e3d
00000200: b621 ba3e f469 663f 6bb5 0e3e 3b30 5d3f
00000210: 74e2 0bbd 9f32 363c 6800 f1bf bc2e 8fbd
00000220: ee47 c43e 831a 303e aa00 2b3f 4a1f 0b3f
00000230: 9a9e 68bd e4e9 943f 2d9f 363f 33a0 a7bf
00000240: ac6c a23f 54a0 ddbe 5c98 78bf 13c1 a4be
00000250: 403c afbf 2092 ccbf b513 0ac0 5632 0fc0
00000260: ddf3 de3e 8177 eebf 41be 76bf 7092 183d
00000270: 3ed0 b43e cad6 f13f 611b 503f 9410 25bd
00000280: 39ca b9bd 70bd 06c0 355c 4ec0 b060 213f
00000290: 8c2f a63d 7b6c a0bf c925 893f b948 1ec0
000002a0: 3cd8 b33f 3bd0 c43f 31db cd3e 90bf 433e
000002b0: 58ae 7e3f 9fb4 28bf 3c5b 5f3f e816 b8bf
000002c0: 4edb 0840 8f1b 713d 9394 09c0 dc3b b3be
000002d0: af28 ddbf 0fb2 e33d 696a 67bf b9e6 ec3f
000002e0: cff6 253f 100b 743f 74c6 a63f 1ac3 003f
000002f0: 67cf 2e3f 0a6f 29bf 9176 b43f f676 94bf
00000300: abe4 c33e 872d 85bf cd24 70bf 9981 423f
00000310: 131a 54bf f570 1ebe 106c c3bf ada3 18bf
00000320: 2487 91be a7e4 a03e be62 8abe efbc c0be
00000330: e368 bd3e 88cc bc3f 7829 153f d3df 393c
00000340: e7a6 4bbe 56b4 76bf 4a7a 5fbf 8898 bbbf
00000350: f4df 30bf 963f f6be 3de1 483f a397 c2bf
00000360: 221b b23f e8da b6bf 9a12 02bf 235f 02bb
00000370: 78ab 103f 8bcb db3d 2db4 22bf 75bd 0740
00000380: f928 a2be 9d23 e33c 2d7a 99be bc62 e83f
00000390: 9cc7 43bf 36b3 06bf 99f8 fa3f 80b6 263f
000003a0: a661 cc3f 3924 fb3f f063 d73e b72f 70bf
000003b0: 3a6a 57bf 53bb c3be c636 c4bf 4ec3 8bbe
000003c0: bb33 acbf 5d53 04c0 5c9e 473f 6587 fdbd
000003d0: c0a5 a53f b058 ecbf 1fa4 81bf e796 b8be
000003e0: 676e 4abf 1899 83be b1fa ad3f ab71 9a3f
000003f0: 88f5 003f 87aa 97be df2e 1bbf 2e6d 4c3f
1.1532242 0.07090237 -2.2358556 -1.0130261 0.011290814 0.20407435 -2.7871308 0.17432453
2.0159872 0.09180874 -0.23076956 1.3148168 -2.1420555 0.097942665 0.765418 0.8564206
-0.22962789 0.43299398 -0.34839135 1.8213379 -0.030013708 -1.9949303 0.46171567 0.57282394
1.8699574 1.4589292 -0.9627707 0.3115313 0.22513318 -0.29475364 0.0018853183 -0.6532843
-0.45539072 -0.52325076 1.5804027 -0.45279872 0.06655713 -0.19264734 -0.33922637 0.08034789
0.7085526 -0.6355184 -0.6496297 -1.2176551 0.0512338 -1.8588746 2.1820328 0.70692486
1.2833408 0.8813432 -0.44163415 0.56381696 0.3408128 -1.0430892 0.41555434 0.3050801
1.1646491 -0.7744619 -1.5204074 0.3058849 -0.41296592 1.2970515 -0.051469162 -1.2457043
-0.90991074 0.3343762 -0.7230805 -1.5551848 -1.7228405 -0.3346566 0.51065797 -0.11762367
-0.41837642 -0.49838173 0.661127 -1.0334097 0.711058 -0.15895915 -0.18971522 0.7382785
-2.021423 1.6722655 -0.26119372 0.17014447 -0.82419235 1.063389 -0.16402173 -0.18723777
-1.3736911 1.1368568 -0.9899628 0.13445559 0.74046063 0.34099597 -1.13776 0.7453291
0.32217997 0.888069 0.15688346 0.079642996 -0.07034605 -1.9129152 0.01222406 -0.7905031
2.2232778 -0.4093564 0.40179524 0.17305063 0.27066824 1.7447342 0.9448822 -0.077426724
-1.5758907 -2.3242846 -0.49706683 0.6370646 1.8506306 -0.34435615 0.56129295 0.5148324
0.14532803 -0.8214079 -1.102039 -0.9279361 -0.13375548 2.2008953 -0.57605106 0.07761183
0.36353844 0.9000542 0.13936393 0.8640172 -0.03415151 0.011120467 -1.8828249 -0.06991336
0.38336128 0.17197613 0.6679789 0.5434462 -0.05679188 1.1633878 0.7133663 -1.3095764
1.2689414 -0.43286383 -0.9710748 -0.32178554 -1.3690262 -1.5982094 -2.1574528 -2.2374473
0.43545428 -1.863022 -0.96384054 0.03724903 0.35315126 1.8893673 0.81291777 -0.040299013
-0.09071774 -2.1053123 -3.2243779 0.6303816 0.081145376 -1.2533106 1.0714656 -2.4731886
1.4050364 1.5376047 0.40206292 0.19116044 0.9948478 -0.65900606 0.8724859 -1.438199
2.1383853 0.058864173 -2.1496933 -0.35006607 -1.7278041 0.11117946 -0.90396744 1.8507911
0.64829725 0.9532938 1.3029313 0.502977 0.6828522 -0.6618506 1.4098684 -1.1598804
0.38260397 -1.0404519 -0.93806154 0.75979 -0.82852286 -0.15472777 -1.5267353 -0.5962475
-0.28423417 0.31424448 -0.2702846 -0.37644145 0.36994085 1.4749918 0.582664 0.011344868
-0.19887887 -0.9636892 -0.87295973 -1.4655924 -0.69091725 -0.48095387 0.78468686 -1.5202526
1.391453 -1.4285555 -0.50809634 -0.0019893132 0.5651164 0.10732182 -0.63556176 2.1209385
-0.31671885 0.027726943 -0.29976025 1.8155131 -0.76476455 -0.52617204 1.9607116 0.6512222
1.59673 1.9620429 0.42068434 -0.9382281 -0.84146464 -0.38228855 -1.5329216 -0.27297443
-1.3453287 -2.067588 0.7797601 -0.1237934 1.2941208 -1.8464565 -1.0128211 -0.3605263
-0.7907471 -0.2570274 1.359213 1.2065939 0.5037465 -0.2962229 -0.60618395 0.79854095

bn.running_var f4 [256]
00000000: 5a6f a13f 6b11 ee3e b59a e83e e760 f53e
00000010: 944c 373f 5606 0a3f 21f7 dd3e 714e 823f
00000020: e427 203f 9523 2c3f de90 033f e38e bc3e
00000030: 8b74 5340 1788 323f 7ab5 903f e160 583f
00000040: abc0 be3f 388d 1d3f 6a3d 053f bbff 163f
00000050: d3d9 3e3f c6d8 003f daec 4b3f a6f0 013f
00000060: 277f 063f 4c77 143f 90be f33e e08c 383f
00000070: b7eb 203f 8d47 853f fb9f 8a3f ee14 153f
00000080: 67a9 493f 7add 483f d7c9 a33f 8248 213f
00000090: 38b3 eb3e 6178 473f 119d 443f e0fd ae3e
000000a0: c5a6 373f 6445 123f f83f 3a3f a840 863f
000000b0: ba9b 823f b274 123f ab42 0e3f 9903 543f
000000c0: bc75 d23e 6d96 0d3f 71b6 1e3f 87a3 e13e
000000d0: b911 183f a44e f73e 9671 db3e 7075 0b3f
000000e0: e3c0 c73e 5bb6 e63e f92c 203f 81a9 1e3f
000000f0: 620c bf3e 3e84 183f 76ba 973e 61d5 263f
00000100: 9b85 113f 712b 4c3f 0942 923f 4c69 0b3f
00000110: 0146 ee3e 083d 683f 61eb 333f d49c 173f
00000120: 38ef 9b3e cc8b 213f fc33 263f 1db5 313f
00000130: 5d3c 423f a256 383f 55a7 523f 855e 643f
00000140: 576c 4a3f d497 233f a896 053f 4cb6 a13f
00000150: 01c9 0b3f f30f 123f ed46 1a3f e834 403f
00000160: 40bf 973f b5ac 313f 1bb2 fa3e 8f23 443f
00000170: 8e18 1e3f a14a c73e 798b 603f 32db f43e
00000180: 8ced 063f 7948 543f 7ba4 533f 6711 0b3f
00000190: 12f0 a93e 0eb0 573f 6f24 243f dc8b 163f
000001a0: 5719 5a3f 0b9e 483f e522 0c3f 61c1 193f
000001b0: 7e0b 283f 0003 053f 20c8 593f ff54 3a3f
000001c0: 5a3a 823f 197c 5c3f 417e 413f 5ead 243f
000001d0: 5155 463f 0276 983f 39d8 1d3f 4b80 153f
000001e0: 6828 183f c773 583f 0a0e 253f bf93 273f
000001f0: 2072 233f 15b6 f43e bb3c 693f 8803 273f
00000200: aa3a 2a3f 9b5a 183f 445f 083f 3ed3 4b3f
00000210: 1bbc 393f c38c 193f bb99 273f e134 703f
00000220: 9915 b73f d37c 063f 307b 323f 66b3 613f
00000230: f475 063f 17b5 a53f 6cb6 8e3f d1d2 843f
00000240: d6b4 f03e dcb8 093f 0ec5 e13f 2040 233f
00000250: b1e3 153f ba61 133f 1eb9 583f d975 343f
00000260: 1ab3 3d3f 639b 113f 55a4 643f ac1d 383f
00000270: 984d 3c3f ca6e 0a3f 79de f63e a240 323f
00000280: f31a eb3e 592e 1e3f 633b f23e fe4a e43e
00000290: 9d50 503f bf35 b63e 074c ee3e e49b 5b3f
000002a0: 6800 2b3f 19a3 3a3f 11e1 5b3f e251 fe3e
000002b0: b09c 2f3f 0311 2d3f ae0e 913f 75f5 303f
000002c0: b1bf 313f 4628 4e3f 2e9a ae3f 10e0 3b3f
000002d0: e0b6 2c3f 2da0 dd3e 1978 173f 93cb 183f
000002e0: 3c30 143f 2c8d 8a3f 6b32 753f 61f4 273f
000002f0: 8a02 213f eff8 4d3f 69ae 8b3f 4f35 023f
00000300: 8028 ce3e 9dac 423f b948 ce3e bfb1 913f
00000310: 8b15 143f 5d66 803f cf84 4b3f 8fb7 2c3f
00000320: 4af3 5d3f e8c4 2c3f 68d6 363f 2b45 063f
00000330: 2570 143f ca89 123f 8ab6 f03e 07fc 773f
00000340: 4354 073f f952 2f3f 7a5c 7e3f 11ac 4d3f
00000350: 016b e43f 83e4 593f 141a 433f 61a3 d33e
00000360: 00e2 493f 72cf b33f 8261 f33e 96c1 f03e
00000370: 93ec ce3e 4c52 c83e e068 833f aa06 d93e
00000380: 99fd 343f ff55 223f 86e5 6e3f 1248 0d3f
00000390: cde7 363f b866 3c3f b60b 143f fa3f 123f
000003a0: 59bb 393f 9557 643f cefa 2b3f c7bd 373f
000003b0: bbe5 7a3f ce5f 373f df48 493f f066 613f
000003c0: 43f1 043f ecd8 2b3f 6600 283f 1957 4d3f
000003d0: 698a 143f fc07 4b3f c082 123f e632 823f
000003e0: 32a6 0e3f fd5f 5f3f 6db2 413f 78d0 f43e
000003f0: 5f1d 223f eb7c e53e 5b55 433f 436e 653f
1.2612107 0.46497664 0.45430532 0.47925493 0.71601224 0.5391592 0.43352607 1.0180188
0.6256087 0.67241794 0.51392925 0.36827764 3.3039882 0.69738907 1.1305382 0.84522825
1.4902548 0.6154361 0.52046835 0.58983964 0.74551123 0.5033077 0.7965828 0.50757825
0.5253777 0.5799453 0.47606325 0.7208996 0.6285967 1.041246 1.0830072 0.5823506
0.7877411 0.78462946 1.2795972 0.63001263 0.4603517 0.7791806 0.76802164 0.34178066
0.71738845 0.5713713 0.7275386 1.0488482 1.0203774 0.5720931 0.5557048 0.8281799
0.4110545 0.55307657 0.61997133 0.44070074 0.5940204 0.48302186 0.42860097 0.5447607
0.39014348 0.45061 0.6256862 0.6197739 0.37314135 0.59576786 0.29634446 0.6516934
0.5684449 0.79753786 1.1426402 0.54457545 0.46537784 0.90718126 0.70281035 0.59223676
0.30455947 0.6310394 0.6492307 0.6941698 0.7587336 0.7200719 0.8228658 0.89206725
0.79071563 0.63903546 0.5218301 1.2633758 0.5460358 0.57055587 0.60264474 0.7508073
1.185524 0.69404155 0.4896401 0.7661676 0.6175622 0.38924125 0.8771282 0.47823483
0.5270622 0.82923084 0.8267285 0.5432343 0.33190972 0.84253013 0.64118093 0.5880716
0.85194916 0.78366154 0.54740745 0.600607 0.65642536 0.519577 0.8507099 0.72785944
1.0174057 0.8612686 0.75583273 0.6432704 0.7747393 1.1911013 0.61658055 0.58398885
0.59436655 0.8455166 0.64474547 0.6545982 0.63846016 0.47795168 0.9110829 0.65239763
0.66495764 0.5951325 0.53270364 0.79619205 0.7255265 0.5998041 0.6546895 0.93830687
1.4303466 0.52534217 0.6971922 0.88164365 0.5252373 1.2945889 1.1149421 1.0376836
0.47012967 0.537977 1.7638261 0.6376972 0.58550555 0.57570994 0.84657466 0.7049232
0.7410141 0.56877726 0.8931325 0.71920276 0.735559 0.540753 0.48216608 0.6962987
0.45918998 0.6178947 0.47310933 0.44588464 0.81373006 0.3558788 0.4654238 0.85784745
0.66797495 0.7290512 0.858903 0.49671847 0.6859846 0.6760408 1.1332605 0.6912454
0.6943312 0.805302 1.3640802 0.7338877 0.67466545 0.43286267 0.5916763 0.5968563
0.578861 1.0824332 0.95780057 0.6560727 0.628945 0.8045797 1.0912601 0.5086259
0.40265274 0.76044637 0.40289858 1.1382369 0.5784537 1.0031239 0.79499525 0.6746759
0.86699355 0.67487955 0.7142091 0.5244929 0.5798362 0.572415 0.47014266 0.9686894
0.5286295 0.6848598 0.9935986 0.8034068 1.7845155 0.85114306 0.7621167 0.41335586
0.78860474 1.4047682 0.4753533 0.47022694 0.40414867 0.39125288 1.026638 0.42387897
0.7069946 0.6341247 0.93318975 0.55188096 0.7144745 0.73594236 0.5783037 0.5712887
0.72551495 0.8919614 0.6717957 0.7177395 0.9800679 0.7163056 0.7862682 0.88047695
0.51930636 0.6712787 0.6562561 0.80211025 0.580237 0.7930906 0.5723076 1.0171783
0.55722344 0.8725584 0.7566288 0.478153 0.63326067 0.44821867 0.7630212 0.8962137

bottleneck.weight f4 [256, 512]
00000000: 7b18 a33c 0f74 62b9 2e6d dfba e9c3 1b3e
00000010: 41dc 943d db9e 9abc 6581 ebbc 6727 fd3c
00000020: 0a23 5a3c e14d 1dbd eaca 4cbd 5e73 acbd
00000030: 4d91 0d3b 7f55 8a3d db33 1bbd c492 c03d
00000040: 08f8 78bd 6683 a43d 0bcc b9b9 d62a 02bd
00000050: b022 953d 7874 cebc 1b60 0b3d 61c3 0abd
00000060: f9c6 a6bb 61ca 4b3d 1924 113d 0b5d 313c
00000070: 8209 573b 22f3 b4bd 10ac 953d afd4 33bc
00000080: c61a a9bd 6a99 513d 15ac 27bc 29ab c93c
00000090: 8ea9 19bc 812d c83c 2061 87bd 1709 89bd
000000a0: de38 5cbd 322f 2cbd d3cd 3abd 07eb 7bbc
000000b0: a61e fe3d 06ca 603c 8ad7 08bd 578d 5cbd
000000c0: c268 003c 35a2 b43c 6bca 50bc 8076 2cbd
000000d0: 6cf5 b6bc 2616 f13d 9b0d 53bc 5844 cd3d
000000e0: 5438 343c 257c 64bc bc03 84bc 3579 72ba
000000f0: a670 99bd 8871 a33c fe11 51bc 59d3 abbd
00000100: 0358 45ba 0043 253c beba 093c 82c0 83ba
00000110: 9f5b 043c bda9 e3bc 3493 43bc acab 45ba
00000120: 1c18 54bc 1f08 8b3d 4f75 a53c 17d2 81bd
00000130: 556d 3ebb 2821 8a3d ce2e aa3d a2e4 f83c
00000140: 3b96 6bbd 49f0 b9bc 7c19 0cbc 9bf5 4e3d
00000150: 47e8 89bd b881 103d e470 35bd d43c 1bbd
00000160: 297e a13d ab4d 8f3d e54d 9fbd dd93 a4bc
00000170: 0ddf 07bc 10be 4a3d e98d fabd 2ca3 66bd
00000180: 266a d03c d54b 583c db00 703d 3bc9 2e3d
00000190: 0aec f8bc d2bc 083d cc86 2a3d 97b3 083c
000001a0: 60a6 cfbd 2b27 8e3c daf4 69bd fcd7 85bd
000001b0: c2b0 51bd 7bf0 89bd 1e36 17bd 1b63 e4bb
000001c0: 075b 52bd f9eb 5cbc 8a3d ce3c 76d1 c73c
000001d0: bb04 f33b b102 b13c 4b05 9abd a298 93bd
000001e0: 870b 003b 3edd 153d 4916 14bd 84a7 843d
000001f0: 6d33 993d a0ae e0bc d039 2ebd c1fa a8bc
00000200: 5763 463c d154 e73b 0c63 16bc 3974 7cbd
00000210: 5515 bbbc b2cc 55bd 19cb 933c d8a2 f1bb
00000220: 2822 5c3d e14c 4e3d 4a15 5dbd 469e 933d
00000230: 270a 473c 29f2 66bc 7385 833d 1aad 063e
00000240: 80e9 b33d e03f 14bd d3a0 163d aa23 b53d
00000250: 3c25 eebb 640e 863c 2c47 c43b 2d64 3c3d
00000260: 0a71 2f3d e4eb 963d 49bf c23d aea6 2bbc
00000270: d276 dc3d ba16 9dbd 4a89 963d 5c59 f23c
00000280: 8d22 173d bde5 2f3c 02b6 163c 822f 09ba
00000290: b059 30bd 060c 763d 90ff 69bc 5a17 05bd
000002a0: 5869 833d 57d0 adbc 7133 e93c d208 e23d
000002b0: ac1b 983d dbc6 3f3c 994d ebba ebcd 6bbc
000002c0: 2613 e43b b52a e8bc b361 9e3b 7136 8dbc
000002d0: 8fb2 ddbd 0fdf a03d a9b1 8cbd 9a6a 60bc
000002e0: cacd 14bc 7018 8bbd ad84 60bd 0bd7 0cbd
000002f0: 8e51 93bc c6b1 c13a 3502 81bc d605 ef3a
00000300: e1fa 0ebd 618d a8bd 2b92 29bd cafc 413d
00000310: 24ff 85bd 31c0 923d 40f4 1fbd 82f5 99bd
00000320: e4a5 853c efe1 babc 6218 02bd db90 56bd
00000330: a6c7 96bd 1c39 d63d cbcf 03bd 213c 3ebc
00000340: e074 d1bc a7e3 783d d0a8 813d ddc3 eaba
00000350: b3d9 403d 1706 643c e302 963d 562f c43c
00000360: 4f86 b5bd 8355 e03c 0a1e febb 1737 9abc
00000370: d4c8 e13c 9540 94bd dede 67bc 7cf9 843c
00000380: 4aaa 23bc 973d ae3d b08a 52bd c331 3a3c
00000390: 9f58 81bd d2e2 86bd 547a d03d 57f9 bc3c
000003a0: cab6 683d eaa6 243d 1ba1 0d3d e794 163d
000003b0: eb59 a7bd d7b4 64bd a1c7 4bbb 9199 f73b
000003c0: 64f6 343c 08ff 7c3c 8f58 2ebc aa14 943a
000003d0: 8503 f2bd 7178 27bd f078 bb3d 36f3 b5bd
000003e0: ae8b 953c f9b4 2abd a82e cb3d d49d 5e3c
000003f0: 574a 423d 3fb3 34bd 25a9 2fbc ca8d 313d
0.019909134 -0.00021596275 -0.0017046088 0.15211453 0.072685726 -0.018874576 -0.028748224 0.030902578
0.013314018 -0.03840435 -0.0499982 -0.08420442 0.0021601499 0.06754588 -0.03789125 0.09402993
-0.060783416 0.08032875 -0.00035437974 -0.031779133 0.07282007 -0.025202021 0.0340272 -0.033877734
-0.0050896374 0.04975355 0.035434816 0.010825406 0.0032812064 -0.088354364 0.07308209 -0.010976001
-0.0825706 0.051171698 -0.010233899 0.024617748 -0.009378804 0.02443576 -0.06610322 -0.06691187
-0.05376517 -0.042037196 -0.045606446 -0.015375859 0.124081895 0.013720041 -0.03340868 -0.05384573
0.007837476 0.022050003 -0.012743573 -0.042105198 -0.022333823 0.117718026 -0.012881662 0.10022801
0.010999758 -0.013945614 -0.016115062 -0.00092496286 -0.07492189 0.019951597 -0.012760637 -0.08389921
-0.00075280684 0.010086775 0.008406339 -0.0010051879 0.008078485 -0.027790898 -0.011936951 -0.0007540535
-0.012945201 0.06788658 0.020197539 -0.063388996 -0.0029056866 0.06744605 0.083097085 0.030382458
-0.057516318 -0.022697585 -0.008550998 0.050527196 -0.067337565 0.03527996 -0.044297114 -0.037899807
0.07885391 0.06997236 -0.07778529 -0.020090038 -0.008292926 0.049497664 -0.122340985 -0.056307957
0.02544124 0.0132016735 0.058594566 0.042672377 -0.03038599 0.033383198 0.04163246 0.008343599
-0.101391554 0.017352661 -0.057118274 -0.065353364 -0.05119396 -0.06735321 -0.036916845 -0.006969822
-0.05135634 -0.013483995 0.025175828 0.024391871 0.0074163354 0.021607729 -0.07520541 -0.07206847
0.001953812 0.036587946 -0.036154065 0.064772636 0.07480512 -0.027427018 -0.042535603 -0.020627381
0.012108645 0.0070596715 -0.009178888 -0.061634276 -0.02283732 -0.052197166 0.01804118 -0.007374149
0.05374351 0.050366286 -0.05397538 0.07207923 0.012148417 -0.014095821 0.06421938 0.1315197
0.08784771 -0.03619373 0.036774468 0.08844693 -0.0072676223 0.016364284 0.0059899297 0.045993973
0.04283241 0.07369211 0.09509141 -0.010476751 0.10764851 -0.076703504 0.073504046 0.029583625
0.036898185 0.010735926 0.0091986675 -0.00052332145 -0.043054283 0.06007006 -0.014282122 -0.032492973
0.06416577 -0.021217508 0.028466912 0.110368386 0.07427153 0.011705126 -0.0017952203 -0.014392356
0.0069602905 -0.028340677 0.004833424 -0.017237874 -0.10825073 0.07855045 -0.068698235 -0.013697291
-0.009082267 -0.067917705 -0.05481403 -0.03438477 -0.017983224 0.0014777712 -0.015748123 0.0018235992
-0.034907226 -0.08230091 -0.041399162 0.04736022 -0.06542805 0.07165564 -0.039051294 -0.0751753
0.016314454 -0.022812812 -0.031761535 -0.05238424 -0.07362299 0.104601115 -0.03218059 -0.011611016
-0.025568426 0.06076398 0.063310266 -0.0017911155 0.047082614 0.013917468 0.07324769 0.023948353
-0.08863508 0.027384525 -0.007755046 -0.018825097 0.027561583 -0.072388805 -0.014152257 0.016232245
-0.009989331 0.08507841 -0.051401794 0.011364403 -0.06315731 -0.06586231 0.10179582 0.023068113
0.056814946 0.040198244 0.03457747 0.036763098 -0.08171447 -0.055836525 -0.003109433 0.0075561483
0.011045072 0.015441664 -0.010641231 0.0011297662 -0.118170775 -0.040886346 0.09153926 -0.088842794
0.018255081 -0.041676495 0.09921008 0.013587434 0.047434177 -0.044116255 -0.01072148 0.04334811

bottleneck.bias f4 [256]
00000000: b22e 4f2d 246e ebae 58a5 b52f ff79 ad2f
00000010: 0501 9d2d 30c4 b52d 0a2e 50ae 3a1c 412f
00000020: f8ab 9aaa 64fd a0ad ca12 e82d af7a 11ae
00000030: 6400 1c2f c16e bb2d 280c 04af 71f9 56ac
00000040: 1479 7aaf 6fc9 ecad c08d aa2e 4818 0530
00000050: 1405 82ae 8631 bcad ab28 862e e48d 122f
00000060: 9776 4bae d4c5 a12d 7770 532e b9fb f5ab
00000070: b130 842f 01bd 35ae f932 fbad 03fc 5b2d
00000080: f654 a2ae c22d 85ae 112c 232e 90a8 ef2d
00000090: 02d6 0aae dc7c 8e2e c506 ea2c 9138 202f
000000a0: 1ab5 aeae 8291 39ae 6521 5aaf 9960 a62f
000000b0: 4169 1b2e 41f2 8aae e96e 1dae cd46 07ad
000000c0: 1e83 9eae 5d58 fb2d d4db 23af 16eb cd2d
000000d0: faf4 82af 1440 2e2f 7b58 0f2f 3270 822e
000000e0: a365 80af e188 00ad c912 afae 1877 f12e
000000f0: 0436 a12e 4be8 0b2e ad11 5cae 8777 a22f
00000100: b344 5eae 8715 4baf e15a 0b2f 2820 282f
00000110: 7ea2 0a2f d8fb 882e 67f4 ff2d b816 272e
00000120: f08b c32c 5004 57af 2335 cf2e ad98 1dae
00000130: 611c 4aae 4490 df2e fda5 07af 9678 212e
00000140: 967d 4a2e 302e a92e 844e 4faf 1142 d2ad
00000150: d708 5daf 960c 81ad f83f 82ad 8be3 10af
00000160: 59cd 232d d3f9 292f ad33 d7ae 8cc2 07af
00000170: cfef ebae acc4 ccae 0697 242d f064 10ae
00000180: b4f6 b4ae 1f4e e5ae 1363 2c2f bb34 29ae
00000190: 4baf 74ad 5442 292f a187 132f 5360 162f
000001a0: d481 98af f4d5 ab2e e03b d7ae fa0b e6ad
000001b0: e026 672f 4026 8daf 4a9c 592c c31e 432f
000001c0: 61fb e62e 774b 612f 49af 8bac d0b0 0caf
000001d0: f649 102f 2ab7 982e 3ce6 86ae 862b 75ae
000001e0: c6a6 212f da3d 702d 1b86 ca2d 379b 892f
000001f0: a607 46ad 87a2 26af c99d 7faf b438 ee2e
00000200: 956e 95ae 1ec3 9dae 94a6 0daf a858 9fad
00000210: 3cd7 1e2f f758 99ac d256 0a30 5cb6 fe2e
00000220: 9eb8 132e 9205 702d c229 90ae b61f 072d
00000230: 197e c42e 190a 8fae 4274 b4ac ac5b 01af
00000240: 141d 49af 74dc 9a2e f179 41af a212 37ae
00000250: 0c0a 9eae 728d de2d 29a0 17b0 d47c 0c2f
00000260: cab1 2c2f 5f13 5f2f 856e e8af 5e73 d02d
00000270: d04f fa2e 7937 35af 42e2 44ae f64f 6e2f
00000280: 73a1 ef2d dd4c a82f 3848 ca2f 1a0e 73af
00000290: 0ce5 76af 5c76 17ae 26d1 82af 4611 d82f
000002a0: b7db 7c2d c44c 1dad 8f17 042e 15e9 0dae
000002b0: c09d 9c2f 7927 5d2c 4093 e02f 61c9 f6ae
000002c0: 9a6f 922f a9a2 c0ae b574 89af d454 11ae
000002d0: accd 9cae c280 092e 9afc 78ae a277 592f
000002e0: 38a9 8aad c99e 5daf 50d3 ff2d 1593 002f
000002f0: 91fb 4fb0 eaa6 54af 7c09 4caf 1253 782f
00000300: e3af cd2f d824 cf2e 928a feae 86e0 c8ac
00000310: 7d7c 9e2e a093 76ae d081 86af 5597 942e
00000320: d1a2 93af e4d3 392f bab1 902d 829c 6f2f
00000330: d81e 122f 1aaf 35af a875 93ad b2aa d9ad
00000340: 91b4 eeae 6f37 a8ae 657a 95af 1532 022f
00000350: 5283 19ae 72b4 27ae e8e5 45ae 0f1f 10ae
00000360: 2633 e72d 5ae0 57af 8133 ec2d 2e1a 89ae
00000370: 4400 d6aa e749 152e 2a9f fbae bc26 21af
00000380: 3a7d 6baf 3d29 4daf 25a5 f3ae 81bf 86ae
00000390: 4848 ec2e 93ee b32e f925 862e 0f95 992e
000003a0: 5fd3 2b2e 9038 cbae c68c afaf 8844 a0ad
000003b0: 2ad7 47af 33ce 622f df86 5a2e e174 64ae
000003c0: 97a9 2eaf c66d 412f 6cb2 6d2f c33a 992f
000003d0: 2dea cfaf d0e5 b12e 1461 1e2e bfd4 ae2e
000003e0: 4804 1b2f 3f64 092e 10ba b42e d21e 8eae
000003f0: c3d6 34ad 77ba dd2e 1b74 c2ae fa5e 192f
1.1776956e-11 -1.07061277e-10 3.3041192e-10 3.15552e-10 1.7849286e-11 2.0664442e-11 -4.7334615e-11 1.7563276e-10
-2.7475223e-13 -1.8302422e-11 2.638369e-11 -3.3078148e-11 1.4188256e-10 2.1308623e-11 -1.2009649e-10 -3.0549697e-12
-2.2780383e-10 -2.6919548e-11 7.755885e-11 4.8419624e-10 -5.9126176e-11 -2.1395118e-11 6.1008386e-11 1.3329032e-10
-4.6262185e-11 1.8391434e-11 4.8075734e-11 -1.7478164e-12 2.4045257e-10 -4.1322504e-11 -2.8558033e-11 1.2504667e-11
-7.381999e-11 -6.056268e-11 3.7101048e-11 2.7246011e-11 -3.1567644e-11 6.479592e-11 6.6514316e-12 1.4572012e-10
-7.944774e-11 -4.2193367e-11 -1.9838849e-10 3.026386e-10 3.5336404e-11 -6.3185464e-11 -3.5796175e-11 -7.6895825e-12
-7.208299e-11 2.8574637e-11 -1.4902862e-10 2.34102e-11 -2.3820929e-10 1.5847973e-10 1.3037209e-10 5.9316455e-11
-2.3355282e-10 -7.306351e-12 -7.9614156e-11 1.09805665e-10 7.3310275e-11 3.181126e-11 -5.0037908e-11 2.9552558e-10
-5.0537973e-11 -1.847039e-10 1.2674263e-10 1.5290935e-10 1.2608756e-10 6.2293004e-11 2.909868e-11 3.7991582e-11
5.5577695e-12 -1.9555668e-10 9.422709e-11 -3.583327e-11 -4.5954688e-11 1.01664926e-10 -1.233715e-10 3.6714264e-11
4.6041025e-11 7.693435e-11 -1.8854435e-10 -2.3903575e-11 -2.0102973e-10 -1.4671191e-11 -1.4807697e-11 -1.3177563e-10
9.311074e-12 1.5459216e-10 -9.7862475e-11 -1.2347295e-10 -1.0729161e-10 -9.311782e-11 9.355855e-12 -3.283146e-11
-8.2292756e-11 -1.04275914e-10 1.5678507e-10 -3.8472985e-11 -1.3908717e-11 1.5394025e-10 1.3417757e-10 1.3676642e-10
-2.7740887e-10 7.8141854e-11 -9.787704e-11 -2.6153291e-11 2.1023139e-10 -2.567493e-10 3.0924313e-12 1.7746075e-10
1.0503843e-10 2.0490441e-10 -3.970078e-12 -1.2795742e-10 1.3123e-10 6.944696e-11 -6.134512e-11 -5.5745207e-11
1.4702115e-10 1.3656154e-11 2.3024296e-11 2.5030442e-10 -1.1256695e-11 -1.5155353e-10 -2.3248171e-10 1.08330594e-10
-6.795379e-11 -7.174193e-11 -1.2883056e-10 -1.8115578e-11 1.4446483e-10 -4.3583986e-12 5.0327487e-10 1.1582976e-10
3.3587903e-11 1.3643657e-11 -6.5557795e-11 7.680903e-12 8.9354475e-11 -6.504681e-11 -5.128815e-12 -1.176505e-10
-1.8291174e-10 7.0422695e-11 -1.759657e-10 -4.1625932e-11 -7.186793e-11 2.5301292e-11 -5.516108e-10 1.2777274e-10
1.5706472e-10 2.0288614e-10 -4.2279083e-10 2.3698096e-11 1.1382861e-10 -1.6481562e-10 -4.4766198e-11 2.1674382e-10
2.7242852e-11 3.0613637e-10 3.67949e-10 -2.2105731e-10 -2.2454943e-10 -3.443855e-11 -2.379547e-10 3.9302445e-10
1.4373328e-11 -8.941462e-12 3.003425e-11 -3.2266707e-11 2.8488323e-10 3.14279e-12 4.084999e-10 -1.1222557e-10
2.6636543e-10 -8.7600434e-11 -2.500308e-10 -3.3044525e-11 -7.130593e-11 3.1264553e-11 -5.6613027e-11 1.9778537e-10
-1.5763932e-11 -2.0156245e-10 2.9083985e-11 1.1693786e-10 -7.566366e-10 -1.9340587e-10 -1.8557061e-10 2.2584981e-10
3.7414258e-10 9.419815e-11 -1.1575198e-10 -5.709269e-12 7.207122e-11 -5.606504e-11 -2.4466695e-10 6.757143e-11
-2.6854832e-10 1.690093e-10 1.6449831e-11 2.1792526e-10 1.328958e-10 -1.6524063e-10 -1.6764215e-11 -2.4745848e-11
-1.0855062e-10 -7.6496025e-11 -2.718991e-10 1.1841224e-10 -3.4904808e-11 -3.813167e-11 -4.4996812e-11 -3.2769395e-11
2.6284374e-11 -1.9633842e-10 2.6852966e-11 -6.234689e-11 -3.801422e-13 3.3944316e-11 -1.1442432e-10 -1.4656626e-10
-2.1417615e-10 -1.8659292e-10 -1.1079696e-10 -6.1276324e-11 1.0744877e-10 8.182357e-11 6.10036e-11 6.9841126e-11
3.9068634e-11 -9.241419e-11 -3.193234e-10 -1.8220328e-11 -1.8175386e-10 2.0627837e-10 4.968725e-11 -5.1945007e-11
-1.5885458e-10 1.7592247e-10 2.1618413e-10 2.787229e-10 -3.7819473e-10 8.089851e-11 3.6011263e-11 7.950395e-11
1.4098689e-10 3.123923e-11 8.218504e-11 -6.462887e-11 -1.0279502e-11 1.0083039e-10 -8.842723e-11 1.3949011e-10
