ckps/source/uda/domainnet/clipart_1/source_B.pt (torch, 532830 bytes, 6 tensors)

bn.weight f4 [256]
0.98982763 0.9291841 1.0289534 1.0116351 1.0053967 0.97948134 1.0492862 0.9488822
0.9723452 1.0183698 0.98874605 0.9605472 1.0034862 1.0123358 1.0503588 1.0509756
0.9775277 1.0390757 0.9808528 0.972302 0.9618717 1.0338355 1.0589913 0.96225023
1.0505208 1.026278 0.98284745 1.0643773 0.9802245 1.0487025 0.9654253 1.0006928
0.97061175 1.0175197 1.0986592 0.97745275 1.009008 0.9485667 1.0889353 1.0130013
1.0751574 0.9890622 1.0016187 1.0336937 0.9724628 0.98722684 0.92985755 0.92999756
1.0398269 1.0048636 0.9378961 1.0193532 1.0149909 1.0104625 1.0382382 0.962501
0.9623128 1.0387464 0.9947512 0.93417996 0.99109596 1.0065428 1.0307516 1.0369009
1.028451 1.0237728 0.9795349 0.9962537 1.006034 0.960882 1.0165602 1.0226685
1.0303056 1.0437282 1.0028296 0.9971429 1.0104144 0.930864 1.0130502 1.0779015
0.9793587 0.9816298 0.9397674 1.0171646 0.98433065 1.038302 0.98021126 1.0209976
1.0543872 1.0059896 0.99076444 1.0406678 1.0363427 0.91697794 1.0083213 0.9893141
1.063755 1.0376861 0.947141 0.9786496 1.0236489 0.9943274 1.0476763 0.9756249
0.97157884 1.0072045 0.9577075 0.96378547 0.9891225 0.9853555 0.97251076 0.9457173
0.97243863 0.97118396 1.0252314 0.9732031 1.0114181 1.0314698 0.974366 0.9966814
1.0536453 0.9458536 0.9587334 1.0286982 1.0174593 0.9992757 0.9987391 0.99499774
1.0106711 1.0016446 0.9968108 0.9852604 0.95199573 0.99512166 1.0319823 1.0341561
0.9848073 1.0154032 1.0349281 0.9934262 0.9618201 0.9728743 1.0038985 1.0235373
1.02831 0.9635609 0.9781897 1.0382526 1.0297669 0.99529034 1.0208673 1.0082859
1.055067 1.0148935 1.0259318 0.9118689 1.0513692 0.9730695 1.043506 0.9951489
1.0412683 1.0051525 1.0379537 1.0063705 0.98356456 1.0052251 1.0107056 0.9303167
0.99406797 1.0221461 1.0036887 0.929308 0.9922087 0.9765912 0.94075197 0.9935473
1.0123066 0.98015845 0.9640227 0.92927134 0.9776169 0.9965024 0.94979167 1.0462215
0.961769 1.0071061 0.9638214 0.98321384 1.0046674 0.9458532 0.9935062 0.9826122
1.0000324 0.9816397 0.9670869 1.0212786 1.0135233 0.9811561 1.0157017 0.98859113
0.9478896 0.9897184 0.9722417 0.96286374 1.0723159 0.9615319 1.005907 0.9943902
0.99739337 1.0067984 0.98550165 0.96695185 0.9704832 0.9358534 1.0192908 0.9615116
1.0346724 1.0227971 1.013242 1.0366213 0.9415155 0.97091717 0.9950695 0.9847267
0.99410015 1.0083591 1.0452482 1.0451084 1.0106224 1.0194727 1.0475345 0.99667054
0.9699702 0.9627192 0.93425924 0.97815645 0.94698924 1.0063471 1.02138 1.020635
0.97346157 0.9519144 0.9264126 1.0120769 1.019593 0.9097895 0.9479623 0.9806667
0.90696484 0.99173355 1.0219005 0.98857176 1.0075518 0.9497552 0.994321 0.98311734
00000000: 5865 7d3f 02df 6d3f bfb4 833f 427d 813f
00000010: d7b0 803f 4abf 7a3f 034f 863f f2e9 723f
00000020: 9deb 783f f159 823f 761e 7d3f 6ce6 753f
00000030: 3c72 803f 3894 813f 2872 863f 5e86 863f
00000040: 413f 7a3f 6f00 853f 2b19 7b3f c9e8 783f
00000050: 393d 763f b954 843f 078d 873f 0856 763f
00000060: 7777 863f 145d 833f e49b 7b3f 843d 883f
00000070: feef 7a3f e23b 863f 1d26 773f b416 803f
00000080: 037a 783f 163e 823f dda0 8c3f 583a 7a3f
00000090: 2d27 813f 44d5 723f 3b62 8b3f 07aa 813f
000000a0: c29e 893f 2e33 7d3f 0b35 803f 1350 843f
000000b0: 52f3 783f e6ba 7c3f 250b 6e3f 5214 6e3f
000000c0: 0c19 853f 5f9f 803f f519 703f 2a7a 823f
000000d0: 39eb 813f d656 813f fde4 843f 7766 763f
000000e0: 225a 763f a4f5 843f 04a8 7e3f 6b26 6f3f
000000f0: 77b8 7d3f 65d6 803f abef 833f 2bb9 843f
00000100: 48a4 833f fd0a 833f cdc2 7a3f 7c0a 7f3f
00000110: b9c5 803f 5dfc 753f a51e 823f cde6 823f
00000120: 0ee1 833f e398 853f b85c 803f c244 7f3f
00000130: 4255 813f 1a4d 6e3f a1ab 813f adf8 893f
00000140: 40b7 7a3f 174c 7b3f 9994 703f 7332 823f
00000150: 18fd 7b3f 14e7 843f 20ef 7a3f 0db0 823f
00000160: 29f6 863f 44c4 803f bda2 7d3f 9a34 853f
00000170: e1a6 843f 11bf 6a3f ac10 813f b043 7d3f
00000180: 2029 883f e6d2 843f d577 723f c888 7a3f
00000190: ed06 833f 3e8c 7e3f 421a 863f 8ec2 793f
000001a0: 64b9 783f 14ec 803f 522c 753f a5ba 763f
000001b0: 2237 7d3f 4240 7c3f 77f6 783f 871a 723f
000001c0: bdf1 783f 839f 783f c83a 833f d723 793f
000001d0: 2676 813f 3407 843f 0d70 793f 8326 7f3f
000001e0: d9dd 863f 7623 723f 8d6f 753f 62ac 833f
000001f0: 1b3c 823f 88d0 7f3f 5ead 7f3f 2cb8 7e3f
00000200: ac5d 813f e435 803f fe2e 7f3f 073a 7c3f
00000210: feb5 733f 4bc0 7e3f ff17 843f 3a5f 843f
00000220: 551c 7c3f bbf8 813f 8678 843f 2e51 7e3f
00000230: d839 763f 4a0e 793f bf7f 803f 4503 833f
00000240: a99f 833f edab 763f a46a 7a3f 76e5 843f
00000250: 67cf 833f 59cb 7e3f c8ab 823f 830f 813f
00000260: 6f0c 873f 08e8 813f bc51 833f 3d70 693f
00000270: 4493 863f 151b 793f 9b91 853f 14c2 7e3f
00000280: 4848 853f d6a8 803f abdb 843f c0d0 803f
00000290: e3ca 7b3f 37ab 803f cd5e 813f 3c29 6e3f
000002a0: 3d7b 7e3f afd5 823f df78 803f 21e7 6d3f
000002b0: 6401 7e3f e201 7a3f 1fd5 703f 1e59 7e3f
000002c0: 4393 813f aaeb 7a3f 31ca 763f bae4 6d3f
000002d0: 1a45 7a3f c81a 7f3f 8c25 733f 96ea 853f
000002e0: 7e36 763f dae8 803f 00bd 763f e7b3 7b3f
000002f0: f198 803f 6f23 723f 6c56 7e3f 798c 7b3f
00000300: 1001 803f bd4c 7b3f 0293 773f 42b9 823f
00000310: 22bb 813f 0c2d 7b3f 8302 823f 4f14 7d3f
00000320: e5a8 723f 2f5e 7d3f d5e4 783f 3d7e 763f
00000330: a641 893f f426 763f 90c1 803f 5b90 7e3f
00000340: 2c55 7f3f c5de 803f d649 7c3f 288a 773f
00000350: 9671 783f 1794 6f3f 1f78 823f a025 763f
00000360: 2570 843f 04eb 823f eab1 813f 02b0 843f
00000370: 2907 713f 078e 783f e0bc 7e3f 0d17 7c3f
00000380: 597d 7e3f e911 813f b1ca 853f 1dc6 853f
00000390: 135c 813f 157e 823f 9c15 863f cd25 7f3f
000003a0: f84f 783f c474 763f 9d2b 6f3f 7668 7a3f
000003b0: e36d 723f fbcf 803f 94bc 823f 2ba4 823f
000003c0: c734 793f aab0 733f 6029 6d3f bc8b 813f
000003d0: 0682 823f f7e7 683f a8ad 723f f90c 7b3f
000003e0: d92e 683f 40e2 7d3f a3cd 823f 0a13 7d3f
000003f0: 75f7 803f 2823 733f d28b 7e3f 94ad 7b3f

bn.bias f4 [256]
0.0075624487 0.0104017975 -0.012334164 -0.003666201 -0.015755353 -0.009701181 -0.0051066256 0.013840879
0.006928281 0.0010039564 -0.007451396 0.008768215 0.006920868 0.017293263 -0.010931137 0.012288648
0.005118981 0.01055408 0.017437026 -0.02044158 0.011882018 -0.0054187947 0.015499197 -0.0056872885
-0.0029087886 0.0117486175 -0.012624844 0.01577978 0.0058359075 -0.012599818 0.014088829 -0.008362285
-0.0060468656 -0.0013364006 0.0061146724 0.0027669705 -0.006707295 -0.006803572 -0.020881789 0.013075778
-0.0016160359 -0.0136029925 -0.01532461 -0.011257216 0.017501973 -0.0050971867 -0.007668898 -0.017798593
-0.015808498 -0.0062683607 -0.011664765 -0.0014769966 0.007491305 -0.010330042 -0.004764422 0.0081333835
-0.0006194786 0.0064652627 -0.017984156 0.021685341 0.003015394 0.010306507 -0.005617168 0.014226498
0.010021724 0.0019450013 -0.006618452 0.004587836 0.021453705 0.00037602644 0.0012965024 0.01845
-0.011774601 -0.0011042333 0.0034694783 -0.0069193607 0.008038052 -0.0054906094 -0.0069384216 -0.0027270212
-0.0040757 0.014635345 0.0020401652 0.008024779 0.007948643 -0.0133436965 -0.0029955253 0.0022501464
-0.007202491 0.010430667 -0.0021910411 -0.020897724 0.0130469985 -0.00057579554 -0.011226019 0.0022700068
-0.0019524798 -0.006819334 -0.026378565 -0.0050736484 0.0040669334 0.0027828608 0.032030758 0.011650249
0.0075268843 -0.005408676 -0.009955064 0.009299908 -0.010082101 -0.015777616 -0.020706618 -0.002638155
0.016677596 0.0028750813 0.008296514 -0.010329461 0.0085577695 0.0013249282 -0.013188389 -0.00747707
0.0048271036 -0.00014107102 0.004385431 0.003949225 0.007008466 -0.003352625 0.018170506 0.009237819
0.00018881228 -0.010335483 0.010616198 0.008435297 -0.01699926 -0.0011600003 0.0027374066 0.006573871
-0.0034893698 0.0107473405 -0.025434665 0.002603223 -0.0071092877 0.009946718 -0.004811369 -0.0062279683
-0.00056033314 0.0002938549 -0.006379295 -0.010474667 0.011564044 0.0092023695 -0.010536236 0.024151238
0.008485573 0.021777825 0.013476903 -0.005050084 -0.0047255354 -0.003342947 -0.010901208 0.006917586
-0.0024403802 -0.0065632723 0.010689834 -0.0061202478 -0.0010805662 0.002699545 0.007942091 0.01689746
0.014387947 -0.002760305 -5.4300017e-05 0.0028804336 0.018958105 -0.018641258 -0.029302299 0.0055800206
-0.022512639 -0.012351984 -0.015770644 -0.015040993 -0.021130744 0.0018247509 0.006385698 0.015803061
-0.008962662 -0.006683463 -0.023526413 0.014053208 -0.012226684 -0.023678388 -0.015085325 -0.024627134
0.007289937 0.0036204632 0.001083649 -0.007352451 -0.0021260213 0.008254831 -0.012388353 -0.01760983
0.0096958075 -0.007182732 -2.3408966e-05 -0.0048001762 -0.014695631 -6.608434e-05 -0.015968023 -0.0122031905
0.019075599 0.008430784 0.0016901785 0.011079371 -0.00082658255 -0.007922407 -0.01051099 0.009829776
0.0057934686 -0.001894474 0.0011914363 -0.009174246 -0.020329403 -0.007023365 0.00073772186 -0.007833314
0.0014216318 0.0091864765 -0.002680832 -0.01923215 -0.017918983 0.013770949 -0.022070736 0.00087181584
-0.0062039997 0.0025379532 0.011945812 0.002166062 0.020612795 -0.015775817 0.012029161 -0.019751167
0.021429656 0.0019557087 0.005234679 -0.007805895 -0.04185661 -0.0075258412 -0.019134399 -0.0151054915
-0.022024296 0.0045961505 0.0035826226 0.013223417 -0.012066159 -0.005389104 -0.0010118936 0.00946565
00000000: 6bce f73b 4d6c 2a3c 3c15 4abc a544 70bb
00000010: 5f11 81bc b4f1 1ebc 7b55 a7bb dbc4 623c
00000020: a206 e33b 3097 833a d72a f4bb 8fa8 0f3c
00000030: 73c8 e23b 9aaa 8d3c 8318 33bc 5356 493c
00000040: 20bd a73b 05eb 2c3c 18d8 8e3c 1a75 a7bc
00000050: ccac 423c 2590 b1bb 58f0 7d3c 6f5c babb
00000060: 60a1 3ebb 467d 403c 6fd8 4ebc 9944 813c
00000070: 243b bf3b 786f 4ebc d5d4 663c f701 09bc
00000080: c924 c6bb 2a2a afba 975d c83b 1056 353b
00000090: dec8 dbbb 80f0 debb 4910 abbc ca3b 563c
000000a0: 2bd1 d3ba 16df 5ebc 1314 7bbc 3070 38bc
000000b0: 4c60 8f3c 4d06 a7bb 614b fbbb 5bce 91bc
000000c0: d380 81bc d266 cdbb 921d 3fbc c897 c1ba
000000d0: 9f79 f53b 563f 29bc de1e 9cbb e241 053c
000000e0: 8164 22ba 8eda d33b 8253 93bc 75a5 b13c
000000f0: eb9d 453b a0dc 283c 3810 b8bb 4216 693c
00000100: 2832 243c 6aef fe3a 99df d8bb 8f55 963b
00000110: aebf af3c 6a25 c539 67ef a93a 7424 973c
00000120: 42ea 40bc ecbb 90ba 3060 633b cebb e2bb
00000130: 09b2 033c 92ea b3bb b35b e3bb d3b7 32bb
00000140: 738d 85bb 16c9 6f3c 4bb4 053b 5d7a 033c
00000150: 063b 023c 859f 5abc 9350 44bb 3177 133b
00000160: e002 ecbb 63e5 2a3c 9297 0fbb b431 abbc
00000170: 14c3 553c fcf0 16ba 56ed 37bc 65c4 143b
00000180: 5aea ffba b874 dfbb dc17 d8bc d940 a6bb
00000190: e943 853b a860 363b af32 033d b0e0 3e3c
000001a0: 15a4 f63b 433b b1bb 911a 23bc a45e 183c
000001b0: 662f 25bc 0f40 81bc eda0 a9bc e5e4 2cbb
000001c0: 749f 883c dc6b 3c3b 1aee 073c e63c 29bc
000001d0: e335 0c3c 37a9 ad3a 1d14 58bc 3602 f5bb
000001e0: ae2c 9e3b 77ec 13b9 a9b3 8f3b 8068 813b
000001f0: 46a7 e53b b7b7 5bbb 50da 943c 395a 173c
00000200: e9fb 4539 2856 29bc 90ef 2d3c 3334 0a3c
00000210: 0842 8bbc 270b 98ba 1066 333b a069 d73b
00000220: e9ad 64bb 9d15 303c 5c5c d0bc d69a 2a3b
00000230: 07f5 e8bb 8ff7 223c b0a8 9dbb fc13 ccbb
00000240: 52e3 12ba 8910 9a39 6809 d1bb f09d 2bbc
00000250: 1e77 3d3c 89c5 163c 2da0 2cbc d1d8 c53c
00000260: 1307 0b3c 6967 b23c 3ace 5c3c 2d7b a5bb
00000270: aad8 9abb 5815 5bbb fb9a 32bc ebac e23b
00000280: c9ee 1fbb b810 d7bb 6a24 2f3c 5c8c c8bb
00000290: c9a1 8dba d9ea 303b 8b1f 023c 8b6c 8a3c
000002a0: 6cbb 6b3c 3ce6 34bb 33c0 63b8 a8c5 3c3b
000002b0: 074e 9b3c 8db5 98bc 600b f0bc 9bd8 b63b
000002c0: 6d6c b8bc fa5f 4abc 7031 81bc 7f6e 76bc
000002d0: 621a adbc 7b2c ef3a 1e3f d13b 6c75 813c
000002e0: 21d8 12bc f400 dbbb 77ba c0bc 6d3f 663c
000002f0: 6e52 48bc 2ef9 c1bc 7028 77bc d8be c9bc
00000300: 6de0 ee3b 4b45 6d3b 3a09 8e3a d4ec f0bb
00000310: b854 0bbb 453f 073c 85f8 4abc 7d42 90bc
00000320: 2adb 1e3c 205d ebbb 5f5e c4b7 cc4a 9dbb
00000330: f2c5 70bc c396 8ab8 5fcf 82bc e4ef 47bc
00000340: 6e44 9c3c 4521 0a3c fb88 dd3a 4086 353c
00000350: 04af 58ba fccc 01bc 4a36 2cbc 120d 213c
00000360: 23d7 bd3b 0050 f8ba f829 9c3a 944f 16bc
00000370: d989 a6bc 4124 e6bb ad63 413a 4d57 00bc
00000380: 0c56 ba3a e082 163c e6b0 2fbb be8c 9dbc
00000390: d5ca 92bc 8c9f 613c b0cd b4bc 928a 643a
000003a0: ec4a cbbb ca53 263b 5eb8 433c 7df4 0d3b
000003b0: 2adc a83c 493c 81bc f515 453c 33cd a1bc
000003c0: 3f8d af3c 592b 003b ac87 ab3b 98c8 ffbb
000003d0: d671 2bbd 559b f6bb bebf 9cbc 067d 77bc
000003e0: 4c6c b4bc 4e9b 963b 6fca 6a3b 08a7 583c
000003f0: 24b1 45bc 1597 b0bb 84a1 84ba d015 1b3c

bn.running_mean f4 [256]
-0.3298788 0.3456529 0.30348396 0.049154844 -0.037525754 0.4448906 -0.1790204 0.1796116
0.06633356 -0.32938296 0.1439234 0.5442758 0.12837124 0.18790229 0.054240678 0.041912396
0.15297411 0.19734114 0.36797035 -0.05514748 0.11721411 0.3836806 0.5054348 -0.27985677
-0.2613269 0.06929526 -0.06382138 0.052906867 0.33649835 -0.10786461 -0.09982076 -0.15796134
-0.010637948 -0.16114219 -0.018591247 -0.04729627 -0.12492381 -0.12603578 -0.069237284 0.119012535
-0.058080558 0.15711036 -0.11833618 -0.12480555 -0.3044511 -0.19588952 -0.20976324 -0.21819468
-0.24853659 0.15877827 -0.16991825 0.020778146 0.3474067 0.077731006 -0.27620643 0.5952048
0.26385725 0.12557112 -0.15079673 0.42849234 0.19145247 0.17482945 0.09428437 0.19036789
-0.03173764 -0.030752212 -0.059334043 0.071524605 -0.3614212 -0.12711154 0.37241727 -0.29636225
-0.083699666 0.24347082 0.10661903 -0.04492199 -0.023757951 -0.434653 -0.32736257 0.18590954
-0.1270826 0.112373434 0.47991908 -0.11735682 0.04338888 0.5362207 -0.6129169 0.121228226
-0.5660869 0.37494203 -0.22015183 -0.024811585 -0.008578543 0.21523117 -0.29478008 0.02873809
0.121830024 0.013328434 0.10169729 0.07356389 -0.38799852 -0.29147133 0.047041327 0.098460846
-0.24370153 -0.09086434 0.44728708 0.2440536 -0.050893232 -0.24800918 -0.37776917 -0.20492756
0.14657572 -0.02163425 -0.03146491 0.019032113 0.25379944 0.11977433 -0.09989466 -0.0139706945
-0.055629905 0.04191226 0.20005138 0.1042352 0.4460541 0.17907363 0.3052207 0.20667371
0.008977639 -0.15357624 0.0031808985 -0.1529986 -0.04811304 0.37819624 0.050222807 -0.055249058
-0.25922337 0.008052735 -0.3791315 0.19870675 -0.2266419 0.34850585 -0.18003239 -0.16755462
0.4140902 -0.21948269 0.15273353 0.013198981 0.22666338 0.1837695 -0.47503623 -0.019344673
-0.33093765 0.117024116 0.5198343 0.06116193 -0.06558794 -0.103584796 0.24025059 0.38007468
0.5747177 0.16146114 0.10429445 0.3325279 0.018723883 -0.107640125 -0.047335226 0.07502684
0.08231352 -0.013349269 -0.17398378 0.31245402 0.14958479 0.067971714 -0.605228 0.4393663
-0.33305374 -0.22839278 -0.51449484 0.11144224 -0.051550377 -0.066344075 -0.25393528 0.28130335
-0.19564168 0.2481353 0.13099204 0.09038403 0.09526621 0.12734629 0.10233819 0.07349735
-0.1580932 -0.22536635 -0.12882042 0.044013605 0.18624935 0.15188232 -0.12073092 -0.009629501
0.23570304 -0.13560504 0.33810514 0.1727207 -0.092066325 0.03263556 -0.5322819 -0.22961172
0.18266135 -0.03588657 0.013085817 -0.004344217 -0.0059751025 -0.35668352 0.20766003 0.16340244
0.028783143 -0.35720292 0.17029057 -0.16406056 -0.4165211 -0.056050114 0.19692364 -0.051781587
0.7551429 -0.044173054 0.34904635 -0.14850874 -0.018439002 0.42848998 -0.23309287 0.16181673
0.04398227 -0.23282269 0.025969457 -0.023448031 -0.20725161 -0.24559762 0.14454813 -0.0913193
0.2673639 0.043659363 0.14288293 0.19720837 -0.5760333 -0.22603934 0.24712102 -0.56681603
0.31151822 0.080371335 0.17448437 -0.052832488 -0.24804851 0.32952005 -0.38761657 0.099439435
00000000: e0e5 a8be 6bf9 b03e 4062 9b3e 9756 493d
00000010: 9bb4 19bd b3c8 e33e 2051 37be 1aec 373e
00000020: e4d9 873d e2a4 a8be a860 133e a955 0b3f
00000030: c073 033e 7569 403e 792b 5e3d 55ac 2b3d
00000040: 3fa5 1c3e cc13 4a3e 9c66 bc3e 53e2 61bd
00000050: f40d f03d c971 c43e 2d64 013f 6349 8fbe
00000060: a4cc 85be acea 8d3d c9b4 82bd dfb4 583d
00000070: 8349 ac3e 1fe8 dcbd d46e ccbd 9ec0 21be
00000080: ca4a 2ebc 7502 25be ac4c 98bc bcb9 41bd
00000090: 0ed8 ffbd 860f 01be 47cc 8dbd d8bc f33d
000000a0: e1e5 6dbd 8ae1 203e 3d5a f2bd 0d9a ffbd
000000b0: 04e1 9bbe 4397 48be 2dcc 56be 6d6e 5fbe
000000c0: 6080 7ebe c596 223e 0dff 2dbe ee36 aa3c
000000d0: 4adf b13e 6f31 9f3d ee6a 8dbe 575f 183f
000000e0: 4c18 873e b795 003e 756a 1abe 5963 db3e
000000f0: 1e0c 443e 7e06 333e 2a18 c13d cdef 423e
00000100: 54ff 01bd 10ec fbbc 4108 73bd 7e7b 923d
00000110: 330c b9be 8729 02be 7aad be3e cbbc 97be
00000120: bb6a abbd 6a50 793e 145b da3d 1f00 38bd
00000130: 09a0 c2bc d78a debe 119c a7be 125f 3e3e
00000140: f121 02be 0b24 e63d f4b7 f53e c658 f0bd
00000150: 8ab8 313d c345 093f 1fe8 1cbf 8146 f83d
00000160: 12eb 10bf 67f8 bf3e 7b6f 61be aa41 cbbc
00000170: 048d 0cbc 8f65 5c3e 6aed 96be 256c eb3c
00000180: 0582 f93d 815f 5a3c ab46 d03d aaa8 963d
00000190: bea7 c6be bb3b 95be 68ae 403d d7a5 c93d
000001a0: e58c 79be 1517 babd d002 e53e 30e9 793e
000001b0: 6c75 50bd 1ef6 7dbe f66a c1be 88d8 51be
000001c0: f217 163e 503a b1bc 59e1 00bd 3ce9 9b3c
000001d0: 00f2 813e 3e4c f53d 9295 ccbd 57e5 64bc
000001e0: 2fdc 63bd 31ac 2b3d 45da 4c3e 4479 d53d
000001f0: 3461 e43e 145f 373e e345 9c3e 46a2 533e
00000200: f216 133c 1743 1dbe 9f76 503b aaab 1cbe
00000210: 2e12 45bd f0a2 c13e 6eb6 4d3d d64c 62bd
00000220: edb8 84be 9eef 033c 861d c2be c879 4b3e
00000230: d014 68be 5c6f b23e 695a 38be 7093 2bbe
00000240: a103 d43e 12c0 60be 2e66 1c3e 8a40 583c
00000250: 721a 683e 122e 3c3e f337 f3be b878 9ebc
00000260: a970 a9be 57aa ef3d dc13 053f ef84 7a3d
00000270: f852 86bd 4424 d4bd 4004 763e 2699 c23e
00000280: b320 133f 1256 253e 5498 d53d 1941 aa3e
00000290: d462 993c 6d72 dcbd 95e2 41bd aca7 993d
000002a0: fe93 a83d e4b6 5abc ce28 32be f9f9 9f3e
000002b0: c12c 193e c134 8b3d 39f0 1abf 9ff4 e03e
000002c0: 0586 aabe ccdf 69be efb5 03bf d43b e43d
000002d0: 7d26 53bd 67df 87bd ce03 82be fe06 903e
000002e0: 4b56 48be 2e17 7e3e c722 063e 431b b93d
000002f0: ee1a c33d 1167 023e af96 d13d c785 963d
00000300: 2fe3 21be 70c6 66be 80e9 03be 9c47 343d
00000310: 26b8 3e3e 0a87 1b3e c641 f7bd 0ec5 1dbc
00000320: 235c 713e 0cdc 0abe 1e1c ad3e b2dd 303e
00000330: 458d bcbd ddac 053d a043 08bf 561f 6bbe
00000340: 940b 3b3e ccfd 12bd e565 563c ef59 8ebb
00000350: cbca c3bb 399f b6be d5a4 543e f852 273e
00000360: a0ca eb3c 4de3 b6be a760 2e3e 7eff 27be
00000370: 4142 d5be ce94 65bd 5aa6 493e ee18 54bd
00000380: 0c51 413f ceee 34bd 34b6 b23e ad12 18be
00000390: 640d 97bc 0a63 db3e e6af 6ebe 49b3 253e
000003a0: c126 343d 1269 6ebe e6bd d43c 1616 c0bc
000003b0: c439 54be f17d 7bbe 6d04 143e 9d05 bbbd
000003c0: ece3 883e 29d4 323d e74f 123e fef0 493e
000003d0: eb76 13bf db76 67be 4b0d 7d3e db1a 11bf
000003e0: 517f 9f3e ba99 a43d 08ac 323e e166 58bd
000003f0: 6e00 7ebe dab6 a83e ae75 c6be e7a6 cb3d

bn.running_var f4 [256]
0.08048154 0.09489677 0.085944034 0.083839886 0.08908346 0.08216388 0.09341315 0.09044457
0.08870753 0.07252223 0.06776067 0.083315305 0.08300038 0.081372865 0.098768346 0.105370484
0.070826076 0.09240816 0.0759203 0.07568452 0.091303974 0.09373902 0.073788226 0.09379493
0.07751749 0.077303044 0.09206672 0.07692993 0.09461998 0.08304162 0.08229625 0.06645385
0.08480446 0.08370523 0.085953504 0.09257683 0.08986062 0.0776811 0.08551578 0.068976365
0.09624191 0.07425912 0.09272401 0.092047974 0.092146896 0.09697375 0.07553732 0.07309553
0.08327927 0.06862138 0.07577626 0.06972813 0.08028261 0.08440627 0.079310015 0.07418413
0.08362153 0.09299557 0.07576245 0.07819634 0.09905228 0.07206497 0.07814656 0.08947595
0.09734699 0.09777817 0.07693107 0.07578253 0.07740061 0.07954942 0.088545494 0.07686687
0.081713304 0.08358791 0.08580987 0.09446575 0.08932392 0.093992524 0.07758374 0.09024651
0.08641333 0.08045483 0.08623984 0.1021431 0.078168064 0.08605628 0.08105511 0.061651416
0.08442484 0.077136986 0.06923 0.08264946 0.09984568 0.110356815 0.08307322 0.07808205
0.0723118 0.07515691 0.06640552 0.07444315 0.07348264 0.08250171 0.09855788 0.08320342
0.07883075 0.08050881 0.08363532 0.08211835 0.060745835 0.09616559 0.07900811 0.10549883
0.087243326 0.10482048 0.09407942 0.08789934 0.076778874 0.08457323 0.08092622 0.0797346
0.08740299 0.09119878 0.08492547 0.07282506 0.085681014 0.08048535 0.07939175 0.085357636
0.08935615 0.08242978 0.08409493 0.092324205 0.078008294 0.0795157 0.083507456 0.1051197
0.07686335 0.06955402 0.099970594 0.06942942 0.077348486 0.087901324 0.07393336 0.08897895
0.11009282 0.069065794 0.09416358 0.08690555 0.084600054 0.07587059 0.09167687 0.08318514
0.08574612 0.08135379 0.07473928 0.091091745 0.09266331 0.08288829 0.09119631 0.08152272
0.10874821 0.07803154 0.08604601 0.09411386 0.090732485 0.07391599 0.10433207 0.08965699
0.08465074 0.080031015 0.08513501 0.103857815 0.06819313 0.08840347 0.07692169 0.08641246
0.07242845 0.09028778 0.08212408 0.07073001 0.07073984 0.07261238 0.078666806 0.07535253
0.08989366 0.08916916 0.08922004 0.06966537 0.07670462 0.09412178 0.08296153 0.07607179
0.089270994 0.09495607 0.10252897 0.079571076 0.085089855 0.08050071 0.07261163 0.07678345
0.10422523 0.08028352 0.074575886 0.07619674 0.0925859 0.07879542 0.07005314 0.08426102
0.07936659 0.08281416 0.08530708 0.08440948 0.07973101 0.10168601 0.08665015 0.07653365
0.09688102 0.094207436 0.08753609 0.089449085 0.07838366 0.082725175 0.0843673 0.085363895
0.07433979 0.08569441 0.084601015 0.08868871 0.08424164 0.09753045 0.08041944 0.09703361
0.079351775 0.09102821 0.07542904 0.07193836 0.07173217 0.09015996 0.08836738 0.091907315
0.095608376 0.0755278 0.09351675 0.095428266 0.08955442 0.09971786 0.09013153 0.084745735
0.09887256 0.09165153 0.07503072 0.09038071 0.086303934 0.08251322 0.091884315 0.071828246
00000000: 81d3 a43d 3d59 c23d 6d03 b03d 3fb4 ab3d
00000010: 6471 b63d 8945 a83d 654f bf3d 013b b93d
00000020: 4bac b53d 8986 943d 1bc6 8a3d 37a1 aa3d
00000030: 1afc a93d d1a6 a63d 0f47 ca3d 7bcc d73d
00000040: 430d 913d 7d40 bd3d 1a7c 9b3d 7c00 9b3d
00000050: 94fd ba3d 3efa bf3d 481e 973d 8e17 c03d
00000060: 7dc1 9e3d 0f51 9e3d 7a8d bc3d 708d 9d3d
00000070: 1fc8 c13d ba11 aa3d f08a a83d f518 883d
00000080: f6ad ad3d a66d ab3d 6408 b03d ec98 bd3d
00000090: d808 b83d 4517 9f3d e622 af3d 7b43 8d3d
000000a0: 7a1a c53d 2a15 983d 16e6 bd3d a683 bc3d
000000b0: 83b7 bc3d 2c9a c63d 4fb3 9a3d 1cb3 953d
000000c0: 528e aa3d 5e89 8c3d 9530 9b3d 9fcd 8e3d
000000d0: 366b a43d 32dd ac3d 4a6d a23d d9ed 973d
000000e0: c441 ab3d 7674 be3d 5829 9b3d 6725 a03d
000000f0: ecdb ca3d cd96 933d 4e0b a03d 2b3f b73d
00000100: dc5d c73d ec3f c83d 098e 9d3d df33 9b3d
00000110: 3684 9e3d ceea a23d 5757 b53d 616c 9d3d
00000120: 4e59 a73d 2330 ab3d 16bd af3d 4277 c13d
00000130: 76ef b63d 277f c03d 39e4 9e3d 2ad3 b83d
00000140: 79f9 b03d 80c5 a43d 839e b03d 6730 d13d
00000150: 9416 a03d 463e b03d 3900 a63d 3286 7c3d
00000160: eee6 ac3d fff9 9d3d 75c8 8d3d 1f44 a93d
00000170: e47b cc3d c102 e23d 4b22 aa3d 7be9 9f3d
00000180: 3618 943d deeb 993d 9eff 873d a675 983d
00000190: 117e 963d a8f6 a83d b7d8 c93d 8e66 aa3d
000001a0: 0472 a13d cee1 a43d ff48 ab3d aa2d a83d
000001b0: a0d0 783d 77f2 c43d 01cf a13d c50f d83d
000001c0: a1ac b23d 1fac d63d b6ac c03d 9204 b43d
000001d0: 3e3e 9d3d bb34 ad3d a5bc a53d e54b a33d
000001e0: 5700 b33d 6dc6 ba3d 68ed ad3d 4e25 953d
000001f0: 8779 af3d 81d5 a43d 2498 a23d fccf ae3d
00000200: 5b00 b73d f2d0 a83d f639 ac3d 7914 bd3d
00000210: d0c2 9f3d 21d9 a23d f505 ab3d ff48 d73d
00000220: 886a 9d3d 5772 8e3d 62bd cc3d 0331 8e3d
00000230: e268 9e3d 9c05 b43d 606a 973d 993a b63d
00000240: 5878 e13d 5e72 8d3d d6d8 c03d 89fb b13d
00000250: cb42 ad3d 0a62 9b3d 15c1 bb3d f85c aa3d
00000260: a99b af3d d19c a63d e810 993d 4f8e ba3d
00000270: 43c6 bd3d 56c1 a93d 22c5 ba3d 62f5 a63d
00000280: 62b7 de3d 00cf 9f3d e438 b03d c4be c03d
00000290: f4d1 b93d 4461 973d 0dac d53d 159e b73d
000002a0: 5e5d ad3d 4de7 a33d 445b ae3d 68b3 d43d
000002b0: d7a8 8b3d e10c b53d 1e89 9d3d 04f9 b03d
000002c0: 5e55 943d cde8 b83d ab30 a83d e5da 903d
000002d0: 0de0 903d cdb5 943d 101c a13d 6d52 9a3d
000002e0: 2b1a b83d 529e b63d ffb8 b63d b8ac 8e3d
000002f0: 5017 9d3d ebc2 c03d bce7 a93d 87cb 9b3d
00000300: b6d3 b63d 5478 c23d b5fa d13d 29f6 a23d
00000310: 9743 ae3d 8edd a43d 68b5 943d a440 9d3d
00000320: 0a74 d53d b06b a43d 3ebb 983d 090d 9c3d
00000330: ad9d bd3d 7e5f a13d 0578 8f3d 0b91 ac3d
00000340: f38a a23d 789a a93d 7ab5 ae3d e1de ac3d
00000350: 034a a33d c140 d03d a275 b13d adbd 9c3d
00000360: 8e69 c63d d4ef c03d 1f46 b33d 1531 b73d
00000370: 9d87 a03d d16b a93d c3c8 ac3d 44d3 ae3d
00000380: 763f 983d 8d80 af3d 4c43 ad3d 6da2 b53d
00000390: e286 ac3d 0bbe c73d f3b2 a43d 8fb9 c63d
000003a0: 2f83 a23d 006d ba3d 8a7a 9a3d 6b54 933d
000003b0: 51e8 923d c9a5 b83d f5f9 b43d e739 bc3d
000003c0: 53ce c33d 52ae 9a3d b685 bf3d e56f c33d
000003d0: 4f68 b73d e138 cc3d e196 b83d 2c8f ad3d
000003e0: b27d ca3d ccb3 bb3d b5a9 993d 8619 b93d
000003f0: 1ec0 b03d b1fc a83d d82d bc3d b01a 933d

bottleneck.weight f4 [256, 512]
-0.005205276 -0.047298145 -0.013635839 0.06292625 0.026003001 -0.015163666 -0.012376298 -0.015493691
0.008427617 0.022921773 0.0076239766 -0.009133109 -0.002911546 0.017373946 0.012831003 -0.03445342
-0.01307346 -0.03842903 0.006476502 0.0026090278 -0.0025796017 -0.030950775 -0.03138111 0.011378346
0.0027056271 0.0050863866 0.011700191 -0.016271442 -0.015217764 0.005714207 -0.047515705 -0.0049798074
0.020208592 0.012814675 -0.00913353 -0.02300868 -0.032279596 0.0007850935 -0.023752233 0.011815441
0.019100767 -0.004541376 -0.0025952344 -0.0036949918 1.7174558e-05 0.016138842 0.017991805 -0.01268994
0.005832482 0.010996541 -0.014730205 -0.005629248 -0.035058845 0.019636704 0.019388413 -0.03403651
-0.02123662 -0.0053656423 -0.013920976 -0.007311373 -0.011008009 -0.032649856 0.018147137 0.026862944
0.05204178 0.053114645 -0.00088258216 -0.028256753 -0.0018505333 0.010946877 0.0022287886 0.010979246
0.010387017 0.019506866 0.011534548 -0.015941733 -0.0128675 -0.016553516 0.006151795 -0.0052333646
-0.031977456 0.023212975 -0.04874021 -0.024130564 0.025188526 -0.0038083429 0.0056853406 -0.017550264
0.009229552 -0.023883248 -0.011157532 -0.0137670105 -0.010747023 -0.0361705 -0.006651382 -0.005569249
0.043097336 0.004137382 0.017645929 -0.007834719 -0.0062994603 -0.009345766 0.019280909 -0.012385178
-0.010955724 -0.014666309 -0.020335736 0.025326142 0.027157476 -0.030439187 -0.036325812 -0.016849501
0.035586476 0.0010842844 -0.016323898 0.0013628374 0.026284829 -0.007728725 -0.027022932 -0.014732359
0.008133429 -0.0040264665 0.01659337 -0.014857793 -0.0033709342 0.012945435 -0.032811604 -0.011629295
0.0053586564 0.010956736 -0.036874697 0.008691319 -0.009219252 -0.024734741 0.026259944 -0.010356698
0.0077031003 -0.017866855 -0.005923202 -0.0044942633 -0.015050324 0.018457782 0.015318828 0.010137823
-0.0062577827 0.032988776 0.034860466 -0.007345544 -0.006688682 2.8090846e-05 0.051840544 -0.0076251845
-0.017629297 -0.017871028 -0.016890306 0.040589552 0.013871991 0.0033638703 -0.013139509 0.0008103837
0.02478971 -0.0117945345 0.005741736 0.003325155 -0.010641227 0.005342554 -0.03094799 0.0083834715
0.020241216 0.009855404 -0.032665998 0.023684626 0.04416601 0.010625212 0.060286537 0.011463854
0.016814487 -0.013454194 -0.043871567 0.016648086 -0.000923313 0.03921896 -0.010298836 0.007546941
0.009855792 0.028583795 0.0145246675 0.020797698 -0.0013329352 0.03394282 0.051764004 0.037499845
-0.03426354 -0.00083591894 -0.00036406057 0.024449212 -0.015340305 0.0058334065 0.008222274 -0.029129954
-0.008431356 -0.019123588 0.006170096 -0.0027443809 -0.009310604 -0.0024989385 -0.0139115155 -0.016916558
-0.023147652 0.022652697 -0.025484448 0.023257101 0.03255184 0.020101985 -0.014985511 -0.0057178107
0.02145611 0.0009251467 -0.011798872 -0.0046123797 -0.015178459 0.042876646 0.02113034 0.0043720645
-0.0034536133 0.04061703 0.017717622 -0.0017673178 -0.0069448235 -0.019102326 -0.00915703 -0.017745994
0.0171986 0.010046069 -0.010520978 0.018052757 -0.042133607 -0.0027072947 0.01551824 0.010229199
0.021291682 -0.018502701 0.02709716 0.019080495 -0.001525313 -0.014464272 0.0027341817 0.019986128
-0.00045776562 0.00066113163 -0.01023393 -0.010343419 -0.023961263 0.024484789 -0.023895584 0.021003732
00000000: 0591 aabb b3bb 41bd db68 5fbc 7adf 803d
00000010: 3f04 d53c 0671 78bc f5c5 4abc 40d9 7dbc
00000020: fd13 0a3c 71c6 bb3c 8dd2 f93b 09a3 15bc
00000030: a3cf 3ebb ce53 8e3c 2139 523c 081f 0dbd
00000040: 1132 56bc c267 1dbd d638 d43b 39fc 2a3b
00000050: 890e 29bb 7b8c fdbc 7b89 00bd 3e6c 3a3c
00000060: e450 313b b4ab a63b 28b2 3f3c b04b 85bc
00000070: ee53 79bc 3e3e bb3b d49f 42bd a72d a3bb
00000080: 7d8c a53c a5f4 513c cda4 15bc b37c bcbc
00000090: 9c37 04bd bcce 4d3a 0b94 c2bc 8d95 413c
000000a0: 3679 9c3c d3cf 94bb cf14 2abb ad27 72bb
000000b0: 1512 9037 9b35 843c 8d63 933c 77e9 4fbc
000000c0: 681e bf3b d62a 343c f556 71bc 8e75 b8bb
000000d0: dd99 0fbd 27dd a03c 73d4 9e3c de69 0bbd
000000e0: 6cf8 adbc 45d2 afbb ce14 64bc 3e94 efbb
000000f0: f05a 34bc dbbb 05bd 4ea9 943c ad0f dc3c
00000100: c329 553d be8e 593d 165d 67ba b57a e7bc
00000110: 988d f2ba 885a 333c de10 123b 4ce2 333c
00000120: 4f2e 2a3c ddcc 9f3c 67fb 3c3c 3d98 82bc
00000130: 35d2 52bc 3d9b 87bc ff94 c93b a57c abbb
00000140: cbfa 02bd 2329 be3c d0a3 47bd 76ad c5bc
00000150: 2b58 ce3c 6495 79bb 184c ba3b 92c5 8fbc
00000160: 8c37 173c cda6 c3bc 15ce 36bc 078f 61bc
00000170: 4814 30bc 8527 14bd d6f3 d9bb 3f7e b6bb
00000180: d586 303d e092 873b 328e 903c 315d 00bc
00000190: b46b cebb fc1e 19bc fff2 9d3c 34eb 4abc
000001a0: a37f 33bc f54a 70bc 2197 a6bc c578 cf3c
000001b0: 5b79 de3c 9a5b f9bc 60ca 14bd f707 8abc
000001c0: 20c3 113d 8c1e 8e3a b2b9 85bc 3ca1 b23a
000001d0: 4853 d73c 3f41 fdbb 325f ddbc fe5f 71bc
000001e0: 1342 053c 73f0 83bb d2ee 873c 1a6e 73bc
000001f0: e4ea 5cbb 1719 543c 7665 06bd cc88 3ebc
00000200: ab97 af3b e283 333c ec09 17bd 0966 0e3c
00000210: 580c 17bc 83a0 cabc 181f d73c 24af 29bc
00000220: 4a6a fc3b 835d 92bc 6b17 c2bb 9d44 93bb
00000230: a295 76bc c634 973c d2fb 7a3c 1d19 263c
00000240: 160e cdbb 3d1f 073d d9c9 0e3d e4b2 f0bb
00000250: bb2c dbbb a2a4 eb37 c056 543d afdc f9bb
00000260: 516b 90bc 4366 92bc 8a5d 8abc 3b41 263d
00000270: 5947 633c 6174 5c3b 1847 57bc ee6f 543a
00000280: ca13 cb3c dd3d 41bc 2c25 bc3b d8ea 593b
00000290: 8a58 2ebc 9710 af3b a486 fdbc d45a 093c
000002a0: e8d0 a53c 8f78 213c c8cc 05bd 4306 c23c
000002b0: 6be7 343d 5f15 2e3c 04ef 763d e4d2 3b3c
000002c0: 89be 893c fb6e 5cbc acb2 33bd 9161 883c
000002d0: 7d0a 72ba 0fa4 203d 73bc 28bc 544c f73b
000002e0: 307a 213c 9028 ea3c dff8 6d3c ef5f aa3c
000002f0: e2b5 aeba a007 0b3d 7e06 543d 7099 193d
00000300: ed57 0cbd 9221 5bba 62df beb9 b749 c83c
00000310: e755 7bbc 2926 bf3b b7b6 063c f1a1 eebc
00000320: ac23 0abc 12a9 9cbc 842e ca3b 12db 33bb
00000330: 818b 18bc 3bc5 23bb 20ed 63bc 9894 8abc
00000340: 25a0 bdbc 2692 b93c c3c4 d0bc ad85 be3c
00000350: 1455 053d ebac a43c ca85 75bc 795c bbbb
00000360: b9c4 af3c 8b85 723a 0e50 41bc 7223 97bb
00000370: 12af 78bc 6c9f 2f3d 8919 ad3c 8943 8f3b
00000380: 0456 62bb 0b5e 263d 8c24 913c 58a5 e7ba
00000390: 6791 e3bb 7b7c 9cbc 5e07 16bc 0c60 91bc
000003a0: 14e4 8c3c 4498 243c 2e60 2cbc 60e3 933c
000003b0: 4a94 2cbd de6c 31bb 3740 7e3c 5f98 273c
000003c0: e56b ae3c fa92 97bc ddfa dd3c b34e 9c3c
000003d0: 03ed c7ba 8efb 6cbc f52f 333b f3b9 a33c
000003e0: 4300 f0b9 cb4f 2d3a 37ac 27bc 7277 29bc
000003f0: 694a c4bc 5394 c83c acc0 c3bc 0510 ac3c

bottleneck.bias f4 [256]
-2.5875954e-08 1.6478943e-08 2.1487145e-08 2.9519693e-09 -7.2005277e-09 1.799945e-08 -1.1606051e-08 9.392261e-09
9.146589e-09 -2.1375488e-08 6.6921357e-09 3.7033384e-08 2.4302593e-09 8.097164e-09 4.515651e-09 1.3822017e-09
6.856069e-09 8.482514e-09 1.9273047e-08 -4.0612123e-09 1.026638e-08 2.2914241e-08 4.4767216e-08 -1.7745679e-08
-1.6963726e-08 5.616737e-09 9.402819e-10 8.442432e-09 2.4097641e-08 -9.1901775e-09 -5.614523e-09 -5.050242e-09
-7.826125e-09 -1.0243664e-08 -2.6785807e-09 1.3787639e-09 -4.7445283e-09 -4.500565e-09 -9.671781e-09 1.47559085e-08
-1.6593218e-09 8.916822e-09 -1.4027056e-08 -1.0407222e-09 -1.832797e-08 -7.917263e-09 -1.1317695e-08 -1.9006045e-08
-1.32145335e-08 1.4288755e-08 -1.0129264e-08 -6.369e-10 2.4459e-08 5.256073e-09 -1.5786444e-08 3.4647698e-08
7.482216e-09 7.550888e-09 -6.4287815e-09 2.359677e-08 8.910405e-09 1.489303e-08 8.709823e-09 1.4743049e-08
-1.3380305e-09 -7.753721e-09 -4.0764645e-09 2.1842141e-09 -1.7308455e-08 -1.1242839e-08 2.2305958e-08 -1.9864945e-08
-8.859646e-09 1.514869e-08 7.63107e-09 -8.699961e-09 -2.711787e-09 -2.1474655e-08 -2.0285551e-08 1.081105e-08
-4.304009e-09 7.105224e-09 3.108642e-08 4.1595904e-09 1.8176598e-09 3.6495905e-08 -4.2249578e-08 2.709529e-09
-3.480808e-08 2.6538489e-08 -1.7231324e-08 -1.5440389e-09 -3.181002e-09 1.3275044e-08 -1.7024343e-08 6.8203763e-09
1.0175853e-08 -2.1878832e-09 2.27075e-09 1.17981855e-08 -3.0764095e-08 -1.8834061e-08 1.2086661e-08 5.002847e-09
-9.252648e-09 -1.3954813e-09 2.31261e-08 1.6736283e-08 -8.783162e-09 -2.0142274e-08 -2.9009634e-08 -8.815171e-09
6.7416033e-09 1.4356322e-09 -7.9623685e-09 4.0672923e-09 1.4208769e-08 1.9323922e-09 -4.830913e-09 -8.510741e-09
-5.1975313e-09 4.543781e-09 1.1834661e-08 8.052506e-09 2.6267864e-08 7.752111e-09 1.7106476e-08 1.0509439e-08
4.9256115e-09 -8.93373e-09 -1.354313e-09 -7.0187465e-09 -7.998038e-09 2.236516e-08 -5.1459415e-09 -3.0504756e-09
-2.1766613e-08 2.294841e-09 -2.2846955e-08 2.5602127e-08 -1.869545e-08 1.9564366e-08 -1.6653392e-08 -5.822075e-09
2.3324457e-08 -1.4172102e-08 1.0802905e-08 -2.7455804e-09 1.9466036e-08 1.7643744e-08 -3.7658058e-08 -9.405291e-10
-2.5852914e-08 -6.6247546e-10 3.7581586e-08 2.6143956e-09 -6.6356525e-09 -1.4170117e-08 1.04206395e-08 3.113709e-08
3.408518e-08 1.1278839e-08 -1.1640524e-09 1.782871e-08 2.6441027e-09 -1.365489e-08 -2.323801e-09 3.8885744e-09
1.0480148e-08 -1.8399031e-09 -6.897051e-09 1.6251677e-08 1.4074411e-08 2.2807956e-09 -2.7365067e-08 2.6452254e-08
-1.72327e-08 -1.9101986e-08 -2.6324537e-08 7.8617015e-09 -1.5035004e-08 -3.1392937e-09 -1.4997694e-08 2.5130019e-08
-1.1262204e-08 1.8947896e-08 2.902822e-09 7.4116375e-09 6.6745747e-09 6.3539702e-09 6.964422e-09 -3.0728708e-09
-3.1965568e-09 -1.4144407e-08 -1.0971914e-09 -9.286629e-10 6.0502434e-09 5.6690093e-09 -4.079467e-09 -6.4655308e-09
8.5782395e-09 -1.1698557e-09 1.9001902e-08 1.1220458e-08 -1.2961576e-08 1.8015572e-09 -3.7468162e-08 -1.573077e-08
1.4390995e-08 -1.142807e-08 1.3058391e-09 -1.7318758e-09 -2.7051766e-10 -1.1930135e-08 1.3716061e-08 1.1206313e-08
-8.526576e-09 -2.4587077e-08 1.1428915e-08 -1.4123317e-08 -1.9151239e-08 -1.1672372e-09 1.2570728e-08 4.9306577e-09
4.0321613e-08 2.4773148e-09 2.3407257e-08 -7.537311e-09 -3.636796e-09 3.165651e-08 -2.0954424e-08 7.1400765e-09
-4.080173e-09 -1.07133244e-08 -1.2177174e-09 4.112416e-09 -7.0906543e-09 -1.7211047e-08 3.6445207e-09 -9.500976e-09
1.2163632e-08 9.5299555e-09 9.532249e-09 1.0485542e-08 -2.816517e-08 -1.0820413e-08 1.6139186e-08 -2.9387609e-08
8.957059e-09 1.16153e-08 1.4991985e-08 -4.4738173e-09 -1.667011e-08 1.2283682e-08 -1.6963213e-08 5.6582303e-09
00000000: d345 deb2 948d 8d32 bb92 b832 98db 4a31
00000010: 8368 f7b1 369d 9a32 f463 47b2 9a5b 2132
00000020: 2023 1d32 329d b7b2 a6f0 e531 a30e 1f33
00000030: 9301 2731 b41b 0b32 1628 9b31 e6f7 bd30
00000040: 9f92 eb31 7eba 1132 e18d a532 cd8a 8bb1
00000050: 0460 3032 f3d4 c432 1346 4033 296f 98b2
00000060: a1b7 91b2 57fd c031 3a3b 8130 350a 1132
00000070: 46ff ce32 d4e2 1db2 dee9 c0b1 6686 adb1
00000080: a973 06b2 1cfc 2fb2 1712 38b1 f17e bd30
00000090: 5005 a3b1 63a3 9ab1 f128 26b2 2c81 7d32
000000a0: 320e e4b0 9930 1932 a5fb 70b2 2809 8fb0
000000b0: a26f 9db2 7e04 08b2 c06f 42b2 bc42 a3b2
000000c0: 2206 63b2 9c7a 7532 f904 2eb2 da11 2fb0
000000d0: e919 d232 e898 b431 c29a 87b2 8ccf 1433
000000e0: 228b 0032 28b9 0132 29e4 dcb1 d9b1 ca32
000000f0: 6014 1932 3ddc 7f32 35a2 1532 9d48 7d32
00000100: c3e5 b7b0 3a35 05b2 f610 8cb1 1a19 1631
00000110: b2ad 94b2 8726 41b2 529b bf32 7aa3 aab2
00000120: 2335 18b2 5220 8232 cd19 0332 d576 15b2
00000130: 435a 3ab1 4477 b8b2 6640 aeb2 80bb 3932
00000140: 77e2 93b1 3622 f431 e183 0533 25ec 8e31
00000150: 38d1 f930 acbf 1c33 e775 35b3 8a32 3a31
00000160: e47f 15b3 c1f6 e332 1504 94b2 0a36 d4b0
00000170: c798 5ab1 4310 6432 ed3c 92b2 aa58 ea31
00000180: e0d1 2e32 a659 16b1 750b 1c31 f8b0 4a32
00000190: 7b21 04b3 8ac8 a1b2 b2a5 4f32 82e5 ab31
000001a0: 94f5 1eb2 22cb bfb0 d5a6 c632 7ac3 8f32
000001b0: c1e4 16b2 5405 adb2 dc30 f9b2 8871 17b2
000001c0: c5a3 e731 d14f c530 deca 08b2 48c0 8b31
000001d0: d41a 7432 01cb 0431 29fd a5b1 a236 12b2
000001e0: f895 b2b1 851f 9c31 6451 4b32 4c57 0a32
000001f0: a5a3 e132 252e 0532 8af1 9232 008d 3432
00000200: 233e a931 f67a 19b2 a722 bab0 8c29 f1b1
00000210: be67 09b2 821d c032 2ed0 b0b1 89a0 51b1
00000220: 4af9 bab2 45b3 1d31 fc40 c4b2 aceb db32
00000230: bb97 a0b2 7f0e a832 320d 8fb2 830b c8b1
00000240: 065b c832 9079 73b2 ae97 3932 c3ac 3cb1
00000250: 4436 a732 018f 9732 79bd 21b3 ed43 81b0
00000260: 2913 deb2 9119 36b0 6469 2133 efa8 3331
00000270: d1ff e3b1 d570 73b2 7506 3332 98bb 0533
00000280: 0d65 1233 dcc4 4132 74fc 9fb0 bf25 9932
00000290: 8cb3 3531 d796 6ab2 bdb0 1fb1 439c 8531
000002a0: 2e0c 3432 d6df fcb0 1afb ecb1 d199 8b32
000002b0: eacb 7132 2ebc 1c31 6b10 ebb2 1f39 e332
000002c0: 1c07 94b2 b615 a4b2 4520 e2b2 2110 0732
000002d0: 5326 81b2 0abb 57b1 47d4 80b2 7fdd d732
000002e0: b27b 41b2 ddc2 a232 fc7a 4731 74a9 fe31
000002f0: 2e56 e531 1d52 da31 b44b ef31 842a 53b1
00000300: 6caa 5bb1 c3ff 72b2 fecb 96b0 d844 7fb0
00000310: 81e2 cf31 22c9 c231 5f2b 8cb1 6927 deb1
00000320: 7f5f 1332 a3c8 a0b0 a039 a332 19c4 4032
00000330: 9dad 5eb2 a99a f730 aeec 20b3 5420 87b2
00000340: 443c 7732 2f55 44b2 2179 b330 f606 eeb0
00000350: fab7 94af 4af5 4cb2 e0a3 6b32 e385 4032
00000360: 477c 12b2 8e33 d3b2 e658 4432 01a3 72b2
00000370: 0582 a4b2 826c a0b0 a5f6 5732 866a a931
00000380: 152e 2d33 623d 2a31 1a11 c932 727d 01b2
00000390: 31eb 79b1 b3f6 0733 44ff b3b2 c754 f531
000003a0: 9531 8cb1 b30d 38b2 9f5c a7b0 324d 8d31
000003b0: 0ea2 f3b1 7ed7 93b2 1673 7a31 bc39 23b2
000003c0: 38f8 5032 30b9 2332 46c3 2332 e723 3432
000003d0: ddef f1b2 aee4 39b2 72a2 8a32 0970 fcb2
000003e0: 90e1 1932 a18c 4732 b9c7 8032 1db8 99b1
000003f0: f631 8fb2 3408 5332 80b6 91b2 526a c231
