ckps/source/uda/domainnet/quickdraw_0/source_B.pt (torch, 532830 bytes, 6 tensors)

bn.weight f4 [256]
0	0x3f8886b9	1.0666114
1	0x3f852b21	1.0403787
2	0x3f7c8032	0.9863311
3	0x3f8556b6	1.0417087
4	0x3f82d4d0	1.0221195
5	0x3f80bbc4	1.0057302
6	0x3f804a5e	1.0022695
7	0x3f7ce451	0.98785883
8	0x3f813495	1.0094172
9	0x3f7211a4	0.9455817
10	0x3f7fa691	0.99863535
11	0x3f796064	0.97412705
12	0x3f83f19c	1.0308108
13	0x3f8170c3	1.0112537
14	0x3f839096	1.0278499
15	0x3f86bde3	1.0526699
16	0x3f797bd0	0.9745455
17	0x3f84c23c	1.0371776
18	0x3f78873d	0.9708136
19	0x3f80992a	1.0046742
20	0x3f78c27b	0.97171754
21	0x3f7f08b4	0.99622655
22	0x3f8c5d8f	1.0966052
23	0x3f7ab004	0.9792483
24	0x3f7ca662	0.9869138
25	0x3f7a7f59	0.9785057
26	0x3f71f2a7	0.94510883
27	0x3f82c619	1.0216705
28	0x3f8575b5	1.0426546
29	0x3f857a2f	1.0427912
30	0x3f7fa762	0.9986478
31	0x3f7ae598	0.9800658
32	0x3f825dff	1.0184935
33	0x3f8144b0	1.0099087
34	0x3f85490c	1.0412917
35	0x3f80d6a9	1.0065509
36	0x3f870def	1.0551127
37	0x3f7e0f6f	0.992423
38	0x3f78182f	0.969119
39	0x3f88c969	1.0686466
40	0x3f7f0187	0.99611706
41	0x3f88cb4e	1.0687044
42	0x3f6b186e	0.9183415
43	0x3f825f1c	1.0185275
44	0x3f882df7	1.0639027
45	0x3f81bae6	1.0135162
46	0x3f8095dd	1.0045735
47	0x3f6e2e6d	0.9303959
48	0x3f7d1a85	0.9886859
49	0x3f7f119e	0.99636257
50	0x3f80a6bb	1.0050882
51	0x3f853818	1.0407743
52	0x3f841fd5	1.0322214
53	0x3f87f3f5	1.0621325
54	0x3f848660	1.0353508
55	0x3f827286	1.01912
56	0x3f8736cb	1.0563596
57	0x3f80569e	1.0026433
58	0x3f8a49b2	1.080374
59	0x3f7874e5	0.97053367
60	0x3f76dcc7	0.9643063
61	0x3f81c2a2	1.0137522
62	0x3f83a811	1.0285665
63	0x3f7ed030	0.9953642
64	0x3f870b7a	1.0550377
65	0x3f81ac01	1.0130616
66	0x3f75daa6	0.96036756
67	0x3f7d7c67	0.9901795
68	0x3f79b24d	0.9753769
69	0x3f80dc55	1.006724
70	0x3f804e62	1.002392
71	0x3f7c88ca	0.98646224
72	0x3f7c31a8	0.9851327
73	0x3f815e71	1.0106946
74	0x3f7f242c	0.9966457
75	0x3f847f43	1.0351337
76	0x3f85ea95	1.0462214
77	0x3f82cae4	1.0218167
78	0x3f838195	1.027392
79	0x3f827dd8	1.0194654
80	0x3f78a49e	0.97126186
81	0x3f866c89	1.0501872
82	0x3f827bcc	1.019403
83	0x3f815816	1.0105007
84	0x3f84ddca	1.0380185
85	0x3f7b3201	0.98123175
86	0x3f80814d	1.003946
87	0x3f74e65d	0.95664006
88	0x3f82273a	1.0168221
89	0x3f810f1e	1.0082738
90	0x3f81b8d7	1.0134534
91	0x3f8480a9	1.0351764
92	0x3f86a102	1.0517886
93	0x3f842854	1.0324807
94	0x3f87180f	1.0554217
95	0x3f7ff2e3	0.9997999
96	0x3f76e351	0.9644061
97	0x3f7c2a6a	0.9850222
98	0x3f78c546	0.97176015
99	0x3f79bfbe	0.975582
100	0x3f7ad9ca	0.9798857
101	0x3f867f85	1.0507666
102	0x3f75f69d	0.96079427
103	0x3f81a6d9	1.0129043
104	0x3f871c98	1.0555601
105	0x3f82cee7	1.0219392
106	0x3f7255b3	0.94662017
107	0x3f7a3d61	0.97749907
108	0x3f77c6a6	0.9678749
109	0x3f7a9383	0.97881335
110	0x3f7cff7f	0.98827356
111	0x3f8a016d	1.0781685
112	0x3f84cde9	1.0375339
113	0x3f853cf5	1.0409228
114	0x3f8506ea	1.0392735
115	0x3f80d8bb	1.0066141
116	0x3f811294	1.0083795
117	0x3f871937	1.055457
118	0x3f77282f	0.9654569
119	0x3f80948f	1.0045336
120	0x3f78619b	0.97023934
121	0x3f81c12e	1.0137079
122	0x3f7c336d	0.9851597
123	0x3f81ef76	1.0151203
124	0x3f88bce5	1.0682646
125	0x3f733c28	0.95013666
126	0x3f7f6d58	0.9977622
127	0x3f8657f9	1.0495597
128	0x3f7fe523	0.9995901
129	0x3f81f265	1.0152098
130	0x3f84cf48	1.0375757
131	0x3f7dd4ad	0.9915264
132	0x3f818a7a	1.0120385
133	0x3f80bc56	1.0057476
134	0x3f85939a	1.043567
135	0x3f8500ca	1.0390866
136	0x3f88f171	1.0698682
137	0x3f6e0f25	0.9299186
138	0x3f810c4e	1.008188
139	0x3f81d6e8	1.0143709
140	0x3f825ceb	1.0184606
141	0x3f7f8eab	0.9982707
142	0x3f81073f	1.0080336
143	0x3f81b64e	1.013376
144	0x3f82721d	1.0191075
145	0x3f75991a	0.9593674
146	0x3f7942d2	0.97367585
147	0x3f84703f	1.0346755
148	0x3f78e9fd	0.9723204
149	0x3f8adece	1.0849245
150	0x3f7ef2d8	0.995893
151	0x3f74dbe1	0.9564801
152	0x3f80c634	1.0060487
153	0x3f780e1b	0.96896523
154	0x3f7a5094	0.977792
155	0x3f84eb0c	1.0384231
156	0x3f80fabd	1.0076519
157	0x3f85fba1	1.0467416
158	0x3f842608	1.0324106
159	0x3f6b2872	0.9185859
160	0x3f7d7d0c	0.9901893
161	0x3f81bdec	1.0136085
162	0x3f7081f6	0.93948305
163	0x3f82ea16	1.0227687
164	0x3f7d8c5b	0.9904229
165	0x3f81a650	1.012888
166	0x3f864acd	1.0491577
167	0x3f85e6a6	1.0461013
168	0x3f86d219	1.0532867
169	0x3f844b29	1.0335437
170	0x3f81fad4	1.0154672
171	0x3f85cca5	1.0453078
172	0x3f7f1904	0.99647546
173	0x3f7cc415	0.987367
174	0x3f841fb2	1.0322173
175	0x3f84bb40	1.0369644
176	0x3f772c67	0.9655213
177	0x3f74425b	0.9541375
178	0x3f7cd460	0.9876156
179	0x3f883f81	1.064438
180	0x3f850d8b	1.0394758
181	0x3f732025	0.94970924
182	0x3f82d28e	1.0220506
183	0x3f819524	1.0123639
184	0x3f7d4b8b	0.98943394
185	0x3f7f1db8	0.9965472
186	0x3f7f0700	0.99620056
187	0x3f89ca4e	1.0764863
188	0x3f78ce23	0.9718954
189	0x3f7ed0f5	0.99537593
190	0x3f77257e	0.96541584
191	0x3f888c64	1.0667844
192	0x3f844ce9	1.0335971
193	0x3f6bf407	0.9216923
194	0x3f848387	1.0352639
195	0x3f85de53	1.0458473
196	0x3f81af8a	1.0131695
197	0x3f84f59a	1.0387452
198	0x3f7552c2	0.95829403
199	0x3f7e27f7	0.9927973
200	0x3f87c2c5	1.0606314
201	0x3f6f5dfc	0.93502784
202	0x3f73a1f4	0.95168996
203	0x3f85894a	1.0432522
204	0x3f885291	1.0650197
205	0x3f7df3f6	0.9920038
206	0x3f7723c8	0.9653897
207	0x3f8a2d5b	1.0795091
208	0x3f84621f	1.0342444
209	0x3f8f1b92	1.1180289
210	0x3f840851	1.0315038
211	0x3f7ff4ad	0.9998272
212	0x3f7bec86	0.9840778
213	0x3f8ab781	1.0837251
214	0x3f78b8f1	0.971572
215	0x3f8255b4	1.0182405
216	0x3f8fd84f	1.1237887
217	0x3f7c19f4	0.984771
218	0x3f772bbd	0.96551114
219	0x3f7bfbbb	0.98430985
220	0x3f872210	1.055727
221	0x3f73d978	0.95253706
222	0x3f857947	1.0427636
223	0x3f8102f2	1.0079024
224	0x3f8439f2	1.0330184
225	0x3f67a4f9	0.90486103
226	0x3f84808e	1.0351732
227	0x3f88d376	1.0689533
228	0x3f74fb15	0.9569562
229	0x3f85c1e7	1.0449799
230	0x3f88398c	1.0642562
231	0x3f849d46	1.0360496
232	0x3f78e6cb	0.9722716
233	0x3f84c080	1.0371246
234	0x3f8affb5	1.0859286
235	0x3f85dbf7	1.0457753
236	0x3f84914d	1.0356842
237	0x3f73d53d	0.9524725
238	0x3f886325	1.0655257
239	0x3f86e271	1.0537854
240	0x3f7d99d5	0.99062854
241	0x3f821471	1.0162488
242	0x3f8806bb	1.0627054
243	0x3f855fcd	1.0419861
244	0x3f7f52f4	0.9973595
245	0x3f80d4b7	1.0064915
246	0x3f6fbe37	0.9364962
247	0x3f7d2784	0.9888842
248	0x3f82224c	1.0166717
249	0x3f7495e3	0.9554121
250	0x3f83650d	1.0265213
251	0x3f8116ec	1.008512
252	0x3f6f9abb	0.93595475
253	0x3f82f307	1.0230416
254	0x3f7ea19d	0.9946535
255	0x3f8279b6	1.0193393

bn.bias f4 [256]
0	0xbcfb59a4	-0.030682392
1	0xbc768e7b	-0.015048618
2	0x3c160f35	0.009158899
3	0x3c90ee78	0.017691836
4	0xbc35ee19	-0.01110413
5	0xbcbeb304	-0.02327872
6	0x3c1323b3	0.008980679
7	0xbc91351d	-0.017725522
8	0x3cc7376c	0.02431842
9	0xbc10707c	-0.008815881
10	0xbc34a4ca	-0.011025617
11	0xbcbc21d8	-0.022965357
12	0xbc142d59	-0.009044015
13	0xba79a78a	-0.00095235615
14	0xbc50c0ab	-0.012741248
15	0x3d09603a	0.033539034
16	0x3c07b5e9	0.008283117
17	0xbd0a6d09	-0.03379539
18	0x3c7a56b6	0.015279463
19	0x3abf5244	0.0014596661
20	0xbba5703a	-0.005048779
21	0x3d021a53	0.031763386
22	0xbd109bc3	-0.035304796
23	0x3cc0d5ee	0.02353951
24	0x3a4b1518	0.00077469787
25	0x3cbb06cf	0.022830395
26	0xbcc6b4e6	-0.024256181
27	0x3bed566a	0.0072429674
28	0xbca7396c	-0.020413123
29	0xbc857eed	-0.016295874
30	0x3b993b3a	0.00467625
31	0xb92ae964	-0.00016299408
32	0x3c3f4dea	0.011676291
33	0xbc9c1968	-0.019055083
34	0xbb35674b	-0.0027679976
35	0xbce3225c	-0.027726345
36	0x3ca835d0	0.020533472
37	0xbcdfe625	-0.027331421
38	0xbc2f9c1b	-0.010718371
39	0xbc56a54f	-0.013100936
40	0x3c621c80	0.01380074
41	0xbb36d8f3	-0.0027900308
42	0xbcb9f7ef	-0.022701232
43	0xbc043b88	-0.008070834
44	0xbc622e58	-0.0138049945
45	0xbd1aa8ea	-0.037758745
46	0x3bd8aa5e	0.006612106
47	0xbcca8e79	-0.02472614
48	0xbcb54546	-0.022127759
49	0xbb23cdd9	-0.002499452
50	0xbc5b9a9f	-0.013403564
51	0xbc24a01a	-0.010047937
52	0xbbbf7a67	-0.005843449
53	0x398c7d05	0.00026796028
54	0xbbc05c64	-0.005870389
55	0x3c06c2c4	0.008225147
56	0xbc6f2e75	-0.014598479
57	0x3cad17a2	0.021129433
58	0x3b1d936a	0.0024044164
59	0x3c53dde4	0.012931321
60	0xbb5b05fc	-0.0033420315
61	0x3b2568d4	0.0025239484
62	0xbc534be6	-0.012896514
63	0x3c992e84	0.018698938
64	0xbc4d9449	-0.012547561
65	0xbc44fb64	-0.012022827
66	0x3ad40910	0.0016177017
67	0xbb21a92a	-0.002466748
68	0x3a8310b3	0.0009999484
69	0x3b41a59c	0.0029548174
70	0xbc3a65d8	-0.0113768205
71	0xbd347e06	-0.044065498
72	0x3cd019c6	0.025402915
73	0xbcfa705b	-0.030571153
74	0xbba98247	-0.005173001
75	0xb9af388e	-0.00033420738
76	0xbb2d5975	-0.0026451026
77	0xbbc20240	-0.0059206784
78	0x3b846738	0.004040625
79	0xbc77de42	-0.015128674
80	0xbaf7f5ad	-0.0018917822
81	0xbc8c27a5	-0.017108748
82	0x3c57a1ea	0.013161162
83	0x3c7032e1	0.014660568
84	0x3c98f36d	0.018670762
85	0x3c9b493c	0.01895582
86	0xb9aff37d	-0.00033560014
87	0xbc0501f4	-0.008118141
88	0x3c8e0e74	0.017340876
89	0x3b087bab	0.0020825665
90	0xbc57ad82	-0.013163926
91	0xbccb285b	-0.024799516
92	0x3c12864e	0.008943154
93	0x3ceda721	0.029010357
94	0xbc88ccd0	-0.016699225
95	0x3c2455c5	0.010030215
96	0x3ae70a6b	0.0017627006
97	0x3c74ee3c	0.014949378
98	0xbca16b7f	-0.019704578
99	0x3c970287	0.018433822
100	0xbc392fa9	-0.011302867
101	0xbc0ecc89	-0.008715757
102	0x3caa70da	0.020805765
103	0xbc359f24	-0.011085305
104	0x3ca66298	0.020310685
105	0xbc2b64b2	-0.010461019
106	0xbc031247	-0.007999963
107	0xbc199253	-0.009373265
108	0xba6a5d1d	-0.00089402666
109	0xbab509bf	-0.0013812109
110	0x3d106886	0.03525593
111	0x3b155902	0.0022788648
112	0xbc38fbc0	-0.011290491
113	0xbc4880e8	-0.012237765
114	0x3b676b28	0.0035311673
115	0x3ccff67d	0.02538609
116	0x3c928b6a	0.017888743
117	0x3d2d59cf	0.042321976
118	0x3c888fd2	0.016670141
119	0x3a065ef5	0.0005125844
120	0xbbd37d08	-0.006454114
121	0x3c8d8bd9	0.017278599
122	0xbc084efd	-0.0083196135
123	0x3cf6c10a	0.030121345
124	0x3c54c9bb	0.012987549
125	0xbcab6952	-0.020924244
126	0xbb9faf11	-0.0048731645
127	0xbca424d8	-0.0200371
128	0x3d265955	0.040612537
129	0x3b984779	0.004647192
130	0x3c499a36	0.012304833
131	0x3c6254a2	0.013814123
132	0xbc83c94d	-0.016087199
133	0x3c57cd2f	0.013171478
134	0xbc94e901	-0.018177511
135	0xbce3e560	-0.027819335
136	0x3d00acff	0.031414982
137	0xbc6a1e2f	-0.014289423
138	0xbc661333	-0.014042663
139	0xbc0ef9f4	-0.008726586
140	0x3c4cc34f	0.012497737
141	0xb9de1063	-0.0004235535
142	0x3badd207	0.005304578
143	0x3c022213	0.007942694
144	0x3c623de9	0.013808706
145	0x3c3f6c24	0.011683498
146	0xba983033	-0.0011611044
147	0x3ac75665	0.0015208243
148	0x3bcd6984	0.006268682
149	0x3cfaa7d9	0.030597614
150	0x3c91dd13	0.017805612
151	0xbc3e2ec8	-0.011607833
152	0x3c9b2738	0.0189396
153	0x3a8fce2a	0.0010971476
154	0x3cc2568f	0.023722915
155	0xbc2b49f4	-0.0104546435
156	0x3c97f10d	0.01854756
157	0xbc860526	-0.016359877
158	0xbb9b725e	-0.0047438582
159	0x3bdf9a9f	0.006823852
160	0xbbf07232	-0.007337832
161	0xb941a8fa	-0.00018468863
162	0xbbd0ea61	-0.0063755964
163	0xbc849cfd	-0.01618814
164	0xbb282eeb	-0.002566273
165	0x3ad63a5c	0.0016344297
166	0xbc039595	-0.008031269
167	0x3d16af0a	0.036788024
168	0xbc4e7b29	-0.012602606
169	0xbcf4bb74	-0.02987454
170	0xbc376de4	-0.011195634
171	0xbac97343	-0.0015369434
172	0x3cc05803	0.023479467
173	0x3bfffcab	0.007812103
174	0x3ac618a8	0.0015113549
175	0xbbb9aebc	-0.005666582
176	0x399264c8	0.00027922378
177	0xbc2a0d4f	-0.01037915
178	0xbc3d0b15	-0.011538287
179	0xbc4df092	-0.012569563
180	0xbc7a369c	-0.015271809
181	0x3addcb47	0.0016921543
182	0x3a144504	0.0005656036
183	0xbb21f385	-0.00247118
184	0xbb492e3a	-0.003069772
185	0xbc41107e	-0.011783717
186	0xbbe356db	-0.006937844
187	0xbb6194ad	-0.0034420893
188	0xbb7ee9ac	-0.0038896604
189	0xbc433e9a	-0.011916781
190	0x3c20a5eb	0.009805183
191	0xbc131d4b	-0.008979152
192	0xba654af1	-0.0008746824
193	0xbcb2924f	-0.021798281
194	0x3cd54cd0	0.026037604
195	0xbce7567a	-0.028239477
196	0xbc330e90	-0.010928765
197	0xbc1a9259	-0.009434306
198	0x3cd20b36	0.025640111
199	0xbcbf7f25	-0.023376057
200	0x3c184975	0.009294857
201	0xbc271c21	-0.010199578
202	0x3acd39c4	0.0015657474
203	0xbd26d223	-0.040727746
204	0xbcd91a00	-0.026501656
205	0x3c818887	0.015812172
206	0xbc8bd9d5	-0.017071644
207	0xbc2c8357	-0.010529361
208	0x3d1c3fb4	0.03814669
209	0x3b0d7b8a	0.0021588528
210	0x3cab88ba	0.02093922
211	0x3c98d5ea	0.01865669
212	0x3c87d576	0.016581278
213	0x3c966849	0.018360274
214	0xbca4ac9f	-0.020101843
215	0x3c843299	0.016137408
216	0xbc3e9db4	-0.011634279
217	0x3c023592	0.0079473425
218	0xbc11c2ca	-0.008896539
219	0x3ac6068d	0.0015108153
220	0xb98fdc2d	-0.0002743913
221	0x3c74f40c	0.014950763
222	0x3d48073b	0.04883502
223	0xbcbc92e1	-0.023019256
224	0xbae2ff0c	-0.0017318442
225	0x3cabab1d	0.020955617
226	0x3ccd7146	0.025078427
227	0x3ce185a4	0.027529545
228	0xbc09b3ae	-0.008404655
229	0x3cacd81e	0.021099146
230	0x3ba2516d	0.0049535544
231	0xbb4e161e	-0.0031446288
232	0xbc1c2a7d	-0.009531614
233	0x3c6d4928	0.014482774
234	0xbb2a75b5	-0.00260101
235	0x3c8a6968	0.016895965
236	0x3ce24c66	0.02762432
237	0x3b15d5c0	0.0022863
238	0x3bedf91c	0.007262362
239	0xbd1af070	-0.037826955
240	0xbcf841ad	-0.030304754
241	0xbc9b9802	-0.018993381
242	0x3c3700b7	0.011169604
243	0x3c91361d	0.017725999
244	0x3cf9a213	0.03047279
245	0x3b8d80ca	0.0043183314
246	0xbc6fed67	-0.0146440035
247	0xbc0b8f58	-0.0085180625
248	0xbd150233	-0.03637905
249	0xbc22f36c	-0.009945732
250	0xbcbdbce1	-0.023161354
251	0x3c298d7f	0.010348677
252	0x3be9393e	0.0071174195
253	0x3c58417b	0.0131992055
254	0xbce87e65	-0.028380582
255	0xbd4118a2	-0.047142632

bn.running_mean f4 [256]
0	0x3c090bc3	0.008364621
1	0xbdab3327	-0.08359366
2	0x3dbd5e5b	0.092465125
3	0xbca38e24	-0.019965239
4	0xbd85e142	-0.06537105
5	0xbd6f87ad	-0.058479
6	0x3dce8d3b	0.10085531
7	0xbc253983	-0.010084513
8	0x3d8116e5	0.06303195
9	0xbd3310b8	-0.043717116
10	0x3c84b401	0.016199114
11	0xbcd3c9f8	-0.025853142
12	0xbd839540	-0.064249516
13	0xbe2cad31	-0.16862942
14	0xbdba5424	-0.0909808
15	0xbe03d602	-0.12874606
16	0x3d8aba3b	0.06773802
17	0xbd6ce534	-0.057835773
18	0xbcd4c827	-0.025974346
19	0xbe057a37	-0.13034903
20	0x3a30b343	0.0006740579
21	0x3d00454b	0.031316083
22	0xbdcdbfef	-0.10046374
23	0x3e3d75a5	0.18501909
24	0x3e153928	0.14572585
25	0x3cbbfea9	0.02294858
26	0x3d100fc0	0.03517127
27	0x3bd9b6a8	0.006644089
28	0xbdbf6811	-0.09346021
29	0xbd95e7ba	-0.07319589
30	0x3db07bb3	0.08617344
31	0x3b60f03a	0.0034322874
32	0xbe4b2d47	-0.1984149
33	0xbca27407	-0.019830717
34	0xbe4358e2	-0.19076875
35	0xbc23cb67	-0.009997225
36	0x3e844414	0.2583319
37	0xbd7a4232	-0.061098285
38	0xbd9f4bad	-0.07778106
39	0xb98dd45b	-0.00027051833
40	0x3d7e6406	0.06210711
41	0xbde67e3b	-0.11254545
42	0xbd4c2654	-0.04984124
43	0xbd79abeb	-0.06095497
44	0xbdbd4c56	-0.092430755
45	0xbd20f51a	-0.039296247
46	0x3dbea1a5	0.09308175
47	0x3da412a1	0.08011366
48	0xbe1de99f	-0.1542115
49	0x3ca3db06	0.0200019
50	0x3d886921	0.06660677
51	0xbccb34db	-0.024805477
52	0xbc5f1e18	-0.013618015
53	0x3dc7918c	0.09744558
54	0xbda3a06f	-0.07989585
55	0xbe000a74	-0.12503988
56	0xbe1c004a	-0.15234485
57	0x3a92acca	0.0011190411
58	0x3e08f4d7	0.13374649
59	0x3d4ed890	0.0504995
60	0xb9096255	-0.0001310197
61	0x3da92cd6	0.08260505
62	0xbc38a792	-0.011270421
63	0x3d681b4d	0.05666666
64	0x3d2a1086	0.041519664
65	0x3d1794a5	0.037006993
66	0x3e05e21a	0.13074532
67	0x3df989c5	0.121844806
68	0xbe2a8b53	-0.1665471
69	0x3cf06958	0.029347107
70	0x3d7fe9a4	0.062478676
71	0xbe3db355	-0.18525441
72	0xbcde5622	-0.02714068
73	0xbc914456	-0.01773278
74	0xbce7e651	-0.028308066
75	0xbde12e0f	-0.10995113
76	0xbdd3234b	-0.10309466
77	0xbdf9c24c	-0.12195262
78	0x3e14b0c3	0.14520554
79	0xbdfbcf93	-0.12295451
80	0xbdf09649	-0.117474146
81	0xbdecc650	-0.115612626
82	0xbd3b774f	-0.04576808
83	0xbb894c39	-0.0041899947
84	0xbd76f56b	-0.060292643
85	0x3d76e093	0.060272764
86	0x3e055ae4	0.13022953
87	0x3d9f65f4	0.07783118
88	0xbca9fb74	-0.020749785
89	0xbd00d6d6	-0.031454884
90	0x3d56a971	0.052407686
91	0xbe10cd17	-0.14140736
92	0xbdda0bd1	-0.10646785
93	0x3e3f8318	0.18702352
94	0xbd1834a0	-0.037159562
95	0x3c8d1a6f	0.017224519
96	0x3df036d0	0.11729205
97	0x3e23891a	0.15970269
98	0xbca59634	-0.020213224
99	0x3e439300	0.19099045
100	0x3c48f226	0.012264764
101	0x3cda4957	0.0266463
102	0xbe0084aa	-0.12550607
103	0x3de04e73	0.10952463
104	0x3d08dfe3	0.03341664
105	0x3d97d055	0.07412783
106	0x3d6fcd0b	0.058545154
107	0xbd873665	-0.06602172
108	0x3d2645ea	0.04059402
109	0xbc26de09	-0.010184773
110	0x3d9c6bd2	0.076377526
111	0x3e1e6c39	0.15470971
112	0xbd59a5d8	-0.053136677
113	0x3bdc4117	0.0067216265
114	0xbe2e3ae2	-0.1701465
115	0x3b0ebe61	0.0021780955
116	0x3e2011d8	0.15631807
117	0xbdf5c9fe	-0.120014176
118	0x3d00012d	0.03125112
119	0xbd3753ad	-0.044757534
120	0x3cd4858a	0.025942583
121	0x3cf15c09	0.029462831
122	0x3e4d3eee	0.20043537
123	0xbdc984df	-0.09839796
124	0x3c5e6db9	0.013575965
125	0x3df43cc4	0.119256526
126	0xbce86517	-0.028368516
127	0x3e085bdc	0.13316292
128	0x3d80ea99	0.06294746
129	0x3df33f46	0.11877303
130	0x3a8af52f	0.0010601635
131	0x3e854161	0.26026443
132	0xbe3d93d6	-0.18513426
133	0x3bfdcf88	0.007745687
134	0xbddb7cb7	-0.10717147
135	0xbd2370a6	-0.03990235
136	0x3d0b578c	0.034019038
137	0x3d3b2a03	0.045694362
138	0xbc55cc58	-0.013049208
139	0xbd58e608	-0.05295375
140	0x3d450347	0.04809883
141	0x3e1ea489	0.15492453
142	0xbca1130e	-0.019662406
143	0x3de9076e	0.1137837
144	0x3c73b378	0.014874332
145	0x3dc636ee	0.09678446
146	0xbd9486ad	-0.0725225
147	0xbbc8a102	-0.0061227093
148	0x3c2955d1	0.010335402
149	0x3cf3760c	0.029719375
150	0xbdb3b33a	-0.08774419
151	0xbdfdf1f1	-0.12399662
152	0x3a9439a0	0.0011308677
153	0x3cf735ce	0.030177023
154	0xbd327c21	-0.04357541
155	0x3d87a89c	0.066239566
156	0xbd12fcf3	-0.035885762
157	0xbd992e1e	-0.07479499
158	0x3ccca2b0	0.02497992
159	0xbde4e878	-0.111771524
160	0x3d2e964b	0.0426238
161	0x3d4ec958	0.050484985
162	0xbdf4c913	-0.11952414
163	0xbe3f4415	-0.18678315
164	0xbdda2e7e	-0.10653399
165	0xbbf0f87c	-0.0073538404
166	0x3e5b95bf	0.21443842
167	0xbdfaa299	-0.12238044
168	0xbc7664ed	-0.015038711
169	0xbd9de7f5	-0.07710258
170	0x3cc5bcc8	0.02413787
171	0xbc4611a4	-0.012089167
172	0x3deaf8fd	0.11473272
173	0xbce6ad2a	-0.028158743
174	0x3d21f581	0.03954077
175	0xbdb6f853	-0.08934083
176	0xbd3134fa	-0.043263413
177	0xbe443bd0	-0.19163442
178	0xbdd00cc0	-0.10158682
179	0xbd06d14b	-0.03291444
180	0x3d138396	0.036014162
181	0x3d850c30	0.06496465
182	0xbe117188	-0.14203465
183	0x3dcc0aba	0.099629834
184	0xbbe8a446	-0.007099661
185	0x3d8837a3	0.06651237
186	0xbd6e8290	-0.058229983
187	0xbbad399a	-0.0052864077
188	0x3ccbf96e	0.02489921
189	0xbdb77416	-0.089576885
190	0x3d692e7c	0.056929097
191	0xbd638323	-0.055544984
192	0x3d191646	0.037374757
193	0xbde1f1ff	-0.11032485
194	0xbdaccbbd	-0.084372975
195	0xbcfcf400	-0.030878067
196	0xbdb179c8	-0.08665806
197	0x3d254d0f	0.040356692
198	0xbd8ada4b	-0.06779917
199	0x3dafbb8a	0.08580692
200	0xbd8a8f50	-0.06765616
201	0xbdb7d99f	-0.08977055
202	0xbd19f3ce	-0.037586026
203	0x3c5469b0	0.012964651
204	0xbe63193f	-0.221776
205	0xbdc4e9a2	-0.096148744
206	0xbd1b06da	-0.03784833
207	0x3c89b8d9	0.016811775
208	0xbc2e91e7	-0.010654903
209	0x3d36b1ee	0.04460328
210	0x3e305be4	0.17222553
211	0xbb3b1a27	-0.0028549524
212	0xbd1b0464	-0.037845984
213	0xbe1753a5	-0.14778002
214	0xbd0f238e	-0.034946017
215	0xbd3223e3	-0.043491255
216	0x3d6fc9ce	0.058542065
217	0x3d4155a7	0.047200825
218	0x3dea00c0	0.11425924
219	0x3ca9fbd3	0.020749962
220	0xbd93bd71	-0.072138675
221	0x3d3daee7	0.046309378
222	0x3d573987	0.052545097
223	0x3e2ef576	0.17085823
224	0x3d4d30b9	0.050095294
225	0xbd559e28	-0.052152783
226	0x3d84748b	0.06467541
227	0xbcad6ef9	-0.02117108
228	0xbd805e47	-0.06267982
229	0x3e2a83c5	0.16651829
230	0xbd94d0ab	-0.07266363
231	0x3dd8d884	0.10588172
232	0xbd2b4ba5	-0.041820187
233	0x3d8f5e3f	0.07000398
234	0x3c968fb0	0.018379062
235	0x3e08f920	0.13376284
236	0xbdbd8da6	-0.09255533
237	0xbd47203d	-0.04861473
238	0xbd0ed3d3	-0.03486998
239	0xbc95ad59	-0.018271135
240	0xbe8932b6	-0.26796502
241	0xb9f0637a	-0.00045850483
242	0xbda5b75c	-0.08091614
243	0x3d05b124	0.032639638
244	0x3d896f85	0.06710724
245	0xbcc7d730	-0.024394602
246	0xbc1f0bf2	-0.009707438
247	0xbc951137	-0.018196685
248	0xbdbb348f	-0.09140884
249	0x3c9cd0e6	0.01914258
250	0xbe834034	-0.2563492
251	0x3bd6f0f6	0.0065594865
252	0x3e2129e1	0.15738632
253	0xbcfa95fe	-0.0305891
254	0xbc49c454	-0.012314875
255	0xbda9584b	-0.08268794

bn.running_var f4 [256]
0	0x3c5f2bfd	0.0136213275
1	0x3c541425	0.012944256
2	0x3c48260c	0.012216102
3	0x3c6d143c	0.014470156
4	0x3c4a7658	0.012357317
5	0x3c44e179	0.0120166475
6	0x3c4b84d1	0.012421803
7	0x3c3fb560	0.011700958
8	0x3c526473	0.012841332
9	0x3c1e4b22	0.009661468
10	0x3c450b16	0.012026569
11	0x3c345996	0.011007687
12	0x3c58ee45	0.013240402
13	0x3c4104a1	0.011780889
14	0x3c4216b7	0.011846236
15	0x3c4f5ee3	0.0126569
16	0x3c3a517e	0.011371968
17	0x3c37315c	0.011181202
18	0x3c393362	0.0113037545
19	0x3c4c58f8	0.012472384
20	0x3c32286d	0.010873896
21	0x3c2f1e98	0.010688446
22	0x3c6ca180	0.0144428015
23	0x3c40b852	0.011762695
24	0x3c2bba90	0.010481492
25	0x3c4914c1	0.0122730145
26	0x3c2cab62	0.010538908
27	0x3c514d9b	0.01277485
28	0x3c3e2eaf	0.01160781
29	0x3c54a335	0.012978365
30	0x3c536a80	0.01290381
31	0x3c36ac39	0.0111494595
32	0x3c221a16	0.009893915
33	0x3c534022	0.012893708
34	0x3c3e053d	0.011597929
35	0x3c2ad13a	0.01042586
36	0x3c3082c6	0.010773366
37	0x3c4126d8	0.011789046
38	0x3c3f2ad6	0.011667928
39	0x3c5236ef	0.01283048
40	0x3c4ede38	0.012626223
41	0x3c5d19a1	0.01349488
42	0x3c1a474d	0.0094164135
43	0x3c521d7b	0.0128244115
44	0x3c435a29	0.011923351
45	0x3c37d362	0.011219831
46	0x3c4df1e0	0.0125698745
47	0x3c385f6a	0.011253217
48	0x3c383e9a	0.011245394
49	0x3c4e725c	0.012600508
50	0x3c31e26e	0.010857208
51	0x3c4a1ddf	0.012336223
52	0x3c45580d	0.012044919
53	0x3c48d403	0.012257579
54	0x3c3875ac	0.011258524
55	0x3c40b657	0.011762223
56	0x3c522b48	0.012827702
57	0x3c4bac6f	0.012431248
58	0x3c7b8f41	0.015353979
59	0x3c309322	0.010777267
60	0x3c2965d9	0.010339224
61	0x3c41dbe1	0.011832208
62	0x3c531703	0.012883904
63	0x3c3dfb30	0.011595532
64	0x3c5927cf	0.01325412
65	0x3c5b4780	0.013383746
66	0x3c344729	0.011003294
67	0x3c31c340	0.010849774
68	0x3c416df5	0.011806001
69	0x3c3c9567	0.01151023
70	0x3c4303e9	0.011902788
71	0x3c44101f	0.011966734
72	0x3c3184dc	0.010834899
73	0x3c3d2c41	0.0115461955
74	0x3c3f86bb	0.011689837
75	0x3c3c3e00	0.011489391
76	0x3c69e821	0.014276535
77	0x3c3a3b75	0.011366715
78	0x3c4aca7d	0.0123773785
79	0x3c4c7784	0.012479667
80	0x3c3ca42e	0.011513753
81	0x3c7d1daf	0.015448972
82	0x3c495480	0.012288213
83	0x3c532892	0.012888091
84	0x3c4bdb79	0.012442463
85	0x3c615b63	0.013754698
86	0x3c4731ec	0.012157898
87	0x3c39dad1	0.011343674
88	0x3c2f1fcc	0.010688733
89	0x3c32f2c9	0.010922142
90	0x3c3d028c	0.011536252
91	0x3c3db734	0.011579324
92	0x3c59dcd6	0.01329728
93	0x3c53e1c5	0.012932246
94	0x3c59b8bb	0.013288672
95	0x3c5190bf	0.012790858
96	0x3c2d927b	0.010594006
97	0x3c3a95df	0.011388271
98	0x3c66052f	0.014039322
99	0x3c2c81a1	0.010528953
100	0x3c3bc5a4	0.011460695
101	0x3c4a4703	0.012346032
102	0x3c32759e	0.0108923
103	0x3c42e507	0.011895425
104	0x3c5dc23d	0.01353508
105	0x3c5a3a4e	0.013319565
106	0x3c1fa1c5	0.009743159
107	0x3c43bfab	0.011947553
108	0x3c5d43d7	0.013504944
109	0x3c418d5b	0.011813487
110	0x3c4274ca	0.011868665
111	0x3c5899c2	0.0132202525
112	0x3c671f55	0.014106591
113	0x3c47ff5d	0.012206879
114	0x3c59f23d	0.013302383
115	0x3c396867	0.011316395
116	0x3c4b9a3a	0.012426907
117	0x3c360c30	0.011111304
118	0x3c354ce7	0.011065698
119	0x3c5d77c5	0.013517325
120	0x3c4191b2	0.011814522
121	0x3c43bd3b	0.0119469715
122	0x3c431bc7	0.011908478
123	0x3c6bbe19	0.0143885845
124	0x3c561bb7	0.013068131
125	0x3c222b91	0.009898082
126	0x3c418438	0.011811309
127	0x3c63d991	0.013906852
128	0x3c38f250	0.011288241
129	0x3c59f713	0.013303536
130	0x3c5bed47	0.013423271
131	0x3c3ebbb2	0.01164143
132	0x3c493b56	0.012282213
133	0x3c282889	0.010263571
134	0x3c4cdde6	0.012504077
135	0x3c5cbf78	0.013473384
136	0x3c637683	0.013883236
137	0x3c2bef6d	0.010494095
138	0x3c44864d	0.01199491
139	0x3c390e33	0.011294889
140	0x3c4aa164	0.01236758
141	0x3c449a6f	0.01199971
142	0x3c616662	0.01375732
143	0x3c3d67bb	0.011560376
144	0x3c524c05	0.012835507
145	0x3c3a876f	0.011384829
146	0x3c4638da	0.012098515
147	0x3c46a167	0.012123442
148	0x3c2c16aa	0.01050345
149	0x3c5a7b99	0.013335132
150	0x3c3f2b8f	0.0116681
151	0x3c2276d9	0.009916031
152	0x3c61b031	0.013774917
153	0x3c2ea041	0.010658325
154	0x3c28ec90	0.010310307
155	0x3c669075	0.014072527
156	0x3c3632fa	0.011120552
157	0x3c5ab699	0.013349199
158	0x3c452efe	0.01203513
159	0x3c2df0fb	0.010616536
160	0x3c4aa0f8	0.0123674795
161	0x3c3bc9c1	0.011461676
162	0x3c343b3a	0.011000449
163	0x3c4caf79	0.012493008
164	0x3c4ec152	0.012619333
165	0x3c3dd7c4	0.011587087
166	0x3c64486f	0.013933285
167	0x3c4ed692	0.0126244
168	0x3c7f7cb2	0.0155936945
169	0x3c4c3f2f	0.012466236
170	0x3c36d42b	0.011158983
171	0x3c4a6f7c	0.0123556815
172	0x3c41edb8	0.011836462
173	0x3c3490bf	0.011020838
174	0x3c57e0b8	0.013176136
175	0x3c52f0ae	0.012874765
176	0x3c2dcef5	0.010608424
177	0x3c29eddb	0.010371651
178	0x3c479ee0	0.012183875
179	0x3c50c023	0.012741121
180	0x3c5dd04d	0.013538432
181	0x3c2f9920	0.01071766
182	0x3c5407e5	0.012941335
183	0x3c4bb057	0.012432179
184	0x3c4753bf	0.012165963
185	0x3c38789a	0.011259222
186	0x3c371b88	0.011175998
187	0x3c5caf79	0.01346957
188	0x3c29f43c	0.010373171
189	0x3c4aac11	0.012370125
190	0x3c38485e	0.011247722
191	0x3c520e93	0.012820858
192	0x3c4630fb	0.012096639
193	0x3c2326d3	0.009957987
194	0x3c5d2b34	0.01349907
195	0x3c48fa41	0.012266696
196	0x3c50709d	0.012722162
197	0x3c49a215	0.01230671
198	0x3c2f7901	0.010710002
199	0x3c2fc46e	0.010727985
200	0x3c5b3160	0.013378471
201	0x3c226376	0.009911409
202	0x3c203f44	0.009780709
203	0x3c41c01e	0.011825589
204	0x3c5711fe	0.013126848
205	0x3c508fcb	0.012729595
206	0x3c31696f	0.01082836
207	0x3c594b9c	0.013262656
208	0x3c591f3c	0.013252076
209	0x3c74fb98	0.014952563
210	0x3c388eb7	0.011264495
211	0x3c5fadb0	0.01365225
212	0x3c480751	0.012208776
213	0x3c59af98	0.013286494
214	0x3c3e1a80	0.011602998
215	0x3c3d2fa9	0.011547008
216	0x3c83c187	0.016083492
217	0x3c332876	0.01093494
218	0x3c32d504	0.010915045
219	0x3c43b969	0.011946061
220	0x3c60d870	0.013723478
221	0x3c308040	0.010772765
222	0x3c523fc9	0.01283259
223	0x3c4e43c4	0.012589399
224	0x3c4dff2f	0.012573048
225	0x3c1a325c	0.009411421
226	0x3c598e9b	0.013278629
227	0x3c628c45	0.013827388
228	0x3c3b301d	0.011425045
229	0x3c4efd46	0.012633627
230	0x3c471e08	0.012153156
231	0x3c3c392b	0.011488239
232	0x3c2201a1	0.009888084
233	0x3c5ee1e4	0.013603661
234	0x3c648fb5	0.013950278
235	0x3c666218	0.014061473
236	0x3c4a0d3d	0.012332258
237	0x3c39ed48	0.011348076
238	0x3c5e1a56	0.013556084
239	0x3c6a609b	0.014305259
240	0x3c49f02c	0.012325328
241	0x3c459dd6	0.012061557
242	0x3c57f1a5	0.013180171
243	0x3c301c89	0.010748991
244	0x3c376f64	0.011195991
245	0x3c3937db	0.011304821
246	0x3c21dbe1	0.009879083
247	0x3c5824c7	0.013192362
248	0x3c4f2415	0.01264288
249	0x3c34e6e0	0.011041373
250	0x3c49051a	0.012269283
251	0x3c4dbe34	0.012557555
252	0x3c41984b	0.011816095
253	0x3c488c20	0.01224044
254	0x3c3a3774	0.01136576
255	0x3c34b4f0	0.011029467

bottleneck.weight f4 [256, 512]
0	0xbb2b4261	-0.0026132094
1	0x3c64540f	0.013936057
2	0x3c99d325	0.01877744
3	0xbd38919b	-0.045060735
4	0xbb93c50a	-0.004509573
5	0xbcc60b4a	-0.024175305
6	0xbc249665	-0.0100456225
7	0x3c64ba63	0.013960454
8	0xbb4ced05	-0.0031269204
9	0x3c58888d	0.01321615
10	0xbd20a98c	-0.039224193
11	0xbc93577a	-0.017986048
12	0xbc622307	-0.0138022965
13	0xbb95452c	-0.004555365
14	0x3cd034c0	0.025415778
15	0x3c2f9b29	0.010718145
16	0xbcef8b6d	-0.029241288
17	0x39217f5b	0.000154016
18	0xbbfac367	-0.0076526883
19	0xbd52eb8b	-0.051494163
20	0x3b8961dc	0.004192574
21	0xbcb2953b	-0.021799674
22	0xbbb25629	-0.0054424
23	0x3cf99d9d	0.030470664
24	0x3ca02b52	0.019551907
25	0x3bfd3ef2	0.007728451
26	0x3c1bf33a	0.009518439
27	0x3bc154dc	0.0059000086
28	0xba2a1cb9	-0.00064892654
29	0xbcae88e6	-0.021305513
30	0x3ba0a02a	0.0049019055
31	0x3cb0d9f9	0.021588312
32	0x3c0d6541	0.008630098
33	0xbb550f1a	-0.0032510222
34	0x3c1fcb6b	0.0097530885
35	0xbb7a526e	-0.0038196105
36	0xb91b1e05	-0.00014793135
37	0xbb973495	-0.0046144226
38	0xbc448701	-0.011995078
39	0x3c49fd2e	0.012328429
40	0x39cdc073	0.00039244033
41	0xbc5df3b5	-0.013546874
42	0x3cab503f	0.020912288
43	0x3cc6052b	0.024172386
44	0xba8258ce	-0.0009944679
45	0xbce33e35	-0.027739624
46	0xbc66413d	-0.01405364
47	0x3cd2e5f6	0.02574442
48	0xbca4af2b	-0.020103058
49	0xbb039269	-0.002007628
50	0xbca70557	-0.020388288
51	0x3bd4294c	0.0064746495
52	0xba5b8d17	-0.0008375211
53	0x3bd013c2	0.0063500116
54	0x3a0210a6	0.0004961587
55	0xbba496ff	-0.005022883
56	0xbcaf1b7a	-0.021375407
57	0x3c931aa8	0.017957047
58	0xbb5fc232	-0.003414285
59	0x3c2449fd	0.010027406
60	0x3ca4456b	0.020052632
61	0x3cedc368	0.029023841
62	0x3b4273d8	0.00296711
63	0x3c9de032	0.019271944
64	0xba8e0c59	-0.001083742
65	0x3aae9a3d	0.0013321113
66	0x3c59df4e	0.013297869
67	0xbc12b395	-0.0089539485
68	0x3cbcd01c	0.023048453
69	0xbac722ac	-0.0015192828
70	0xbc7c136e	-0.015385492
71	0x3ba13e1a	0.004920733
72	0xbc46c415	-0.012131711
73	0x3b17abbd	0.0023143135
74	0x3cb6fee5	0.02233834
75	0x3c61f821	0.013792069
76	0x3c81efdd	0.015861446
77	0xbc8061e8	-0.015671685
78	0xbc6ad78b	-0.014333616
79	0xbcc29f99	-0.023757743
80	0x39d92d33	0.0004142314
81	0x3cb7f6e1	0.022456588
82	0x3c67acf0	0.014140353
83	0xbbb26ce4	-0.0054451097
84	0xbc333679	-0.01093828
85	0xbbbb71ac	-0.005720338
86	0xbc8d1d6e	-0.017225947
87	0x3d020846	0.03174617
88	0xbc9ec95f	-0.01938313
89	0x3b5bfd60	0.0033567771
90	0xbc1af5e5	-0.00945804
91	0x3cce52c8	0.025185958
92	0x3c58d6b5	0.013234784
93	0xbbc06e11	-0.005872496
94	0x3bdf1025	0.0068073445
95	0xbc916ef8	-0.01775311
96	0x3c5e6e39	0.013576084
97	0x3b681c53	0.0035417273
98	0x3bd63ef2	0.0065382654
99	0x3c622109	0.0138018215
100	0x3c9950f3	0.018715357
101	0xbcc05ffa	-0.023483265
102	0x3c470283	0.012146595
103	0x3c96b4b5	0.018396715
104	0xba55f7d8	-0.0008162237
105	0xbd2d9c88	-0.042385608
106	0xbc29a028	-0.010353126
107	0xbc1fb354	-0.009747345
108	0xbce377ff	-0.02776718
109	0x3bbbbfcb	0.0057296506
110	0x3c492a5b	0.012278165
111	0xbbac8d0d	-0.005265838
112	0xbcd2c2ee	-0.025727715
113	0xbcba0ebc	-0.022712104
114	0xbb74b284	-0.003733785
115	0x3c42a032	0.011879014
116	0x3cb39431	0.02192125
117	0x3c16d59b	0.009206201
118	0xbc8568b9	-0.016285287
119	0x3bbb202b	0.005710622
120	0xbc20cce9	-0.009814479
121	0x3ce81207	0.028328909
122	0xbb903f7e	-0.0044021
123	0x3ca83c9c	0.020536713
124	0x3c911797	0.017711444
125	0xbcb25b45	-0.021772036
126	0xbc078492	-0.008271353
127	0x3bf78683	0.007553877
128	0xbc91560b	-0.017741224
129	0xbc6f6152	-0.014610605
130	0x3ca6af7a	0.020347346
131	0x3bca5898	0.006175112
132	0x3bfc5d2b	0.007701536
133	0xbca79ee7	-0.020461513
134	0x3b5fcceb	0.003414924
135	0x3cd863de	0.026414808
136	0x3c875376	0.01651929
137	0x3baeedbd	0.005338399
138	0xbc9d3468	-0.019190028
139	0xbbde3852	-0.0067816162
140	0xbcbc9749	-0.023021357
141	0x3bc97b07	0.006148699
142	0xbbef393e	-0.007300525
143	0x3b115848	0.0022177864
144	0xbcb295ec	-0.021800004
145	0xbd020071	-0.031738702
146	0x3c0fa1c0	0.008766592
147	0x3cbd6656	0.023120087
148	0xbb829cc4	-0.003985973
149	0xbc907aec	-0.017636739
150	0xbc629883	-0.013830307
151	0x3cadc21f	0.021210728
152	0x3c195ddc	0.009360757
153	0xbcedfcdd	-0.029051239
154	0xbc79f4d7	-0.015256128
155	0x3b4c8392	0.0031206352
156	0xbc71cf2f	-0.014758869
157	0x3bc64f6c	0.0060519483
158	0x3a449c8b	0.00075001334
159	0x3ca733db	0.020410469
160	0x3d090136	0.03344842
161	0x3d0d5ee1	0.03451431
162	0xbd012325	-0.031527657
163	0xbd3b689f	-0.04575407
164	0x3cd96a74	0.026540019
165	0xbc39ef06	-0.011348492
166	0x3b00e5f8	0.0019668322
167	0x3c3cb75c	0.011518326
168	0xbb9a0e7c	-0.0047014337
169	0xbb9bd9bc	-0.0047561806
170	0x3c66b574	0.014081348
171	0x3c848d45	0.016180644
172	0x3cc9425d	0.024567777
173	0xbcf228c1	-0.029560449
174	0xbcdd928c	-0.027047418
175	0x3bbe509e	0.00580795
176	0x3c457d78	0.01205384
177	0x3c128a8c	0.008944165
178	0xbc575bc2	-0.013144435
179	0x3b640f74	0.003479925
180	0x3b051879	0.0020308776
181	0xbc6f9308	-0.014622457
182	0x3c63b403	0.013897899
183	0xbcdc10fc	-0.026863568
184	0xbba3427a	-0.00498229
185	0xbc25f50e	-0.010129226
186	0x3c48886c	0.012239557
187	0x3b9cb651	0.004782476
188	0xbcdc52ba	-0.026894916
189	0x3d18ed89	0.037335906
190	0xbd1f5e82	-0.03890849
191	0x3c7c1724	0.0153863765
192	0xbd0584da	-0.0325974
193	0x3b8f9ace	0.004382468
194	0xbce2384c	-0.027614735
195	0x3ba403e5	0.005005347
196	0xbc4f2297	-0.012642524
197	0x3be5ca7e	0.0070126643
198	0xba8d70db	-0.001079108
199	0x3c80c242	0.01571763
200	0xbcf196f9	-0.029490935
201	0xbd06f378	-0.032947034
202	0xbb7dc499	-0.0038721918
203	0xbcd0dc89	-0.025495784
204	0x3cc355e3	0.023844665
205	0x3cb49a8b	0.022046348
206	0xbbfbe6f6	-0.007687445
207	0x3c0a4968	0.008440353
208	0x3c4241f2	0.011856543
209	0xbc8addcd	-0.016951466
210	0xbbd0516c	-0.0063573625
211	0x3c966915	0.018360654
212	0xbba4f41a	-0.005033982
213	0xbcbfb3af	-0.02340111
214	0x3c41ca9c	0.011828091
215	0x3cc74e3c	0.024329297
216	0xbb1cb146	-0.0023909374
217	0xbcc8cf7b	-0.024512997
218	0xba03553c	-0.00050099543
219	0x3c8ef679	0.017451512
220	0xbb5c6433	-0.003362906
221	0x3cc89d93	0.0244892
222	0xbcda7487	-0.026666893
223	0x3b6ac342	0.003582195
224	0xbc414f93	-0.011798757
225	0xbc1804e2	-0.009278508
226	0x3cc04a22	0.02347285
227	0xbc01043a	-0.007874543
228	0xbc5028d4	-0.012705047
229	0x3af2a99f	0.0018513686
230	0x3b867430	0.004103206
231	0x38f09eea	0.00011473692
232	0x3c82e02d	0.015976036
233	0xbb6ae977	-0.0035844722
234	0x3c0ea31c	0.0087058805
235	0x3c9d4c90	0.019201547
236	0x3b8b5388	0.004251901
237	0x3b9c6d0b	0.004773741
238	0xbbb4ea01	-0.0055210595
239	0xbc96cb46	-0.018407475
240	0xbc8c31cc	-0.017113589
241	0xbcfc87fd	-0.030826563
242	0x3c26f0b7	0.010189227
243	0xbcf9860a	-0.030459423
244	0x3c4569ac	0.01204912
245	0x3c312276	0.010811439
246	0x3be2ed11	0.006925233
247	0x3bae4c83	0.0053191795
248	0x3c8d70a2	0.017265622
249	0xbcb44a83	-0.022008186
250	0xbca7ab37	-0.020467384
251	0xbc454309	-0.012039908
252	0xbce8b75d	-0.028407747
253	0x3b09848a	0.002098354
254	0x3d0c6844	0.034279123
255	0x3cff8511	0.03119138

bottleneck.bias f4 [256]
0	0x32476024	1.1605184e-08
1	0xb3c40faf	-9.129814e-08
2	0x33219213	3.7618587e-08
3	0xb349cd69	-4.698578e-08
4	0xb34a1759	-4.7053025e-08
5	0xb2f62d53	-2.865878e-08
6	0x3371f3fc	5.6334088e-08
7	0x32a84c7a	1.9592552e-08
8	0x330b8754	3.248654e-08
9	0xb2c4b209	-2.2898364e-08
10	0xb32e5caa	-4.059681e-08
11	0xb302d441	-3.0461027e-08
12	0xb32b2540	-3.984792e-08
13	0xb3b9d588	-8.653575e-08
14	0xb29c1ab8	-1.817294e-08
15	0xb3ca7650	-9.427879e-08
16	0x33a49cc2	7.665359e-08
17	0xb2a40d12	-1.9098056e-08
18	0xb2c95e50	-2.3442368e-08
19	0xb3b2e2bd	-8.3300144e-08
20	0xb297c50a	-1.7668317e-08
21	0x32d54394	2.4827195e-08
22	0xb3b4b853	-8.4154316e-08
23	0x33e47036	1.06374884e-07
24	0x33db3869	1.0208243e-07
25	0x322f5486	1.0205559e-08
26	0xb29f4261	-1.8540222e-08
27	0x32b24cb2	2.0756804e-08
28	0xb3552ccc	-4.963367e-08
29	0xb2500914	-1.2109258e-08
30	0x338552f6	6.2083856e-08
31	0xb204772a	-7.710506e-09
32	0xb413779f	-1.373396e-07
33	0x3305cd67	3.1153288e-08
34	0xb3f665b4	-1.14737674e-07
35	0x31cdaf2d	5.9862004e-09
36	0x345a54df	2.0333708e-07
37	0xb3178ac7	-3.5283644e-08
38	0xb38a0585	-6.42713e-08
39	0x32fe731f	2.9621843e-08
40	0x332cfea4	4.0278465e-08
41	0xb3b5e029	-8.469244e-08
42	0x3139bdc1	2.7028906e-09
43	0xb3a26d34	-7.563577e-08
44	0xb3d446c7	-9.8848936e-08
45	0xb1351991	-2.63535e-09
46	0x33a4bb48	7.6709114e-08
47	0x3304ae50	3.089218e-08
48	0xb3e9818e	-1.0873474e-07
49	0xb137c398	-2.6741187e-09
50	0x32e54ebd	2.6694915e-08
51	0xb2d55891	-2.4836739e-08
52	0x31595c91	3.1630274e-09
53	0x33863341	6.249184e-08
54	0xb3333131	-4.1721425e-08
55	0xb3c880f0	-9.336679e-08
56	0xb3df489c	-1.0397454e-07
57	0xb3a04673	-7.463395e-08
58	0x33d778f3	1.0033718e-07
59	0x32c1d14d	2.2563336e-08
60	0xb2a31a2a	-1.8987595e-08
61	0x33eeed3c	1.1125891e-07
62	0xb2e6a572	-2.685076e-08
63	0x338bcf75	6.510428e-08
64	0x33039f4f	3.0645705e-08
65	0x31c17e9e	5.631434e-09
66	0x33c6809c	9.2434874e-08
67	0x33bb8dca	8.733657e-08
68	0xb3c6aa8a	-9.2511144e-08
69	0x32c92c83	2.3419721e-08
70	0x329ddf91	1.8378872e-08
71	0xb43e8991	-1.7745175e-07
72	0xb3497872	-4.6908504e-08
73	0xb3244fa0	-3.8256644e-08
74	0xb303a958	-3.065483e-08
75	0xb0825780	-9.483614e-10
76	0xb3a94f8e	-7.884147e-08
77	0xb40da3ad	-1.3191193e-07
78	0x33ac77ef	8.03119e-08
79	0xb397f2b5	-7.0756336e-08
80	0xb385aea3	-6.2250614e-08
81	0xb33333e8	-4.1723894e-08
82	0xb37d4c57	-5.8975584e-08
83	0x33021cc5	3.029415e-08
84	0xb32ab129	-3.9742336e-08
85	0x32c4a07f	2.2890388e-08
86	0x33c9cb9b	9.3968275e-08
87	0x33aeac9e	8.133905e-08
88	0xb25a3394	-1.2700998e-08
89	0x31d04c69	6.0622836e-09
90	0x339195dc	6.779348e-08
91	0xb3ba6b26	-8.68079e-08
92	0xb391d517	-6.7908495e-08
93	0x33c4e5c0	9.1687525e-08
94	0xb2e344cf	-2.6457569e-08
95	0x33373fdc	4.2666088e-08
96	0x339bdf96	7.25842e-08
97	0x3400767a	1.196403e-07
98	0xb2b85c15	-2.1462293e-08
99	0x340a4ed6	1.2880932e-07
100	0x332df8f1	4.0506112e-08
101	0x32b4aa63	2.103224e-08
102	0xb3898d60	-6.4052756e-08
103	0x3348b2ca	4.6728736e-08
104	0x336b73e2	5.4820596e-08
105	0x3196961d	4.3826405e-09
106	0x3330ddfa	4.118008e-08
107	0xb2e19faf	-2.6266063e-08
108	0x33066c1d	3.1297635e-08
109	0xb2151b28	-8.679116e-09
110	0x33451cd9	4.5893874e-08
111	0x33e4a828	1.0647665e-07
112	0x32d85202	2.5183002e-08
113	0xb21ec897	-9.242419e-09
114	0xb3b89eea	-8.597074e-08
115	0x32b70c40	2.1309575e-08
116	0x33ef9fbc	1.115836e-07
117	0xb3e18fc4	-1.050353e-07
118	0xb25f5bb0	-1.3001156e-08
119	0xb319dda0	-3.5824655e-08
120	0x31d1ae2a	6.1025007e-09
121	0x32e79248	2.695846e-08
122	0x33ba560c	8.676952e-08
123	0xb3b8b618	-8.60129e-08
124	0x32f70653	2.875746e-08
125	0x3369211e	5.427966e-08
126	0xb0b0311f	-1.2819646e-09
127	0x33f0f1bd	1.1219843e-07
128	0x3363805b	5.2969295e-08
129	0x33ee1041	1.1085695e-07
130	0xadbf75f4	-2.1766568e-11
131	0x3436302b	1.6967594e-07
132	0xb3f51790	-1.14129875e-07
133	0x3311ca32	3.394434e-08
134	0xb366c818	-5.3733032e-08
135	0xb3a1be4b	-7.531761e-08
136	0x33ae1b0b	8.1074255e-08
137	0x33bff424	8.9385395e-08
138	0x32f10a4d	2.8060777e-08
139	0xb3b48850	-8.406698e-08
140	0x333343f1	4.1738478e-08
141	0x33eb9f0c	1.0971971e-07
142	0xb22e2769	-1.0137094e-08
143	0x33a93910	7.8800554e-08
144	0x3228343a	9.790762e-09
145	0x338ebcbb	6.64672e-08
146	0xb36726b7	-5.381909e-08
147	0x2fe859eb	4.2264445e-10
148	0x32a58c24	1.9272257e-08
149	0xaf9719c5	-2.748505e-10
150	0xb3e0bbd9	-1.0464982e-07
151	0xb3d36ded	-9.8454485e-08
152	0xb33977cc	-4.3182624e-08
153	0x3390603c	6.7230275e-08
154	0x31ce5caa	6.0059238e-09
155	0x33d14ed3	9.746659e-08
156	0xb349788f	-4.6908607e-08
157	0x325c754a	1.2832354e-08
158	0x33467f52	4.6216265e-08
159	0xb36ff0a7	-5.5865396e-08
160	0xb05b87dd	-7.986481e-10
161	0x334406f6	4.5641137e-08
162	0xb38cfda7	-6.565397e-08
163	0xb4126d15	-1.3636993e-07
164	0xb333c26d	-4.1853514e-08
165	0xb1ebc138	-6.8613666e-09
166	0x3422c647	1.5159559e-07
167	0xb3b77fda	-8.5448576e-08
168	0x3171de8a	3.5196615e-09
169	0xb2d42f12	-2.4701453e-08
170	0x330eef0e	3.327937e-08
171	0x3296e6b7	1.7567215e-08
172	0x335407d8	4.936723e-08
173	0xb33530cc	-4.2186727e-08
174	0x3324c1b7	3.8360408e-08
175	0xb39460da	-6.909404e-08
176	0xb31fe10b	-3.7224748e-08
177	0xb437ef79	-1.7130323e-07
178	0xb3e94c98	-1.086384e-07
179	0xb3835702	-6.1159895e-08
180	0x3334aed1	4.206851e-08
181	0x33a50015	7.683426e-08
182	0xb3a0fb7a	-7.496324e-08
183	0x339bbf0f	7.252503e-08
184	0xb32074e6	-3.735922e-08
185	0x32fd3125	2.9475425e-08
186	0xb35405c9	-4.9365358e-08
187	0x30309359	6.423782e-10
188	0x31bcbebe	5.493205e-09
189	0xb2b874f0	-2.1473596e-08
190	0x338cc120	6.554387e-08
191	0xb3aa7817	-7.938086e-08
192	0x3326c618	3.8830052e-08
193	0xb3a8a8f0	-7.853839e-08
194	0xb39c3d1c	-7.275432e-08
195	0xb38c7cd2	-6.541963e-08
196	0xb3aa35c9	-7.926025e-08
197	0x3377ca40	5.7693114e-08
198	0xb24c27b0	-1.1883387e-08
199	0x32ba3e1c	2.1681494e-08
200	0xb344770b	-4.5743075e-08
201	0xb353fa6b	-4.935502e-08
202	0xb2f7358e	-2.8778938e-08
203	0xb367632f	-5.3874086e-08
204	0xb403d9dd	-1.2279584e-07
205	0xb3f65602	-1.14709124e-07
206	0xb1d428b1	-6.174638e-09
207	0x326c509d	1.3755337e-08
208	0xb23c37ea	-1.0955754e-08
209	0x332e0572	4.0517484e-08
210	0x33cd7822	9.5679084e-08
211	0x30c23bab	1.4132316e-09
212	0xb378daed	-5.794111e-08
213	0xb402e99e	-1.2192183e-07
214	0xb31c1a49	-3.6345487e-08
215	0xb3840495	-6.1475625e-08
216	0x318f4377	4.1695176e-09
217	0x33549dd0	4.9503626e-08
218	0x334eb812	4.8130524e-08
219	0x322729b1	9.730159e-09
220	0xb3b23048	-8.297553e-08
221	0xb30ecb83	-3.3247044e-08
222	0x33695e2a	5.433518e-08
223	0x33a36a1e	7.6095816e-08
224	0x331a77c8	3.596486e-08
225	0xb2a94e0a	-1.9709677e-08
226	0x33c6aa8c	9.251116e-08
227	0xb39d423c	-7.32293e-08
228	0xb3a3140a	-7.593924e-08
229	0x33dc3ac3	1.0255237e-07
230	0xb39581cf	-6.961965e-08
231	0x3342e182	4.5374243e-08
232	0xb358d682	-5.0486513e-08
233	0x3340766e	4.4811195e-08
234	0xb1c8d5b0	-5.8450595e-09
235	0x33f62ec5	1.1463775e-07
236	0xb38a8251	-6.44983e-08
237	0xb30bb719	-3.2529986e-08
238	0xb2b2acb1	-2.0800458e-08
239	0x32c9029e	2.340067e-08
240	0xb438214b	-1.7148447e-07
241	0xb1dd1e71	-6.4354073e-09
242	0xb34c0523	-4.7502123e-08
243	0x334d1ab8	4.7754583e-08
244	0x331123e3	3.3793082e-08
245	0x33138988	3.435119e-08
246	0xb326de5a	-3.8852114e-08
247	0xb3360c42	-4.2386326e-08
248	0xb3cc182e	-9.5038885e-08
249	0x33173439	3.5204923e-08
250	0xb42f7960	-1.6342301e-07
251	0x33162786	3.4960543e-08
252	0x33f3d3d7	1.1354103e-07
253	0x32fe7ab4	2.962529e-08
254	0x32649a74	1.3306465e-08
255	0xb3368a46	-4.2500936e-08
