ckps/source/uda/domainnet/quickdraw_0/source_C.pt (torch, 358186 bytes, 3 tensors)

fc.bias f4 [345]
00000000: 8da1 13bd 48e7 803c f5cd c03a 14d8 0fbb
00000010: 4401 a83c 703f 613c 3197 26bc 28b9 09bc
00000020: 7a72 8a3c 2e7a 073c e9f8 b9bc 4390 41bb
00000030: 8df1 e5bb 9e32 133c f285 4a3c 14be 8fb9
00000040: 784b eb3b 7594 a53b ef6e 07bc 8231 b53b
00000050: 4833 f1bb 42f7 73bc 99e4 cebb bbd9 04bd
00000060: a3e5 063c 5101 57bc a7c3 5a3c 33ab b2bc
00000070: 098f e4bc fa04 923b 1a60 ad3b 5021 e7bc
00000080: 19c2 8bbb 9826 d1bb 487d f6bc ea3c b73b
00000090: faa1 f8ba 801f 9bbc 0923 083c 3dfd 9dbb
000000a0: 2cfa 7bbb a65e 6fbc a55a 64bc f007 40bb
000000b0: b3ec 1cbc e754 82bc e1be faba 75bf acbb
000000c0: 7090 67bc e98b c93c 29b3 9ebc 5313 5abc
000000d0: 7a50 833c 3cd0 ffbb 03ce 7cbb 759c 6f3c
000000e0: 8579 9bbc 69ee 4f3c 09c3 6b3c 5c9f 973b
000000f0: 9029 383a 9af1 f3bb 4296 1cbc 8564 8dbb
00000100: d394 153c 167c 3c3c bae9 ae3b d744 56ba
00000110: d750 bfbb dfb1 7abc 0a6e b2bc 2037 de3c
00000120: b217 cabc e8d7 17b9 96d8 223c ac38 faba
00000130: 00cc e83c 243a 9b3b 239e 823c 8340 f2bc
00000140: 7601 993b 8bb3 9e3a f53d b9b8 bfef 04bd
00000150: 51e6 fa3b 504a d93c ed87 96bb 2752 a2bc
00000160: 84a4 4d3c 930e ddbb 836b d4bc a7e3 19bd
00000170: cb9a 843b bf15 d83c 2e2a 183c a57d bfbc
00000180: 5f43 fcba 19d0 983c 00cc 3f3c 08d4 96bb
00000190: 64d8 a13c 2d69 ad3b bb77 ffbb a230 653b
000001a0: a8a9 173d b9a9 80bc 468d ea3a 3586 6dbc
000001b0: 1af4 523c a9aa a53b 0a74 49ba 7ce4 fd3b
000001c0: a629 8cbc 53a8 c1bb 28a3 a33c 38bf 3cbc
000001d0: 8b2a 833c eb36 90bb 0251 33bc ef49 cabb
000001e0: 4b1a 483c 7e55 603c f3f1 d1bb b7b3 77bb
000001f0: 129c 043b 0506 d8bc e974 80ba 6b06 903c
00000200: aa55 01bd aea0 873b 977c f53b 26ce 5e3b
00000210: f895 863c 2466 dc3b f3f4 12bb d1f2 833c
00000220: db88 bc3b e613 fc3c a2ea 733a 38e7 00bc
00000230: da51 073d c04c acbc 493f f8bb ae90 aabb
00000240: cdb3 bc3c b334 31bc 307a 34bc b4df 323b
00000250: b1e2 d0bb d721 173c a802 3aba 29b3 2cbb
00000260: 2008 8b3c ff11 533c 98d3 633c 2213 c13b
00000270: 48cf d83c d0b4 493c db11 b43b 9658 afbb
00000280: 577b 71bc 3f7a 13bd 09bc 63bb ca92 4cbc
00000290: 7cbf 953c 4d55 94bc 01af 1a3c 6aeb ca3b
000002a0: 8fc9 1cbd da39 3abb 6143 9db9 d052 d4ba
000002b0: e5ec 933b 03e9 973c 95cd 293c 0075 72bb
000002c0: 09d5 6ebc 8569 da3b ce50 bd3b aadb 5ebc
000002d0: 7a57 03bd 4b9b 40bc 6aaf 74bc 5a14 983c
000002e0: 100e 4ebb 9b52 d83a e224 513a 89ce 19bc
000002f0: 29f3 9abc d9bd 5dba 55ec 3e3c 1eff 16bc
00000300: cd5b 4c3b ffb4 953a 4ed8 debb 1726 bcba
00000310: 3a32 44bc f9a9 b0bc 788f 0f3b f2af 6dbb
00000320: 49b6 673c a28e e73c cf7b 15bb 5999 c7bc
00000330: 997b f1bb 4807 8ebc d5a3 8cbc 66b3 9e3b
00000340: 862c 0cbb a2a8 3c3c dd95 7d3c 4a32 2b3c
00000350: 655f 9ebb cf3d 2dbc 8f12 0abc 57d5 ce3b
00000360: 62ca b43b 3d2e b2bc 87b6 1fbc 17f1 e0bc
00000370: 62b3 cbbb 8378 393c a72e f53b 5133 09bc
00000380: 943e 493c e9bc d63b 5dbf bbbc 610a 51bc
00000390: 66ab 1ebd d645 e5bc 28cb afbb cab2 7cbc
000003a0: 0941 f13b 0496 f8bb c691 243b 12f3 313c
000003b0: c974 c5bc 2c44 eabb 7440 0dbc 70da cd3c
000003c0: 63cc 84bc f127 78bc b2c4 193c 0ca9 66bc
000003d0: 8cf6 473b c649 e3ba d18a 423c 9359 b53c
000003e0: 38ff cd3b 735d 243d bc4a 803b fe13 59bb
000003f0: fd80 99bb 3022 f33b 7e35 94bc 064d ccbb
-0.03604274 0.015735283 0.0014709817 -0.002194886 0.020508416 0.013748035 -0.010167883 -0.008405961
0.01690029 0.008268876 -0.022701697 -0.002953545 -0.0070173205 0.008984236 0.012361037 -0.00027416705
0.0071806274 0.005053098 -0.008266195 0.0055295834 -0.0073608495 -0.014890494 -0.006313872 -0.032434206
0.008233461 -0.013122872 0.013352311 -0.02181015 -0.027900236 0.0044561597 0.005290997 -0.028214127
-0.0042650816 -0.0063827746 -0.030089036 0.0055919783 -0.0018969171 -0.018935919 0.008309134 -0.004821448
-0.0038448675 -0.014609968 -0.013937627 -0.0029301606 -0.009577918 -0.015909625 -0.0019130373 -0.005271847
-0.014133558 0.024602847 -0.01937254 -0.013310271 0.016029585 -0.007806806 -0.003857494 0.014624705
-0.018978843 0.012691119 0.014389762 0.0046271514 0.0007025236 -0.0074445726 -0.009557309 -0.0043149614
0.009129721 0.011504194 0.005337921 -0.000817371 -0.0058384943 -0.015301197 -0.021780986 0.027125895
-0.024669502 -0.00014480914 0.009939333 -0.0019090376 0.028417587 0.0047371555 0.015944546 -0.029571777
0.0046693636 0.0012107951 -8.833028e-05 -0.032455202 0.0076568504 0.026524693 -0.0045938403 -0.019814564
0.012551431 -0.006746122 -0.025930172 -0.03757062 0.004046773 0.026377557 0.0092874 -0.023375342
-0.0019246152 0.018653916 0.011706352 -0.004602913 0.019756503 0.005292079 -0.0077962554 0.0034971614
0.03702703 -0.01570593 0.0017894886 -0.0144973295 0.012875581 0.0050557447 -0.00076848327 0.0077481847
-0.017109703 -0.0059099584 0.01997526 -0.0115201995 0.016011497 -0.004401078 -0.010944607 -0.0061733644
0.0122133 0.013692258 -0.0064070164 -0.0037796327 0.0020234627 -0.026370058 -0.0009800467 0.017581185
-0.031575836 0.0041390276 0.007491659 0.0033997386 0.016428933 0.0067260433 -0.0022423833 0.016106995
0.005753619 0.030771207 0.00093046774 -0.007867627 0.033037044 -0.021032691 -0.0075759036 -0.0052052354
0.023034954 -0.010815787 -0.01101546 0.0027293982 -0.00637468 0.009224377 -0.0007095733 -0.0026351905
0.016971648 0.012882709 0.013905428 0.0058921734 0.026466027 0.012311175 0.0054952926 -0.0053511364
-0.014738879 -0.036005255 -0.003474953 -0.012486169 0.018279783 -0.01810708 0.009441138 0.0061926143
-0.03827816 -0.002841583 -0.00029995575 -0.0016198996 0.004514324 0.018543726 0.010363956 -0.0036996007
-0.014577159 0.006665411 0.005777455 -0.013602177 -0.032065846 -0.011755775 -0.0149344 0.018564392
-0.0031441487 0.001650411 0.0007978213 -0.009387621 -0.018914776 -0.00084587705 0.011653026 -0.009216098
0.0031182647 0.0011421739 -0.006800688 -0.0014354613 -0.011974866 -0.021565424 0.0021905582 -0.0036268202
0.014142581 0.028266255 -0.0022809391 -0.024365114 -0.0073694703 -0.017337456 -0.017167965 0.0048431633
-0.0021388843 0.011514815 0.015477625 0.010449002 -0.0048331493 -0.010573818 -0.008427276 0.006312053
0.00551729 -0.021750564 -0.009748108 -0.02745871 -0.0062164525 0.011320236 0.007482368 -0.008374051
0.012282986 0.0065532816 -0.022918398 -0.012758822 -0.038737677 -0.027987402 -0.0053647943 -0.015423486
0.007362489 -0.0075862426 0.0025111302 0.010861175 -0.024103539 -0.00714924 -0.008621324 0.025128573
-0.01621074 -0.0151462415 0.009385275 -0.01407839 0.0030511944 -0.0017340712 0.011873917 0.022137439
0.006286528 0.040128183 0.003915159 -0.0033123489 -0.004684566 0.007419847 -0.018091913 -0.006234768

fc.weight_g f4 [345, 1]
00000000: 6319 6e3f 4eac 583f a4e2 623f 0a2e 603f
00000010: b908 523f 58fc 603f 2cf8 643f b4bc 633f
00000020: 5eaa 583f 775d 5b3f 2083 6b3f 6c07 643f
00000030: 3f0b 5a3f d448 613f 72f9 593f 2867 5a3f
00000040: 3cfd 5b3f d5dd 5d3f d9b4 633f fef3 563f
00000050: 6697 5b3f e96b 663f f8fa 603f 7c47 6c3f
00000060: eb39 5f3f 710f 683f fdb3 5e3f 97c8 693f
00000070: 8b9f 6d3f 2cee 543f 6fec 5b3f 0115 723f
00000080: 0e30 663f abe4 613f 08c6 6d3f f3c7 5b3f
00000090: 63b0 5e3f 3c9c 6b3f 1062 593f 4b44 633f
000000a0: 872b 5f3f 4f67 713f 7664 673f dae8 583f
000000b0: 2796 623f 6fe1 613f b013 5f3f b876 5f3f
000000c0: 61ed 5c3f 881c 513f dca5 633f 45d8 613f
000000d0: 951f 4e3f fad8 623f 5ccb 5c3f e29c 593f
000000e0: a5c1 653f 0878 583f a387 5b3f 921a 623f
000000f0: 6454 663f 90ad 503f 161e 5d3f e9ac 5b3f
00000100: a8c8 593f 36fd 543f 652c 5c3f b322 5d3f
00000110: 973c 5c3f 5b3c 5e3f ed69 6b3f 6abd 563f
00000120: a409 743f fa7c 553f f63e 583f 671b 623f
00000130: 6a7e 573f 16b0 613f 73de 5f3f dead 763f
00000140: 1923 5c3f aac3 623f f6fa 623f 3abc 6c3f
00000150: c3cb 623f bad3 513f 4dda 573f 89fb 6e3f
00000160: 233d 5b3f 9198 683f 7ffc 763f d7b1 6f3f
00000170: c657 623f 66a7 473f 2e89 603f 1732 633f
00000180: 51a8 5c3f a30b 5b3f 2ad5 5d3f 0561 5d3f
00000190: 9efb 533f 354d 633f f4c2 653f e39f 603f
000001a0: e280 463f 5be2 653f 4e7b 553f f745 5b3f
000001b0: 49de 5c3f fbae 543f 2b09 6b3f 2ffc 5f3f
000001c0: bcab 623f 1289 673f a666 563f 9017 613f
000001d0: 0141 563f 81a5 623f 090f 6c3f db15 663f
000001e0: 0703 5f3f 2f9d 533f 80f3 5c3f bdbb 5a3f
000001f0: 3a5f 653f 8c4b 693f 3e0a 623f 1ddb 5a3f
00000200: e403 753f 628e 5b3f 6073 563f 9279 623f
00000210: efb8 513f ee0a 5c3f 6820 593f 5132 553f
00000220: 7806 603f 8f4a 513f f9ee 583f 50e3 623f
00000230: 2664 4e3f d86b 663f 66da 5f3f b170 643f
00000240: 91f4 5e3f d7d4 683f 3a60 603f ad12 623f
00000250: 7a18 583f 721d 573f b03e 5c3f 17f2 673f
00000260: 2ad7 523f 6f12 533f fc39 563f 5cd9 593f
00000270: bd03 4d3f e6de 563f 9e25 5b3f 03ac 5f3f
00000280: e021 623f f02f 663f 7db7 693f f756 6a3f
00000290: 1123 583f 183f 653f da52 593f 0a79 623f
000002a0: ac15 643f 16b6 603f 1bcd 5b3f 2252 5f3f
000002b0: cde3 5a3f 84f2 5b3f 069a 563f 0129 5f3f
000002c0: 204b 6d3f 9e57 4e3f e53e 663f af2a 643f
000002d0: 8087 713f 2786 6e3f 5fd1 623f 31c9 5a3f
000002e0: 2a21 643f 854f 5c3f c14d 623f 3c81 653f
000002f0: cf80 6c3f 80a8 5b3f 0693 573f 35d8 783f
00000300: 5e87 663f cdc7 5b3f 7adc 613f fadc 5b3f
00000310: 0cf0 6d3f faab 693f 4a32 633f acfa 5a3f
00000320: 8c55 5e3f 9e24 503f d65f 613f c7f2 673f
00000330: f50e 623f 5265 6a3f adea 653f f156 523f
00000340: 753f 5a3f 9eea 573f 6d56 593f a55b 593f
00000350: 5dbe 663f e4bf 623f 2a9f 633f b2a8 5e3f
00000360: 4ecf 5a3f deb1 6a3f 4120 613f 64fd 723f
00000370: 77d6 5e3f f64f 573f 952a 5b3f 7f88 6c3f
00000380: 569f 593f c596 593f 3a1b 6c3f 5d2f 623f
00000390: 9a3a 6e3f 87ae 703f 34f7 5f3f b66d 633f
000003a0: d198 683f 25ac 6c3f 1d57 603f 736f 5b3f
000003b0: e2e2 663f 8f48 623f bac2 663f a919 4f3f
000003c0: 577c 5a3f 4fc6 643f d01c 643f 4038 643f
000003d0: 54f2 643f 3e87 633f 089d 5a3f bc10 533f
000003e0: 62ca 5f3f f701 583f b756 523f 13bf 5c3f
000003f0: 3a77 5a3f 33de 643f a267 683f 4602 603f
0.9300749 0.84637916 0.88627076 0.8757025 0.8204456 0.87885046 0.8944118 0.88959813
0.8463496 0.8568949 0.91996956 0.89073825 0.8517341 0.8800175 0.8514625 0.85313654
0.8593328 0.86666614 0.88947827 0.8396605 0.8577789 0.9000841 0.8788295 0.92296576
0.8719775 0.9064856 0.8699339 0.913217 0.9282157 0.8317592 0.85907644 0.945633
0.89917076 0.88239545 0.92880297 0.85851973 0.86987895 0.9203527 0.84915257 0.8877608
0.8717579 0.9429826 0.90387666 0.84730303 0.88510364 0.8823461 0.87139416 0.87290525
0.8629971 0.8168416 0.88924956 0.88220626 0.8051694 0.8861233 0.862478 0.8500501
0.89748603 0.84558153 0.8575384 0.88321793 0.8997252 0.81514835 0.8637403 0.85810715
0.850718 0.8319887 0.8600524 0.8638107 0.8602995 0.86810845 0.91958505 0.8388277
0.9532721 0.83393824 0.8447107 0.8832306 0.8417727 0.8815931 0.87448806 0.9635905
0.85991055 0.8857981 0.88664186 0.9247471 0.88592166 0.81963694 0.84317476 0.9335256
0.8564016 0.908578 0.9647903 0.9363074 0.8841518 0.77989805 0.8770932 0.88748306
0.8619433 0.8556463 0.8665339 0.86476165 0.8280581 0.88789684 0.897506 0.8774397
0.7754041 0.89798516 0.83391273 0.8565363 0.8627668 0.830795 0.91810864 0.87494177
0.88543296 0.9044353 0.8375038 0.8792658 0.8369294 0.8853379 0.9221044 0.898771
0.87113994 0.8266172 0.8630905 0.85442716 0.8959843 0.911309 0.8829688 0.8549059
0.9570906 0.85764134 0.837698 0.8846675 0.8192281 0.8595418 0.84815073 0.832799
0.8750987 0.8175439 0.84739643 0.886281 0.80621564 0.90008307 0.87442625 0.89234453
0.8709193 0.9094977 0.8764683 0.88309747 0.8441235 0.84029305 0.86033154 0.90603775
0.82359564 0.8245 0.8368223 0.8509729 0.8008383 0.83933866 0.85604274 0.87371844
0.8833294 0.89916897 0.91295606 0.9153895 0.8442851 0.895494 0.84892046 0.8846594
0.8909557 0.8777784 0.8585984 0.872347 0.85503846 0.85916924 0.8382877 0.8717194
0.92692757 0.80602443 0.8993972 0.8912763 0.9434738 0.9317345 0.88600725 0.85463244
0.89113104 0.8605884 0.88399893 0.8965032 0.92384046 0.85803986 0.84208715 0.97204906
0.90050304 0.85851747 0.88227046 0.8588406 0.9294441 0.9127804 0.8874861 0.85538745
0.86849284 0.81305873 0.8803686 0.90604824 0.8830407 0.9156085 0.8981121 0.8216391
0.8525308 0.8434237 0.848975 0.84905463 0.9013422 0.8857405 0.8891474 0.8697616
0.8547257 0.91677654 0.8793984 0.94917893 0.87046 0.84106386 0.8561185 0.92395777
0.8500875 0.8499568 0.92229044 0.8835352 0.9305817 0.9401631 0.8748658 0.8883928
0.9085818 0.9245017 0.87632924 0.85716933 0.90189946 0.88391966 0.9014088 0.8089853
0.8534598 0.89365095 0.89106464 0.8914833 0.89432263 0.8887824 0.8539586 0.8244741
0.87418187 0.84378 0.82163566 0.86229056 0.85338175 0.8940155 0.9078313 0.8750347

fc.weight_v f4 [345, 256]
00000000: 6b01 59bc 8003 8a3b 1e21 fcbc 059f 6ebc
00000010: e865 793a bf98 b7bb 84f1 1fbd f526 633c
00000020: cd02 95bc fade e1bc 69a8 cdbc f805 a3bc
00000030: 6c83 a33b 4369 adbc 9d93 dcba 0d9a eebc
00000040: 057d 77bc 9211 403c 66a4 2bbb f1b1 583c
00000050: f408 18bc eb66 f4bc 2279 d3ba 47f2 8339
00000060: a468 083a af6d abbc f0ea 4938 ce48 e7bc
00000070: 1642 afbb e942 063c 690b 893c 40e9 cebb
00000080: 4eb5 0bbc 7af2 5a3c c0a7 c63c 3a8d 82bc
00000090: 2f5d aebb 2b14 2fbc 1f8d 223d 25b6 d4ba
000000a0: e02f 85bc e5ee 153d 8084 6bbc 5d4a 8c3c
000000b0: c5fb 1cbc fdce 183d 359c 893c 9014 3c3c
000000c0: 0089 71bb cfe9 043d 6b54 83bc 5847 993b
000000d0: 0bb0 863c c42d e63b d20f e7bc 62fc 84bc
000000e0: 9af1 a3bb 3fa3 29bc 24aa 8fbc ed36 33bc
000000f0: f28c d0bb 09aa 98bc 1691 89bc 2de3 c6bc
00000100: d7b3 09bd ad9f 9f3c 4b5c 173b 5970 32bc
00000110: 2f9c 5fba 4aca 1b3d 60df 39bc 8f6d 79bb
00000120: a956 263c 33e1 25bc 4d78 abbc ecbd 123d
00000130: 9916 e0bc 5d07 2f3a c2bb 243c 4c71 21bb
00000140: a6a4 563c be35 a63b 3611 01bd c4ea a23c
00000150: 6afa 9b3a 5333 c1bc 8eeb 8f3c aad2 6dbb
00000160: 60f5 083c 3da3 5cbc 02cf 3ebc 9aff 913b
00000170: 4708 e53c c7c5 e43c 46e6 2fbb fda5 5a3c
00000180: 7cfb 5b3b 10cd 1cbc c0f8 0a3c 0252 aabc
00000190: 4e3e a4bc 8adf 003d 4d50 953c 51a4 b9b9
000001a0: 6b36 013d 8d90 413a 56a2 203b a886 5abc
000001b0: 646f 8dbc f872 3abc 6bb1 68bc f89c 1d3c
000001c0: e253 06bc fb7f 2bbc 0a90 523a c08f ffbc
000001d0: 612e b63c 609f 82bc 4dc1 033c f8a3 4e3c
000001e0: 9455 50bc 69f0 81bc 66ef 0d3c ad94 c1bc
000001f0: 0392 e03c e429 5c3b 2918 423b 1ac3 163d
00000200: d884 c8bc 81df 903c e41d 67bc 06af acbc
00000210: dba1 333b 88a7 873c d277 ddba 0052 a33b
00000220: 1197 243d a725 173b 0b58 853b ad89 103c
00000230: 9596 a2bb 1943 4f3b 7c5b 1fbc b7dd 9abc
00000240: afc8 513c 3faa ffbc 83ad 0bbd 4ac3 79bc
00000250: 3357 f0bc a67f 28bc e932 86bc 434f 82bc
00000260: f717 e13c 6889 fdbc 1955 d4bb 8337 2fbc
00000270: dc3c 963a 947b fbbb 7f12 223c d6cf a1bb
00000280: 7e19 d63c 6f40 22b9 ba4d 08bc af50 cc3c
00000290: 546c 6e3c d1ae 153c ac4e 7ebb 2c19 903c
000002a0: 5643 fbbb 32f6 83b9 b584 9d3b 3878 92bb
000002b0: c6f2 febc d027 c73c 7f94 3cbb 7221 00bd
000002c0: 128c 85bb a237 dcbb 973d fd3c fef1 4abc
000002d0: c676 6ebc c3e8 d23c 5151 943b e59c af3c
000002e0: 4c98 bbbb 3f7a fc3b fec7 60bc 37f4 153d
000002f0: 46ca bc3c 5f96 c83c 43f0 8a3c 7d8a fc3c
00000300: 6dc2 bebb 0718 bbbc 3725 c6bb 110a b03c
00000310: c965 4e3a cd99 5f3c e999 063a 877b 113b
00000320: 1f8d f03b 5478 b33a 184a b33c b54b babc
00000330: e501 ccbc a3eb 17bc 28a7 f63b 5599 8bbc
00000340: ba52 e13c 095d 92bc d62b 08bc fb5e c3bc
00000350: f109 93b9 9dbb 7fbc 796b debb 2dcf d03c
00000360: 1b2d ddbc 3a04 7e3c a961 f7bb 592a 683c
00000370: f229 63ba ec4b 813c e6c4 89bb 9d1b bd3b
00000380: bdde 8ebc 02a0 5a3b 406d 17bc 0fae 5e3c
00000390: 8d0c 96bc c11a 4bbc faf9 3a3c b87c bfbc
000003a0: 9378 783c ab2b 18bc be64 713c d99c dbbc
000003b0: 5d65 353c cfcf a43c 9989 fc3c 639d 4bbb
000003c0: 159c 6a3c 2a99 dabc 9cc6 8bbc 32c1 cb3c
000003d0: ad6f 16bd 432a 9c3b 45dd 4fbb 1e47 033d
000003e0: 909b 473b f422 b3bb b1e1 893c 9bd0 04bd
000003f0: 695b 9fbb 0223 d43c a9bf d138 2523 573c
-0.013244967 0.004211843 -0.03077751 -0.01456428 0.00095137814 -0.0056029256 -0.039048687 0.013864269
-0.018189812 -0.027572144 -0.025104718 -0.019900307 0.004990032 -0.021168357 -0.001682866 -0.029126192
-0.015105491 0.011722939 -0.0026190518 0.013226018 -0.009279478 -0.029834231 -0.0016134123 0.00025166778
0.0005203581 -0.020926325 4.8140937e-05 -0.028232958 -0.005348454 0.008194664 0.016729074 -0.0063144267
-0.008527113 0.013363475 0.024249911 -0.015936483 -0.005321167 -0.010685961 0.039685365 -0.00162286
-0.01625818 0.03660478 -0.014374852 0.017125303 -0.009581511 0.037306774 0.016798118 0.011479512
-0.003685534 0.03244954 -0.016031465 0.0046776943 0.016441366 0.0070244987 -0.028205786 -0.016233627
-0.0050031664 -0.010353862 -0.017537184 -0.010938388 -0.0063644582 -0.018635767 -0.016792815 -0.024278248
-0.033618774 0.019485319 0.0023095782 -0.010891044 -0.0008530048 0.038034715 -0.011344761 -0.0038059687
0.010152497 -0.010124492 -0.020931387 0.035825655 -0.027354525 0.00066768174 0.010054531 -0.002463418
0.013100779 0.0050723245 -0.031510554 0.019887336 0.0011900191 -0.023584044 0.017568376 -0.0036288896
0.008359283 -0.013466653 -0.011646034 0.004455519 0.027958049 0.027926339 -0.0026840135 0.013345239
0.0033566644 -0.009570375 0.008482158 -0.020791057 -0.02004924 0.031463183 0.018226767 -0.00035408375
0.031546038 0.00073839055 0.0024510822 -0.013337769 -0.01726503 -0.01137995 -0.014202456 0.009619944
-0.00819871 -0.010467525 0.0008032328 -0.031196475 0.022238912 -0.015945137 0.008041692 0.012612335
-0.012715716 -0.015861707 0.008663034 -0.023630464 0.027413374 0.0033594305 0.0029616451 0.036807157
-0.024477407 0.0176847 -0.014106248 -0.021079551 0.0027409706 0.016559377 -0.0016896671 0.0049841404
0.04018313 0.0023063214 0.0040693334 0.008821887 -0.0049617984 0.0031625687 -0.009726401 -0.01890455
0.012804194 -0.03120911 -0.03410102 -0.015244314 -0.029338455 -0.01028434 -0.016381698 -0.015906936
0.027477248 -0.03094931 -0.006479871 -0.010694387 0.0011462229 -0.007674644 0.009892105 -0.004938106
0.026135202 -0.00015473527 -0.008319313 0.024940817 0.014552195 0.009135918 -0.0038804216 0.017590128
-0.007667939 -0.00025169697 0.0048070797 -0.0044698976 -0.031121623 0.024310976 -0.0028775034 -0.031281896
-0.0040755356 -0.006720499 0.030913157 -0.012386797 -0.014554685 0.025745755 0.0045262952 0.021437118
-0.0057249423 0.0077050026 -0.013719557 0.036609855 0.02304567 0.024485765 0.016960269 0.030827755
-0.005821517 -0.022838606 -0.006046917 0.021489175 0.00078734435 0.013647509 0.0005134629 0.0022198872
0.0073410417 0.0013692477 0.021885917 -0.022741178 -0.024903247 -0.009272489 0.007527251 -0.017040888
0.027505267 -0.017866628 -0.008311233 -0.023849001 -0.00028045432 -0.015608695 -0.006787714 0.025489414
-0.026999047 0.015503937 -0.007549484 0.014170253 -0.0008665613 0.015783273 -0.0042043803 0.005771114
-0.017440194 0.0033359532 -0.009242356 0.0135913035 -0.018316532 -0.012396515 0.011412138 -0.0233749
0.015165466 -0.009287755 0.014733491 -0.02680819 0.01107153 0.020118622 0.03082733 -0.0031069152
0.014319439 -0.026684362 -0.017062478 0.024872396 -0.036727596 0.00476578 -0.003171758 0.032050245
0.0030457713 -0.005466813 0.01683125 -0.032425504 -0.004863192 0.0258956 0.00010001596 0.013130938
