ckps/source/uda/office-caltech/webcam_2/source_B.pt (torch, 532830 bytes, 6 tensors)

bn.weight f4 [256]
0	0x3f7db4f3	0.9910423
1	0x3f7daee5	0.9909499
2	0x3f7dbc8b	0.9911582
3	0x3f7d357e	0.9890975
4	0x3f7de63b	0.9917943
5	0x3f7d6fc2	0.98998654
6	0x3f7df34e	0.9919938
7	0x3f7da88c	0.9908531
8	0x3f7cf828	0.98816156
9	0x3f7daf75	0.9909585
10	0x3f7d2c4b	0.9889571
11	0x3f7cf072	0.9880439
12	0x3f7d6d1c	0.9899461
13	0x3f7db2de	0.99101055
14	0x3f7de97d	0.991844
15	0x3f7db263	0.9910032
16	0x3f7d7ad1	0.9901553
17	0x3f7d1f9f	0.98876375
18	0x3f7d8c82	0.9904252
19	0x3f7d67b2	0.9898635
20	0x3f7ddb91	0.99163157
21	0x3f7d201b	0.98877114
22	0x3f7d296f	0.9889135
23	0x3f7d1def	0.988738
24	0x3f7d7ffe	0.99023426
25	0x3f7d9467	0.9905457
26	0x3f7d9129	0.9904962
27	0x3f7d9cfc	0.99067664
28	0x3f7df590	0.99202824
29	0x3f7d8cbe	0.9904288
30	0x3f7da59b	0.9908082
31	0x3f7dcd86	0.9914173
32	0x3f7da0fd	0.99073774
33	0x3f7d7a22	0.99014485
34	0x3f7d8381	0.99028784
35	0x3f7dde2c	0.9916713
36	0x3f7d7fd8	0.990232
37	0x3f7e00d9	0.99220043
38	0x3f7d6379	0.9897991
39	0x3f7dab73	0.99089736
40	0x3f7db249	0.99100167
41	0x3f7d4385	0.9893115
42	0x3f7d92d9	0.99052197
43	0x3f7dd61b	0.99154824
44	0x3f7daf9f	0.990961
45	0x3f7d5e69	0.98972183
46	0x3f7cba5f	0.9872188
47	0x3f7d47af	0.98937505
48	0x3f7d7da7	0.99019855
49	0x3f7d5cbf	0.98969644
50	0x3f7d5488	0.9895711
51	0x3f7d6481	0.9898148
52	0x3f7d58d1	0.9896365
53	0x3f7d8c6e	0.99042404
54	0x3f7dbcc0	0.99116135
55	0x3f7d94c6	0.99055135
56	0x3f7d527f	0.98954004
57	0x3f7dc329	0.99125916
58	0x3f7dba54	0.9911244
59	0x3f7d3514	0.98909116
60	0x3f7dd8ca	0.9915892
61	0x3f7d73c1	0.9900475
62	0x3f7d3c04	0.989197
63	0x3f7dc2d3	0.99125403
64	0x3f7d748f	0.9900598
65	0x3f7d6e7e	0.9899672
66	0x3f7cb57c	0.98714423
67	0x3f7da456	0.9907888
68	0x3f7d854d	0.99031526
69	0x3f7da1a0	0.99074745
70	0x3f7d85b8	0.99032164
71	0x3f7d88a5	0.9903663
72	0x3f7d8480	0.99030304
73	0x3f7d9c4f	0.99066633
74	0x3f7d6e00	0.9899597
75	0x3f7d3237	0.98904747
76	0x3f7d7d3c	0.9901922
77	0x3f7d8060	0.9902401
78	0x3f7d82e8	0.9902787
79	0x3f7d9e5e	0.99069774
80	0x3f7dcdd1	0.99142176
81	0x3f7d9ee8	0.99070597
82	0x3f7dab37	0.9908938
83	0x3f7d73e5	0.99004966
84	0x3f7d87a0	0.9903507
85	0x3f7db9c1	0.9911156
86	0x3f7d2d6f	0.9889745
87	0x3f7e2704	0.99278283
88	0x3f7dc4d8	0.99128485
89	0x3f7d717c	0.9900129
90	0x3f7d658b	0.9898307
91	0x3f7d4423	0.98932093
92	0x3f7d79e0	0.9901409
93	0x3f7d72f0	0.99003506
94	0x3f7da05c	0.99072814
95	0x3f7dafc0	0.990963
96	0x3f7d5fec	0.9897449
97	0x3f7da1ad	0.9907482
98	0x3f7d587f	0.9896316
99	0x3f7db9fd	0.9911192
100	0x3f7da708	0.99082994
101	0x3f7d9a8e	0.99063957
102	0x3f7d9096	0.99048746
103	0x3f7d7142	0.9900094
104	0x3f7ce27a	0.98783076
105	0x3f7da3fe	0.9907836
106	0x3f7d7694	0.9900906
107	0x3f7dd0a3	0.9914648
108	0x3f7d0f2d	0.9885128
109	0x3f7d5e8b	0.98972386
110	0x3f7d5f4d	0.9897354
111	0x3f7d26cc	0.98887324
112	0x3f7cd441	0.98761374
113	0x3f7d73c7	0.9900479
114	0x3f7d9ee6	0.99070585
115	0x3f7d70b4	0.99000096
116	0x3f7d6b32	0.9899169
117	0x3f7e1e46	0.99264944
118	0x3f7d507b	0.9895093
119	0x3f7df336	0.99199235
120	0x3f7d8e7e	0.9904555
121	0x3f7d99dd	0.990629
122	0x3f7d1ea7	0.98874897
123	0x3f7d9565	0.9905608
124	0x3f7db1b3	0.9909927
125	0x3f7ddef9	0.99168354
126	0x3f7d8b97	0.9904112
127	0x3f7d7d16	0.9901899
128	0x3f7cf78e	0.9881524
129	0x3f7d837a	0.9902874
130	0x3f7d7ce0	0.9901867
131	0x3f7d94c8	0.9905515
132	0x3f7d8ad3	0.99039954
133	0x3f7d6e48	0.989964
134	0x3f7dc334	0.9912598
135	0x3f7d22de	0.9888133
136	0x3f7cd0be	0.98756015
137	0x3f7cfaf2	0.9882041
138	0x3f7ceb27	0.98796314
139	0x3f7d58b8	0.989635
140	0x3f7d5560	0.98958397
141	0x3f7d8ec6	0.9904598
142	0x3f7d8c4d	0.99042207
143	0x3f7e7bbc	0.99407554
144	0x3f7d3966	0.9891571
145	0x3f7da0f0	0.99073696
146	0x3f7d482e	0.9893826
147	0x3f7db4bd	0.9910391
148	0x3f7d967e	0.9905776
149	0x3f7dbb24	0.9911368
150	0x3f7d7ea4	0.99021363
151	0x3f7d9586	0.9905628
152	0x3f7e15f6	0.9925226
153	0x3f7da5f2	0.9908134
154	0x3f7d708f	0.98999876
155	0x3f7da6a8	0.9908242
156	0x3f7da94f	0.9908647
157	0x3f7d8bff	0.9904174
158	0x3f7d48f9	0.9893947
159	0x3f7dc4d1	0.99128443
160	0x3f7d8df8	0.9904475
161	0x3f7d84fe	0.99031055
162	0x3f7dc818	0.99133444
163	0x3f7d9272	0.9905158
164	0x3f7db580	0.9910507
165	0x3f7d8d1d	0.99043447
166	0x3f7da60a	0.9908148
167	0x3f7da9e1	0.9908734
168	0x3f7d93b2	0.9905349
169	0x3f7da713	0.9908306
170	0x3f7d7dd4	0.99020123
171	0x3f7d7720	0.99009895
172	0x3f7d6823	0.98987025
173	0x3f7d5ded	0.98971444
174	0x3f7da33d	0.99077207
175	0x3f7d6c9a	0.9899384
176	0x3f7d4bd2	0.9894382
177	0x3f7dbb4c	0.9911392
178	0x3f7dcf2a	0.9914423
179	0x3f7d8c19	0.990419
180	0x3f7dbc96	0.99115884
181	0x3f7d8baf	0.99041265
182	0x3f7d5557	0.98958343
183	0x3f7d9d79	0.9906841
184	0x3f7d631b	0.9897935
185	0x3f7d5d39	0.9897037
186	0x3f7d919e	0.9905032
187	0x3f7d29cb	0.98891896
188	0x3f7dcf75	0.9914468
189	0x3f7d7fc3	0.99023074
190	0x3f7d6f1a	0.9899765
191	0x3f7d8cdb	0.99043053
192	0x3f7d96f2	0.9905845
193	0x3f7dc9a3	0.991358
194	0x3f7db097	0.9909758
195	0x3f7d168a	0.98862517
196	0x3f7d7c9f	0.9901828
197	0x3f7d3765	0.9891265
198	0x3f7d89f2	0.9903861
199	0x3f7d9c98	0.9906707
200	0x3f7d4fa1	0.9894963
201	0x3f7d60b9	0.9897571
202	0x3f7d75c8	0.99007845
203	0x3f7dcff4	0.99145436
204	0x3f7d1f71	0.988761
205	0x3f7d8c4a	0.9904219
206	0x3f7dd80f	0.99157804
207	0x3f7d762d	0.99008447
208	0x3f7d93ca	0.99053633
209	0x3f7d629a	0.9897858
210	0x3f7d9207	0.99050945
211	0x3f7db8a3	0.9910986
212	0x3f7d4580	0.98934174
213	0x3f7dd071	0.9914618
214	0x3f7d5e30	0.98971844
215	0x3f7cf286	0.9880756
216	0x3f7e718e	0.9939202
217	0x3f7d5c18	0.9896865
218	0x3f7da55c	0.99080443
219	0x3f7d5ada	0.98966753
220	0x3f7d9749	0.9905897
221	0x3f7d5cbe	0.9896964
222	0x3f7d9667	0.9905762
223	0x3f7d6dbb	0.9899556
224	0x3f7d3d16	0.98921335
225	0x3f7e2599	0.9927612
226	0x3f7d93a8	0.9905343
227	0x3f7d88da	0.99036944
228	0x3f7d9308	0.99052477
229	0x3f7d8829	0.9903589
230	0x3f7d58db	0.9896371
231	0x3f7d6bb5	0.9899247
232	0x3f7d7713	0.9900982
233	0x3f7d87a3	0.9903509
234	0x3f7d4d59	0.9894615
235	0x3f7d0849	0.9884077
236	0x3f7d8908	0.9903722
237	0x3f7d6be7	0.9899277
238	0x3f7d751b	0.99006814
239	0x3f7d8f6b	0.99046963
240	0x3f7d191e	0.9886645
241	0x3f7e04f8	0.9922633
242	0x3f7caeb7	0.98704094
243	0x3f7d9db4	0.9906876
244	0x3f7d6797	0.9898619
245	0x3f7d6b28	0.9899163
246	0x3f7d8002	0.9902345
247	0x3f7d756f	0.99007314
248	0x3f7dc016	0.99121225
249	0x3f7df4cf	0.99201673
250	0x3f7d063f	0.98837656
251	0x3f7d190e	0.98866355
252	0x3f7dd974	0.9915993
253	0x3f7d1d8e	0.9887322
254	0x3f7d8525	0.9903129
255	0x3f7d955a	0.9905602

bn.bias f4 [256]
0	0x3b1fa8b5	0.0024362032
1	0x3a9adc7b	0.0011814976
2	0xbbe1ba96	-0.006888698
3	0x3ba3da8a	0.005000417
4	0xbc2ac5ca	-0.010423133
5	0x3b247035	0.0025091295
6	0x3bc6a757	0.006062429
7	0x3a8d744c	0.0010792105
8	0xbbbfd6da	-0.0058544697
9	0x3b7ae1bc	0.003828152
10	0xba001683	-0.0004886167
11	0x3a3e1fdd	0.0007252673
12	0x3915c4fa	0.00014283127
13	0xbbb43103	-0.0054990067
14	0x3bfba025	0.007679003
15	0xbb477e64	-0.0030440325
16	0xbb007884	-0.0019603083
17	0xba36c01d	-0.0006971376
18	0x3b2fbe72	0.0026816395
19	0x3b83cd18	0.004022252
20	0x3b105e01	0.0022028687
21	0xbb65094e	-0.0034948173
22	0xbbc9fb8e	-0.006164021
23	0xbae13210	-0.0017181057
24	0xbbe19cf6	-0.0068851663
25	0x3ac21315	0.0014806712
26	0xbbbd7042	-0.0057812044
27	0x3bd7a9c8	0.006581519
28	0x3bfe56ea	0.007761826
29	0xbbb9bff7	-0.005668636
30	0x3b97dadb	0.004634244
31	0xbb1ea304	-0.0024206052
32	0x3b88375f	0.0041569914
33	0xbb858eac	-0.0040758457
34	0xbb317c61	-0.0027082192
35	0x3b348c8c	0.0027549593
36	0x3a91a956	0.0011113088
37	0xbaf56178	-0.0018721065
38	0x3ac62d39	0.0015119679
39	0x3bbd6512	0.005779871
40	0x3b3aa0e7	0.0028477253
41	0xbb43f215	-0.002989893
42	0x39f17360	0.00046053063
43	0x3c71c015	0.014755269
44	0xbbb55dcc	-0.005534863
45	0x3b245c67	0.002507949
46	0x3b752270	0.003740456
47	0x3bbb5e85	0.0057180547
48	0x3b545df6	0.0032404638
49	0x3b2d2f78	0.0026425999
50	0xba1afb99	-0.0005912125
51	0xbb998232	-0.00468471
52	0x3abc6011	0.0014371892
53	0x3b0ce502	0.0021498804
54	0xbbb11db8	-0.005405154
55	0x3acce7a7	0.0015633003
56	0xbadd0373	-0.001686199
57	0x3c05e13c	0.008171376
58	0xbc2aa1a5	-0.010414516
59	0x3bc85a56	0.0061142845
60	0x3bf44306	0.007454279
61	0xbc29552d	-0.010335249
62	0xb8678845	-5.5201603e-05
63	0x3bd7829e	0.00657685
64	0x3a3d7b86	0.0007228184
65	0x3bb1bd0d	0.005424148
66	0xbaba205f	-0.0014200321
67	0xb9b8c4ee	-0.0003524194
68	0xbbcf7130	-0.0063306317
69	0x3a1a5db8	0.0005888599
70	0x3bb90c04	0.0056471843
71	0x3b0bf40e	0.0021355185
72	0xbb077521	-0.002066918
73	0x3b8a1c52	0.004214802
74	0x3af69ae3	0.001881447
75	0x3b8e5eb8	0.0043447874
76	0x3bee9ff1	0.00728225
77	0xb920522d	-0.00015289402
78	0x3aa6a983	0.0012715313
79	0x3b2df3cd	0.0026543022
80	0x3c550af9	0.013003104
81	0x3af21f2e	0.0018472427
82	0xbbc0bf26	-0.0058821617
83	0x3b5a3b5b	0.0033299539
84	0xbb1ea5c2	-0.0024207686
85	0xbbac5440	-0.005259067
86	0xbab1f38f	-0.0013576614
87	0xbc107cc7	-0.008818812
88	0x3b871b2f	0.0041231136
89	0xb759402f	-1.2949152e-05
90	0xbb2aefe8	-0.0026082937
91	0x3b5b2f36	0.0033444888
92	0x3aa3fea9	0.0012511808
93	0x3ba7a43b	0.0051160133
94	0x3a4a152a	0.0007708842
95	0x3b6d8ad1	0.003624607
96	0x3bafa7c2	0.0053605745
97	0x3b9ff7a7	0.0048818174
98	0xbbb3fcdf	-0.005492791
99	0xbc60a789	-0.0137118185
100	0x3b658a73	0.003502515
101	0x3bde5532	0.0067850584
102	0x3a8270b1	0.0009951798
103	0xbbbfaf1d	-0.0058497326
104	0x3b2b9ee0	0.0026187226
105	0x3a2377e7	0.00062358234
106	0x39e14d0b	0.00042972746
107	0x3ba2d0a2	0.0049687186
108	0xbb841fba	-0.0040321024
109	0xba3cee80	-0.000720717
110	0x3b9689ec	0.0045940783
111	0xb8cb4e68	-9.6943986e-05
112	0xbbcef0fb	-0.006315348
113	0xbaae9c81	-0.0013321788
114	0xb9217bdf	-0.00015400302
115	0x3a0445be	0.0005045793
116	0x3b0a4449	0.002109783
117	0x3b442d8f	0.0029934382
118	0xbac47f92	-0.0014991632
119	0xbb562706	-0.0032677068
120	0x3ae6b827	0.0017602489
121	0x39b06be9	0.00033649735
122	0xbb1effb1	-0.002426129
123	0xbbe41b7c	-0.006961284
124	0xbb189850	-0.0023284145
125	0xbbe4160f	-0.0069606374
126	0x3b2db36a	0.0026504644
127	0xbb1c67a0	-0.0023865476
128	0xba86de62	-0.0010289664
129	0x3bbf1494	0.0058313105
130	0x3b1fad74	0.002436486
131	0xbba732d1	-0.0051024933
132	0x3b35f87a	0.0027766512
133	0xbab41232	-0.0013738333
134	0x3a42fba8	0.00074380124
135	0x3bcb7e28	0.0062101074
136	0xba599860	-0.0008300599
137	0xbb443fcd	-0.0029945255
138	0xbb2afd97	-0.0026091093
139	0xb9e2f53e	-0.000432888
140	0x3b68bb2f	0.003551196
141	0x3bbac2ba	0.0056994827
142	0x3b3f7e3a	0.0029219524
143	0x3beb3c62	0.007178829
144	0xbab85463	-0.0014063235
145	0x3c2abed6	0.010421475
146	0x3b39265e	0.0028251628
147	0x3c21be21	0.00987199
148	0xba90166d	-0.0010993012
149	0xbac666fd	-0.0015136894
150	0x3bf1b988	0.0073768534
151	0x3b79c83b	0.0038113731
152	0xbc3b65f6	-0.011437884
153	0xbc15d82b	-0.009145777
154	0xbc2f19cf	-0.010687306
155	0x3ba077be	0.004897087
156	0xbad88e19	-0.0016521841
157	0x3b8c079f	0.0042733694
158	0xbacd5e41	-0.0015668349
159	0xbc127309	-0.008938559
160	0x3b750f5e	0.0037393193
161	0x3b2949ca	0.0025831335
162	0xbb8c7f90	-0.0042876676
163	0xbc239224	-0.009983573
164	0x3c21b4f4	0.009869803
165	0xba5e7b99	-0.00084870454
166	0x3b4d5c79	0.0031335636
167	0xbaef1ef5	-0.0018243479
168	0xba2b940d	-0.00065451936
169	0x3c2c6fa8	0.010524668
170	0xbb96f15c	-0.004606409
171	0xbb587211	-0.0033026973
172	0xbb12e831	-0.002241623
173	0xb918e0ce	-0.00014579596
174	0x3aa6568f	0.0012690591
175	0xba09c46f	-0.0005255406
176	0x3b04eafc	0.0020281663
177	0xbbdd589d	-0.0067549483
178	0x3b7e700d	0.0038824112
179	0xbb691f90	-0.0035571791
180	0xbb9cba3b	-0.0047829426
181	0x3b4efb5f	0.0031582934
182	0xba5dc487	-0.0008459766
183	0xb987ad12	-0.00025878154
184	0xb9f71147	-0.00047124384
185	0xbb1ebd01	-0.0024221542
186	0x3b8a5dcb	0.004222607
187	0xba0b9f90	-0.0005326206
188	0xbc228ffa	-0.009922022
189	0x3c0497d4	0.008092839
190	0x3ac73310	0.0015197713
191	0xbc04f626	-0.008115327
192	0x3a573686	0.0008209724
193	0xbadc6a31	-0.0016816315
194	0x3c3b566c	0.011434179
195	0xb987b915	-0.00025887103
196	0x3b37e8af	0.0028062274
197	0x3b4a1f46	0.0030841394
198	0x3bf99d4a	0.0076176273
199	0xbc00bd61	-0.007857651
200	0xbaba8273	-0.0014229551
201	0xb92c1b92	-0.00016413469
202	0x3c2c1966	0.010504102
203	0x3bef4cb8	0.0073028468
204	0xbbc27ae8	-0.0059350617
205	0xbbb59ac1	-0.0055421297
206	0x3c16c503	0.009202245
207	0xb992ed33	-0.00028024017
208	0xbc1dc042	-0.009628357
209	0xbaa9cef0	-0.0012955349
210	0x3b9fee8d	0.0048807324
211	0xbb5b08cd	-0.0033421994
212	0x3bb41629	0.0054958058
213	0x3ae91fa5	0.001778592
214	0xbad4391a	-0.0016191334
215	0x3bba2cb4	0.0056815986
216	0x3c651faa	0.0139846
217	0xbb244f80	-0.00250718
218	0xb99da6a2	-0.00030069525
219	0x3b8daad3	0.0043233423
220	0xbb01c6d9	-0.001980236
221	0xbbc64ace	-0.006051398
222	0xbb73709d	-0.003714598
223	0xbbe83fae	-0.0070876693
224	0x3a33173c	0.00068317703
225	0x3b1b3b25	0.0023686376
226	0x3940918e	0.0001836477
227	0xbb727233	-0.0036994338
228	0xbc0cb052	-0.00858696
229	0x3b30da9a	0.0026985765
230	0x3b95c9b8	0.004571166
231	0x38886862	6.504428e-05
232	0x3b7e5464	0.0038807625
233	0x3af63001	0.0018782617
234	0x3b1da172	0.0024052528
235	0xbb34499a	-0.002750969
236	0x3bebe75c	0.007199211
237	0x3ad40f6a	0.001617891
238	0xba4ae788	-0.00077401893
239	0x3b758991	0.003746603
240	0xbb5c9f93	-0.003366445
241	0x3b719479	0.0036862178
242	0xbb28df6d	-0.0025767938
243	0x3bd99117	0.0066396105
244	0xbac118ef	-0.0014732162
245	0xbbc5b281	-0.006033242
246	0xbbe127ff	-0.006871223
247	0x3b81edce	0.003965116
248	0x3bdfab13	0.0068258136
249	0xbc188eee	-0.009311421
250	0xbb952f4e	-0.0045527583
251	0xbbf7f4a5	-0.0075670057
252	0xbbcda545	-0.006275805
253	0x3b6325cd	0.0034659982
254	0x3b3f2e94	0.002917205
255	0x3a0af42f	0.00053006684

bn.running_mean f4 [256]
0	0xc0218c7a	-2.524199
1	0xbe9522a0	-0.2912798
2	0xbf104ad1	-0.5636416
3	0x3f8a6d71	1.0814649
4	0xbe2d956c	-0.16951531
5	0xbee4bd47	-0.44675657
6	0xbf3217d5	-0.69567615
7	0x3efb677a	0.49102384
8	0x3f868c1a	1.0511506
9	0x3f0eb5f6	0.557464
10	0xbeab94c4	-0.33511937
11	0x3fbec068	1.4902468
12	0xbf82d20f	-1.0220355
13	0xbf79f2fb	-0.97636384
14	0x3e20274d	0.15639992
15	0xbe83841d	-0.25686732
16	0xbfb685ef	-1.4259623
17	0xbf49c74e	-0.7881974
18	0x3fea6fd0	1.8315372
19	0xbdb3e59c	-0.08784029
20	0x3ffa1ae0	1.9539452
21	0xbf4972b5	-0.78690654
22	0xbf2a573e	-0.6653937
23	0x3ffc9abb	1.973472
24	0x3fc1f7fc	1.5153804
25	0xbd8c1875	-0.06840602
26	0x3f7c4beb	0.9855334
27	0xbd98b0c6	-0.07455592
28	0xc01d485f	-2.4575422
29	0xbf6637dc	-0.89928985
30	0x3f67d90f	0.9056558
31	0x3f21d3a1	0.63213545
32	0x3f8da10d	1.1064774
33	0xbfa9f04b	-1.3276457
34	0x3e95a5d9	0.29228094
35	0xbf2ab051	-0.6667529
36	0x3f183595	0.5945676
37	0x3ea1c1f8	0.315933
38	0xbd90436f	-0.07044112
39	0x3fa48e10	1.2855854
40	0x4002e6c4	2.0453348
41	0x3eab3f7b	0.3344687
42	0xbef30f31	-0.47472528
43	0x3f90fe38	1.1327581
44	0x3fb05242	1.3775103
45	0x3f26f009	0.65210015
46	0x3f55ecbf	0.8356437
47	0xbf394d1c	-0.72383285
48	0x3f0a7ea6	0.540995
49	0xbf15593c	-0.58339286
50	0x3f9f30a0	1.2436714
51	0xbf84dbc7	-1.0379571
52	0xbf9bd0a4	-1.2173047
53	0xbfedd9e4	-1.858212
54	0xc0066bf1	-2.1003382
55	0xbf8bf056	-1.093272
56	0x3f84adba	1.0365517
57	0xbfd8671e	-1.6906469
58	0xbfa17016	-1.2612331
59	0x3f493365	0.78594047
60	0x3e96bb5e	0.29439825
61	0x3eb22c6c	0.34799516
62	0x3f78fc27	0.97259754
63	0xbfbeadc4	-1.4896779
64	0x3f03cf3b	0.51488084
65	0x3f582eb6	0.84446275
66	0xbf36bdc8	-0.71383333
67	0x3f971425	1.1803023
68	0xbf23b7a9	-0.6395212
69	0x3eb8b104	0.36072552
70	0x3f576385	0.8413623
71	0x3faf94cf	1.3717288
72	0xbf0aee76	-0.5427011
73	0xbfd5437c	-1.666122
74	0x3fa4b2da	1.2867081
75	0xbf30fc49	-0.69134957
76	0xbf375327	-0.71611255
77	0x3e3c6800	0.18399048
78	0xbfc335d9	-1.5250808
79	0x3d8ba79b	0.068190776
80	0x3f68c02b	0.90918225
81	0x40042fa1	2.065407
82	0xbe197d9c	-0.14989322
83	0xbf97f33d	-1.1871105
84	0x3f1bfd27	0.60933155
85	0x3eb41c00	0.35177612
86	0xc00966a8	-2.1468906
87	0xbf335022	-0.7004415
88	0x3e46d4cc	0.19417113
89	0x3e9148cd	0.28375855
90	0xbfa81e52	-1.3134253
91	0xbe9dec2d	-0.3084425
92	0xbe0efc71	-0.13963486
93	0xbcd165cc	-0.025561236
94	0xbf8b192a	-1.0867054
95	0xbec3fe0f	-0.3827977
96	0x3f1e2e16	0.6178907
97	0xbfa38ff0	-1.2778301
98	0xbf39a269	-0.72513443
99	0xbff6c75e	-1.9279592
100	0xbfa32c26	-1.2747848
101	0xbfd60f36	-1.6723392
102	0x3fdce572	1.7257521
103	0x3fa5c875	1.29518
104	0xbe026779	-0.12734784
105	0x3fb61054	1.4223733
106	0x3f642823	0.89123744
107	0x3f014268	0.5049195
108	0xbe0c246d	-0.1368577
109	0xbd9aee29	-0.07564957
110	0xbed3f4d7	-0.41397735
111	0x3fc17150	1.5112705
112	0x3f5f937e	0.8733443
113	0x3ee24a62	0.44197375
114	0x3c012653	0.007882672
115	0xbe215117	-0.1575359
116	0x3fb669ed	1.4251076
117	0x3d1d0e47	0.038343694
118	0x3fcbf5ef	1.5934428
119	0x3e05cc75	0.13066275
120	0x3e13b8d5	0.14425977
121	0x3fc3b910	1.5290852
122	0x3fe8905d	1.8169056
123	0xbf42b6c5	-0.76060134
124	0x3fcb7aaa	1.5896809
125	0x3f15ec94	0.58564115
126	0xbf167f3d	-0.587879
127	0xbf3b13ef	-0.7307729
128	0x3fe75688	1.8073282
129	0xbfcb9128	-1.5903673
130	0xbf27426f	-0.65335745
131	0xbfe81ed1	-1.8134404
132	0xbe362ba1	-0.1779008
133	0xc0187f57	-2.3827722
134	0xbf078c86	-0.52948797
135	0xc01820bf	-2.3769987
136	0xbff4d42e	-1.9127252
137	0xbe62307c	-0.22088808
138	0x3e9039a4	0.28168976
139	0xbe1a5586	-0.15071687
140	0x3ea91a71	0.33027986
141	0xbd213d6a	-0.03936521
142	0xc01a7a28	-2.4137058
143	0x3eced37b	0.40395722
144	0xbf3281bb	-0.69729203
145	0x40012bc8	2.0182972
146	0x3f6df239	0.9294773
147	0xbec7c6e3	-0.39018926
148	0xc0218967	-2.5240114
149	0xbf9bfe38	-1.2186956
150	0x403daf6c	2.963832
151	0xbe0bc7e8	-0.13650477
152	0xbf4e2fdc	-0.8054178
153	0xbe1f9cdb	-0.1558718
154	0xbee1898a	-0.44050246
155	0xbf7b9aa3	-0.9828283
156	0xbcb759ab	-0.022381624
157	0x3dbe5346	0.09293227
158	0xbe2107c4	-0.15725619
159	0x3e435ec3	0.19079117
160	0xbfb5d9e1	-1.4207116
161	0x3f223d7b	0.6337506
162	0x3fd2bcbd	1.6463848
163	0x3f2ee593	0.6831905
164	0x3b9436ac	0.004523119
165	0xbff17d39	-1.886634
166	0xbf910a4d	-1.1331269
167	0x3f4d7b52	0.80266297
168	0x3fb64795	1.4240595
169	0x3f98bcf5	1.1932665
170	0xbe145814	-0.14486724
171	0xbf8453ec	-1.0338111
172	0xbfa28a83	-1.269852
173	0x3f7c6fa0	0.98607826
174	0xbe2c4477	-0.16822992
175	0x3f52d884	0.82361627
176	0x3f085333	0.5325195
177	0x3e988da4	0.29795563
178	0xbfe90bbf	-1.820671
179	0x3f8eab0c	1.1145949
180	0xbfa05851	-1.2526952
181	0x3f88a011	1.0673848
182	0xbe60ec13	-0.21965055
183	0x3f91a8fa	1.1379693
184	0xbfc55f60	-1.5419731
185	0x3f3f3817	0.7469496
186	0xbf31a5e5	-0.6939376
187	0xbde3b6b2	-0.11118831
188	0x3e9b0a13	0.30281124
189	0xbe444e35	-0.19170459
190	0x3ed93465	0.42422786
191	0x3c84b9bc	0.016201846
192	0x40179079	2.368193
193	0xbe777641	-0.24166204
194	0xbf481705	-0.78160125
195	0xc016c6f3	-2.355893
196	0x3f8496a7	1.0358475
197	0xbf1eca17	-0.62027115
198	0xbf9a2b77	-1.2044514
199	0xbf9f14d6	-1.2428234
200	0x3f7da974	0.9908669
201	0x3df9f0cc	0.122041315
202	0xbd9ee504	-0.07758525
203	0xbf5471c2	-0.8298608
204	0xbfa16053	-1.2607521
205	0x3fac343c	1.3453441
206	0xbfbd68fe	-1.4797666
207	0xbf227d08	-0.6347203
208	0xbe90a948	-0.2825415
209	0xbe97d851	-0.29657224
210	0xbfbc7019	-1.472171
211	0x3d51ec2e	0.05125063
212	0x3e434a91	0.19071414
213	0x3f9c387c	1.2204738
214	0xbe7da415	-0.24769624
215	0xbed5c987	-0.41755316
216	0xbf867b0c	-1.0506301
217	0xbefd8c8d	-0.49521294
218	0x3f2fe1d4	0.6870396
219	0xbf5b7fa2	-0.8574163
220	0x40025849	2.0366385
221	0x3d4ca356	0.049960457
222	0xbf656b0e	-0.8961648
223	0xbf707c2a	-0.9393946
224	0xbd9d22bb	-0.0767264
225	0xbe0e28b6	-0.13882717
226	0xbe6638e4	-0.2248264
227	0x3f2fa4c6	0.686108
228	0x3d8db69a	0.06919594
229	0xbf8e4fd6	-1.1118114
230	0x3fbeb873	1.490004
231	0x3e0fbe08	0.14037335
232	0xbf6bdfbc	-0.92138267
233	0x3fb2e299	1.3975402
234	0xbf8c828b	-1.0977339
235	0xbf5233dc	-0.8211038
236	0x3facd650	1.3502903
237	0xbe7582b6	-0.23975644
238	0xbf37aeff	-0.717514
239	0xc02846e8	-2.6293278
240	0xbfa4b8ec	-1.2868934
241	0x3edf17ff	0.43572995
242	0x3f60dc96	0.8783659
243	0x3e6f60ff	0.23376845
244	0x3f946bf6	1.1595447
245	0xbe8fd0f8	-0.28089118
246	0x401e8d51	2.4773753
247	0x3fadcaf8	1.3577566
248	0x3f42fb88	0.76165056
249	0x3f4c355b	0.79768914
250	0xbfae7390	-1.3629017
251	0x3f51bb9b	0.8192689
252	0x3d7d64ea	0.061863817
253	0xbffb2875	-1.9621722
254	0xbf195e3e	-0.5990943
255	0xbcdaa5c0	-0.026690364

bn.running_var f4 [256]
0	0x3f4ae113	0.79249686
1	0x3ef47048	0.47741914
2	0x3f63b97d	0.8895491
3	0x3f1406b5	0.57822734
4	0x3f28dc90	0.6596155
5	0x3f329e2f	0.6977262
6	0x3f29ba4f	0.6629991
7	0x3f094c9f	0.5363254
8	0x3f832f29	1.0248767
9	0x3f618a8b	0.88102025
10	0x3f42c720	0.7608509
11	0x3ef675e2	0.48136812
12	0x3f5ce9f7	0.862945
13	0x3f7e2f72	0.99291146
14	0x3f4e5afa	0.8060757
15	0x3ee31cc0	0.44357872
16	0x3f1c00b5	0.6093858
17	0x3f370532	0.714923
18	0x3f7dccaf	0.9914045
19	0x3f2a6a31	0.66568285
20	0x3f4feda4	0.81221986
21	0x3f25096f	0.6446752
22	0x3f018333	0.5059082
23	0x3f2da673	0.67832106
24	0x3f30bd55	0.690389
25	0x3f2fa9ec	0.68618655
26	0x3f241f85	0.64110595
27	0x3f1c83a2	0.61138356
28	0x3f5ba461	0.857977
29	0x3f35d759	0.7103172
30	0x3f58a4ee	0.8462666
31	0x3f050d2a	0.5197321
32	0x3ef37633	0.47551116
33	0x3ef01db4	0.46897662
34	0x3f070302	0.52738965
35	0x3f40a9e3	0.75259227
36	0x3f0faa63	0.56119365
37	0x3f59ee35	0.851291
38	0x3f0ba546	0.5454906
39	0x3edb6fde	0.42858785
40	0x3ed75abe	0.42061418
41	0x3f1c212d	0.6098812
42	0x3f1eec8e	0.62079704
43	0x3f751c8c	0.95746684
44	0x3f86a288	1.0518351
45	0x3fa3f795	1.2809931
46	0x3f58482f	0.84485143
47	0x3ecfec14	0.406098
48	0x3efdd479	0.49576166
49	0x3f0afc8a	0.54291594
50	0x3f119253	0.568639
51	0x3f20facb	0.6288268
52	0x3f085f3f	0.53270334
53	0x3f0a8f5e	0.5412501
54	0x3f4ff057	0.81226104
55	0x3f0f6723	0.5601675
56	0x3f03fc7e	0.5155715
57	0x3f23cd71	0.63985354
58	0x3f8701ad	1.0547386
59	0x3f0864aa	0.532786
60	0x3f776bf5	0.96649104
61	0x3f5a0494	0.85163236
62	0x3f272461	0.65289885
63	0x3f1a6110	0.60304356
64	0x3f4abd59	0.7919517
65	0x3ed3a8cf	0.41339728
66	0x3f24354d	0.6414383
67	0x3f0036ce	0.50083625
68	0x3ed945fa	0.424362
69	0x3f15ac65	0.5846618
70	0x3f13cd8d	0.5773552
71	0x3f14d2ad	0.58133966
72	0x3f459512	0.7718059
73	0x3ec07603	0.37590036
74	0x3f12379f	0.5711612
75	0x3f632f45	0.88744
76	0x3f0243d4	0.5088475
77	0x3edb66b4	0.42851794
78	0x3f3c5042	0.73559964
79	0x3efacad7	0.4898288
80	0x3fa38fd8	1.2778273
81	0x3f24cb25	0.64372474
82	0x3f646852	0.8922168
83	0x3f0ec9de	0.55776775
84	0x3efe39ba	0.49653417
85	0x3f2eb5b7	0.68246025
86	0x3f40de8f	0.753396
87	0x3f6c84f0	0.92390347
88	0x3f47a76f	0.7798986
89	0x3ec8bab5	0.39204946
90	0x3f304684	0.688576
91	0x3f4d890a	0.8028723
92	0x3f485107	0.7824864
93	0x3f28681b	0.6578385
94	0x3ee7a7ab	0.45245108
95	0x3f438a93	0.7638332
96	0x3f5952e3	0.848921
97	0x3f8d326c	1.1031013
98	0x3f01f343	0.5076181
99	0x3f732248	0.94974184
100	0x3f2a856a	0.66609824
101	0x3f2d9967	0.678122
102	0x3f2c78f6	0.6737207
103	0x3f3ab648	0.7293439
104	0x3f15888c	0.5841148
105	0x3efffc54	0.499972
106	0x3f2e9bba	0.6820637
107	0x3f05ec58	0.52313757
108	0x3eef9a2e	0.46797317
109	0x3f30f0f0	0.6911764
110	0x3f7d0c4a	0.98846877
111	0x3f46c002	0.7763673
112	0x3f09bb4f	0.53801435
113	0x3f8b6ba6	1.0892227
114	0x3f160667	0.5860352
115	0x3f23c969	0.639792
116	0x3f1f5587	0.6223988
117	0x3f29d1fb	0.6633603
118	0x3f12f0dc	0.5739877
119	0x3ee76892	0.45196968
120	0x3f2ce925	0.6754325
121	0x3f4bc3c0	0.79595566
122	0x3f3a10b1	0.7268172
123	0x3f318bd1	0.6935397
124	0x3f0e5bf5	0.55609065
125	0x3f555b7d	0.83342725
126	0x3f0221aa	0.5083262
127	0x3ec42893	0.38312206
128	0x3ed00662	0.4062987
129	0x3f362458	0.71149206
130	0x3f14d6ec	0.58140445
131	0x3f5553f1	0.8333121
132	0x3f67dcbc	0.9057119
133	0x3f160564	0.58601975
134	0x3f38c526	0.72175825
135	0x3f81277d	1.0090176
136	0x3f11bc71	0.56928164
137	0x3f47d35e	0.78056896
138	0x3f295a25	0.66153175
139	0x3f860d4f	1.0472811
140	0x3f2fc7c6	0.68664205
141	0x3f1d61bc	0.61477256
142	0x3ee28517	0.44242164
143	0x3f81df2b	1.014623
144	0x3f1b6dc1	0.60714346
145	0x3f17202e	0.5903348
146	0x3f853915	1.0408045
147	0x3fa13a75	1.2595965
148	0x3f55b0ff	0.834732
149	0x3f29e0ec	0.6635883
150	0x3f54cc1b	0.8312394
151	0x3f2cb941	0.67470175
152	0x3f2867a8	0.65783167
153	0x3f970411	1.1798116
154	0x3f3eaf71	0.7448645
155	0x3f2158cb	0.6302611
156	0x3ef354a8	0.47525525
157	0x3f386036	0.72021806
158	0x3fa37234	1.2769227
159	0x3fa0ed90	1.2572498
160	0x3f2b55d6	0.6692785
161	0x3f591190	0.84792423
162	0x3f4d60f0	0.8022604
163	0x3f95a47c	1.1690822
164	0x3f24caeb	0.6437213
165	0x3f62ab55	0.8854268
166	0x3f2be077	0.6713938
167	0x3f052114	0.520036
168	0x3f0db8c1	0.5536004
169	0x3f619af9	0.88127095
170	0x3f63a7c4	0.88927865
171	0x3ece588e	0.40301937
172	0x3f224966	0.6339325
173	0x3eeeaccd	0.46616212
174	0x3f2ff789	0.68737084
175	0x3f0fe470	0.5620794
176	0x3f5714b6	0.8401598
177	0x3f2b3072	0.66870797
178	0x3efdeec2	0.4959622
179	0x3ec68ee0	0.3878088
180	0x3efb49ee	0.4907984
181	0x3f1d3297	0.6140532
182	0x3f0ddd01	0.5541535
183	0x3f18b5fd	0.5965269
184	0x3f13db0b	0.5775611
185	0x3eb62d74	0.35581553
186	0x3f066973	0.5250465
187	0x3f9cc13b	1.2246469
188	0x3f7e489d	0.9932955
189	0x3f807ade	1.0037496
190	0x3f869b13	1.0516075
191	0x3f0b82fa	0.5449673
192	0x3f0d5af2	0.55216897
193	0x3f7734d9	0.96565014
194	0x3f4b6a3d	0.7945898
195	0x3f7e1185	0.9924548
196	0x3f3af810	0.73034763
197	0x3f11c1d3	0.5693638
198	0x3f3b2629	0.731051
199	0x3f148c0f	0.5802621
200	0x3f861d61	1.0477716
201	0x3f256ed2	0.64622223
202	0x3f422eaf	0.75852484
203	0x3f511c5a	0.81683886
204	0x3f1de255	0.6167348
205	0x3f18fc22	0.59759724
206	0x3f3bca12	0.7335521
207	0x3ecef9c2	0.40424925
208	0x3f6fdca5	0.9369605
209	0x3f174e46	0.5910381
210	0x3f39afe1	0.72533995
211	0x3f20f957	0.6288046
212	0x3f0af6ca	0.5428282
213	0x3f304d9a	0.6886841
214	0x3f1987e5	0.59972984
215	0x3f328cef	0.697463
216	0x3f99386a	1.1970341
217	0x3eeb280c	0.4592899
218	0x3f3dcd80	0.74141693
219	0x3f0481df	0.5176067
220	0x3f611522	0.8792287
221	0x3f35ace9	0.70966965
222	0x3f4ed2b6	0.8079027
223	0x3f307227	0.6892418
224	0x3f9f70c7	1.2456292
225	0x3f38b38b	0.7214896
226	0x3ed7816d	0.42090932
227	0x3f200205	0.6250308
228	0x3f3c195c	0.73476195
229	0x3f1ed6db	0.62046593
230	0x3f3490a4	0.70533204
231	0x3f8fdea1	1.1239816
232	0x3f474d71	0.7785254
233	0x3f893049	1.071786
234	0x3f13feef	0.5781087
235	0x3f0a58aa	0.5404154
236	0x3f3bc0bf	0.7334098
237	0x3f10c47b	0.56549805
238	0x3f3b6745	0.7320445
239	0x3f2655de	0.6497477
240	0x3f561b71	0.8363562
241	0x3f5cc439	0.8623691
242	0x3f6aa742	0.91661465
243	0x3f099964	0.5374968
244	0x3f06d1e0	0.52663994
245	0x3f1e939b	0.6194398
246	0x3f824fa3	1.0180553
247	0x3ee71303	0.45131692
248	0x3f7e40a8	0.9931741
249	0x3f197507	0.59944195
250	0x3f2c7a9a	0.67374575
251	0x3f3b894a	0.7325636
252	0x3f4109c5	0.7540553
253	0x3f01eeff	0.50755304
254	0x3f90dcca	1.131738
255	0x3f0520a2	0.5200292

bottleneck.weight f4 [256, 512]
0	0x3dcc489b	0.09974786
1	0x3ce595e7	0.02802558
2	0xbdb52963	-0.088457845
3	0x3d74c73e	0.059760325
4	0xbd6dc8d1	-0.05805284
5	0x3da00b16	0.078146145
6	0xbbfe0720	-0.007752314
7	0xbb2216c2	-0.0024732803
8	0xbdaa7cdc	-0.08324596
9	0x3ba592fc	0.0050529223
10	0xbd8a84c7	-0.067636065
11	0x3d22df34	0.039763644
12	0xbc4269ea	-0.011866072
13	0x3bd6ece1	0.006559
14	0xbc1768e4	-0.0092413165
15	0xbd906955	-0.070513405
16	0xba68d9b2	-0.0008882537
17	0x3d3a45e6	0.045476817
18	0xbcaab528	-0.020838335
19	0xbc3efb70	-0.011656627
20	0xbda0d53e	-0.07853173
21	0xbdd1ea90	-0.10249817
22	0xbd2e1cdf	-0.042508002
23	0x3d25276a	0.04032079
24	0x3d00bdcc	0.031431004
25	0xbd8d7fde	-0.06909154
26	0xbceeba52	-0.029141579
27	0xbd00e946	-0.031472467
28	0x3cd5410b	0.026031991
29	0xbd929a7d	-0.071583726
30	0xbb2c240e	-0.0026266607
31	0xbc1f3f82	-0.009719731
32	0xbd1c4077	-0.038147416
33	0x3d0df4c7	0.034657266
34	0x3d119a95	0.03554781
35	0xbc2721c1	-0.010200919
36	0xbd07df65	-0.03317203
37	0xbd7978a7	-0.06090608
38	0xbc5b3886	-0.013380175
39	0xbd955b76	-0.072928354
40	0xbd660fe5	-0.056167502
41	0xbd0182fc	-0.031619057
42	0x3cb5e03e	0.022201654
43	0xbda5d0ea	-0.08096488
44	0xbdea69f7	-0.114459924
45	0x3b242e53	0.0025052025
46	0xbcd5ac1a	-0.026083041
47	0x3cdcdfb5	0.02696214
48	0x3bf5ebfc	0.007504938
49	0xbd8efe83	-0.06982138
50	0xbaace58e	-0.0013190971
51	0xbd18cf42	-0.03730703
52	0xbd981f83	-0.074278854
53	0xbd0fbd2f	-0.03509253
54	0x3ce25ef6	0.027633172
55	0x3c063602	0.008191587
56	0xbbe91711	-0.0071133454
57	0x3d615baf	0.055019077
58	0x3ce3afa8	0.02779372
59	0x3dc5107c	0.09622285
60	0xbd8015b1	-0.06254137
61	0xbd871924	-0.06596592
62	0x3db80ba9	0.08986599
63	0xbddb0522	-0.106943384
64	0xbd91683a	-0.07099958
65	0xbd6cbdf9	-0.05779836
66	0xbd0db5b6	-0.03459712
67	0xbdb69f41	-0.08917094
68	0x3c79c941	0.015245737
69	0x3ccd7693	0.025080955
70	0xbdbfe2e9	-0.093694516
71	0xbd71107c	-0.05885361
72	0xbcae9a4d	-0.02131381
73	0x3c69958e	0.014256848
74	0x3cd3f1f7	0.025872214
75	0x3d29faf4	0.041499093
76	0xbceeec87	-0.02916552
77	0x3cdb8064	0.02679462
78	0x3d101cc3	0.03518368
79	0xbd04f91a	-0.032464124
80	0xbc0e7ddd	-0.008697
81	0x3c98e77c	0.018665068
82	0xbb54a3de	-0.0032446305
83	0x3d59bb1a	0.05315695
84	0x3c180fe5	0.009281133
85	0x3d2b95ad	0.04189079
86	0xbcb571f1	-0.022149058
87	0xbc9e6018	-0.01933293
88	0x3e053912	0.13010052
89	0xbcf258fb	-0.029583445
90	0xbd16f14d	-0.036851216
91	0xbd7b1ac8	-0.061304837
92	0xbd4152a7	-0.047197964
93	0xbd0512f4	-0.03248878
94	0xbd7150ac	-0.058914825
95	0xbce9b80c	-0.028530143
96	0x3d3fd1db	0.046830993
97	0xbc326db7	-0.010890416
98	0x3d0e8104	0.034791008
99	0x3c8b3bc0	0.016996264
100	0x3df78009	0.12084968
101	0x3abfb1dc	0.001462515
102	0xbdb2f01d	-0.08737204
103	0x3d12aa03	0.035806667
104	0x3cf33daa	0.02969249
105	0xbc767b6b	-0.015044074
106	0x3ce4cb6e	0.027929034
107	0x3ce92b77	0.028463108
108	0xbda5a9ef	-0.08089053
109	0xbd1d1919	-0.038354013
110	0xbc40b6b2	-0.011762308
111	0x3bff4443	0.00779012
112	0xbd03d26b	-0.032183092
113	0x3cfb2d81	0.030661346
114	0xbd5fe08d	-0.054657508
115	0xbd02508b	-0.031815093
116	0x3aee4fa0	0.0018181689
117	0x3d1c0006	0.03808596
118	0xbb64e670	-0.003492739
119	0xbd3ac667	-0.045599367
120	0xbc76ff18	-0.0150754675
121	0x3badd6db	0.005305154
122	0xbd9ca74e	-0.07649098
123	0x3c4ccd8a	0.012500176
124	0x3d1d81cf	0.038453873
125	0xbccd97a1	-0.025096716
126	0xbc378ca5	-0.011202966
127	0xbd276c34	-0.040874675
128	0xbc74ed95	-0.014949222
129	0xbb747be5	-0.0037305292
130	0x3b7a41e8	0.0038186256
131	0xbd8d915e	-0.06912492
132	0xbd5e188d	-0.054222632
133	0x3d173a17	0.036920633
134	0x3ba4228f	0.0050090025
135	0xbd43dc62	-0.047817595
136	0x3b36c2b2	0.0027887044
137	0x3dce1cc5	0.10064081
138	0xbd9d95f0	-0.07694614
139	0x3d49020d	0.04907422
140	0xbd56be90	-0.05242783
141	0xbd4d0ee0	-0.050063014
142	0xba901760	-0.0010993294
143	0x3d296c6b	0.04136316
144	0xbd99711b	-0.07492276
145	0x3c9980e5	0.01873822
146	0xbd694acb	-0.056956094
147	0xbd829f3d	-0.063780285
148	0x3dbec03c	0.093140095
149	0xbd8b07d4	-0.067886025
150	0xbc888ce0	-0.016668737
151	0xbd13de54	-0.0361007
152	0xbc36f41c	-0.011166599
153	0xbd4b0a87	-0.049570587
154	0xbceb8c66	-0.02875347
155	0xbcce30c8	-0.025169745
156	0x3d20a3fc	0.039218888
157	0x3cd8e168	0.02647467
158	0xbcbd33b8	-0.02309595
159	0xbd7113db	-0.058856826
160	0x3cc80943	0.024418479
161	0xbda10f48	-0.07864243
162	0x3bf442e7	0.0074542644
163	0xbe1133a5	-0.14179857
164	0x3ad83d66	0.001649779
165	0x3c6779f9	0.014128202
166	0x3c2ceb21	0.010554106
167	0x3db2d031	0.087311156
168	0x3c884d23	0.016638344
169	0x3bfd6fed	0.00773429
170	0xbc7b57db	-0.015340771
171	0xbc505788	-0.012716182
172	0x3dabbb7a	0.08385368
173	0xbc811b0a	-0.015759964
174	0xbdb145e6	-0.0865591
175	0xbdcb0f37	-0.099150114
176	0x3cb95a7c	0.022626154
177	0x3d0d751b	0.03453551
178	0xbbf2c974	-0.007409269
179	0x3d0336d5	0.032034714
180	0x3d0bdfdc	0.034149036
181	0x3d8e1c27	0.069389634
182	0xbd8e5450	-0.06949675
183	0x3d619a70	0.055078924
184	0x3c0c6545	0.008569066
185	0x3ca78f63	0.020454114
186	0x3c963894	0.018337525
187	0xbd24a11e	-0.040192716
188	0x3be46a61	0.006970689
189	0xbca239e6	-0.019802999
190	0xbbddfac8	-0.00677428
191	0xbe2398db	-0.15976278
192	0xbdb4ec59	-0.08834142
193	0x3cb9bf2d	0.022674168
194	0xbd8764d9	-0.06611032
195	0x3c9ee3a4	0.019395657
196	0xbcffbef5	-0.031218985
197	0x3ca130da	0.019676615
198	0x3d906316	0.07050149
199	0x3e12e089	0.14343466
200	0x3d2c74ab	0.04210345
201	0x3cb3b91b	0.021938851
202	0x3d8123eb	0.06305679
203	0xbd0ca22a	-0.03433434
204	0xbca3a4bb	-0.01997601
205	0xbd4fc6ee	-0.050726824
206	0x3c72347f	0.014783024
207	0xbbd50c24	-0.0065016914
208	0x3d18c32a	0.037295498
209	0xbc24b7cd	-0.010053587
210	0x3c9f7b55	0.019467989
211	0xbb517458	-0.0031960215
212	0xbc68c464	-0.014206979
213	0x3c51307d	0.012767908
214	0xbcf9d601	-0.030497553
215	0xbda98f3f	-0.08279275
216	0xbd1393db	-0.036029678
217	0xbd255de8	-0.04037276
218	0xbcc3a14b	-0.023880621
219	0xbe08ee4e	-0.13372156
220	0xbceaa70e	-0.028644111
221	0x3d855614	0.06510559
222	0xbd0489e6	-0.032358073
223	0x3df07a47	0.117420726
224	0xbbae5e05	-0.0053212666
225	0xbaa35c2a	-0.001246338
226	0x3be9f29e	0.007139518
227	0xbd4ac28e	-0.049501948
228	0x3d253862	0.040336974
229	0xbda1ad7b	-0.07894417
230	0xbdeadc95	-0.11467854
231	0x3d045c3f	0.032314535
232	0x3d8bd083	0.0682688
233	0x3cf52964	0.029926963
234	0xbcbaab3b	-0.022786727
235	0xbcdd7bac	-0.02703651
236	0x3c00748d	0.007840288
237	0x3d46bbae	0.04851883
238	0xbdab0506	-0.083505675
239	0x3cd0b78b	0.025478145
240	0x3c28af7d	0.010295746
241	0xbcfde64a	-0.0309936
242	0x3cf17d4b	0.02947869
243	0x3d0612b0	0.032732666
244	0x3d296b61	0.04136217
245	0x3c75b142	0.014995875
246	0xbd79beab	-0.06097285
247	0x3d43b1a6	0.04777684
248	0x3c8c81c9	0.01715173
249	0x3bdfc5fb	0.006829021
250	0x3d234f42	0.039870508
251	0xbd45d0dc	-0.048294887
252	0x3d635bb8	0.05550739
253	0xbd19864f	-0.037481602
254	0x3d134c2e	0.035961322
255	0xbd035b97	-0.03206977

bottleneck.bias f4 [256]
0	0xae748f89	-5.560666e-11
1	0xae1a6de9	-3.5113166e-11
2	0x2f43d919	1.7812275e-10
3	0xaf7c41ef	-2.2942691e-10
4	0x2f403eb7	1.7484579e-10
5	0xaed21dea	-9.555008e-11
6	0xae4ff442	-4.7283295e-11
7	0xade0d318	-2.5559596e-11
8	0xae5d90e8	-5.0378285e-11
9	0xadc205a1	-2.2057746e-11
10	0x2e9b1829	7.0528756e-11
11	0xafaa9162	-3.102612e-10
12	0x2e3ec0a4	4.3372098e-11
13	0x2eb90963	8.4144934e-11
14	0xaf8cbc5b	-2.5599686e-10
15	0x2ee44548	1.03805464e-10
16	0x2f46fd51	1.8097991e-10
17	0xae82638a	-5.929397e-11
18	0x2d97e02f	1.726627e-11
19	0xaead7700	-7.888268e-11
20	0x2ff0e94d	4.3821516e-10
21	0x2efb9703	1.14409836e-10
22	0x2f865129	2.4432126e-10
23	0xaf36a147	-1.6610101e-10
24	0x2e090959	3.1158496e-11
25	0xae13ec2b	-3.363369e-11
26	0xaf280e94	-1.528469e-10
27	0xaea79449	-7.6206215e-11
28	0xb034e596	-6.580988e-10
29	0x2f3a167a	1.6924587e-10
30	0xaee36b3c	-1.03418135e-10
31	0xae06ea92	-3.0676413e-11
32	0xaeb1cd0f	-8.085454e-11
33	0x2f520952	1.91027e-10
34	0x2e7d0a89	5.7534897e-11
35	0xafaf91bf	-3.1935873e-10
36	0xae514b8c	-4.7588197e-11
37	0x2f67cbcb	2.108173e-10
38	0xaebd8d54	-8.61983e-11
39	0xaf9dd322	-2.8708153e-10
40	0x2e906f58	6.5681405e-11
41	0x2e4ae7bb	4.61353e-11
42	0x2dbe2bb2	2.1619904e-11
43	0xaf955478	-2.716296e-10
44	0x2e5f20b5	5.073338e-11
45	0xaea99e98	-7.713402e-11
46	0xaf7d0123	-2.301062e-10
47	0x2fcba1cf	3.7040457e-10
48	0x2d46dd92	1.1304195e-11
49	0x2e832e7b	5.965447e-11
50	0xae824941	-5.924728e-11
51	0xaf02bc61	-1.1890357e-10
52	0x2eb71ad8	8.326645e-11
53	0x2f1a4284	1.402985e-10
54	0x2dcf7707	2.3586034e-11
55	0xaf49b496	-1.8345e-10
56	0xae2031f2	-3.642415e-11
57	0xaf64ce70	-2.080982e-10
58	0x2f496ce0	1.8319524e-10
59	0xb005783c	-4.855598e-10
60	0xadff1d8c	-2.9003265e-11
61	0x2fa2b700	2.9597658e-10
62	0x2e21a686	3.6755064e-11
63	0xae07c622	-3.0871423e-11
64	0x2db56965	2.0624122e-11
65	0xaf077b12	-1.2321902e-10
66	0xaf46ea08	-1.809114e-10
67	0x2e923f20	6.6505246e-11
68	0x2f626cca	2.059323e-10
69	0xad79a64c	-1.4190937e-11
70	0x2d9c807f	1.779221e-11
71	0xaf368f8e	-1.6603804e-10
72	0xadaff457	-2.0003705e-11
73	0xaf9c8202	-2.846861e-10
74	0xaf1eb3a2	-1.4433835e-10
75	0xae6e9917	-5.4250906e-11
76	0xaf6fab34	-2.1797747e-10
77	0xaf2a6d8f	-1.5500333e-10
78	0x2e063cf2	3.0522203e-11
79	0x2e56aed2	4.8813238e-11
80	0xaee43b96	-1.0378824e-10
81	0xaf8d2b96	-2.567872e-10
82	0x2eef3628	1.0878082e-10
83	0x2e0b01ea	3.160664e-11
84	0x2e03b87f	2.9949817e-11
85	0x2e98a9a8	6.942297e-11
86	0xaeb19512	-8.075508e-11
87	0x2e8c8d89	6.3916046e-11
88	0xaec6a787	-9.0337564e-11
89	0xae384027	-4.1893735e-11
90	0x2f5bb3de	1.9981836e-10
91	0xaed61719	-9.735696e-11
92	0xaa7882cc	-2.2072204e-13
93	0xadec463b	-2.6861282e-11
94	0x2e80dd40	5.860068e-11
95	0xae457731	-4.4898477e-11
96	0xaee66ace	-1.04781614e-10
97	0xadeaa6f5	-2.6676864e-11
98	0x2f633053	2.0662698e-10
99	0x2f999549	2.793661e-10
100	0x2e0f3049	3.255732e-11
101	0xaf3f93eb	-1.74239e-10
102	0xadf1a4ef	-2.7471773e-11
103	0x2ef8f9ae	1.1322086e-10
104	0xae42887b	-4.4231712e-11
105	0xaf7d2b90	-2.3025692e-10
106	0xae0c6a52	-3.1926746e-11
107	0xaf02b7d6	-1.1888743e-10
108	0x2e8a231a	6.281749e-11
109	0xaef02406	-1.09203355e-10
110	0xaea44125	-7.4694285e-11
111	0xafa4a5ee	-2.9949326e-10
112	0x2f1e78d7	1.4412947e-10
113	0x2d77a958	1.4077926e-11
114	0x2c8a2e9f	3.927372e-12
115	0x2e1d9e67	3.5838357e-11
116	0xaf1d6c32	-1.4317506e-10
117	0xad0e0807	-8.073548e-12
118	0xae2fc127	-3.9961947e-11
119	0x2ed7574f	9.792577e-11
120	0xad8e54e5	-1.6181232e-11
121	0x2e63a9ad	5.1764527e-11
122	0xab1244f3	-5.1965306e-13
123	0x2fa0ba97	2.923641e-10
124	0x2f988da4	2.774928e-10
125	0x2f8ef322	2.6002406e-10
126	0x2da5d4c7	1.885282e-11
127	0x2ee89d2c	1.0578058e-10
128	0xafd2d128	-3.8347392e-10
129	0x2f8d5b96	2.5712826e-10
130	0x2d5431dc	1.2061876e-11
131	0x2f1a998a	1.4060766e-10
132	0x2e81207a	5.87201e-11
133	0x2f58df9b	1.9724526e-10
134	0xae6cb18f	-5.381789e-11
135	0x2f8714c8	2.4571123e-10
136	0x3018a2d2	5.552866e-10
137	0x2f0ca60d	1.2791919e-10
138	0x2f960253	2.7286493e-10
139	0x2e09d64d	3.134053e-11
140	0xaed50ef4	-9.688775e-11
141	0xaeb7d58a	-8.359809e-11
142	0x30a5e47b	1.2070268e-09
143	0xaf261814	-1.5106166e-10
144	0xae13c4db	-3.3598773e-11
145	0xaf07ba50	-1.234437e-10
146	0xaf40192c	-1.7471241e-10
147	0xae29273b	-3.8460995e-11
148	0x2e585352	4.9186717e-11
149	0x2e3fd2c4	4.361557e-11
150	0xafd1b3a0	-3.814451e-10
151	0xaeb6c9a3	-8.31222e-11
152	0x2f250bec	1.5010898e-10
153	0x2f040b19	1.2009273e-10
154	0x2febdf85	4.290507e-10
155	0xae32aab2	-4.0624122e-11
156	0x2bb7def7	1.3064817e-12
157	0xaf18b064	-1.3886986e-10
158	0x2f0982f9	1.2506608e-10
159	0x2f17235f	1.3745936e-10
160	0xae24e68d	-3.7494053e-11
161	0xaedc0902	-1.0006042e-10
162	0xafbb2eb1	-3.4048278e-10
163	0x2f6ee3a3	2.1726847e-10
164	0xaf08e2c5	-1.2449693e-10
165	0x2e9dcf84	7.1763956e-11
166	0xae8cd911	-6.4050217e-11
167	0xae0e0de0	-3.2299385e-11
168	0xae78887f	-5.6509904e-11
169	0xaf63143b	-2.0652717e-10
170	0x2c1b1355	2.2037556e-12
171	0x2f2af2da	1.5547688e-10
172	0x2f882597	2.4764965e-10
173	0x2f268fb8	1.5148671e-10
174	0x2ef4f691	1.11396344e-10
175	0xaeb1fc0e	-8.093802e-11
176	0x2e81b8e0	5.899081e-11
177	0x2f8bd7c9	2.5437277e-10
178	0xaf893a6f	-2.4961674e-10
179	0xae84db90	-6.041667e-11
180	0xad105f06	-8.206552e-12
181	0xacdbfc01	-6.2523324e-12
182	0x2e6d0db7	5.3899742e-11
183	0x2da6c982	1.8961503e-11
184	0x2f030f32	1.1919779e-10
185	0xaec72991	-9.056856e-11
186	0xaea0f9bd	-7.32032e-11
187	0x2d6192ab	1.2822336e-11
188	0x2e9f573c	7.245979e-11
189	0xaefbaf80	-1.14453336e-10
190	0xae387828	-4.1943476e-11
191	0x2f4cfd24	1.8643626e-10
192	0xae90e166	-6.588401e-11
193	0xadae7dd9	-1.9837397e-11
194	0xaf1a338e	-1.4024534e-10
195	0x2f3ba3d3	1.7065753e-10
196	0xaf25bfbc	-1.507478e-10
197	0xaf145bc8	-1.3493129e-10
198	0xad0db246	-8.054507e-12
199	0x2f8c8b6d	2.556492e-10
200	0x2de5c870	2.6123298e-11
201	0xae865fbc	-6.11062e-11
202	0xaf03f9b7	-1.2003097e-10
203	0xaf50d515	-1.8993192e-10
204	0x3006b3d5	4.900447e-10
205	0x2f4ae16a	1.8451876e-10
206	0xaf525616	-1.9129973e-10
207	0x2e910eb5	6.596449e-11
208	0x2f18458b	1.3849026e-10
209	0xae848fd5	-6.028215e-11
210	0xaf442a88	-1.7841206e-10
211	0x2f17c783	1.3804251e-10
212	0xae342ffc	-4.096988e-11
213	0xae2d5779	-3.9413337e-11
214	0xad1846a3	-8.655884e-12
215	0xaeb6e69b	-8.3173655e-11
216	0xaff7eebb	-4.5098666e-10
217	0x2f4c69f8	1.859134e-10
218	0x2e0b891a	3.172671e-11
219	0x2eb74122	8.3334464e-11
220	0x2db14f64	2.0157827e-11
221	0x2ebcb67d	8.5816666e-11
222	0x2e9ec0b5	7.21924e-11
223	0x2fa6b1b6	3.0321495e-10
224	0xadc7552c	-2.2661505e-11
225	0x2eb23d5e	8.105404e-11
226	0x2e606710	5.102324e-11
227	0x2f0fa3ca	1.3063964e-10
228	0x2f58da61	1.972267e-10
229	0xaeeb5efa	-1.0703434e-10
230	0xaf1ee17a	-1.4450122e-10
231	0x2db5c55f	2.0664968e-11
232	0x2e073aa0	3.0747516e-11
233	0x2dc79f7a	2.2694503e-11
234	0x2dc71945	2.2634903e-11
235	0x2f39d75d	1.6902164e-10
236	0xafa588aa	-3.011043e-10
237	0xaea009ad	-7.2776764e-11
238	0x2e79ffd9	5.6843284e-11
239	0x2e6e6eef	5.4213464e-11
240	0xaf57bb30	-1.9620638e-10
241	0xaf0176b6	-1.1774656e-10
242	0x2ed8fed5	9.86781e-11
243	0xaf067843	-1.2229955e-10
244	0xaf44f632	-1.7913562e-10
245	0x2edc35d7	1.00140056e-10
246	0x2fc2586a	3.5351216e-10
247	0xae3e5adb	-4.3281694e-11
248	0xaf8ddcf1	-2.580474e-10
249	0x302065b1	5.8352173e-10
250	0xaeef3ae9	-1.0878926e-10
251	0xae13a010	-3.3566094e-11
252	0x2dd3c764	2.407647e-11
253	0xad0675cb	-7.643173e-12
254	0xaf2a5219	-1.5490577e-10
255	0x2e15d19f	3.406486e-11
