ckps/source/uda/domainnet/infograph_0/source_C.pt (torch, 358186 bytes, 3 tensors)

fc.bias f4 [345]
-0.021328088 -0.019228684 0.006227601 0.009581929 0.0107884575 -0.018845418 0.0037306906 0.0042047906
-0.0034015395 -0.019638589 -0.027817821 -0.004046893 -9.283049e-05 -0.0069814683 0.00895124 -0.026786309
0.02211252 -0.004641592 0.030505825 -0.009045352 -0.019724272 -0.019515209 0.018092187 -0.0037124504
-0.010842193 0.017890273 -0.023080096 0.014591526 -0.0031690141 0.006104092 0.0035719245 -0.005028161
0.0083377855 0.015304199 -0.00051690266 0.0020248734 0.0113108 0.0009984592 0.00021722526 0.0073182685
0.015628813 -0.015998436 -0.004738617 -0.01444682 0.010769182 -0.009264687 -0.025185382 -0.014093556
-0.004756573 -0.019676225 -0.011695992 -0.025862021 0.005406851 0.0032453889 -0.0023564592 -0.008261664
0.016070932 -0.001522869 -0.004253089 0.0022919828 0.0063954415 -0.01068866 -0.007602461 -0.011653241
0.021372057 -0.011473658 -0.006287337 0.003779325 -0.017889159 0.009177928 0.0027297742 -0.014767172
0.0067379074 -0.0028605664 -0.028348453 -0.0015511593 0.00041677628 -0.0037245604 -0.013647657 0.0059553413
-0.0022048168 -0.007757642 -0.0017792651 -0.0029638768 -0.0031344686 0.01549576 -0.01794653 0.007855701
-0.001629781 0.008852238 -0.011503783 -0.015697502 -0.006150741 -0.0037834318 -0.0059351255 -0.004196619
0.0062450427 0.0013758006 0.007157794 0.0042122225 0.0061222925 0.002246007 0.0034730574 0.009185461
-0.015252875 0.011341171 -0.016695375 -0.01662173 -0.015590121 0.005554673 0.050724264 -0.01174874
-0.0021888183 -0.004565682 -0.031830076 -0.013272626 -0.00012635041 -0.00564413 0.006455643 0.0033916305
-0.011584143 -0.020630347 -0.005093015 -0.020182746 0.014076968 0.005085548 -0.0010735963 -0.0027926054
0.013137304 -0.0078441 -0.014299189 -0.01826957 0.0032820608 -0.021327658 0.009321728 0.002688976
0.0139184045 0.021413976 5.490828e-05 0.016170617 -0.006388473 0.0030866486 -0.0068076984 -0.00282801
-0.01466335 -0.0003683602 -0.015315797 -0.0013075208 0.019012379 0.0021934744 -0.009615661 0.012974234
0.0111735305 0.0053476403 -0.019384148 0.001612652 -0.011175891 -0.005304406 -0.0067318487 0.006996798
-0.013638424 -0.010412141 0.0028116507 0.0059717214 -0.0039569633 0.005795135 -0.005118526 -0.01665243
-0.019589275 -0.008565883 0.00023755628 -0.0106326565 -0.0061099515 0.0032187637 -0.024787629 -0.025374917
-0.0058512627 0.010887284 0.012086242 -0.0051924544 -0.009309704 0.0030978087 -0.005316627 0.002597499
-0.010248485 -0.0041453363 -0.00073776714 -0.0042774645 -0.0018496693 -0.012008901 -0.0027543516 0.010905246
0.00097493856 -0.0096280705 0.0069233603 -0.0028313105 -0.018867942 0.0050312597 -0.021966297 -0.0041514896
-0.0075593065 0.008127841 -0.009792786 0.004619719 -0.0066454154 0.0076470673 0.0034295688 0.027219081
-0.0041223816 -0.0244391 0.009469506 -0.0041190186 -0.0028414922 -0.0050509083 -0.00081965886 -0.018794594
-0.027029073 0.0074498635 -0.016449567 -0.004100371 -0.032061953 -2.4838662e-05 0.024876256 -0.025989821
-0.029825982 -0.015329719 -0.0001595544 0.00029171776 -0.014132013 -0.016769001 -0.003144961 0.00800227
-0.005228337 -0.008376621 0.0032941895 -0.0018370232 0.010511139 0.00031641725 0.0026748911 -0.0002146994
0.009988999 -0.021582356 -0.015680553 -0.0022406708 -0.03175893 -0.0036382657 0.003403706 -0.024031017
-0.021863958 0.008611384 -0.004250394 -0.0045898687 0.004746463 -0.0052460763 0.015297602 -0.007465325
00000000: 3eb8 aebc 7985 9dbc e710 cc3b 86fd 1c3c
00000010: 12c2 303c b561 9abc 9a7e 743b 57c8 893b
00000020: 5dec 5ebb 1be1 a0bc 33e2 e3bc cd9b 84bb
00000030: fdad c2b8 cdc4 e4bb 39a8 123c f66e dbbc
00000040: 5125 b53c 7f18 98bb 5ae7 f93c f532 14bc
00000050: cc94 a1bc 5cde 9fbc 1136 943c 954c 73bb
00000060: 74a3 31bc 9f8e 923c 7812 bdbc 4c11 6f3c
00000070: 3caf 4fbb d604 c83b f316 6a3b 46c3 a4bb
00000080: 359b 083c 77be 7a3c c080 07ba bdb3 043b
00000090: ef50 393c bbde 823a f6c6 6339 16ce ef3b
000000a0: ff07 803c 270f 83bc 6746 9bbb 5bb2 6cbc
000000b0: 3971 303c eaca 17bc 9351 cebc a9e8 66bc
000000c0: 07dd 9bbb 0930 a1bc 8ca0 3fbc 97dc d3bc
000000d0: f42b b13b 97b0 543b d36e 1abb ee5b 07bc
000000e0: 30a7 833c 019b c7ba 7f5d 8bbb 1735 163b
000000f0: da90 d13b 7d1f 2fbc 111e f9bb 3ced 3ebc
00000100: 7414 af3c 02fc 3bbc 0106 cebb 8dae 773b
00000110: 498c 92bc 055f 163c 03e6 323b 02f2 71bc
00000120: aac9 dc3b 5778 3bbb 043b e8bc 4550 cbba
00000130: c482 da39 c117 74bb 6c9a 5fbc 0625 c33b
00000140: b07e 10bb d133 febb 3b36 e9ba 9a3d 42bb
00000150: a86b 4dbb eee1 7d3c 9a04 93bc 33b5 003c
00000160: 609e d5ba fa08 113c 5d7a 3cbc 0c98 80bc
00000170: 288c c9bb 74f3 77bb 717b c2bb cb83 89bb
00000180: 37a3 cc3b 3554 b43a ee8b ea3b af06 8a3b
00000190: 839d c83b bf31 133b 3c9c 633b 9e7e 163c
000001a0: 32e7 79bc 52d0 393c bdc4 88bc 4b2a 88bc
000001b0: b56d 7fbc f903 b63b 3fc4 4f3d ca7d 40bc
000001c0: 4772 0fbb b79b 95bb 4160 02bd 6e75 59bc
000001d0: ee7c 04b9 65f2 b8bb dc89 d33b 1e46 5e3b
000001e0: 6bcb 3dbc f900 a9bc 4ee3 a6bb 4956 a5bc
000001f0: 15a3 663c aba4 a63b eab7 8cba 2504 37bb
00000200: d93d 573c 8a84 00bc 2547 6abc 11aa 95bc
00000210: d817 573b 57b7 aebc 29ba 183c 8839 303b
00000220: 050a 643c 5d6c af3c 514d 6638 3e78 843c
00000230: 6556 d1bb 5f49 4a3b 1d13 dfbb 2256 39bb
00000240: 8c3e 70bc 7820 c1b9 1cef 7abc 1e61 abba
00000250: d9bf 9b3c 65c0 0f3b 018b 1dbc e291 543c
00000260: 2f11 373c 423b af3b 81cb 9ebc 9f5f d33a
00000270: 161b 37bc 95d0 adbb d796 dcbb 6545 e53b
00000280: b273 5fbc af97 2abc ac43 383b 6eae c33b
00000290: 6aa9 81bb 1ee5 bd3b 4fb9 a7bb ad6a 88bc
000002a0: b079 a0bc eb57 0cbc 8718 7939 9834 2ebc
000002b0: fd35 c8bb e5f1 523b 6d0f cbbc 0fdf cfbc
000002c0: f3bb bfbb 9460 323c 6005 463c 7725 aabb
000002d0: bb87 18bc 9b04 4b3b 1a37 aebb cd3a 2a3b
000002e0: 43e9 27bc 9ad5 87bb b766 41ba f929 8cbb
000002f0: 9a70 f2ba fbc0 44bc 5a82 34bb ebab 323c
00000300: 0593 7f3a 0ebf 1dbc 5bdd e23b 828d 39bb
00000310: f190 9abc 44dd a43b aaf2 b3bc 3809 88bb
00000320: 0fb4 f7bb a32a 053c ec71 20bc 0361 973b
00000330: c9c1 d9bb 4094 fa3b 9ec2 603b 8dfa de3c
00000340: 0b15 87bb 8234 c8bc fd25 1b3c d5f8 86bb
00000350: 5438 3abb 1782 a5bb 60de 56ba 1ff7 99bc
00000360: 136c ddbc fc1d f43b 3ec1 86bc 685c 86bb
00000370: 6553 03bd 9f5c d0b7 4ac9 cb3c 9be8 d4bc
00000380: 9e55 f4bc 8029 7bbc 0f4e 27b9 b2f1 9839
00000390: f589 67bc 255f 89bc b11b 4ebb f41b 033c
000003a0: 7852 abbb 183e 09bc 54e3 573b 45c8 f0ba
000003b0: ea36 2c3c cee4 a539 3a4d 2f3b ee20 61b9
000003c0: e6a8 233c 7bcd b0bc 8174 80bc 38d8 12bb
000003d0: a715 02bd f86f 6ebb b610 5f3b b2dc c4bc
000003e0: 0b1c b3bc c316 0d3c e446 8bbb 9c66 96bb
000003f0: 3888 9b3b 47e7 abbb cba2 7a3c af9f f4bb

fc.weight_g f4 [345, 1]
0.79676235 0.74920404 0.5030629 0.5631762 0.5760573 0.7909948 0.7885335 0.56629384
0.7992145 0.8400354 0.8882778 0.82770294 1.0719755 1.0805783 1.1199346 0.8930102
1.0703006 1.0256352 0.9967914 0.9920869 0.8461757 0.90614176 0.99357253 0.79437476
0.85519993 0.9837623 0.97542095 0.9237693 0.7348359 0.986276 0.8048482 0.9819694
0.8108214 1.0235239 0.8603554 0.9979307 0.7686084 0.6115706 0.84086674 0.91327995
1.0060258 1.0045863 0.7609262 1.0078788 0.7452941 0.7615393 0.75490654 0.9243864
0.69467044 0.9045923 0.7038581 0.84114367 0.6844428 0.77239066 0.66655666 0.80439055
0.67337704 0.73120487 0.80368894 0.70895517 0.81227714 1.0631485 0.99709046 0.91028
0.97850126 0.77570117 0.6743682 0.99405456 0.94215804 0.6935848 0.5536622 0.92872226
0.65888447 0.62630093 0.9083525 0.92958146 0.6028973 0.89569366 0.8155937 0.6381646
0.75887513 0.8757254 0.7097431 0.762445 0.7684071 0.5860117 0.795884 0.73402864
0.901438 0.73639643 0.6710349 0.9875162 0.8917319 0.817392 0.7332407 0.63593155
0.63079286 0.75640124 0.5805216 0.7655978 0.8154425 0.7666105 0.7851947 0.96351093
0.815921 0.6364284 0.9176628 0.8739994 0.8368011 0.7201199 1.1227087 0.8657807
0.8196219 0.7848612 0.84963024 0.67454004 0.9799813 0.66345066 0.7893625 0.7996408
0.873322 0.8712242 0.73082256 0.88546985 0.77341706 0.8983007 0.7637628 1.0513232
0.7649817 0.92937005 0.96270806 0.94757885 0.9544658 1.0114007 1.0015724 0.9487333
0.83372796 1.0550487 0.62652427 0.9963098 1.0497375 0.72339165 0.9737054 1.023652
0.98593456 0.8170606 0.9489049 0.9840443 0.7868842 0.69633585 0.85563225 0.84411955
0.7751913 1.0016071 0.98258173 0.8121055 0.9731519 0.80036503 0.6795981 0.754012
0.8237131 0.8596776 0.80537903 0.884124 0.88744533 0.7800878 0.8980453 0.84332484
0.9357693 0.87945056 0.6312475 0.7415825 0.8253464 1.0149212 0.74792004 0.81101257
0.739158 0.6584382 0.784949 0.99504703 0.7369495 0.57963324 0.8335214 0.6884341
0.7713848 0.860445 0.86448807 0.8966794 1.0194429 0.9165732 0.7789684 0.758965
0.68406093 0.90310395 0.68317086 1.0535194 0.9918361 0.8565061 0.9765301 0.72580206
0.83219975 0.7382802 0.74194735 0.7547121 0.8329204 0.6614098 0.78490025 0.9948358
0.7648992 0.9230876 0.65329295 0.78090143 0.75327265 0.91102993 0.7746838 0.88100094
0.8839368 1.0100157 0.9721978 0.8058804 0.83503777 0.80476016 0.9951997 0.97472346
0.86491925 0.8705876 0.82734215 0.7008511 0.8063488 0.94904536 0.8518015 0.6892573
0.77100897 0.84129983 0.93517804 0.87036085 0.6637845 0.9082781 0.8380335 0.74147266
0.81786335 0.8033177 0.7987928 0.9062774 0.8816893 0.71781176 0.7116346 0.8190012
0.87434614 0.7094292 0.80602545 0.8502762 0.9074556 0.7124695 0.6929316 0.9595827
00000000: 9ef8 4b3f d6cb 3f3f bbc8 003f 512c 103f
00000010: 7e78 133f a37e 4a3f 55dd 493f a2f8 103f
00000020: 5299 4c3f 8f0c 573f 2d66 633f 57e4 533f
00000030: 7e36 893f 6450 8a3f 045a 8f3f 519c 643f
00000040: 9cff 883f 0448 833f b92d 7f3f 68f9 7d3f
00000050: f89e 583f e8f8 673f c55a 7e3f 255c 4b3f
00000060: 62ee 5a3f d9d7 7b3f 30b5 793f 257c 6c3f
00000070: 351e 3c3f 957c 7c3f 880a 4e3f 5962 7b3f
00000080: fe91 4f3f d502 833f 4040 5c3f 6378 7f3f
00000090: 85c3 443f e48f 1c3f 0b43 573f b7cc 693f
000000a0: 74c5 803f 4996 803f 0fcc 423f 2c02 813f
000000b0: 98cb 3e3f 3df4 423f 8e41 413f 96a4 6c3f
000000c0: ecd5 313f 5c93 673f 0b30 343f 3155 573f
000000d0: a537 2f3f 65bb 453f 75a3 2a3f 8aec 4d3f
000000e0: 7062 2c3f 3e30 3b3f 8fbe 4d3f 167e 353f
000000f0: 65f1 4f3f 4015 883f 5241 7f3f 1c08 693f
00000100: 0f7f 7a3f 5a94 463f 65a3 2c3f 5c7a 7e3f
00000110: 4531 713f c68e 313f cebc 0d3f bec0 6d3f
00000120: a7ac 283f 4255 203f ca89 683f 0df9 6d3f
00000130: 7a57 1a3f 2e4c 653f c0ca 503f c15e 233f
00000140: a445 423f 8a2f 603f b9b1 353f 982f 433f
00000150: 54b6 443f dd04 163f 0ebf 4b3f 4de9 3b3f
00000160: a4c4 663f 7a84 3c3f f1c8 2b3f ddcd 7c3f
00000170: 8b48 643f 9a40 513f aab5 3b3f 69cc 223f
00000180: a47b 213f 83a3 413f 109d 143f 38fe 433f
00000190: d7c0 503f 9640 443f 8502 493f a7a8 763f
000001a0: 33e0 503f f9ec 223f f3eb 6a3f 6dbe 5f3f
000001b0: 9938 563f c759 383f ebb4 8f3f cea3 5d3f
000001c0: bed2 513f aaec 483f 5e81 593f a8ae 2c3f
000001d0: 0ee0 7a3f e7d7 293f a913 4a3f 42b5 4c3f
000001e0: 0892 5f3f 8d08 5f3f 3017 3b3f 27ae 623f
000001f0: a9fe 453f 09f7 653f f585 433f c291 863f
00000200: d7d5 433f 32eb 6d3f 0974 763f 8794 723f
00000210: df57 743f 9475 813f 8633 803f 30e0 723f
00000220: 326f 553f d60b 873f e563 203f 290e 7f3f
00000230: cc5d 863f 3230 393f c244 793f 0707 833f
00000240: 3566 7c3f e22a 513f 6eeb 723f 54ea 7b3f
00000250: 3e71 493f 1143 323f b70a 5b3f 3818 583f
00000260: f072 463f a934 803f 7a8a 7b3f 25e6 4f3f
00000270: 7c20 793f b9e4 4c3f 24fa 2d3f ee06 413f
00000280: ddde 523f d513 5c3f 522d 4e3f f355 623f
00000290: 9e2f 633f d6b3 473f 4ce6 653f 23e4 573f
000002a0: 948e 6f3f ac23 613f 7099 213f 5ad8 3d3f
000002b0: e749 533f f0e8 813f b077 3f3f 859e 4f3f
000002c0: 7539 3d3f 688f 283f 6bf2 483f 67bb 7e3f
000002d0: b9a8 3c3f d862 143f a961 553f 383d 303f
000002e0: 7979 453f 2046 5c3f 174f 5d3f c88c 653f
000002f0: 1b7d 823f 8ba4 6a3f 796a 473f 884b 423f
00000300: 9e1e 2f3f d231 673f 49e4 2e3f b9d9 863f
00000310: f8e8 7d3f fc43 5b3f e0fd 793f 2ace 393f
00000320: 0b0b 553f eeff 3c3f 43f0 3d3f d034 413f
00000330: 453a 553f 2752 293f 39ef 483f 8fad 7e3f
00000340: 6fd0 433f 784f 6c3f 353e 273f 28e9 473f
00000350: 7ad6 403f 4239 693f ad51 463f 4789 613f
00000360: af49 623f 3248 813f f4e1 783f 2e4e 4e3f
00000370: 09c5 553f c304 4e3f 68c5 7e3f 7a87 793f
00000380: 596b 5d3f d4de 5e3f b2cc 533f fa6a 333f
00000390: e06c 4e3f a3f4 723f aa0f 5a3f 2b73 303f
000003a0: d860 453f 6d5f 573f d467 6f3f f8cf 5e3f
000003b0: c8ed 293f ea84 683f 5d89 563f 27d1 3d3f
000003c0: 7e5f 513f 3ba6 4d3f af7d 4c3f cc01 683f
000003d0: 64b6 613f 83c2 373f af2d 363f 10aa 513f
000003e0: 26d5 5f3f 279d 353f af57 4e3f b3ab 593f
000003f0: 034f 683f 6764 363f f763 313f 36a7 753f

fc.weight_v f4 [345, 256]
-0.025722787 0.020009067 0.00553262 -0.025209362 -0.011542286 -0.0064187925 0.02218416 0.03493759
0.016091458 -0.038708508 -0.005445899 -0.025440015 0.025913725 -0.016068844 -0.0030875022 0.0036655345
0.008085438 -0.006890122 -0.010275492 0.010320157 -0.016000109 0.012907316 0.008711292 -0.02837927
0.017681194 0.0148083605 -0.008596581 0.017916745 -0.0102223335 -0.012770953 0.018005643 0.0087659005
-0.007547274 -0.027185405 0.03135042 0.019384837 0.018990925 0.0035096046 -0.01370082 -0.01421165
0.03046269 0.009822057 -0.01593626 -0.0020509851 -0.01854802 -0.0010948528 0.010533671 0.028975623
-0.016011039 0.0033974343 0.0029983448 0.03523342 -0.021149945 0.033550393 0.010039009 -0.01496373
0.0009765078 -0.03432264 -0.0052678008 0.021178044 -0.021324098 0.023958055 0.00912768 -0.008766851
0.029466085 0.009049071 0.017746711 -0.014021475 -0.0031888091 0.00080002745 -0.03448457 -0.015768249
0.024262508 -0.0047388636 0.0012689548 0.0066723074 -0.0052530454 -0.012937407 -0.009961538 -0.005418337
0.008617419 -0.021401769 -0.004637328 -0.013385243 0.018601686 -0.0195772 0.0076370398 -0.011720461
-0.018602 -0.015194448 0.0068399548 -0.0151427565 0.021976901 -0.013112292 3.2207798e-05 0.011304543
0.010436051 0.022072248 -0.025436485 0.001045761 0.014107218 0.007909305 -0.038541965 -0.028631119
0.01301119 0.01128451 0.011747868 0.0041098236 0.020099526 -0.03374277 -0.00674145 -0.0040184404
-0.027908841 -0.0136731 0.030801592 0.0070831995 0.015039783 0.009627022 0.035935864 0.00869056
0.018857885 -0.016201207 -0.0073770965 0.025654651 0.021851849 -0.048863567 -0.019331412 -0.0044351113
0.00865918 0.009040184 -0.03011946 -0.0058220807 -0.008726467 -0.029052703 0.009353033 -0.023150165
-0.0010809851 -0.042796887 -0.03650374 -0.012227097 -0.004906239 -0.014918143 -0.020522969 0.015925936
-0.0034443021 0.03398651 0.046477977 0.016260639 0.0075180037 0.0025907329 -0.021739569 -0.02075592
0.050490078 0.013471816 0.0024190855 0.0045728586 -0.0065469947 -0.0015487893 0.011180544 0.009096396
-0.012769934 -0.04134987 -0.007914221 0.0119700115 0.0011411331 -0.004888862 -0.0129658375 0.024817372
-0.017952966 -0.0049343505 0.004696577 0.002778385 0.024162602 0.014301858 -0.012276223 0.017652605
-0.019079845 0.02455694 0.039985564 0.011515942 0.01887527 0.0066919415 -0.00569934 0.02508591
0.010689298 -0.0066381167 0.025130568 -0.0026301122 0.027120208 -0.010413791 0.031704128 0.0027132458
0.008559211 0.04735666 0.012848321 0.007488395 0.006228884 -0.026080843 -0.0088338945 -0.020291805
0.030641692 -0.022257708 -0.0146208955 0.0011331199 0.001975593 0.04136819 -0.0069354586 -0.005229841
0.004670059 0.008355446 0.031419355 -0.028686006 0.00082809397 0.0068378975 -0.011117382 -0.004655629
0.01159146 0.008430913 0.0062859408 -0.0029291094 -0.026013913 -0.00484432 0.0032076803 -0.027882617
-0.006388213 0.014464599 -0.0028307163 0.015866945 -0.019346697 0.028076414 -0.012953773 0.011828057
0.0036795454 0.013394201 -0.022842655 -0.006446174 0.034976814 0.0006292072 -0.0031022928 0.0008920882
0.0056446237 -0.011756615 0.0031470468 -0.020609526 0.0010751294 -0.041581184 0.005494626 -0.019515475
-0.033473115 -0.034117345 0.0114141535 0.006514868 0.011124107 0.008225223 -0.006752053 -0.02180811
00000000: 98b8 d2bc 0eea a33c fb4a b53b dd83 cebc
00000010: db1b 3dbc bc54 d2bb 8ebb b53c b81a 0f3d
00000020: 3cd2 833c d08c 1ebd 8373 b2bb 9467 d0bc
00000030: 0549 d43c cfa2 83bc b157 4abb 7739 703b
00000040: c978 043c 88c6 e1bb 8a5a 28bc e015 293c
00000050: a912 83bc 3579 533c cfb9 0e3c a57b e8bc
00000060: 27d8 903c c49e 723c add8 0cbc 23c6 923c
00000070: 937b 27bc 423d 51bc 9280 933c da9e 0f3c
00000080: 204f f7bb edb3 debc 4c69 003d f3cc 9e3c
00000090: db92 9b3c 6501 663b 6779 60bc fbd7 68bc
000000a0: e48c f93c b1ec 203c c28c 82bc d269 06bb
000000b0: 04f2 97bc 2a81 8fba 6b95 2c3c 495e ed3c
000000c0: 9529 83bc 7da7 5e3b e17f 443b eb50 103d
000000d0: a642 adbc 236c 093d a87a 243c 6f2a 75bc
000000e0: 54fc 7f3a e695 0cbd 849d acbb 947d ad3c
000000f0: e0af aebc af43 c43c 448c 153c d7a2 0fbc
00000100: dc62 f13c 8e42 143c 8d61 913c 54ba 65bc
00000110: 57fb 50bb efb8 513a b13f 0dbd 6a2c 81bc
00000120: 2bc2 c63c 7848 9bbb 0f53 a63a 5fa3 da3b
00000130: bd21 acbb 6bf7 53bc b835 23bc 4e8c b1bb
00000140: 1330 0d3c c352 afbc baf4 97bb c74d 5bbc
00000150: 9062 983c 5d60 a0bc 2240 fa3b 2d07 40bc
00000160: 3963 98bc 22f2 78bc b321 e03b 5319 78bc
00000170: e708 b43c f0d4 56bc dc16 0738 b136 393c
00000180: f8fb 2a3c dcd0 b43c 2d60 d0bc eb11 893a
00000190: f621 673c 0896 013c 2ede 1dbd cf8b eabc
000001a0: e32c 553c aae2 383c 217a 403c b3ab 863b
000001b0: c3a7 a43c dc35 0abd 62e7 dcbb 1fad 83bb
000001c0: 15a1 e4bc 2305 60bc 9f53 fc3c 2f1a e83b
000001d0: 6c69 763c a8ba 1d3c 7c31 133d da62 0e3c
000001e0: da7b 9a3c 65b8 84bc 92bb f1bb b429 d23c
000001f0: a602 b33c 2a25 48bd e95c 9ebc 6954 91bb
00000200: 3cdf 0d3c 481d 143c 16bd f6bc 27c7 bebb
00000210: 75f9 0ebc efff edbc 773d 193c 6aa5 bdbc
00000220: d7af 8dba ca4b 2fbd f284 15bd 2954 48bc
00000230: 84c4 a0bb 3a6b 74bc c91f a8bc 1c77 823c
00000240: cdb9 61bb 7035 0b3d b15f 3e3d 0835 853c
00000250: 9659 f63b 49c9 293b 2e17 b2bc 5208 aabc
00000260: afce 4e3d e4b8 5c3c 8589 1e3b ebd7 953b
00000270: 2c88 d6bb bf00 cbba 9a2e 373c 0d09 153c
00000280: fc38 51bc 7b5e 29bd a6aa 01bc de1d 443c
00000290: 1392 953a bf32 a0bb aa6e 54bc cd4d cb3c
000002a0: 1912 93bc 55b0 a1bb bee5 993b 9115 363b
000002b0: a6f0 c53c 5752 6a3c 3622 49bc 329c 903c
000002c0: 564d 9cbc a32b c93c e7c7 233d 5dad 3c3c
000002d0: 4fa0 9a3c 1348 db3b 87c1 babb f780 cd3c
000002e0: 2a22 2f3c 8f84 d9bb 9fde cd3c f65d 2cbb
000002f0: 332b de3c 9b9e 2abc 30dc 013d b6d0 313b
00000300: ef3b 0c3c 0ff9 413d c481 523c 3661 f53b
00000310: ab1b cc3b 7ea7 d5bc 0abc 10bc 003b a6bc
00000320: 4904 fb3c cc55 b6bc 7b8c 6fbc 3285 943a
00000330: f378 013b b171 293d d842 e3bb 165f abbb
00000340: 4b07 993b 48e5 083c 95b1 003d eafe eabc
00000350: 7214 593a 7110 e03b ae25 36bc 3f8e 98bb
00000360: 1bea 3d3c d021 0a3c 4bfa cd3b 4df6 3fbb
00000370: 211b d5bc 1abd 9ebb f237 523b 166a e4bc
00000380: 3754 d1bb edfc 6c3c 8a83 39bb 65fb 813c
00000390: f77c 9ebc 8200 e63c 103c 54bc 77ca 413c
000003a0: 8724 713b 5a73 5b3c 8520 bbbc 6d3a d3bb
000003b0: d943 0f3d 61f1 243a d64f 4bbb 07db 693a
000003c0: 89f6 b83b d19e 40bc af3e 4e3b 4fd5 a8bc
000003d0: 5beb 8c3a 0851 2abd 430c b43b ebde 9fbc
000003e0: 1b1b 09bd a1be 0bbd 6e02 3b3c ac7a d53b
000003f0: e341 363c 16c3 063c 5340 ddbb eca6 b2bc
