ckps/source/uda/office-caltech/caltech_1/source_C.pt (torch, 5290 bytes, 3 tensors)

fc.bias f4 [3]
0.12917347 -0.17987409 0.050700374
00000000: 0d46 043e ea30 38be 32ab 4f3d

fc.weight_g f4 [3, 1]
0.46472123 0.5666582 0.57713354
00000000: f1ef ed3e 8310 113f 06bf 133f

fc.weight_v f4 [3, 256]
0.01462431 -0.01180546 -0.037714634 0.027555022 0.036614124 0.051750805 0.022088327 0.025382962
-0.030190239 0.11499533 0.034422424 0.086817555 -0.017007882 0.022440884 -0.04134427 -0.0075196396
-0.120606765 -0.03234909 0.019518446 0.031971756 0.034540113 -0.124892764 0.08364028 -0.06243566
-0.07225456 0.04198929 0.0875284 -0.09089545 -0.035039697 0.06903097 -0.027199179 0.011671798
-0.022634067 -0.040392738 -0.016506374 -0.03294686 0.06816523 0.03398274 -0.02982826 -0.05350513
-0.04024783 -0.059008278 -0.031753957 -0.058349486 -0.051516455 -0.009037213 0.053602953 0.070056506
-0.019424835 0.009140193 0.008880248 -0.012345023 0.099814385 -0.1326876 -0.0037426862 -0.0072662146
0.05462604 0.026182609 0.06990147 0.085491434 0.0329441 -0.062539935 -0.00045509482 0.049760368
0.017666964 -0.006027396 0.0024552522 0.023733191 0.1052683 0.04679385 -0.0717362 0.04590607
0.06280792 0.054316353 -0.043753847 -0.07142433 -0.0067290757 0.046665326 -0.014653732 0.03189423
-0.0016279351 0.009700202 -0.0059547727 -0.023910563 0.005980899 -0.08860353 -0.0035117976 -0.062389098
-0.09705036 -0.03344045 0.0306191 0.015863966 -0.064251274 0.054155238 0.034814626 0.02760088
-0.032698855 -0.038257096 0.025857765 0.004660396 -0.019651653 -0.03553798 -0.020483289 0.00077351945
-0.06829356 -0.01601267 -0.035558786 0.06071765 -0.04484491 0.00046487444 -0.024048008 0.0033641336
0.0402884 0.06945649 0.045198638 0.039620787 -0.030397283 0.06948992 -0.029389601 -0.059533704
-0.06541967 -0.024678968 -0.016483009 0.030873815 -0.030789347 -0.00021426611 0.040184397 -0.06840147
-0.050816357 -0.023325616 0.057047978 -0.05285042 0.010288829 0.008448264 0.02007291 0.0008734241
0.008016077 0.001871879 0.027166067 -0.021622758 -0.052591924 -0.07030708 0.06523582 -0.08427557
0.049297374 0.09125262 -0.007806415 -0.04040542 -0.07151264 0.009121961 0.031901732 0.014576982
-0.08308474 -0.034780085 0.08143092 0.044978112 -0.04418523 0.033547603 -0.024740307 0.018068738
-0.044292934 -0.042701002 -0.048443183 0.005349242 0.039432637 -0.027263585 8.041292e-05 -0.11021695
0.050249636 0.05379048 0.005313629 -0.03888247 -0.050017968 0.07877787 -0.012254043 0.0043791267
-0.0212255 0.053594816 0.09636994 -0.047198538 0.047900565 0.027866276 0.04318306 0.012717246
0.022305923 -0.006603023 0.012763066 0.0084262695 -0.062278334 0.036646727 -0.04649068 -0.016656885
-0.009063559 -0.07707379 0.006736056 0.0035520995 -0.04321013 -0.078932874 -0.014655044 0.007025512
0.007631768 -0.011658192 -0.048537634 -0.04044618 0.009001663 0.115215376 0.04571881 -0.0129492255
-0.048905123 0.021914812 0.012552785 0.0148268165 0.030024981 -0.009514811 0.07219817 -0.085296005
-0.0030819175 -0.043511093 0.028644511 -0.07200125 0.00730595 -0.09172901 -0.0031661957 -0.010997004
-0.04124888 -0.0031204242 0.0070887287 0.02926628 0.0017780432 -0.03343391 0.11812337 0.02305662
-0.017186228 0.024372578 -0.025999626 0.1166332 0.023984365 -0.036910992 0.012567073 0.020694237
0.02565942 0.011120376 -0.0064995685 0.052577708 0.0116649475 -0.010991632 -0.004472942 -0.0772029
0.078967445 0.08318843 0.0019100775 -0.07062902 -0.070726015 -0.07420044 0.017624935 0.089137144
00000000: cd9a 6f3c b06b 41bc a97a 1abd 12bb e13c
00000010: b1f8 153d a7f8 533d 94f2 b43c eeef cf3c
00000020: 8551 f7bc ac82 eb3d 87fe 0c3d 67cd b13d
00000030: 1d54 8bbc f2d5 b73c 9c58 29bd 4f67 f6bb
00000040: ae00 f7bd 7b80 04bd 26e5 9f3c d1f4 023d
00000050: ef79 0d3d c7c7 ffbd 984b ab3d 89bc 7fbd
00000060: 33fa 93bd f6fc 2b3d 1742 b33d 6527 babd
00000070: c985 0fbd 1c60 8d3d d0d0 debc 123b 3f3c
00000080: 146b b9bc db72 25bd 6038 87bc 49f3 06bd
00000090: 369a 8b3d 7c31 0b3d 655a f4bc 3228 5bbd
000000a0: e9da 24bd aab2 71bd 7010 02bd dfff 6ebd
000000b0: eb02 53bd d210 14bc c58e 5b3d c979 8f3d
000000c0: d520 9fbc c0c0 153c 767e 113c c842 4abc
000000d0: 7c6b cc3d 42df 07be db47 75bb 6d19 eebb
000000e0: 8ebf 5f3d e97c d63c 8028 8f3d 2216 af3d
000000f0: 65f0 063d f014 80bd cb99 eeb9 87d1 4b3d
00000100: 4fba 903c 7681 c5bb 4ce8 203b 1c6c c23c
00000110: e896 d73d e8aa 3f3d 6eea 92bd 0108 3c3d
00000120: 70a1 803d d37a 5e3d 3c37 33bd eb46 92bd
00000130: 947f dcbb 2424 3f3d 3516 70bc 86a3 023d
00000140: 7060 d5ba 99ed 1e3c 4120 c3bb 16e0 c3bc
00000150: 6bfb c33b c475 b5bd 3026 66bb b68b 7fbd
00000160: 57c2 c6bd daf8 08bd e8d4 fa3c 26f5 813c
00000170: 2c96 83bd e2d1 5d3d c899 0e3d 3e1b e23c
00000180: 3cef 05bd 79b3 1cbd aad3 d33c 3cb6 983b
00000190: 81fc a0bc 4690 11bd 92cc a7bc 03c6 4a3a
000001a0: 7edd 8bbd 012d 83bc 17a6 11bd 12b3 783d
000001b0: 4caf 37bd 64ba f339 5400 c5bc cc78 5c3b
000001c0: 7305 253d 343f 8e3d 3522 393d 6849 223d
000001d0: b903 f9bc bb50 8e3d 76c2 f0bc 9dd9 73bd
000001e0: bffa 85bd 8c2b cabc 6007 87bc 15eb fc3c
000001f0: f139 fcbc 9fac 60b9 6598 243d 1216 8cbd
00000200: d024 50bd 5d15 bfbc 24ab 693d af79 58bd
00000210: 7a92 283c 966a 0a3c f16f a43c 80f6 643a
00000220: dd55 033c d659 f53a 5f8b de3c 3622 b1bc
00000230: a16a 57bd 29fd 8fbd 5c9a 853d ac98 acbd
00000240: 0bec 493d a7e2 ba3d f5cc ffbb 2780 25bd
00000250: 3875 92bd 4774 153c 64ab 023d 4bd4 6e3c
00000260: 5528 aabd 9075 0ebd 41c5 a63d f83a 383d
00000270: 92fb 34bd 3669 093d 2fac cabc e404 943c
00000280: 826c 35bd 3fe7 2ebd 5c6c 46bd b248 af3b
00000290: 1e84 213d e257 dfbc 5ca3 a838 6db9 e1bd
000002a0: 90d2 4d3d 6853 5c3d f31d ae3b 3a43 1fbd
000002b0: a4df 4cbd 4b56 a13d 2ec5 48bc c77e 8f3b
000002c0: 1ae1 adbc 3d86 5b3d 9a5d c53d 4153 41bd
000002d0: 6233 443d d147 e43c b8e0 303d ff5b 503c
000002e0: e9ba b63c 2c5e d8bb 2e1c 513c 560e 0a3c
000002f0: 9117 7fbd e11a 163d 036d 3ebd 0574 88bc
00000300: 527f 14bc ddd8 9dbd 22ba dc3b 57ca 683b
00000310: 1bfd 30bd 8fa7 a1bd b61b 70bc 4436 e63b
00000320: e913 fa3b 0002 3fbc 66cf 46bd e5aa 25bd
00000330: b67b 133c 0af6 eb3d a643 3b3d fd28 54bc
00000340: bd50 48bd b186 b33c 32aa 4d3c 2dec 723c
00000350: f3f6 f53c 03e4 1bbc a2dc 933d acaf aebd
00000360: fff9 49bb b038 32bd e5a7 ea3c 6475 93bd
00000370: c066 ef3b 6bdc bbbd f37f 4fbb c72c 34bc
00000380: 96f4 28bd 0880 4cbb 9148 e83b d6bf ef3c
00000390: 3b0d e93a fff1 08bd aaea f13d 3de1 bc3c
000003a0: 22ca 8cbc 00a9 c73c 2bfd d4bc 63dd ee3d
000003b0: dc7a c43c fb2f 17bd 20e6 4d3c f686 a93c
000003c0: b433 d23c 3d32 363c 55fa d4bb b95b 573d
000003d0: 561e 3f3c 3f16 34bc c291 92bb 8e1c 9ebd
000003e0: afb9 a13d b25e aa3d 915b fa3a f3a5 90bd
000003f0: cdd8 90bd 66f6 97bd 2b62 903c 898d b63d
