ckps/source/uda/office-caltech/caltech_1/source_B.pt (torch, 532830 bytes, 6 tensors)

bn.weight f4 [256]
0	0x3f76474e	0.9620255
1	0x3f791200	0.9729309
2	0x3f76a125	0.9633964
3	0x3f772fa8	0.9655709
4	0x3f774ff3	0.9660637
5	0x3f788ea1	0.97092634
6	0x3f77db56	0.96819055
7	0x3f774b6e	0.9659947
8	0x3f77e9da	0.96841204
9	0x3f7847b2	0.969844
10	0x3f77e138	0.9682803
11	0x3f78f806	0.97253454
12	0x3f7796b8	0.96714354
13	0x3f77bb6b	0.9677035
14	0x3f781652	0.9690906
15	0x3f771e5b	0.96530694
16	0x3f783c77	0.9696726
17	0x3f77ccd4	0.9679692
18	0x3f77f3eb	0.96856564
19	0x3f779a57	0.9671988
20	0x3f772dba	0.9655415
21	0x3f795ff9	0.9741207
22	0x3f782796	0.96935403
23	0x3f779a44	0.96719766
24	0x3f78018f	0.9687738
25	0x3f779c2b	0.9672267
26	0x3f7814f8	0.96906996
27	0x3f798e3e	0.9748267
28	0x3f776c1f	0.96649355
29	0x3f78193d	0.9691351
30	0x3f77eee5	0.968489
31	0x3f783fb5	0.9697221
32	0x3f782e72	0.9694587
33	0x3f77edc2	0.96847165
34	0x3f77af4c	0.96751857
35	0x3f78175c	0.96910644
36	0x3f780fa6	0.9689888
37	0x3f77c0b8	0.9677844
38	0x3f78d718	0.97203207
39	0x3f775210	0.9660959
40	0x3f781768	0.96910715
41	0x3f7768c4	0.96644235
42	0x3f76f141	0.96461874
43	0x3f784add	0.9698923
44	0x3f7826b0	0.9693403
45	0x3f778b1f	0.96696657
46	0x3f77ca74	0.96793294
47	0x3f778b75	0.9669717
48	0x3f785616	0.97006357
49	0x3f7756fc	0.966171
50	0x3f780be6	0.96893156
51	0x3f775b35	0.96623546
52	0x3f78e36c	0.9722202
53	0x3f7920aa	0.97315466
54	0x3f76e4b6	0.96442735
55	0x3f781f81	0.9692307
56	0x3f77f87a	0.9686352
57	0x3f77ba86	0.9676899
58	0x3f77ddb0	0.96822643
59	0x3f7888c1	0.9708367
60	0x3f7740f2	0.96583474
61	0x3f77679a	0.9664246
62	0x3f77dbeb	0.96819943
63	0x3f77dede	0.96824443
64	0x3f77eecf	0.9684877
65	0x3f76b808	0.9637456
66	0x3f77ae8a	0.967507
67	0x3f773e87	0.96579784
68	0x3f784e6f	0.9699468
69	0x3f77ffec	0.9687488
70	0x3f783945	0.96962386
71	0x3f77a9e9	0.9674364
72	0x3f77ce89	0.9679952
73	0x3f780296	0.96878946
74	0x3f77d170	0.9680395
75	0x3f78e89b	0.9722993
76	0x3f7766a0	0.9664097
77	0x3f778825	0.96692115
78	0x3f77ba7b	0.9676892
79	0x3f77b271	0.96756655
80	0x3f779a04	0.96719384
81	0x3f779842	0.967167
82	0x3f778eab	0.9670207
83	0x3f789c17	0.97113174
84	0x3f78e46e	0.97223556
85	0x3f77f976	0.9686502
86	0x3f7851c8	0.9699979
87	0x3f7815c5	0.9690822
88	0x3f790e29	0.9728723
89	0x3f77ca0b	0.9679267
90	0x3f77e21d	0.96829396
91	0x3f76e11d	0.96437246
92	0x3f7876f8	0.9705653
93	0x3f77d66e	0.9681157
94	0x3f785b3c	0.9701421
95	0x3f77d0fa	0.9680325
96	0x3f77918a	0.9670645
97	0x3f7835d3	0.9695713
98	0x3f77a838	0.96741056
99	0x3f77acef	0.9674825
100	0x3f7717a5	0.96520454
101	0x3f77c569	0.967856
102	0x3f77a50d	0.9673622
103	0x3f78fcd2	0.97260773
104	0x3f78e0dc	0.9721811
105	0x3f776c0a	0.9664923
106	0x3f7777a2	0.9666692
107	0x3f7832d8	0.9695258
108	0x3f77b308	0.96757555
109	0x3f770164	0.96486497
110	0x3f77d357	0.96806854
111	0x3f7778f1	0.96668917
112	0x3f7729ee	0.96548355
113	0x3f77daaa	0.9681803
114	0x3f782638	0.9693332
115	0x3f775d3e	0.9662665
116	0x3f779c8c	0.96723247
117	0x3f784f25	0.96995765
118	0x3f77dd09	0.9682165
119	0x3f779fed	0.967284
120	0x3f7869ce	0.97036445
121	0x3f77badc	0.967695
122	0x3f77a1d5	0.9673131
123	0x3f783272	0.96951973
124	0x3f78c790	0.9717951
125	0x3f76ba16	0.96377695
126	0x3f783046	0.9694866
127	0x3f77e2e3	0.96830577
128	0x3f77ceed	0.9680012
129	0x3f76f7a2	0.9647161
130	0x3f78431e	0.9697741
131	0x3f77b71c	0.9676378
132	0x3f7797bd	0.9671591
133	0x3f775625	0.9661582
134	0x3f76f2c8	0.96464205
135	0x3f7838fa	0.9696194
136	0x3f7852ae	0.9700116
137	0x3f771f4d	0.96532136
138	0x3f788e9a	0.9709259
139	0x3f7694ef	0.96321005
140	0x3f7781a1	0.96682173
141	0x3f78d1d1	0.97195154
142	0x3f77a1d3	0.967313
143	0x3f77f144	0.9685252
144	0x3f775c4c	0.9662521
145	0x3f78c615	0.9717725
146	0x3f7832fb	0.9695279
147	0x3f7758a4	0.9661963
148	0x3f783354	0.9695332
149	0x3f776532	0.96638787
150	0x3f7825cb	0.9693267
151	0x3f775e90	0.96628666
152	0x3f77851b	0.9668748
153	0x3f766795	0.96251804
154	0x3f780648	0.96884584
155	0x3f7751fe	0.96609485
156	0x3f76809d	0.9629
157	0x3f77a59f	0.9673709
158	0x3f78d955	0.9720662
159	0x3f77415c	0.96584105
160	0x3f77fc1a	0.9686905
161	0x3f782c25	0.9694236
162	0x3f77cb77	0.9679484
163	0x3f779ccd	0.96723634
164	0x3f7822f8	0.9692836
165	0x3f77c157	0.9677939
166	0x3f77e0ae	0.9682721
167	0x3f79d18e	0.9758538
168	0x3f77efc5	0.96850234
169	0x3f7828b2	0.96937096
170	0x3f77a00d	0.96728593
171	0x3f77eff6	0.96850526
172	0x3f7740ff	0.9658355
173	0x3f780db5	0.96895915
174	0x3f77ccea	0.9679705
175	0x3f7811b9	0.9690204
176	0x3f781823	0.9691183
177	0x3f77dbc6	0.9681972
178	0x3f78e9d6	0.97231805
179	0x3f772c08	0.9655156
180	0x3f77f6cd	0.96860963
181	0x3f787db0	0.97066784
182	0x3f77b5c9	0.9676176
183	0x3f7803c3	0.9688074
184	0x3f77a2d2	0.9673282
185	0x3f77d8e0	0.968153
186	0x3f77ced6	0.9679998
187	0x3f76bad9	0.96378857
188	0x3f77e08a	0.96826994
189	0x3f77be18	0.96774435
190	0x3f78c0bf	0.9716911
191	0x3f7795df	0.9671306
192	0x3f778731	0.9669066
193	0x3f77e534	0.9683411
194	0x3f77d79b	0.9681336
195	0x3f77e2a3	0.96830195
196	0x3f777312	0.9665996
197	0x3f77aa83	0.96744555
198	0x3f787b89	0.970635
199	0x3f77754f	0.96663374
200	0x3f77d886	0.96814764
201	0x3f77bcb7	0.9677233
202	0x3f77cf4e	0.96800697
203	0x3f77b139	0.96754795
204	0x3f77d552	0.96809876
205	0x3f788b42	0.9708749
206	0x3f77bafd	0.96769696
207	0x3f794952	0.973775
208	0x3f7702aa	0.9648844
209	0x3f779c22	0.96722615
210	0x3f77cf7b	0.96800965
211	0x3f7763b5	0.96636516
212	0x3f7781f4	0.9668267
213	0x3f775096	0.9660734
214	0x3f77703d	0.9665564
215	0x3f7907d2	0.9727756
216	0x3f778a2b	0.966952
217	0x3f7938b7	0.97352165
218	0x3f777fc9	0.9667936
219	0x3f77fd79	0.96871144
220	0x3f78976a	0.9710604
221	0x3f77c106	0.96778905
222	0x3f77e640	0.9683571
223	0x3f7827c4	0.9693568
224	0x3f777d56	0.9667562
225	0x3f76d0a3	0.96412104
226	0x3f779165	0.9670623
227	0x3f77f2c0	0.9685478
228	0x3f785ebe	0.97019565
229	0x3f7831f9	0.9695125
230	0x3f78d3f8	0.9719844
231	0x3f77cc16	0.96795785
232	0x3f7842c1	0.9697686
233	0x3f77a6b2	0.9673873
234	0x3f76ee5f	0.96457475
235	0x3f7a23f6	0.9771112
236	0x3f77984b	0.96716756
237	0x3f77df9c	0.96825576
238	0x3f78791d	0.97059804
239	0x3f77d936	0.9681581
240	0x3f774f3b	0.9660527
241	0x3f7757e6	0.966185
242	0x3f779ee0	0.967268
243	0x3f77f4e4	0.9685805
244	0x3f774c24	0.96600556
245	0x3f76cc9f	0.96405977
246	0x3f773777	0.9656901
247	0x3f784ff3	0.9699699
248	0x3f779612	0.96713364
249	0x3f78d079	0.97193104
250	0x3f77bd70	0.96773434
251	0x3f78901c	0.97094893
252	0x3f7794b2	0.96711266
253	0x3f7866d7	0.9703192
254	0x3f7843bf	0.9697837
255	0x3f799639	0.97494847

bn.bias f4 [256]
0	0x3a8cf467	0.001075399
1	0x3c4a6cf3	0.012355077
2	0xbb6ede11	-0.003644828
3	0xbb30693e	-0.0026918198
4	0xbb96e347	-0.0046047303
5	0x3c58ad85	0.013224964
6	0xbc099714	-0.008397836
7	0x3c2d6c6e	0.010584934
8	0x3b9fc012	0.0048751915
9	0x3b67d8ce	0.0035377028
10	0x3a043089	0.00050426327
11	0x3c43565b	0.011922444
12	0x38273122	3.986166e-05
13	0xbbbe9359	-0.005815905
14	0xbb1e3343	-0.002413944
15	0x3afe921b	0.0019422205
16	0xbc2c76f1	-0.010526405
17	0x3bb3fd11	0.0054928144
18	0x3b9b6464	0.004742192
19	0x3c4886e2	0.01223919
20	0x3a9d0d90	0.0011982191
21	0xbbf315ec	-0.007418385
22	0x3be8d031	0.0071048965
23	0xbbbde2f1	-0.005794876
24	0xbb0ce422	-0.0021498282
25	0x3c34b16b	0.011028628
26	0x3b7ab149	0.0038252643
27	0xbcb89ad5	-0.022534767
28	0xbb4dd098	-0.003140485
29	0x3c250ddd	0.010074106
30	0xbb84e46c	-0.0040555503
31	0xbc05b38b	-0.008160482
32	0x3bf8af31	0.007589244
33	0xbb875029	-0.004129429
34	0xbb79094a	-0.0037999921
35	0xbb20dac2	-0.0024544452
36	0x3b51bb7b	0.0032002616
37	0xb96b6c66	-0.00022451728
38	0xbc543796	-0.012952706
39	0xbb47549b	-0.003041542
40	0xbc320808	-0.010866173
41	0xbb8130fa	-0.003942606
42	0xba00222e	-0.00048879057
43	0xb9f79c73	-0.00047228075
44	0x3a9506aa	0.0011369784
45	0x3a407630	0.000734183
46	0xbb8ca1de	-0.004291757
47	0x3baf3b6b	0.0053476593
48	0x3c56b11a	0.013103748
49	0xbb44d221	-0.0030032473
50	0xbbc7b0c1	-0.0060940688
51	0x3afab158	0.0019126339
52	0x3c43a820	0.01194194
53	0xbc14562d	-0.009053749
54	0x3c28f32e	0.010311885
55	0x3c16f75e	0.00921425
56	0x3c3123ce	0.010811759
57	0x3a935bcd	0.0011242569
58	0x3c23814f	0.00997956
59	0x3c0a14a3	0.008427772
60	0x3c241be1	0.0100164125
61	0xbc491b53	-0.012274581
62	0x3bf7f7ae	0.0075673675
63	0xbb1f20ce	-0.0024281028
64	0xb9bac3d3	-0.00035622585
65	0xbb3dc34d	-0.002895552
66	0xbc103af8	-0.008803122
67	0xba60a6c0	-0.00085697696
68	0x3c58c71a	0.013231063
69	0x3b5dc9d2	0.0033842218
70	0xbbd61659	-0.0065334258
71	0xb9dbac4a	-0.000418993
72	0x3c760fe8	0.015018441
73	0x3be668ca	0.007031535
74	0xbb0cd4c8	-0.0021489132
75	0x3bd798bc	0.0065794867
76	0x3a71f9e1	0.0009230655
77	0x3c01eac1	0.007929505
78	0x3b254136	0.002521587
79	0x3b8c992a	0.0042907195
80	0x3bf2169d	0.0073879496
81	0xbb24fb5c	-0.0025174236
82	0x3b666e79	0.0035161062
83	0x3be9ce35	0.0071351775
84	0x3c88575f	0.016643224
85	0x3ad0606e	0.0015897879
86	0xbc41185d	-0.011785594
87	0xba9838cc	-0.0011613606
88	0x3bbe73f6	0.0058121635
89	0xbbc568f1	-0.006024473
90	0x3b2e2e16	0.0026577762
91	0xbb6d5576	-0.0036214269
92	0xbc8d4c67	-0.017248346
93	0x3c80dc34	0.015730001
94	0x3c452e6a	0.012034992
95	0x3a395bcb	0.0007070868
96	0x3b45fc57	0.003021022
97	0xbc198a9a	-0.009371424
98	0x3b5742ee	0.003284629
99	0xbaee58ea	-0.0018184457
100	0x3bc95b5e	0.006144925
101	0x37e29460	2.7010392e-05
102	0x3c06ce50	0.0082279
103	0xbc76b22c	-0.015057128
104	0xbc317be6	-0.010832762
105	0xbbef9cc4	-0.007312389
106	0xb85a96d0	-5.2115705e-05
107	0xbb8a1c12	-0.004214772
108	0xbc1d1747	-0.009588069
109	0x3b0d4bf1	0.0021560157
110	0xbbc510ee	-0.006013981
111	0x3b417b01	0.002952278
112	0x3b1b2a95	0.0023676504
113	0x3a97b5b1	0.0011574534
114	0x3c844f95	0.016151229
115	0xba5c49d6	-0.00084033364
116	0x392fde4d	0.00016772114
117	0x3c307292	0.010769503
118	0xbb350a97	-0.002762472
119	0xba79d7b1	-0.0009530737
120	0xbc6dbad8	-0.014509879
121	0x3c17609c	0.009239342
122	0x3bc2f005	0.0059490227
123	0x3b8a597e	0.004222094
124	0xbc9161b8	-0.017746791
125	0xbaa2fcf9	-0.0012435011
126	0x3c788e59	0.015170657
127	0xbc13e3ea	-0.009026507
128	0xbc1c574e	-0.009542299
129	0xbb9ab233	-0.00472095
130	0xbae47229	-0.0017429042
131	0xbbf2b0e1	-0.0074063395
132	0xbaa4d262	-0.0012574906
133	0x3b299efd	0.0025882118
134	0x3be0d4f5	0.006861324
135	0xbbe85f14	-0.0070914123
136	0xbb803266	-0.003912258
137	0x3b60e45a	0.0034315796
138	0xbc028ae3	-0.0079676835
139	0x3ad00b07	0.0015872427
140	0xbbac879c	-0.0052651893
141	0xbc6e094f	-0.0145285865
142	0x3c253ed2	0.010085778
143	0xbc7b7a06	-0.015348917
144	0x3bdd349a	0.0067506554
145	0x3c3aa4e8	0.011391856
146	0x3c363eee	0.011123402
147	0xbc43e432	-0.0119562615
148	0xbbc6b2bd	-0.0060637877
149	0xbb604f5b	-0.0034226987
150	0x3bbf877a	0.0058450075
151	0x3ba9c55d	0.0051809982
152	0xbb6a4dc6	-0.0035751923
153	0xba25a761	-0.0006319192
154	0x3bf5d6c1	0.0075024073
155	0x3bd378c6	0.0064536063
156	0xbb7c1fb8	-0.0038471054
157	0xbb128a95	-0.0022360433
158	0xbc875bdd	-0.016523296
159	0xbbcf3b56	-0.006324212
160	0xbbc8b9aa	-0.0061256485
161	0xbc17e020	-0.009269744
162	0x3b959a5f	0.0045655216
163	0x3bdfc0a2	0.0068283835
164	0x3c593f28	0.0132596865
165	0x3b874c31	0.004128956
166	0xbacb614f	-0.0015516671
167	0xbccd17ff	-0.025035856
168	0xbac2e219	-0.0014868408
169	0x3aff5383	0.0019479844
170	0xbbd24c24	-0.006417768
171	0xbbaf85be	-0.0053565195
172	0xbc0898e3	-0.008337232
173	0x3af3561c	0.0018565091
174	0x3ba20474	0.0049443785
175	0xbbc6ebf5	-0.0060706087
176	0xbc1b25d7	-0.009469471
177	0x3abc3f20	0.0014362074
178	0x3c58f29d	0.013241437
179	0xbba4d88d	-0.0050306977
180	0x38da9139	0.000104221
181	0x3c542094	0.01294722
182	0xb94c29b3	-0.0001947049
183	0xbbe7b903	-0.0070716157
184	0xbac6a7fa	-0.0015156262
185	0xbbe3c778	-0.0069512688
186	0x3c10ddd9	0.008841955
187	0x395ff8d4	0.00021359633
188	0xbb8d6339	-0.004314807
189	0xbb889478	-0.0041680895
190	0xbc84313a	-0.016136754
191	0xbb1e7e85	-0.0024184298
192	0xb9a65766	-0.00031727104
193	0xbc578e13	-0.013156432
194	0x3b159616	0.0022825054
195	0xbbf7e5be	-0.007565229
196	0xbb437742	-0.0029825722
197	0xbb7b39f2	-0.0038334099
198	0xbc65d6b6	-0.014028242
199	0xba022de1	-0.0004965943
200	0xbc1a6604	-0.0094237365
201	0xbb323b29	-0.0027195907
202	0xbaacf379	-0.0013195119
203	0x3a86b9ee	0.00102788
204	0xbbee166e	-0.0072658574
205	0x3c3b56fc	0.011434313
206	0x3b4bba86	0.0031086518
207	0x3c8bf023	0.01708228
208	0x3a891b0f	0.0010460335
209	0xbab50d64	-0.0013813195
210	0x3be9da07	0.0071365866
211	0x3bb09169	0.005388428
212	0xbae4d171	-0.0017457438
213	0xbc231baa	-0.009955326
214	0x3b9e05d2	0.004822471
215	0x3b8725e9	0.0041243923
216	0xbb97480d	-0.0046167434
217	0xbc4e6fda	-0.01259991
218	0x3b82e9af	0.0039951424
219	0xbb420787	-0.0029606537
220	0xbb7894bb	-0.0037930447
221	0xbb3642f8	-0.0027810913
222	0x3b9b2021	0.0047340547
223	0xbbc97b8c	-0.006148761
224	0x3a111e83	0.00055358576
225	0xbb869132	-0.004106664
226	0x3a1ab7b0	0.00059020054
227	0xbba53e95	-0.0050428608
228	0xbc32f201	-0.010921956
229	0x3b1b8d8f	0.0023735499
230	0x3c9de036	0.019271951
231	0x393a8bc9	0.00017790416
232	0x3c15ce06	0.009143358
233	0xbb4914cb	-0.003068256
234	0xbb55438c	-0.0032541482
235	0xbb0d8cd3	-0.002159883
236	0xbb7fc634	-0.003902805
237	0x3b857389	0.0040726108
238	0x3c34fc1b	0.011046435
239	0x3c1b6432	0.009484338
240	0xbacb9367	-0.00155316
241	0x3ba170be	0.00492677
242	0x3a305256	0.0006726136
243	0xbb599b63	-0.003320419
244	0xb9dd87d0	-0.00042253593
245	0xbab36807	-0.0013687619
246	0x3a851140	0.0010152236
247	0xbc2264f4	-0.009911764
248	0x3b589e82	0.0033053462
249	0x3c8f1ee7	0.01747079
250	0x3b18203f	0.002321258
251	0xbc83588d	-0.016033435
252	0xbc02e421	-0.0079889605
253	0xbc29cbfa	-0.010363573
254	0xbc52cb22	-0.012865813
255	0x3cab2237	0.020890338

bn.running_mean f4 [256]
0	0x3f582479	0.8443065
1	0xbfd0a853	-1.6301368
2	0xbfb85b58	-1.4402876
3	0x3cbd6413	0.023119008
4	0x3fa320d1	1.274439
5	0xbfeb06ac	-1.8361411
6	0x3d0acbe7	0.033885863
7	0x3f3e7c5d	0.74408513
8	0x3e174476	0.1477221
9	0x39f7960d	0.00047223308
10	0x3f98c0ef	1.1933879
11	0xbfdffa2b	-1.749822
12	0xbfbcaae3	-1.473965
13	0xbe9f6df3	-0.31138572
14	0x3f36cb3b	0.71403855
15	0x3f5f21b6	0.87160814
16	0xbf190150	-0.5976763
17	0x3f2a354e	0.66487586
18	0xbecafe55	-0.39647165
19	0x3f43e83e	0.7652625
20	0xbfa153a9	-1.2603656
21	0x3fcee7b9	1.6164466
22	0x3e504f3d	0.20342727
23	0x3fd4e623	1.6632732
24	0x3fde032e	1.734472
25	0x3f698cba	0.91230357
26	0xbe08cb40	-0.13358784
27	0x3f57482a	0.8409449
28	0xc0035941	-2.0523226
29	0xbf0357fe	-0.5130614
30	0x3efb9b67	0.49142
31	0x3d8acd25	0.067774095
32	0xbfbd5e2e	-1.4794366
33	0xbf037ce0	-0.5136242
34	0x3f8d93f8	1.1060781
35	0xbf877282	-1.058182
36	0x3f7d5cca	0.9896971
37	0xbf77ffab	-0.96874493
38	0x3f954fd8	1.1664991
39	0xbf2b2caa	-0.66865027
40	0x3e397ee3	0.1811481
41	0xbf810bf6	-1.0081775
42	0xbeeeafed	-0.46618596
43	0xbdc0b435	-0.09409372
44	0xbf5ffc61	-0.87494475
45	0x3e3f44d3	0.18678598
46	0x3fc21e96	1.5165584
47	0x3e89eed4	0.26940024
48	0x3f842181	1.0322725
49	0xbebff58a	-0.3749202
50	0x3feaece7	1.8353547
51	0xbf132364	-0.57475877
52	0xbf8f78e8	-1.1208773
53	0xbf01ff14	-0.50779843
54	0xbeb57bcd	-0.35446015
55	0x3edd7e57	0.43260452
56	0xbfbe4c4a	-1.4867032
57	0xbfac3733	-1.3454345
58	0x3d9b33f9	0.07578272
59	0x3ea4a6d1	0.3215852
60	0x3f4e0ca1	0.8048802
61	0xbd84ddd8	-0.06487626
62	0xbf31b111	-0.69410807
63	0xbf13f09f	-0.57789034
64	0x3e5bde8f	0.21471618
65	0x3f521d70	0.8207617
66	0xbe4a02d0	-0.19727635
67	0xbf3eb834	-0.7449982
68	0x3e95d2a0	0.29262257
69	0xbe7d4d71	-0.24736573
70	0x3f95e8af	1.1711634
71	0x3f8c443f	1.0958327
72	0xbef84385	-0.48489013
73	0x3da6dcbc	0.081475705
74	0xbec9bbc3	-0.39401063
75	0xbf297326	-0.6619133
76	0xbf6e44a5	-0.93073493
77	0xbdf0d212	-0.11758818
78	0xbeb84991	-0.35993627
79	0xbeb46bd6	-0.35238522
80	0x3ee504d9	0.4473026
81	0x3fb34183	1.4004368
82	0xbfe6252a	-1.7980092
83	0xbf54a17d	-0.8305891
84	0x3f080a30	0.53140545
85	0xbed4118c	-0.41419637
86	0x3ea00168	0.31251073
87	0xbf23634c	-0.6382339
88	0xbf185d34	-0.59517217
89	0xbfa09372	-1.2544997
90	0x3ee7761d	0.452073
91	0xbe96a556	-0.29423016
92	0x3f8a8269	1.0821048
93	0xbd5ba7da	-0.053626873
94	0xbc86e65d	-0.016467268
95	0x3f9d29c4	1.2278371
96	0xbf807393	-1.003527
97	0x3e99dd26	0.30051535
98	0xbe3db2a4	-0.18525177
99	0xbf27fa7f	-0.656166
100	0xbf95d521	-1.1705667
101	0xbf9a3516	-1.204745
102	0x3f4bf26e	0.79666793
103	0x3ee27ae8	0.44234395
104	0xbce9e886	-0.028553259
105	0x3fb322d5	1.3995005
106	0x3cde8b92	0.027166162
107	0x402f9f46	2.7440963
108	0xbf949382	-1.1607516
109	0x3ffed095	1.9907404
110	0x3e98319c	0.2972535
111	0xbfd07e26	-1.6288497
112	0x3d1c4a6d	0.038156915
113	0xbf5391af	-0.8264417
114	0x3f76efd7	0.96459717
115	0x3eb7cbe7	0.35897753
116	0x3fff0b0a	1.9925244
117	0x3f926d86	1.1439674
118	0x3eb228f4	0.3479687
119	0xbe39e3c9	-0.181533
120	0xbf4c746d	-0.7986515
121	0xbf879680	-1.0592804
122	0xbf4ba0b6	-0.795421
123	0xbef7c86d	-0.483951
124	0x3fc090ce	1.5044191
125	0x3eb62b33	0.35579833
126	0x3bdcaf8a	0.006734793
127	0xbd1e0533	-0.038579177
128	0xbed819d6	-0.4220721
129	0x3ea3e6fd	0.32012168
130	0xbef9a6a7	-0.48759958
131	0x3ec0ca31	0.3765426
132	0xbea2c1cf	-0.3178849
133	0xbfff25bd	-1.9933392
134	0xbfbeda0f	-1.4910296
135	0xbf3c6962	-0.735983
136	0xbe08b181	-0.13348962
137	0xbfba6167	-1.4560975
138	0xbf4f65d5	-0.8101476
139	0x3f7d83a9	0.9902902
140	0x3e680392	0.22657612
141	0xbdf54af2	-0.11977185
142	0xbfa1f29b	-1.2652162
143	0xbe7dfda5	-0.24803789
144	0x3fbb0c8c	1.4613204
145	0xbf9459cd	-1.1589905
146	0xbf757484	-0.95880914
147	0xbea32a98	-0.31868434
148	0xbf0b136a	-0.543265
149	0xbf995e67	-1.1981934
150	0x3d9b9ccf	0.07598268
151	0xbf700f72	-0.9377357
152	0xbdfc8711	-0.123304494
153	0xbf1e2196	-0.6177
154	0xbec8bfc6	-0.39208812
155	0xbebec579	-0.37260035
156	0x3f2a0075	0.6640695
157	0x3ffc121e	1.9693029
158	0x3f275d5c	0.6537683
159	0x3d6d191f	0.057885285
160	0xbffa0542	-1.9532855
161	0xbfe14b69	-1.7601138
162	0x3e5040e6	0.20337257
163	0xbec356a9	-0.38152054
164	0xbfbc8572	-1.4728224
165	0xbf8ec2e9	-1.1153232
166	0xbe48df2d	-0.19616385
167	0xbeba08f1	-0.36334947
168	0x40135b75	2.302457
169	0x3e8738b0	0.26410437
170	0x3eb9f90c	0.3632282
171	0xbe12c4a4	-0.14332825
172	0x3c2c8203	0.010529044
173	0x3eaf64f8	0.3425672
174	0x3cb0b081	0.021568539
175	0x40089437	2.1340463
176	0xbfa36cea	-1.2767613
177	0xbe36e4bc	-0.17860693
178	0x3f46f26e	0.7771367
179	0xc02102fb	-2.515807
180	0xbd20f398	-0.03929481
181	0xbf25a1f8	-0.6470027
182	0xbe69736f	-0.2279794
183	0x3ed0031d	0.40627375
184	0x3e80ea74	0.25178874
185	0x3dd5e747	0.10444503
186	0x3ef7ec3e	0.48422426
187	0x3e26dd6c	0.16295403
188	0xbec3b06a	-0.3822053
189	0x3ff2684a	1.8938076
190	0xbebc91d4	-0.36830008
191	0xbf0ef3bd	-0.55840665
192	0xbd0b9701	-0.034079555
193	0x3ed37d3b	0.4130648
194	0xbf9d351e	-1.2281835
195	0x3e17e622	0.14833882
196	0xbf22e034	-0.63623357
197	0xbe3fb45a	-0.18721142
198	0xbfe09654	-1.7545877
199	0xbec70c80	-0.38876724
200	0x3fe875e8	1.8160982
201	0xbf1a9649	-0.60385567
202	0x3cbb1e17	0.022841496
203	0xbfd1fc57	-1.6405133
204	0x3fb8b5b6	1.4430454
205	0x400c0464	2.187768
206	0xbf7dee32	-0.9919158
207	0xbf2adebd	-0.6674612
208	0xbf72423f	-0.94632334
209	0xbe9212fc	-0.2853011
210	0xbf87f928	-1.0622911
211	0xbe4aaf27	-0.19793378
212	0xbfc799c7	-1.5593804
213	0x3e75938e	0.23982069
214	0xbead1d39	-0.33811358
215	0x3ea1f810	0.3163457
216	0xbf5f8ff6	-0.8732904
217	0xbf0cd3f5	-0.5501092
218	0x3f73da56	0.9525503
219	0x3d68f2e3	0.05687226
220	0x3fd441f5	1.6582628
221	0xbfb3ca9b	-1.4046205
222	0xbeb8d9f6	-0.3610379
223	0xbf3cee3c	-0.73801017
224	0xbd073daa	-0.03301779
225	0x3f394c6d	0.7238224
226	0x3fb11a30	1.3836117
227	0x3ee66ec5	0.45006385
228	0x3f478890	0.7794275
229	0x3f54b29c	0.83085036
230	0x3fbd98d4	1.4812264
231	0x3e174c52	0.14775208
232	0x3fbbed53	1.4681801
233	0x3ee013de	0.43765157
234	0xbf2827c5	-0.65685683
235	0x3f250adc	0.64469695
236	0xbf9e3fbf	-1.2363204
237	0xbfbd03f3	-1.476683
238	0xbf9eb1f6	-1.2398059
239	0xbfad6241	-1.354561
240	0x3eea8f33	0.45812377
241	0xbea582b0	-0.3232627
242	0xbf8da22b	-1.1065115
243	0x3f7d1068	0.9885316
244	0xbe829a97	-0.25508568
245	0xc01de28d	-2.4669526
246	0xbf968fdb	-1.1762651
247	0xbfa77f38	-1.3085699
248	0xbf1da5e5	-0.6158126
249	0x3e91b65f	0.2845945
250	0x3d513e5a	0.051084854
251	0x3e655039	0.22393884
252	0xbe434ba2	-0.1907182
253	0xbf8a0e42	-1.0785601
254	0x3f13dddd	0.5776041
255	0x3f450c8b	0.76972264

bn.running_var f4 [256]
0	0x3f3b8dd7	0.73263305
1	0x3f4d4d2d	0.80195886
2	0x3f328811	0.6973887
3	0x3f435683	0.7630388
4	0x3f441cbf	0.76606363
5	0x3f499401	0.7874146
6	0x3f2b8927	0.6700615
7	0x3f412c07	0.75457805
8	0x3f2cee8a	0.6755148
9	0x3f91e7de	1.1398885
10	0x3f3e0c97	0.7423796
11	0x3f5ff315	0.8748029
12	0x3f23eb55	0.64030963
13	0x3f10b1a8	0.5652108
14	0x3f1504f8	0.58210707
15	0x3f1d5df8	0.6147151
16	0x3f72c61c	0.9483354
17	0x3f2acaf5	0.6671594
18	0x3f2833a5	0.65703803
19	0x3f2e5cc4	0.681103
20	0x3f30ad0a	0.69014037
21	0x3f548d3f	0.83028024
22	0x3f338e7c	0.7013929
23	0x3f17aece	0.59251106
24	0x3f14807f	0.5800857
25	0x3f809554	1.0045571
26	0x3f3150cc	0.6926391
27	0x3f32a93d	0.6978949
28	0x3f535b19	0.8256088
29	0x3f421d80	0.75826263
30	0x3f2f69d7	0.68520874
31	0x3f2f6a98	0.68522024
32	0x3f096137	0.53663963
33	0x3efb5f91	0.4909635
34	0x3f1a5d60	0.6029873
35	0x3f401360	0.75029564
36	0x3f49982e	0.7874783
37	0x3f245809	0.6419683
38	0x3f20cb84	0.6281054
39	0x3fa1be38	1.2636175
40	0x3f53371c	0.82505965
41	0x3f9032b0	1.1265469
42	0x3f52dd6a	0.823691
43	0x3f28e961	0.6598111
44	0x3f646d37	0.8922915
45	0x3f317680	0.6932144
46	0x3f7ec718	0.9952254
47	0x3f99c38e	1.2012804
48	0x3f43b7cc	0.76452327
49	0x3f271313	0.6526348
50	0x3f49cc50	0.7882738
51	0x3f1addae	0.60494506
52	0x3f961188	1.17241
53	0x3f508db2	0.8146621
54	0x3f40c973	0.7530739
55	0x3f09f1b6	0.53884447
56	0x3f469cae	0.77582824
57	0x3f2982f8	0.6621547
58	0x3f4067c0	0.7515831
59	0x3f363a81	0.7118302
60	0x3f58ad08	0.84639025
61	0x3f2d8c74	0.6779244
62	0x3f485c00	0.7826538
63	0x3f10d775	0.5657876
64	0x3f42124d	0.75809175
65	0x3f470459	0.7774101
66	0x3f17a751	0.5923968
67	0x3f106f49	0.5641981
68	0x3f52ad6e	0.8229588
69	0x3f2d0259	0.6758171
70	0x3f21df64	0.6323149
71	0x3f21d571	0.6321631
72	0x3f1680d9	0.58790356
73	0x3f485af9	0.78263813
74	0x3f2ff78f	0.6873712
75	0x3f195216	0.5989088
76	0x3f0fca2c	0.56167865
77	0x3eff999e	0.49921888
78	0x3f24da15	0.64395267
79	0x3f2b9bb4	0.6703446
80	0x3f608098	0.8769622
81	0x3f1a2463	0.6021177
82	0x3f5133ff	0.81719965
83	0x3f1b53c5	0.606747
84	0x3f29c034	0.66308904
85	0x3f512b57	0.81706756
86	0x3f1dd76a	0.6165682
87	0x3f19c79d	0.6007021
88	0x3f55f48f	0.8357629
89	0x3f05c1f5	0.5224908
90	0x3f0fd8e8	0.5619035
91	0x3f0c4d65	0.54805595
92	0x3f3dab8e	0.74089897
93	0x3f856766	1.042218
94	0x3f3e36d9	0.7430244
95	0x3f2cdbaf	0.6752271
96	0x3f5221c7	0.8208279
97	0x3f328d25	0.6974662
98	0x3f20ee32	0.6286346
99	0x3f81e919	1.0149261
100	0x3f8d53d4	1.1041207
101	0x3f5031a3	0.8132574
102	0x3f3e2b60	0.74284935
103	0x3f283f6d	0.6572178
104	0x3f22e1a4	0.6362555
105	0x3f38e863	0.72229594
106	0x3f3fff0a	0.74998534
107	0x3f51033a	0.8164555
108	0x3f6db55b	0.9285485
109	0x3f37d36c	0.7180698
110	0x3f1f1f41	0.62157065
111	0x3f44fa49	0.76944405
112	0x3f71ab35	0.94401866
113	0x3f2559e5	0.64590293
114	0x3f3cd613	0.7376415
115	0x3f106c2c	0.5641506
116	0x3f1f99ca	0.6234404
117	0x3f337424	0.7009909
118	0x3f389bcb	0.7211272
119	0x3f1e2b8e	0.6178521
120	0x3f1d3712	0.61412156
121	0x3f9c6969	1.2219669
122	0x3f675a5f	0.9037227
123	0x3f2ea7f1	0.6822501
124	0x3f02b5e6	0.51058805
125	0x3f3de56c	0.74178195
126	0x3f23f80e	0.64050376
127	0x3f0e36c8	0.5555234
128	0x3f82f525	1.0231062
129	0x3f30447e	0.6885451
130	0x3f222a7c	0.63346076
131	0x3f4843ec	0.7822864
132	0x3f2d7a6c	0.67764926
133	0x3f1dc263	0.61624736
134	0x3f139acd	0.5765808
135	0x3f433a86	0.76261175
136	0x3f3de910	0.7418375
137	0x3f14db11	0.5814677
138	0x3f34a49a	0.7056366
139	0x3f208876	0.6270822
140	0x3f1ba689	0.6080099
141	0x3f483d1f	0.78218263
142	0x3f33b3b7	0.701961
143	0x3f2991ba	0.66237986
144	0x3f6d2d0a	0.9264685
145	0x3f73b0d4	0.95191693
146	0x3f250480	0.6445999
147	0x3f854a0b	1.0413221
148	0x3f392279	0.72318226
149	0x3f1941b3	0.59865874
150	0x3f9cd56b	1.225263
151	0x3f1a85e9	0.6036058
152	0x3f47160e	0.7776803
153	0x3f5ad531	0.85481554
154	0x3f2cb8b7	0.6746935
155	0x3f8f71b2	1.1206572
156	0x3f1d0d54	0.6134846
157	0x3f1985ad	0.599696
158	0x3f285bad	0.65764886
159	0x3f0b2e07	0.5436711
160	0x3f2a59d9	0.66543347
161	0x3f214508	0.6299596
162	0x3f00f5d4	0.50375104
163	0x3f3ac3e2	0.72955143
164	0x3f10f75b	0.56627434
165	0x3f3e8495	0.74421054
166	0x3f33fc31	0.7030669
167	0x3f4cf8b7	0.8006701
168	0x3f561f5b	0.83641595
169	0x3f3ef4f6	0.7459253
170	0x3f1dc850	0.6163378
171	0x3f11baaf	0.5692548
172	0x3f4c3985	0.7977527
173	0x3f102a02	0.563141
174	0x3f1322ab	0.57474774
175	0x3f4a36b3	0.78989714
176	0x3edb2d7a	0.42808133
177	0x3edad08e	0.4273724
178	0x3f0d8c67	0.5529236
179	0x3f506353	0.81401557
180	0x3f26d6da	0.6517159
181	0x3f2d30b4	0.6765244
182	0x3f279189	0.65456444
183	0x3f156b77	0.58367103
184	0x3f523931	0.8211852
185	0x3f3bab29	0.73308045
186	0x3f473255	0.77811176
187	0x3f39ce29	0.725802
188	0x3f1f7183	0.6228258
189	0x3f373740	0.7156868
190	0x3f27e7ac	0.6558788
191	0x3f3a7bd8	0.7284522
192	0x3f4cca3c	0.79996085
193	0x3f22d20d	0.6360176
194	0x3f159726	0.5843376
195	0x3f3be5ae	0.7339734
196	0x3f0f9304	0.56083703
197	0x3f24ad70	0.64327145
198	0x3f3912a7	0.72294086
199	0x3f22588f	0.6341638
200	0x3f5d5f4f	0.86473554
201	0x3f1ce81d	0.61291677
202	0x3ef97957	0.48725387
203	0x3f3c06b3	0.7344772
204	0x3f41a6ba	0.7564503
205	0x3f49ff22	0.78904927
206	0x3f43cd79	0.764854
207	0x3ef9a4fa	0.4875868
208	0x3f4e5b73	0.8060829
209	0x3f0661af	0.52492803
210	0x3f46dfee	0.7768544
211	0x3f3dc606	0.74130285
212	0x3f552cbb	0.8327138
213	0x3f64538d	0.8918999
214	0x3f04a5c2	0.51815426
215	0x3f737926	0.9510673
216	0x3f314b6b	0.69255704
217	0x3f1dcd78	0.61641645
218	0x3f1e6620	0.6187458
219	0x3f33d181	0.7024155
220	0x3f006f57	0.5016989
221	0x3f8bf686	1.0934608
222	0x3f8e7f99	1.113269
223	0x3f32c44a	0.69830763
224	0x3f315f4c	0.69286036
225	0x3f37454b	0.7159011
226	0x3f285519	0.6575485
227	0x3f6043bd	0.8760336
228	0x3f52964a	0.8226057
229	0x3f0a9bd4	0.54144025
230	0x3f56ce5c	0.8390863
231	0x3f117ea5	0.5683387
232	0x3f46ee00	0.7770691
233	0x3f226fa6	0.6345161
234	0x3f088f32	0.533435
235	0x3f97adad	1.1849877
236	0x3f19b76a	0.6004549
237	0x3f02931d	0.5100573
238	0x3f12024f	0.5703477
239	0x3f692e92	0.91086686
240	0x3f42f264	0.7615111
241	0x3f3f7494	0.7478726
242	0x3f49a7a0	0.787714
243	0x3f642ad2	0.8912784
244	0x3f55d23b	0.8352391
245	0x3f4ce9e2	0.80044377
246	0x3f3bd4e4	0.7337172
247	0x3f2b3d5b	0.66890496
248	0x3f58d14f	0.8469438
249	0x3f0e832f	0.5566892
250	0x3f1cf8fc	0.6131742
251	0x3f601b11	0.875413
252	0x3f2e73df	0.68145555
253	0x3f28998d	0.658593
254	0x3f0458d8	0.51698065
255	0x3f3e1b22	0.7426015

bottleneck.weight f4 [256, 512]
0	0xbdaa5569	-0.08317072
1	0x3cdce5e2	0.026965085
2	0x3d85cb24	0.065328866
3	0x3a8598b8	0.0010192608
4	0xbd86d457	-0.06583469
5	0x3d9293d7	0.071571045
6	0x3d6cb318	0.057787985
7	0xbd438bef	-0.047740873
8	0x3d366c33	0.04453678
9	0xbb5b9e35	-0.0033511047
10	0x3d7efb6c	0.062251493
11	0xbd53ae51	-0.051679913
12	0x3dae6620	0.085155725
13	0x3bcd2b1e	0.0062612435
14	0x3cccae61	0.024985494
15	0x3d5e5c93	0.054287504
16	0xbd8dcc37	-0.069237165
17	0x3c46ad6c	0.012126308
18	0xbd9a55bc	-0.07535884
19	0x3bab3744	0.005225094
20	0xbdb5cd12	-0.08877005
21	0x3d0d57cd	0.03450756
22	0xbc0a42a3	-0.008438739
23	0x3cf4e016	0.029892009
24	0x3a91cf64	0.0011124429
25	0xbcf04a4b	-0.0293323
26	0xbcddea8f	-0.027089385
27	0xbd8ff347	-0.07028823
28	0x3d8ce693	0.06879916
29	0x3d3fa30f	0.046786364
30	0x3c41e376	0.011834016
31	0xbc017498	-0.007901333
32	0xbd942f07	-0.07235532
33	0x3cf39b19	0.029737042
34	0xbd60afea	-0.054855265
35	0xbc95caeb	-0.018285235
36	0x3dbc8c68	0.09206468
37	0x3cc994bd	0.024607057
38	0x3c1f62da	0.009728158
39	0xbdcdaabe	-0.10042332
40	0x3c8d8cb1	0.017279001
41	0xbd6aa9bc	-0.057290778
42	0xbd393b8d	-0.045222808
43	0xbd0e788b	-0.034782927
44	0xbd29519f	-0.041337606
45	0x3ac14b46	0.0014747165
46	0x3d1c9641	0.03822923
47	0xbd89c188	-0.06726366
48	0x3cbcc75f	0.023044286
49	0xbcffdeb4	-0.031234123
50	0xbd2522b0	-0.040316284
51	0x3da30f4d	0.07961903
52	0xbd74dcf1	-0.05978102
53	0x3d0f4453	0.03497727
54	0xbd57d8b4	-0.0526969
55	0xbd72b6ca	-0.059256352
56	0x3d229b4f	0.039698895
57	0xbd065b83	-0.032802116
58	0xbcfdc92b	-0.030979713
59	0xbd44416e	-0.04791396
60	0x3d9dc3b8	0.07703346
61	0x3c95deaa	0.018294651
62	0x3ce75445	0.028238425
63	0xbba054b8	-0.0048929118
64	0xbd466844	-0.04843928
65	0x3d6d973c	0.058005556
66	0xbd610692	-0.054937907
67	0x3cd8ada8	0.026449993
68	0x3d333849	0.04375485
69	0xbd4f2d50	-0.050580323
70	0xbc4a3afd	-0.012343165
71	0xbd37e532	-0.044896312
72	0xbcf79298	-0.030221269
73	0xbcf94562	-0.030428592
74	0x3ad54a16	0.001627269
75	0xbbe6628f	-0.007030792
76	0x3d3037e8	0.043022066
77	0x3cadb584	0.021204717
78	0x3dba6841	0.09101916
79	0x3d2f8c74	0.042858556
80	0xbcd0a373	-0.025468564
81	0x3d89a961	0.067217596
82	0xbd2a29e5	-0.04154386
83	0xbbd8ea35	-0.0066197165
84	0xbc985a2c	-0.018597685
85	0xbd5f7080	-0.054550648
86	0xbd1a574d	-0.037680913
87	0x3cde8ca0	0.027166665
88	0x3daefcf2	0.08544339
89	0xbd568271	-0.052370492
90	0x3d003aed	0.031306196
91	0x3ddddcb7	0.10833114
92	0xbc0159ac	-0.007894915
93	0x3d235826	0.039878987
94	0xbbc06bf9	-0.0058722463
95	0xbce162f2	-0.027513001
96	0x3b84171a	0.0040310742
97	0x3cc7847f	0.024355171
98	0xbd221a84	-0.03957607
99	0x3d6fdd78	0.05856082
100	0xbc68cc9c	-0.014208939
101	0xbd953743	-0.07285931
102	0xbbd0010a	-0.00634778
103	0xbcc49abd	-0.023999566
104	0xbd05673a	-0.032569148
105	0x3be22265	0.006901073
106	0x3cdade19	0.026717233
107	0x3c8d5297	0.017251296
108	0x3cb86e7b	0.022513619
109	0xbd5f0984	-0.054452434
110	0xbc8846a9	-0.016635256
111	0xbb7313ef	-0.0037090739
112	0xbd1d619f	-0.038423177
113	0xbdda04a9	-0.1064542
114	0xbda1f535	-0.07908098
115	0x3c9a7aaf	0.018857328
116	0x3dccb5d7	0.09995621
117	0x3d88c5e0	0.06678367
118	0xbd48fe50	-0.049070656
119	0xbcb8a612	-0.022540126
120	0xbcc4ade6	-0.024008702
121	0xbd39e3cb	-0.045383256
122	0xbd3ee7d6	-0.046607815
123	0x3d52b614	0.051443174
124	0x3da841d3	0.0821568
125	0x3d0febbf	0.035136934
126	0xbc0a3a99	-0.008436822
127	0xbd8801ff	-0.06641006
128	0xbd70b44b	-0.05876569
129	0xbd1c7efa	-0.03820703
130	0xbce09133	-0.027412986
131	0x3d6a8861	0.057258967
132	0x3c54fdf2	0.012999998
133	0x3d809340	0.06278086
134	0x3d6728fa	0.056435563
135	0xbd0f3da6	-0.034970902
136	0x3d4afe66	0.04955902
137	0x3d073289	0.03300718
138	0x3ccad2f5	0.024758795
139	0xbd46d6d3	-0.048544716
140	0x3db2ad31	0.0872444
141	0xbd3ff658	-0.04686579
142	0x3d979c74	0.07402888
143	0x3d1984d9	0.03748021
144	0x3d1ca303	0.038241398
145	0xbd0921c4	-0.033479467
146	0xbd7efe0e	-0.062254004
147	0xbcdef6f6	-0.02721737
148	0x3aa3675f	0.001246672
149	0x3d233fc1	0.039855722
150	0x3cee91bb	0.029122224
151	0xbcae6a32	-0.021290872
152	0x3cb84456	0.022493523
153	0x3d905096	0.070466205
154	0x3c058a60	0.008150667
155	0xbd09050c	-0.03345208
156	0x3c3a95dd	0.011388269
157	0x3c8557bd	0.016277188
158	0x3d52c2cf	0.051455315
159	0x3d71f701	0.059073452
160	0x3d19491f	0.03742325
161	0xbcf6183b	-0.03004085
162	0x3d56cbe0	0.052440524
163	0xbd6c74e2	-0.057728656
164	0xbccc751a	-0.024958182
165	0x3d1705d3	0.03687079
166	0xbd761ff6	-0.060089074
167	0x3d216a6b	0.03940813
168	0x3bfbeb47	0.0076879594
169	0x3d335571	0.043782655
170	0x3d401abc	0.046900496
171	0x3d144fd0	0.036208928
172	0xbcd3bca8	-0.025846794
173	0xbd1de0fd	-0.038544644
174	0xbc802f86	-0.015647661
175	0x3d56e33e	0.05246281
176	0xbc78636a	-0.015160421
177	0x3d82ecda	0.06392832
178	0x3d73c749	0.059516225
179	0x3ca0d2a9	0.0196317
180	0x3d831f51	0.064024575
181	0x3daaf9ee	0.083484516
182	0xbd09392a	-0.03350178
183	0xbd70158a	-0.05861429
184	0x3c76b360	0.015057415
185	0x3c52a2a6	0.012856161
186	0xbcf009e3	-0.02930159
187	0xbcad94ad	-0.021189058
188	0xbcc51412	-0.024057422
189	0x3b8a92a7	0.004228908
190	0x3dbaced3	0.0912148
191	0xbdbae6f1	-0.0912608
192	0xbd9259d0	-0.071460366
193	0xbd0afae7	-0.033930685
194	0x3d440a21	0.047861222
195	0x3d432247	0.04764011
196	0x3c1bedc0	0.009517133
197	0xbd1ad5a3	-0.037801396
198	0xbd414383	-0.047183525
199	0xbc6e2397	-0.0145348525
200	0x3c0fd1c2	0.0087780375
201	0x3d75ba61	0.059992198
202	0xbada6b86	-0.0016664125
203	0x3c96d681	0.01841283
204	0xbcd8c591	-0.026461395
205	0xbd784be6	-0.060619257
206	0x3c89a047	0.016800059
207	0x3ce7fb82	0.02831817
208	0xbdb1fe65	-0.086911
209	0x3cf03144	0.029320367
210	0x39b1d744	0.00033920456
211	0x3c4826ff	0.012216329
212	0x3c5466c5	0.012963955
213	0xbd6075ba	-0.054799773
214	0x3ba9fe30	0.005187772
215	0xbcbb3185	-0.022850761
216	0xbc96b50b	-0.018396875
217	0x3d0e29ec	0.03470795
218	0xbd99dcb3	-0.07512798
219	0xbca4d33d	-0.020120258
220	0x3d2699e3	0.0406741
221	0xbc9e294a	-0.019306798
222	0xbd5a479e	-0.053290956
223	0xbc0fa677	-0.008767716
224	0x3d1e2336	0.0386078
225	0xbdc6ceb9	-0.09707398
226	0x3a998fff	0.0011715888
227	0xbca3f208	-0.02001287
228	0xbd4fa276	-0.050692044
229	0x3d44309c	0.04789792
230	0x3d45ac3e	0.048259966
231	0xbd33e4f5	-0.043919522
232	0x3d2ba25d	0.04190289
233	0xbd5c4ba3	-0.05378307
234	0xbbbd2d3f	-0.005773216
235	0xbd146820	-0.036232114
236	0x3c28c6c6	0.0103012975
237	0xbdbb0c86	-0.09133248
238	0xbbe4a911	-0.006978162
239	0xbd6d5349	-0.057940755
240	0x3d8ff81e	0.070297465
241	0xbd9a5172	-0.07535066
242	0xba77be87	-0.0009450693
243	0xbb09680c	-0.0020966558
244	0xbb70b9c2	-0.0036731814
245	0xbd60dbd7	-0.054897156
246	0xbcd6ea4d	-0.02623477
247	0x3c70a911	0.014688746
248	0xbd942373	-0.07233324
249	0x3d286a45	0.04111697
250	0xbb832793	-0.0040025203
251	0xbd2620a2	-0.040558465
252	0x3d1f1a19	0.038843248
253	0xbd7a60cb	-0.061127465
254	0xbc731fbb	-0.014839108
255	0xbd760ebb	-0.06007264

bottleneck.bias f4 [256]
0	0xaf5afc4a	-1.9916616e-10
1	0xaff68ce7	-4.4847256e-10
2	0x2f643f9b	2.0759076e-10
3	0x2f0805e7	1.2371225e-10
4	0xaf7f34e6	-2.3210908e-10
5	0xaf104409	-1.3120895e-10
6	0xae34251a	-4.0960214e-11
7	0xaf222f80	-1.475069e-10
8	0x2f7849f4	2.2581742e-10
9	0x2f28ff56	1.5370225e-10
10	0x2ed843cc	9.834586e-11
11	0xb036856c	-6.640082e-10
12	0x2f59a273	1.9793749e-10
13	0x2eaa019a	7.7309895e-11
14	0x2f1eeea8	1.4454804e-10
15	0xac90b419	-4.112721e-12
16	0x2f0c36fd	1.2752462e-10
17	0x2f839dbb	2.3940835e-10
18	0x2e240ee6	3.7302515e-11
19	0xafafb678	-3.1961966e-10
20	0xaf3efc7d	-1.7370101e-10
21	0x2ea574ae	7.524058e-11
22	0x2fe1cd75	4.1073248e-10
23	0xafa5ca24	-3.0156955e-10
24	0xadb2ae77	-2.0313735e-11
25	0xabd3e99f	-1.5057295e-12
26	0xaf90d868	-2.6347213e-10
27	0x2ee87436	1.0570782e-10
28	0xadeb433f	-2.674627e-11
29	0xade0b4e4	-2.5546183e-11
30	0xad8576cf	-1.5173111e-11
31	0x2f41e065	1.7632969e-10
32	0xaeaf4e1e	-7.971955e-11
33	0x2dbbf24f	2.1367045e-11
34	0x2ed4a88b	9.670583e-11
35	0xadbc977c	-2.1440398e-11
36	0xb04bbfcc	-7.412353e-10
37	0xae968b10	-6.845913e-11
38	0x2ff5e669	4.4728957e-10
39	0x2ed4b642	9.673019e-11
40	0xaf91d5e5	-2.6527328e-10
41	0x2e9ff51a	7.274022e-11
42	0xad997350	-1.7445295e-11
43	0xadcc9fdc	-2.3263107e-11
44	0xaf09bcb6	-1.2527121e-10
45	0x2ee4030c	1.0368781e-10
46	0x2dba1d0a	2.1158648e-11
47	0x2f59caab	1.9808037e-10
48	0x2e927dff	6.661693e-11
49	0xadec098f	-2.6834339e-11
50	0x2ef5ca07	1.11771974e-10
51	0x2e211455	3.662522e-11
52	0xb041104b	-7.0236145e-10
53	0xb0496bc4	-7.327652e-10
54	0xb008c116	-4.9750903e-10
55	0xaf8b337f	-2.5320543e-10
56	0x3000f0d2	4.6908355e-10
57	0xaf6dcea3	-2.1628437e-10
58	0xaf722e37	-2.202619e-10
59	0x2ecc3e75	9.2879406e-11
60	0xafe35291	-4.1349726e-10
61	0xaf7e7e78	-2.3146096e-10
62	0x2ef58cc4	1.1166315e-10
63	0xaf84592a	-2.4074015e-10
64	0x2f40cdbb	1.7535388e-10
65	0x2f4f94e6	1.887944e-10
66	0xb00c12ed	-5.09586e-10
67	0xaf353a30	-1.6482526e-10
68	0xae96ced4	-6.85795e-11
69	0x2f954429	2.7151373e-10
70	0xafc8f5ad	-3.655435e-10
71	0xae91c4ba	-6.628782e-11
72	0xafbfc1af	-3.4880318e-10
73	0xaefa5a8b	-1.13847674e-10
74	0xae64623d	-5.192845e-11
75	0xb03fbf87	-6.975757e-10
76	0x2f151973	1.3560512e-10
77	0x2dd91bf7	2.4682463e-11
78	0x2f75a923	2.234271e-10
79	0x2e94f33b	6.773467e-11
80	0xaefabb0b	-1.1401909e-10
81	0x2b16d6a9	5.3588606e-13
82	0x2fc7a73c	3.6316716e-10
83	0x2e76d751	5.6125164e-11
84	0x2e1a0fb7	3.5029504e-11
85	0xaf23bf89	-1.489281e-10
86	0x2f67a3d6	2.1067534e-10
87	0xaf06ed35	-1.2271502e-10
88	0x2f93a57f	2.6856736e-10
89	0xafc72375	-3.6223083e-10
90	0x2e3625b1	4.1415486e-11
91	0xaea2ec72	-7.408908e-11
92	0x2ff90fec	4.530415e-10
93	0xaf835221	-2.3887117e-10
94	0xaed3273b	-9.602138e-11
95	0xae9abc74	-7.036585e-11
96	0x2f880e43	2.474839e-10
97	0xad367d27	-1.0373292e-11
98	0x2eea39bc	1.0651344e-10
99	0xac8c79d7	-3.9925663e-12
100	0x3018dbd6	5.5609684e-10
101	0x2de76683	2.6307184e-11
102	0xb03207cc	-6.4767103e-10
103	0x30147243	5.400446e-10
104	0xb0165865	-5.46953e-10
105	0xaead0be7	-7.8692435e-11
106	0x2c9d9535	4.4787737e-12
107	0xafc2279b	-3.5316536e-10
108	0x2f469daa	1.8064009e-10
109	0x2e4b301c	4.6199586e-11
110	0xaee59307	-1.04398316e-10
111	0xae1b5164	-3.531521e-11
112	0xaef92b00	-1.13308474e-10
113	0x2f2de42c	1.5815321e-10
114	0xb001c799	-4.721357e-10
115	0xaec5808e	-8.981359e-11
116	0xaf950ae6	-2.7110686e-10
117	0x2f17971b	1.3787053e-10
118	0xae82dfeb	-5.9514914e-11
119	0xaea867f8	-7.658224e-11
120	0xaf033017	-1.1931466e-10
121	0xadee1ef2	-2.707121e-11
122	0x2ea6b2dd	7.5805785e-11
123	0x2bbb9013	1.3327138e-12
124	0x302d664e	6.3082417e-10
125	0x2db7d69a	2.0899994e-11
126	0xafa07f3f	-2.9194244e-10
127	0xaf076867	-1.231527e-10
128	0xaf1a7c51	-1.4050384e-10
129	0x30071f66	4.9157334e-10
130	0xaf7c05f1	-2.2921377e-10
131	0xad40cc89	-1.0959352e-11
132	0xae644628	-5.190351e-11
133	0x302ae55f	6.2171596e-10
134	0xaf190e71	-1.39204e-10
135	0xaf534f39	-1.9218484e-10
136	0xae8423c4	-6.009018e-11
137	0x2fa24baa	2.952139e-10
138	0x30045aac	4.815017e-10
139	0x2f004d83	1.166907e-10
140	0x2fa1bc4c	2.9419522e-10
141	0x2f8bd48d	2.543498e-10
142	0xaf86f0a3	-2.454544e-10
143	0xafeb813e	-4.2838083e-10
144	0xafc29939	-3.5397266e-10
145	0xafb9f1f2	-3.3823216e-10
146	0x300d3f22	5.138522e-10
147	0xaf1c1c0b	-1.419808e-10
148	0xaf37d116	-1.6718035e-10
149	0x2fba88bf	3.3930367e-10
150	0x2e2b06f0	3.888706e-11
151	0xafc1c4fd	-3.5246464e-10
152	0x2e556d63	4.8527748e-11
153	0xac95b8e5	-4.255362e-12
154	0x2f10d70d	1.3173125e-10
155	0x2ef12fe3	1.09679175e-10
156	0xaef63df8	-1.1197793e-10
157	0xaed3d23c	-9.632514e-11
158	0x2f94a4d7	2.703817e-10
159	0xaf66e54f	-2.0999845e-10
160	0x2f2a76dc	1.5503637e-10
161	0x2ee0d4e4	1.02241576e-10
162	0x2edc5ff1	1.0021484e-10
163	0x2e4dcff7	4.6796313e-11
164	0xaf2cb42f	-1.5707323e-10
165	0x2e2ce3b2	3.9310506e-11
166	0x2f4999ff	1.8335554e-10
167	0xad2021e3	-9.102471e-12
168	0x2e66156c	5.2314972e-11
169	0x2fed035f	4.3112444e-10
170	0x2fa0bbf7	2.9237388e-10
171	0xaf029c94	-1.1879059e-10
172	0x2fef359e	4.3511944e-10
173	0x2e8f7a36	6.524596e-11
174	0x2e90a052	6.5768405e-11
175	0x2e842f3a	6.011054e-11
176	0xaef496ba	-1.112261e-10
177	0x2c9783ac	4.3062966e-12
178	0x300385dc	4.784775e-10
179	0x2f959925	2.7211758e-10
180	0x30225813	5.906042e-10
181	0xaf4108dd	-1.7556397e-10
182	0xad2c6a12	-9.80062e-12
183	0x2f09caff	1.2532196e-10
184	0x2d4b8376	1.1568404e-11
185	0xae84d720	-6.040879e-11
186	0xad202402	-9.102942e-12
187	0x2b772ed2	8.7817004e-13
188	0xaf060278	-1.2188106e-10
189	0xaedfcc45	-1.01771515e-10
190	0x301e675f	5.7626964e-10
191	0x2eae65a5	7.9306596e-11
192	0xae8b2e5e	-6.3292246e-11
193	0x2f151288	1.3558055e-10
194	0x2f928ec3	2.6658684e-10
195	0x2f48cc1d	1.826241e-10
196	0x2f10ccd7	1.3169497e-10
197	0x2f8d37d0	2.5687408e-10
198	0xaf48f4a2	-1.8276805e-10
199	0x300d1d53	5.1337173e-10
200	0x3016000a	5.456974e-10
201	0xaf76ac9a	-2.243489e-10
202	0x2e8ce57b	6.407227e-11
203	0xaecb794d	-9.2529186e-11
204	0x2f12924e	1.33306e-10
205	0xaf614e5a	-2.0491467e-10
206	0x2f1bcae6	1.4169252e-10
207	0x2fad2317	3.149345e-10
208	0x2f1990f1	1.3966762e-10
209	0xaf2d749e	-1.5775689e-10
210	0x2c082ceb	1.9351697e-12
211	0x2eaf13ef	7.9616196e-11
212	0x2ec211fa	8.825292e-11
213	0x2fcc0cab	3.7116385e-10
214	0xadb2d3d8	-2.0330335e-11
215	0x2c802ba7	3.642825e-12
216	0xadf2797c	-2.7566165e-11
217	0xafb88641	-3.3564798e-10
218	0x2f43f995	1.7823816e-10
219	0x2fcdc0c4	3.742625e-10
220	0x2f114fb1	1.3215985e-10
221	0xb01163ec	-5.289269e-10
222	0x2e9d0d81	7.141932e-11
223	0xaf8e7c56	-2.5917996e-10
224	0xada70de8	-1.8991878e-11
225	0xafa68a98	-3.02937e-10
226	0xaeb86f35	-8.3871056e-11
227	0x2f6abcd0	2.1349256e-10
228	0x2dd4d341	2.4195425e-11
229	0x2f507b30	1.8961255e-10
230	0x308c5eed	1.021332e-09
231	0x2e56257b	4.8691256e-11
232	0x2fe67c9f	4.1925305e-10
233	0x2e2183c0	3.672418e-11
234	0xae53d675	-4.816632e-11
235	0xaff54b08	-4.4618553e-10
236	0xac953dd9	-4.241701e-12
237	0xaea4701b	-7.4777705e-11
238	0xafb70ff3	-3.329884e-10
239	0xaf10d584	-1.317258e-10
240	0x2ef4fdab	1.1140896e-10
241	0x2e9d5b4b	7.15575e-11
242	0xaf742357	-2.2204226e-10
243	0xaf77e9c3	-2.2547568e-10
244	0x2eb0c492	8.038471e-11
245	0x30513870	7.611396e-10
246	0xafa35506	-2.970994e-10
247	0x2fa8a30b	3.067487e-10
248	0xaf13e201	-1.3449865e-10
249	0xafa86da7	-3.0636935e-10
250	0xae98bcd4	-6.945702e-11
251	0xae277443	-3.8074665e-11
252	0x2e069d88	3.060799e-11
253	0xaf5b00c2	-1.9918203e-10
254	0x2d59503c	1.23528375e-11
255	0x2f4a594a	1.8403515e-10
