ckps/source/uda/domainnet/infograph_2/source_C.pt (torch, 358186 bytes, 3 tensors)

fc.bias f4 [345]
000000 1f f8 94 bc e4 03 6b bc 8e 96 90 ba e7 60 b0 b9
       -0.01818472 -0.014344189 -0.0011031197 -0.00033641534
000010 71 e3 5f 3c e6 e9 a2 bc 9c 2d a9 3b 37 ee fa 3b
       0.013665066 -0.019886922 0.0051629078 0.007657792
000020 82 bb ec ba 0d 06 77 bc 5c ba c3 bc bc bc 6c bc
       -0.0018061253 -0.015077126 -0.023892574 -0.014449295
000030 76 ac c1 3b 8d d2 87 3b eb af 44 3d 5b 94 8d 3b
       0.0059104515 0.0041449727 0.04801933 0.004320664
000040 2f 49 0f 3d 27 b1 92 bc 40 d3 26 3b 2e eb aa bc
       0.034981903 -0.017906738 0.0025455505 -0.020864096
000050 46 ac 09 bc c5 71 9f bc 49 ef e7 bb a0 de 9c bc
       -0.00840289 -0.01946343 -0.0070780856 -0.019149125
000060 ec 19 01 bc 8e 98 62 ba 89 fe 60 bc 28 e6 a0 3c
       -0.007879715 -0.0008643948 -0.013732561 0.019640997
000070 7d f6 69 3c e3 ab 36 3c f9 62 15 3a ef bf be 3c
       0.014279959 0.011149379 0.0005698647 0.02328488
000080 fd c7 99 bb a6 57 64 bc 5c 8c eb bb 0f 1a 39 3c
       -0.00469303 -0.013936913 -0.007188363 0.011297717
000090 bf 41 23 3c 1d 22 13 3c 21 cc c6 bb 34 fb 82 3a
       0.009964406 0.008980301 -0.0060668145 0.0009993077
0000a0 12 4a 59 3c d5 1e 43 3b f6 4b b2 bc 9e 41 91 bc
       0.013262289 0.0029773016 -0.021764737 -0.017731484
0000b0 d2 49 65 3c 71 45 da bb fb e5 81 bc 90 83 fd bc
       0.013994651 -0.00666111 -0.015856734 -0.030946523
0000c0 43 2f 68 bb a6 74 bc bb 26 27 67 ba 95 b3 8f bc
       -0.003542856 -0.0057512103 -0.0008817784 -0.017541686
0000d0 98 47 7b bb 12 ba b0 3b ee 7c 4c bc a1 af ab bc
       -0.0038342234 0.005393275 -0.012480957 -0.02095777
0000e0 da fa 2b bb 9d d3 d7 3b ec 1b e7 bb 31 a4 75 bb
       -0.0026242048 0.0065865056 -0.007052889 -0.00374819
0000f0 15 54 f7 ba 32 4a 36 bc ef dd bb bb bb 7d 20 bc
       -0.0018869663 -0.011126088 -0.0057332437 -0.0097956015
000100 85 c0 b6 3b eb a5 e6 bb ee 33 41 3b 7b 1b 6d 3c
       0.0055771493 -0.007038822 0.0029480415 0.014471884
000110 c3 32 75 bb 44 3a 7e 3c 77 3d 28 3c fc 8d bd bc
       -0.003741429 0.015516821 0.010268561 -0.023138992
000120 84 7f 0d bc 9b 0b b7 3b 93 04 f1 bc 57 78 62 3b
       -0.008636359 0.0055861003 -0.029421126 0.0034556591
000130 79 be 01 bc 75 f7 ae bb c7 8b 3c bc 7b aa b4 3b
       -0.007918947 -0.005339558 -0.011507935 0.005513487
000140 89 54 27 bb fa ab 5f ba 42 fb cd bb d3 12 e0 3b
       -0.0025532565 -0.00085324014 -0.006286056 0.0068381815
000150 10 39 84 3b f3 be 8a 3c aa 1d 04 bc b4 c7 ca bb
       0.0040351227 0.016936755 -0.008063713 -0.0061883572
000160 c5 8a b5 bb f4 00 78 bc da 48 28 bb 96 1b 9b bb
       -0.0055402243 -0.015136946 -0.0025678189 -0.004733513
000170 c8 cc 27 bd 69 fc 06 bc 82 17 47 bb 74 e1 94 3b
       -0.04096678 -0.00823889 -0.0030379002 0.0045434777
000180 dc 89 11 3c 87 c1 b5 bb 4f 63 2f 3c 7c ec e4 3b
       0.008882966 -0.005546752 0.010704829 0.006986199
000190 e8 53 13 bc c1 3a a9 3c ce 27 f4 39 ee 07 3b 3c
       -0.008992173 0.020657899 0.00046568963 0.011415465
0001a0 e7 30 c8 bb 98 17 b0 b8 af 8c 18 bc 78 f2 92 3b
       -0.0061093452 -8.396729e-05 -0.009310885 0.004484471
0001b0 0f f6 ca bc 25 f8 f7 3b 6f fd 72 3d 4f 0f ad bb
       -0.024775533 0.007567423 0.059323724 -0.005281366
0001c0 22 9b f0 bb af af 59 3c 65 4c b1 bc 7f d2 8e ba
       -0.007342712 0.013286515 -0.021642873 -0.0010896473
0001d0 39 7d 3f 3b 0f 1f b6 3a 67 6b f3 3b 14 d4 58 3a
       0.0029218926 0.0013894754 0.007428575 0.0008271348
0001e0 94 b5 11 3b 96 b9 8a bc 7d f0 5d bb db 83 fb bc
       0.0022233473 -0.016934197 -0.0033865266 -0.030702522
0001f0 f0 1d a4 3b 07 5a c6 bb fd 96 6d 3b 28 60 bc bc
       0.0050084516 -0.0060532126 0.0036253326 -0.02299507
000200 af bc 3d 3c e0 b7 d4 bb 94 9a 63 3b 6b fb c1 bc
       0.01158063 -0.006491646 0.0034729587 -0.023679456
000210 4c 6e 96 bc 11 7d 27 b8 33 74 d9 bb 6b 26 bd bc
       -0.01836314 -3.993238e-05 -0.0066361665 -0.023089608
000220 f0 76 38 bc 76 94 c2 3c cf 24 7a 3b aa 69 f2 3b
       -0.011258826 0.023752432 0.0038168912 0.00739785
000230 36 a9 78 bc aa 6f ba 3b 9e d0 5b bc eb c6 b6 3c
       -0.015177062 0.005689581 -0.013416437 0.022311648
000240 4d 7a 61 bc b0 28 ad 3a c5 0f aa bb d2 6a 76 3c
       -0.013762069 0.0013210978 -0.005189868 0.015040116
000250 68 a0 2c 3c b8 92 ce bb 91 92 88 bc f5 ce 26 bc
       0.010536291 -0.0063041113 -0.01667145 -0.010181178
000260 1f 7d c3 3a 8b 68 1e bc d5 30 10 bc fc e6 66 bb
       0.0014914608 -0.00966848 -0.008800705 -0.0035232892
000270 f7 21 8d bb aa 5e 02 bc 1e ac 39 3c f2 6e 61 3a
       -0.0043070274 -0.00795714 0.01133254 0.0008599601
000280 58 14 aa bb 69 74 ba bb 5c f1 1c bc 90 49 f8 bb
       -0.0051904134 -0.0056901467 -0.009579029 -0.0075771287
000290 df a1 df bb 9c 5d 6a bb 55 7e 34 bc e2 a8 51 bc
       -0.0068247165 -0.0035761362 -0.011016448 -0.012796612
0002a0 d0 55 b8 bc 04 5a 9b bb c7 21 67 3b 75 65 26 bc
       -0.022501856 -0.0047409553 0.0035267936 -0.010156025
0002b0 3e ae 2e 3b 3c 7f c6 b9 25 96 50 bc 94 02 a4 bc
       0.002665415 -0.000378603 -0.01273111 -0.02002076
0002c0 05 f0 14 bc 44 f6 96 3c b7 bd 4d 3c cd 0f 07 bc
       -0.009090428 0.018427975 0.012557439 -0.008243513
0002d0 a5 c0 bb bb 05 12 99 3a 66 cb 39 bc 6d a8 8b 3b
       -0.005729752 0.0011678344 -0.011339998 0.0042620213
0002e0 f1 56 a1 bb b8 23 a2 bb ae 45 8a 3c 25 1f 64 bc
       -0.0049236943 -0.0049481057 0.016878929 -0.013923441
0002f0 35 63 81 3b 63 8f 9e bc 8c 62 a4 bc ee 47 0d 3c
       0.003948594 -0.019355481 -0.020066522 0.008623106
000300 35 6d 85 3c 9b 22 ed bb 6e 41 9c bb f0 14 8d bc
       0.016287426 -0.0072367913 -0.004768542 -0.017221898
000310 2d 29 1e bc 52 29 3a bb 78 84 d4 3b 9f ea 3b 3b
       -0.009653372 -0.0028405976 0.006485518 0.002867378
000320 8f 5d c7 bc 0b 04 61 bc ba c8 fc bb 7c fc 01 bc
       -0.024336604 -0.013733874 -0.007714358 -0.007933732
000330 20 2b 36 bc ef 00 a2 3b 3a c9 cc 3b bb 9b 8a 3c
       -0.01111868 0.004943959 0.006249574 0.016919961
000340 4e a2 5e bb 48 2d f6 bc 5d a3 b9 3b dd 5f 4a 3b
       -0.0033971253 -0.030050889 0.0056652264 0.0030879893
000350 b8 85 12 bb 5c e1 be 3b 63 00 7c bc 32 01 2e ba
       -0.0022357535 0.005825205 -0.015380952 -0.00066377514
000360 da e7 ba ba e6 36 a9 bb ce 4c b1 3b f5 73 8e ba
       -0.0014259771 -0.005164015 0.005410767 -0.0010868298
000370 b4 1b b1 bc 1c 2a 1b bc 89 f8 1f 3c 99 0f 80 bc
       -0.021619655 -0.009470489 0.009763845 -0.015632438
000380 c4 c5 40 bc db aa d1 bc 22 88 99 ba bf 51 db bb
       -0.011765901 -0.025594166 -0.0011713544 -0.0066930945
000390 ab 9f 66 bc d0 c5 8d bc bb 89 4a bc 47 f4 22 3c
       -0.014076154 -0.017306238 -0.012361939 0.009945936
0003a0 23 dd ce bb 0c f4 16 bc 45 ae e4 bb e6 36 49 3c
       -0.0063129826 -0.009213459 -0.0069787824 0.012281155
0003b0 c2 37 50 3c 7f 81 2f bc 60 29 ae bb 1d 1c 22 3b
       0.012708606 -0.010712027 -0.005314991 0.0024735995
0003c0 fe 8f 27 3c 89 5a 5f bc 9d e3 9f 3b 8c 93 07 bc
       0.0102272015 -0.013632425 0.0048794285 -0.008274924
0003d0 62 84 9f bc d8 9c 10 bc d0 d4 87 bb 65 68 a8 bb
       -0.019472305 -0.008826457 -0.0041452423 -0.005139398
0003e0 28 1f b9 bc 2f af 59 3c 41 4a 0c bc 86 c7 90 bc
       -0.022597864 0.013286396 -0.008562625 -0.017673265
0003f0 a1 ac a6 3b 58 87 a6 bb f5 85 71 bb 11 d9 70 bc
       0.005086497 -0.005082052 -0.0036853526 -0.01470019

fc.weight_g f4 [345, 1]
000000 40 96 40 3f 72 c0 4c 3f cb 46 0a 3f a6 2b 1c 3f
       0.75229263 0.7998115 0.5401427 0.610041
000010 cc 97 21 3f fe a9 49 3f 8e 43 53 3f 9b 33 1b 3f
       0.6312225 0.7877501 0.82524955 0.6062562
000020 a4 0b 53 3f 44 48 68 3f 8e d7 63 3f 9e de 5a 3f
       0.8243964 0.9073527 0.89000785 0.85495937
000030 94 bb 86 3f 95 b3 85 3f 38 18 8a 3f a0 49 6d 3f
       1.0525994 1.0445429 1.0788641 0.9269047
000040 8c e8 8e 3f 96 a9 83 3f dd cf 77 3f f0 30 78 3f
       1.1164718 1.0286129 0.9680155 0.9694967
000050 0f f3 5f 3f ae 82 6c 3f 00 8e 75 3f 5f 36 4a 3f
       0.87480253 0.923869 0.959198 0.78989214
000060 66 cf 50 3f 48 0b 80 3f ad fb 7d 3f dc 28 61 3f
       0.81566465 1.0003443 0.9921215 0.8795297
000070 7a 49 39 3f 14 39 7a 3f 7b ec 45 3f 9e a7 7e 3f
       0.7237774 0.97743344 0.77313966 0.99474514
000080 00 96 4e 3f 45 a2 84 3f 43 56 5e 3f 31 3f 81 3f
       0.8069763 1.0362021 0.86850375 1.009741
000090 7f 2f 3e 3f c8 d6 2e 3f 17 2d 50 3f f4 71 6e 3f
       0.74291223 0.6829648 0.813188 0.9314263
0000a0 2b f7 82 3f 4a 34 86 3f b2 f6 34 3f 1a 61 84 3f
       1.023168 1.0484707 0.7068893 1.0342133
0000b0 45 8d 32 3f c3 3c 3d 3f 96 56 3e 3f 91 76 72 3f
       0.6974681 0.7392084 0.7435087 0.9471217
0000c0 be fd 2c 3f 00 62 6e 3f 52 34 2a 3f 39 08 63 3f
       0.6757468 0.93118286 0.66486084 0.8868442
0000d0 a1 1b 28 3f 53 fd 40 3f 23 a1 2a 3f c7 90 50 3f
       0.6566716 0.7538654 0.66652125 0.8147091
0000e0 ed 5c 20 3f e5 f1 47 3f e7 6b 4a 3f f0 b6 38 3f
       0.62641793 0.78103477 0.79070896 0.7215414
0000f0 c9 88 46 3f 50 cf 87 3f 66 36 82 3f 58 54 6e 3f
       0.7755247 1.0610142 1.0172851 0.9309745
000100 3a 37 6c 3f f0 79 4a 3f 51 6b 24 3f 02 80 7b 3f
       0.9227177 0.7909231 0.6422625 0.982422
000110 ab f7 73 3f 88 ba 37 3f 2b 75 29 3f 5f 4f 6e 3f
       0.95299786 0.71769 0.6619441 0.9308986
000120 3a 39 14 3f b6 7d 36 3f 70 b4 6e 3f 0b 3e 76 3f
       0.5789982 0.7128557 0.93244076 0.9618842
000130 99 fd 2c 3f e6 c7 5b 3f 09 4b 51 3f e6 a8 1e 3f
       0.6757446 0.85851896 0.8175512 0.6197647
000140 c8 48 3f 3f c0 fe 68 3f b5 9b 3c 3f 9a 85 3e 3f
       0.7472043 0.9101372 0.7367509 0.7442261
000150 03 ba 44 3f f9 7a 06 3f 05 4a 4f 3f eb 05 2d 3f
       0.7684633 0.5253139 0.8097232 0.67587155
000160 5e 5e 62 3f 90 5f 37 3f 4b e3 2f 3f 7d e8 81 3f
       0.8842524 0.7163019 0.68706197 1.0149075
000170 a3 6e 66 3f 16 c1 50 3f fa 5e 40 3f 6f ca 30 3f
       0.9001257 0.81544626 0.7514492 0.6905889
000180 58 3e 34 3f 55 04 40 3f ef bc 21 3f dc e3 42 3f
       0.7040763 0.7500661 0.63178915 0.76128936
000190 09 b6 56 3f 6a c0 4e 3f 3d 50 4f 3f 8d 7a 77 3f
       0.83871514 0.8076235 0.8098181 0.9667137
0001a0 ad 60 4f 3f 50 a4 36 3f 76 ee 75 3f 49 f0 61 3f
       0.8100689 0.7134447 0.9606699 0.8825727
0001b0 cc e7 5c 3f 55 17 37 3f c0 58 90 3f 4e 41 64 3f
       0.86291194 0.71519977 1.1277084 0.8916215
0001c0 08 fe 49 3f 77 a0 4f 3f 17 b9 59 3f e3 f3 3c 3f
       0.78903246 0.81104225 0.8504805 0.7380964
0001d0 6d 77 82 3f 06 cd 3b 3f ac 6e 53 3f fb 68 52 3f
       1.0192696 0.73359716 0.82590747 0.8219144
0001e0 71 9e 6a 3f 0e 12 68 3f 9c 23 37 3f b6 1d 5e 3f
       0.9164801 0.9065255 0.7153871 0.86764085
0001f0 b4 83 52 3f fc 5d 5f 3f 5f 13 50 3f 49 b9 85 3f
       0.82232213 0.87252784 0.8127956 1.044717
000200 78 38 49 3f 63 28 6d 3f c1 52 72 3f 1b 4e 6b 3f
       0.7860179 0.9263975 0.9465752 0.91916054
000210 30 08 76 3f e2 2a 84 3f 49 d8 77 3f ae 74 6d 3f
       0.96106243 1.0325587 0.968144 0.92756164
000220 b8 48 44 3f 5a a8 88 3f 6f 34 3e 3f 00 b1 7b 3f
       0.7667346 1.0676377 0.7429876 0.98316956
000230 3d 3c 81 3f b3 79 49 3f 77 49 7a 3f 4c 77 86 3f
       1.0096508 0.78701323 0.9776835 1.0505157
000240 87 a2 7a 3f 71 0b 52 3f 39 93 77 3f b8 68 7c 3f
       0.9790425 0.8204871 0.9670902 0.9859729
000250 67 5b 43 3f b2 71 32 3f 44 7f 60 3f 4b a4 5a 3f
       0.76311344 0.69704735 0.8769419 0.8540694
000260 64 e7 50 3f 97 fc 82 3f 62 c9 74 3f 0d 21 4d 3f
       0.81603074 1.0233334 0.95619786 0.80128556
000270 2d 0a 75 3f f6 18 54 3f ed 8c 31 3f bf 67 4e 3f
       0.9571865 0.8285059 0.6935566 0.80627054
000280 ad 06 5a 3f f3 44 54 3f d2 c0 44 3f 65 04 6a 3f
       0.85166436 0.8291771 0.7685672 0.91412956
000290 81 e2 5a 3f dc de 48 3f 89 e2 5c 3f b2 02 5e 3f
       0.8550187 0.78465056 0.86283165 0.8672286
0002a0 be 70 73 3f c5 27 5b 3f 94 9e 28 3f 16 e8 4c 3f
       0.95093906 0.8560756 0.6586697 0.80041635
0002b0 b9 18 55 3f 85 17 88 3f 8b bb 46 3f 98 64 5d 3f
       0.8324085 1.0632178 0.7762992 0.8648162
0002c0 fc 94 32 3f 69 c0 34 3f 61 d9 41 3f d8 66 72 3f
       0.6975858 0.70606095 0.7572232 0.9468818
0002d0 c2 74 3e 3f 06 6c 0f 3f 8c af 53 3f 7b 72 2e 3f
       0.7439691 0.56024206 0.8268974 0.68143433
0002e0 fc 09 4f 3f 2a bb 70 3f cf 4d 61 3f e4 00 74 3f
       0.8087461 0.9403559 0.8800935 0.9531386
0002f0 23 4b 81 3f 7d 94 70 3f 76 d7 3e 3f e7 9c 47 3f
       1.0101055 0.93976575 0.7454752 0.7797379
000300 63 c1 23 3f 9a d1 6b 3f e2 d2 2e 3f df 71 85 3f
       0.6396696 0.921167 0.6829053 1.0425376
000310 fe 9b 82 3f 97 d4 56 3f 3d e6 84 3f 36 70 4b 3f
       1.0203855 0.83918136 1.0382763 0.79468095
000320 55 80 57 3f 0f 8d 47 3f 3a 52 44 3f 31 25 42 3f
       0.84180194 0.77949613 0.7668797 0.75838
000330 28 32 5c 3f 1d a1 1d 3f 03 19 2f 3f d7 d8 81 3f
       0.8601403 0.61573964 0.6839754 1.0144299
000340 7d 15 4c 3f 06 f7 68 3f d4 cb 2e 3f 01 64 4a 3f
       0.7972029 0.9100193 0.6827977 0.79058844
000350 f2 b1 3f 3f 1c 3c 6c 3f 0b e2 50 3f 76 ac 60 3f
       0.748809 0.9227922 0.81594914 0.87763155
000360 c1 52 6a 3f a2 ad 80 3f cf 76 73 3f 2e 9b 53 3f
       0.9153252 1.0052989 0.9510316 0.8265866
000370 36 11 58 3f 74 c8 44 3f 69 64 75 3f 4b ae 76 3f
       0.8440126 0.7686837 0.9585634 0.963597
000380 b9 4d 54 3f 93 02 63 3f ba aa 56 3f dc 4e 44 3f
       0.82931095 0.886758 0.8385426 0.7668283
000390 77 b2 52 3f af b8 76 3f 9c d8 60 3f 77 b1 38 3f
       0.82303566 0.96375555 0.8783052 0.7214579
0003a0 8b c0 3d 3f 29 b5 4b 3f 29 18 68 3f e9 49 65 3f
       0.7412192 0.79573303 0.90661865 0.895659
0003b0 6e 9e 1f 3f 11 8f 64 3f e2 d6 54 3f a9 6a 3a 3f
       0.6235112 0.892808 0.83140385 0.72819
0003c0 ac f6 53 3f 57 02 59 3f 18 73 55 3f 28 3f 65 3f
       0.82798266 0.84769195 0.83378744 0.89549494
0003d0 5a 46 74 3f 0b ca 40 3f 15 58 43 3f 75 e3 51 3f
       0.9541985 0.75308293 0.7630628 0.81987697
0003e0 8e 53 52 3f 41 1e 38 3f dc e5 38 3f 52 f8 56 3f
       0.82158744 0.71921164 0.7222574 0.83972657
0003f0 90 97 69 3f 06 97 30 3f 32 4e 2d 3f 95 72 77 3f
       0.9124689 0.68980443 0.6769744 0.96659213

fc.weight_v f4 [345, 256]
000000 cc bd 2e bc 93 ea db bc 3e 63 05 bd 1a 0a ed 3b
       -0.010665368 -0.026845252 -0.032565348 0.00723387
000010 75 ac 17 3b 5e 36 16 3c 9f 89 3f ba 7a 56 ed bc
       0.0023143564 0.009168236 -0.0007306579 -0.0289719
000020 1e 31 a6 bc 9f 9b 86 ba 7c 32 a4 bc 61 7f 38 bd
       -0.020287093 -0.0010269767 -0.020043604 -0.045043353
000030 d3 e5 05 bb 90 bb cb 3c 7d 3b c8 3c b2 df 4e 3d
       -0.0020431175 0.02486971 0.024442429 0.0505063
000040 c6 9a 61 3c 28 5f c6 bc 96 12 0e 3c d9 08 24 bd
       0.013769811 -0.024215296 0.008671423 -0.0400475
000050 93 05 02 b9 60 7a a5 3c 56 35 2c 3d b4 48 4f 3c
       -0.00012399843 0.020199955 0.042043053 0.012651611
000060 ed fb 17 3d 8d 71 2d 3c 8c 57 86 bc f3 0f f0 3c
       0.03710549 0.010586155 -0.016399167 0.02930448
000070 7a 38 89 3c 10 57 46 bd f2 b1 3e 3b 3e a0 9f bc
       0.016750563 -0.048422873 0.0029097763 -0.01948559
000080 9e 06 23 3b fa 6f 91 3c 95 69 aa 3b e9 9d e6 3b
       0.002487577 0.01775359 0.0052005746 0.0070378673
000090 2f 4b cc 3c a1 52 a6 bc 7d e7 97 bc 3d 41 04 bb
       0.024938194 -0.020303072 -0.018543 -0.0020180487
0000a0 8d 13 05 bd 1a 96 7c bc d8 9c 90 bb 98 7c 7e bc
       -0.03248935 -0.015416646 -0.0044132285 -0.015532635
0000b0 66 9e 2c bb 73 c2 48 3c 4f 59 a0 bc 0d 7c 96 3c
       -0.002633953 0.012253392 -0.019573836 0.018369699
0000c0 e9 5e d0 ba 58 cf 60 bc c7 02 c4 3c 81 b5 3b bc
       -0.0015897426 -0.01372131 0.023927106 -0.011456848
0000d0 6e c7 24 bc 7b 70 e1 3b 57 4b 01 3d 62 46 be 3c
       -0.010057313 0.006879864 0.03156599 0.02322692
0000e0 11 12 20 3c 65 b3 07 bd a4 f4 87 bc 15 f4 c4 ba
       0.009769932 -0.03313007 -0.016596146 -0.0015026355
0000f0 a1 52 c3 3a 54 ef 7e bc cd 52 2e 3c 6b b5 08 bc
       0.0014901945 -0.01555999 0.010639858 -0.008344035
000100 12 a1 ce 3c 95 b2 75 3c 5e 90 a5 3c 7d 4f ad 3c
       0.025223289 0.014996191 0.020210441 0.021156067
000110 16 a2 ad 3c b6 9f 61 3c 0e 6c 86 3c a1 b5 89 bc
       0.021195453 0.013770988 0.016408946 -0.01681024
000120 f6 4f ff 3c 7f e3 a1 bb aa 23 33 bc 61 94 53 b9
       0.031166058 -0.0049404497 -0.010933796 -0.00020177804
000130 1a e1 0d 3b f2 e8 36 bd 38 3d 32 38 3c b7 b3 3c
       0.0021649064 -0.044655748 4.249552e-05 0.021937959
000140 2f 58 a2 bc 37 17 4d 3b 5c 44 09 3d 1d 8f 17 3c
       -0.01981744 0.0031294355 0.03351246 0.009250429
000150 cd d3 88 3c f0 4c 34 3c bd 95 bc 3c ad d5 1d 3c
       0.016702557 0.011004671 0.02302062 0.009633464
000160 33 c9 3f 3d c5 c7 04 bd 43 98 7f 3c de 60 41 bc
       0.046822738 -0.032417078 0.015600267 -0.01180288
000170 97 4e bc 3b 23 42 08 bd 62 92 86 bc e8 74 dc 3c
       0.0057466733 -0.033266198 -0.016427223 0.026911214
000180 06 f7 bc bc 5c 12 c9 bc 95 2d 7d 3c 3b 81 1e 3c
       -0.023067009 -0.024544887 0.015452762 0.009674366
000190 bd be 28 bd a0 f7 06 bd d8 6c 8c b9 9a 60 1d bc
       -0.041197527 -0.032950997 -0.00026783976 -0.009605551
0001a0 a2 66 7e 3c 46 cb 3a bb 53 10 77 bc 9c cd e3 3c
       0.015527399 -0.0028502508 -0.015079576 0.027808003
0001b0 f1 e2 98 3b c1 a4 15 3d 2f 65 28 3d 0c 33 e1 bb
       0.0046657254 0.036534075 0.04111212 -0.0068725403
0001c0 4e 26 99 bc ca ae 15 3d 28 5b 2e bd b7 f2 8c 3c
       -0.018695023 0.036543645 -0.042567402 0.01720558
0001d0 a2 21 1c bc 00 23 cc 3b 8d e3 0b bb c1 ba 0e 3c
       -0.009529503 0.0062297583 -0.0021345348 0.008711518
0001e0 c4 33 2c bc 26 42 7c 3c 4b 71 29 3b 13 78 bb bb
       -0.010510389 0.01539663 0.0025854881 -0.005721101
0001f0 2a 0e 27 bc 2d 4b 82 3c e4 b4 2a bc be b4 dd 3c
       -0.010196248 0.015904987 -0.010419104 0.027063724
000200 fe cf f3 3c 04 ad 3f bc 75 00 c7 bc ca ac 82 3b
       0.029762264 -0.011698965 -0.02429221 0.003987883
000210 85 30 0d 3d 32 b3 e9 bc 27 8e 2a 3b 21 a7 01 bc
       0.0344701 -0.02852783 0.002602467 -0.007913382
000220 af 6e 85 3b e4 cd cb 3c c4 91 b3 3c 94 47 60 bc
       0.0040720324 0.02487845 0.021920092 -0.013688941
000230 d1 e0 6c 3c d9 b6 15 3d 31 13 32 3d 9e 7f c6 3b
       0.014457897 0.03655133 0.043475334 0.0060576936
000240 41 3f c3 3c 1d cb 44 bc 6e 01 e5 bc 42 16 23 bc
       0.023833873 -0.012011317 -0.027954783 -0.009954037
000250 c8 f0 f1 bb d0 b9 b0 bc d2 f9 12 bd 54 85 61 bc
       -0.0073834397 -0.021572977 -0.03588278 -0.013764698
000260 c6 cb 54 bc 97 1a dc 3c 27 94 78 3c a7 22 88 ba
       -0.0129880365 0.026868148 0.015172041 -0.0010386304
000270 d1 f3 a9 bc d4 23 7e ba 2f 6a ca bb 8c d4 aa bc
       -0.020746144 -0.000969467 -0.006177209 -0.020853303
000280 3e ea c7 3c fc d6 9c 3c 1b 50 65 3a ac 85 a7 bc
       0.024403688 0.019145481 0.00087475934 -0.020449482
000290 06 4d 65 bc d5 ee 85 bc 66 c8 07 3d d8 16 08 bc
       -0.013995415 -0.016349236 0.0331501 -0.008306228
0002a0 73 62 f4 bb e9 69 c1 bb 2b 99 23 bc f2 3b 01 bb
       -0.007458025 -0.005902518 -0.009985249 -0.0019719568
0002b0 04 c4 89 bc 14 be 36 bc 1e 1a 94 3c 20 80 54 bc
       -0.0168171 -0.011153717 0.01807886 -0.0129700005
0002c0 e2 89 bc bc c5 48 d7 3c 8c 33 a2 bc 75 3b 7a 3b
       -0.023014966 0.026279816 -0.01979997 0.0038182412
0002d0 5c a9 f6 bc d5 79 e3 bc 0c 2d 12 3b 15 74 dc bb
       -0.030110054 -0.027768055 0.0022304682 -0.0067277052
0002e0 7e 38 a7 3c e6 3e b5 3c 27 bb 1a bc 71 fd 0a 3c
       0.02041268 0.022124719 -0.009444035 0.008483277
0002f0 ee 2b 2d 3c 2b 91 34 bc d9 c3 16 3d 03 94 be 3c
       0.010569556 -0.011020939 0.03680787 0.023263937
000300 01 b3 52 3d 6c a1 ae 3c c6 8e 78 3c 1e bf 07 3d
       0.051440243 0.021317206 0.015170759 0.033141248
000310 ba 47 bd 3c 9d 27 78 bb 2b ba 05 3d c7 31 41 3b
       0.023105491 -0.0037865408 0.032648247 0.0029479132
000320 5d 17 a7 bc 57 59 1d 3d cc 65 69 3b ed 9d a6 bb
       -0.020396883 0.03841528 0.0035613654 -0.005084744
000330 fe da 3e 3b aa 24 53 bc e9 cd 77 3c 39 9a 52 bc
       0.0029122229 -0.012887159 0.015124776 -0.012854152
000340 d3 ae a8 3c 7a 08 02 bd ac c2 47 3c d2 02 d2 bc
       0.020591175 -0.031746365 0.0121924095 -0.02563611
000350 28 14 fd 3c ec 29 ab ba 21 21 62 bc 21 ae aa 3a
       0.0308934 -0.0013058758 -0.013801844 0.0013021865
000360 ee ff e3 3a 4b 90 db ba c9 4b 93 3c 6c c9 aa bb
       0.0017394999 -0.0016751377 0.017980473 -0.0052119996
000370 69 13 02 3d a6 d9 a5 3c d5 8f 59 bc 28 84 02 3d
       0.031756792 0.020245384 -0.013278921 0.031864315
000380 0d 0b d4 3c 88 6a c8 bc 40 85 82 bc 58 4e de 3b
       0.025884176 -0.02446486 -0.01593268 0.0067842416
000390 7a ca 76 bc e3 fd 99 3c 65 eb 0c 3c 2a db 0a 3c
       -0.015062923 0.01879782 0.008601044 0.008475104
0003a0 dd 04 d2 3c 53 4b 2c bc 36 ea 39 3c fa 4c cc 39
       0.025637085 -0.010516006 0.011347344 0.00038967264
0003b0 03 96 4e bc 9f 19 e4 bb 8e d8 8f bc 2f cd 0c bd
       -0.012609008 -0.006961062 -0.017559316 -0.034375366
0003c0 e1 eb d9 3c ab 7a 9d bc b8 1f 90 bc 24 fb 95 bc
       0.026601734 -0.019223532 -0.01759325 -0.01830823
0003d0 6a d8 19 bd 1f 7c 48 3b 37 70 b9 3c a7 55 34 3c
       -0.037559904 0.003059156 0.022636516 0.011006749
0003e0 35 d3 51 bb 86 be 81 3c 52 e5 ad bc c6 88 86 3b
       -0.0032016758 0.015837919 -0.021227513 0.00410566
0003f0 f1 b7 ca bb 8e c2 c9 bc 86 f1 e7 bc e8 7d 81 bc
       -0.0061864783 -0.024628904 -0.02831341 -0.015807107
