ckps/source/uda/office-caltech/dslr_2/source_B.pt (torch, 532830 bytes, 6 tensors)

bn.weight f4 [256]
0.99339896 0.99432117 0.9938675 0.99440163 0.9957944 0.99429804 0.9940682 0.9932693
0.99376416 0.9915707 0.9930668 0.99368685 0.9939558 0.9940214 0.99212825 0.99601895
0.9940274 0.99388003 0.99564743 0.99231017 0.99378705 0.9922098 0.9931235 0.99195
0.99404156 0.99318165 0.9933249 0.9938138 0.9934365 0.993277 0.99297816 0.9925135
0.99339986 0.9939826 0.99386144 0.9938146 0.9942581 0.99313027 0.9927978 0.9949396
0.9931901 0.99343055 0.99319273 0.99456406 0.99379545 0.9929276 0.994389 0.99317616
0.9938489 0.9937254 0.99488604 0.9933942 0.9920221 0.99396616 0.9931914 0.9931318
0.99393314 0.99381346 0.99409723 0.99424064 0.99310404 0.9937857 0.99193734 0.9938125
0.99483013 0.99367905 0.9916225 0.99324167 0.9907873 0.98838943 0.9939726 0.9932423
0.99274087 0.99355155 0.9930886 0.9937288 0.9915534 0.995314 0.9926025 0.9909137
0.994658 0.9923693 0.99230415 0.9942905 0.99354553 0.99357677 0.993274 0.9948265
0.99673826 0.9929615 0.9932086 0.99456114 0.9921988 0.99368286 0.9923056 0.9937426
0.9927309 0.99342793 0.99299073 0.9916745 0.99361914 0.9922297 0.9926075 0.9940849
0.9923224 0.9932779 0.99323046 0.9925502 0.99373394 0.9952947 0.9931838 0.99251896
0.9936507 0.995966 0.99345535 0.9928507 0.9932657 0.9919928 0.9928503 0.9967576
0.99362653 0.9934243 0.99608153 0.99123245 0.99181527 0.99339896 0.9929274 0.99404305
0.99256223 0.99341553 0.99376285 0.9934269 0.9940872 0.99161905 0.9934714 0.9932881
0.9933375 0.99313956 0.9901633 0.9932553 0.99342906 0.993736 0.9932579 0.99153125
0.9933939 0.99312973 0.9903446 0.9936267 0.9913644 0.9932104 0.9932542 0.9909887
0.9941481 0.9930584 0.9940133 0.99309826 0.99344295 0.9965608 0.9942432 0.9924037
0.99347216 0.993724 0.9909237 0.99384606 0.99362206 0.9942146 0.9936552 0.9896254
0.9937418 0.99163014 0.9910695 0.9939532 0.99299693 0.9925631 0.9944612 0.99256414
0.99236447 0.9927355 0.9919514 0.9940625 0.99307555 0.9935991 0.9937728 0.99237645
0.99405277 0.99333704 0.9923194 0.99331015 0.9921657 0.993718 0.9932226 0.9925178
0.99391663 0.99578255 0.9936819 0.99208504 0.9936278 0.9943794 0.9928806 0.99355954
0.9975193 0.9935706 0.99260193 0.9950145 0.99314094 0.9938884 0.990266 0.9924343
0.992282 0.9931953 0.9938856 0.9939017 0.9929991 0.99223673 0.99301744 0.9932631
0.99519956 0.9932342 0.9937342 0.9932741 0.9952805 0.99341005 0.9932454 0.99364555
0.99463296 0.9931998 0.9931128 0.99088854 0.9951574 0.99446005 0.9928975 0.9928895
0.99144167 0.99383277 0.9934362 0.9952924 0.99390143 0.9905326 0.993265 0.9926878
0.995694 0.9939682 0.99368423 0.9937038 0.99272853 0.99380165 0.9912707 0.9929061
0.9959469 0.9928332 0.9939993 0.99301475 0.9961779 0.99286824 0.99349666 0.99468625
00000000: 654f 7e3f d58b 7e3f 1a6e 7e3f 1b91 7e3f
00000010: 62ec 7e3f 518a 7e3f 417b 7e3f e646 7e3f
00000020: 5467 7e3f 94d7 7d3f a039 7e3f 4362 7e3f
00000030: e373 7e3f 3078 7e3f 1efc 7d3f 19fb 7e3f
00000040: 9478 7e3f ec6e 7e3f c0e2 7e3f 0a08 7e3f
00000050: d468 7e3f 7601 7e3f 573d 7e3f 6ff0 7d3f
00000060: 8279 7e3f 2741 7e3f 8a4a 7e3f 956a 7e3f
00000070: db51 7e3f 6747 7e3f d133 7e3f 5d15 7e3f
00000080: 744f 7e3f a575 7e3f b46d 7e3f a26a 7e3f
00000090: b387 7e3f c93d 7e3f ff27 7e3f 5db4 7e3f
000000a0: b541 7e3f 7751 7e3f e141 7e3f c09b 7e3f
000000b0: 6169 7e3f 8130 7e3f 4790 7e3f cb40 7e3f
000000c0: e26c 7e3f ca64 7e3f dab0 7e3f 154f 7e3f
000000d0: 29f5 7d3f 9174 7e3f cb41 7e3f e33d 7e3f
000000e0: 6772 7e3f 8f6a 7e3f 287d 7e3f 8e86 7e3f
000000f0: 113c 7e3f bd68 7e3f 9bef 7d3f 7f6a 7e3f
00000100: 30ad 7e3f c061 7e3f f9da 7d3f 1645 7e3f
00000110: 3da4 7d3f 1707 7d3f fd74 7e3f 2145 7e3f
00000120: 4424 7e3f 6559 7e3f 0e3b 7e3f 0365 7e3f
00000130: 72d6 7d3f e6cc 7e3f 331b 7e3f 85ac 7d3f
00000140: e8a1 7e3f ea0b 7e3f a507 7e3f d289 7e3f
00000150: 0059 7e3f 0c5b 7e3f 3447 7e3f f3ac 7e3f
00000160: 3d2a 7f3f ba32 7e3f eb42 7e3f 8f9b 7e3f
00000170: be00 7e3f 0062 7e3f bd07 7e3f ea65 7e3f
00000180: 9d23 7e3f 4b51 7e3f a434 7e3f 61de 7d3f
00000190: d35d 7e3f c402 7e3f 861b 7e3f 597c 7e3f
000001a0: d708 7e3f 7647 7e3f 5a44 7e3f c517 7e3f
000001b0: 5965 7e3f a2cb 7e3f 4b41 7e3f b915 7e3f
000001c0: e45f 7e3f a1f7 7e3f 1753 7e3f 772b 7e3f
000001d0: a946 7e3f 3df3 7d3f 702b 7e3f 822b 7f3f
000001e0: 4f5e 7e3f 0e51 7e3f 33ff 7e3f 69c1 7d3f
000001f0: 9be7 7d3f 654f 7e3f 7d30 7e3f 9b79 7e3f
00000200: 8f18 7e3f 7b50 7e3f 3e67 7e3f 3a51 7e3f
00000210: 807c 7e3f bfda 7d3f 2454 7e3f 2148 7e3f
00000220: 5e4b 7e3f 653e 7e3f 587b 7d3f fb45 7e3f
00000230: 5e51 7e3f 7c65 7e3f 2646 7e3f fed4 7d3f
00000240: 104f 7e3f c03d 7e3f 3987 7d3f 525e 7e3f
00000250: 0fca 7d3f 0943 7e3f e845 7e3f 6fb1 7d3f
00000260: 7d80 7e3f 1339 7e3f a877 7e3f b03b 7e3f
00000270: 4752 7e3f 9c1e 7f3f b986 7e3f 2b0e 7e3f
00000280: 3154 7e3f b264 7e3f 2dad 7d3f b26c 7e3f
00000290: 045e 7e3f d984 7e3f 3060 7e3f 1758 7d3f
000002a0: dd65 7e3f 79db 7d3f bbb6 7d3f b873 7e3f
000002b0: 0c35 7e3f 9e18 7e3f 0295 7e3f af18 7e3f
000002c0: 990b 7e3f ea23 7e3f 87f0 7d3f e17a 7e3f
000002d0: 333a 7e3f 835c 7e3f e567 7e3f 620c 7e3f
000002e0: 3e7a 7e3f 564b 7e3f a508 7e3f 9349 7e3f
000002f0: 92fe 7d3f 4e64 7e3f d643 7e3f a615 7e3f
00000300: 5271 7e3f 9beb 7e3f f061 7e3f 49f9 7d3f
00000310: 645e 7e3f a68f 7e3f 6c2d 7e3f eb59 7e3f
00000320: 6d5d 7f3f a55a 7e3f 291b 7e3f 45b9 7e3f
00000330: 7c3e 7e3f 786f 7e3f 1382 7d3f 2d10 7e3f
00000340: 3106 7e3f 0c42 7e3f 496f 7e3f 5870 7e3f
00000350: 3035 7e3f 3a03 7e3f 6436 7e3f 7e46 7e3f
00000360: 66c5 7e3f 9944 7e3f 5d65 7e3f 3647 7e3f
00000370: b4ca 7e3f 1f50 7e3f 5545 7e3f 8e5f 7e3f
00000380: 44a0 7e3f 5842 7e3f a43c 7e3f dfaa 7d3f
00000390: a3c2 7e3f ef94 7e3f 882e 7e3f 022e 7e3f
000003a0: 1fcf 7d3f d36b 7e3f d651 7e3f 7ccb 7e3f
000003b0: 5370 7e3f 8b93 7d3f 9d46 7e3f ca20 7e3f
000003c0: cde5 7e3f b374 7e3f 1762 7e3f 5f63 7e3f
000003d0: 7523 7e3f c969 7e3f ebc3 7d3f 182f 7e3f
000003e0: 60f6 7e3f 512a 7e3f bd76 7e3f 3736 7e3f
000003f0: 8405 7f3f 9d2c 7e3f cc55 7e3f c2a3 7e3f

bn.bias f4 [256]
-0.004958763 -0.016312946 -0.009694366 -0.01018781 0.00061309204 0.011769887 -0.007394286 -0.012961159
0.00010220389 -0.0021905957 -0.0013737334 0.002552431 0.0019304443 -0.0018023946 -0.0010364044 0.020216694
0.0009772052 -0.0055707893 -0.011023916 0.006602619 0.0027872387 0.0026983263 0.0067712255 -0.0010530779
0.00058682193 0.007940155 0.009798492 -0.0035817784 -0.0036678012 0.005589114 0.0031961352 0.005825307
-0.009114801 -0.0022560596 -0.00039376516 0.00030310635 0.00012873822 0.0045066825 -0.006543655 -0.00088738766
-0.0063796397 -0.00074768736 -0.0073223636 -0.013250977 0.0046490342 -0.013646869 0.016435804 -0.0011826961
0.0072793197 0.0045275115 0.0053606243 -0.0033463282 -0.0073937452 -0.004321489 0.0022208055 -0.0028783958
0.0008254198 -0.0060295 0.010300908 0.003788783 -0.00016830022 0.01312552 -0.0072802 0.01146028
0.008798519 0.0068374155 -0.009636779 0.013366574 -0.00460375 -2.3689383e-05 0.0062520145 -0.0006075201
0.015369419 -0.0011772484 -0.0030002496 0.0035552296 -0.00487331 0.014109466 -0.005877039 -0.0074584177
-0.011187757 -0.0027217504 -0.0059362673 0.0074144416 -0.01583944 0.0041622217 0.010959714 -0.014016099
0.013167111 -0.0018888011 0.006676545 -0.005419078 -0.005120846 0.002734695 0.0008337522 -0.008465148
0.0044758674 0.011240805 -0.0018562883 -0.0013070558 0.011402197 0.014912487 -0.00066770933 -0.0035822701
0.012577284 0.005084698 0.004152534 0.0068124845 0.0015241809 -0.014456773 0.004695464 9.2116825e-05
-0.0005117017 -0.005805441 0.0024304858 0.011139885 -0.012797117 0.006210285 0.0053904713 -0.016719492
-0.0036970153 0.0031305514 -0.010971097 0.0023352758 -0.010624061 0.0025166464 -0.0075423303 0.0054793884
0.0043185847 0.014000485 -0.0051441793 -0.000106820844 0.008485287 0.004028926 0.011430967 -0.0039779367
-0.007797163 0.0049086027 0.014152883 0.0037600205 -0.003585199 0.013409931 -0.0032976354 -0.0038893763
-0.0096240435 -0.0038203273 0.014212388 0.006382413 -0.0049429145 0.007250588 0.011370963 -0.0015811297
0.0071097463 0.0065259207 0.006993783 0.0020030208 -0.004705594 -0.025857832 0.006973583 0.009794416
-0.004338208 -0.013250144 0.0019782458 0.0064748563 -0.0023349565 0.008516181 -0.014119381 0.0019263738
-0.0021227284 -0.0010929917 -0.011720366 0.0014765833 0.0040606484 -0.0074085873 0.01218307 0.001355264
0.0014130148 -0.010156194 -0.006596514 -0.005611768 -0.0069185905 -0.017196447 0.0012774655 -0.0005842168
0.008323451 -0.0059604673 -0.0051179184 0.0140154725 -0.00038163582 -0.011545368 0.0048656957 -0.003508758
0.0034903733 0.016762394 0.004875174 -0.0076838415 -0.004133924 0.003976795 0.0071013393 0.0022554374
0.017545203 0.008322074 0.0038739296 0.016763832 -0.0027130132 0.011306924 0.001397822 -0.0007979414
0.013312589 0.016366249 -0.017615475 -0.010770287 -0.015104126 0.0011621814 0.00044891684 0.001605902
0.0023877698 -0.0045965076 0.0009519833 -0.0022258973 -0.007043192 -0.0045381216 0.002069651 -0.0020481693
0.01131412 -0.0030951416 0.001237659 0.0110573815 -0.014123392 -0.0128911175 -0.002894607 -0.0026539685
-0.0029380461 -0.010133032 0.01265831 -0.018624065 0.00034785017 -0.0015919479 -0.010873734 0.0063092806
-0.002848598 0.0037842453 0.00075361715 9.9638004e-05 4.716773e-06 -0.0031415487 -0.006423815 0.012463766
-0.0030383267 -0.009080083 -0.0029010966 7.757315e-05 0.020295527 -0.0031104193 0.00637158 0.015973851
00000000: 1e7d a2bb baa2 85bc 1ed5 1ebc c6ea 26bc
00000010: e9b7 203a 7cd6 403c c44b f2bb 0b5b 54bc
00000020: 4c56 d638 1990 0fbb d80e b4ba b046 273b
00000030: f606 fd3a 543e ecba f6d7 87ba 7b9d a53c
00000040: 9115 803a 2b8b b6bb a89d 34bc c85a d83b
00000050: 1baa 363b 67d6 303b 28e1 dd3b 6e07 8aba
00000060: f4d4 193a 6d17 023c db89 203c 45bc 6abb
00000070: 7e5f 70bb e324 b73b 4076 513b 38e2 be3b
00000080: 3f56 15bc 66da 13bb 4472 ceb9 3fea 9e39
00000090: e7fd 0639 cbac 933b 286c d6bb 949f 68ba
000000a0: 4c0c d1bb 7300 44ba 70f0 efbb a01a 59bc
000000b0: ed56 983b 1e97 5fbc 61a4 863c b204 9bba
000000c0: 5c87 ee3b 855b 943b 2da8 af3b 124e 5bbb
000000d0: 3b47 f2bb 479b 8dbb ef8a 113b 78a3 3cbb
000000e0: fc60 583a 1d93 c5bb 24c5 283c 3b4d 783b
000000f0: bf79 30b9 6c0c 573c be8e eebb e6c3 3b3c
00000100: aa27 103c 660c e03b 95e3 1dbc 7aff 5a3c
00000110: 0edb 96bb 90b8 c6b7 b3dd cc3b fc41 1fba
00000120: 04d0 7b3c e74d 9aba d69f 44bb dbfe 683b
00000130: 4ab0 9fbb 642b 673c 2d94 c0bb be65 f4bb
00000140: db4c 37bc 655f 32bb 0585 c2bb d8f4 f23b
00000150: b7c1 81bc 3f63 883b 5f90 333c c8a3 65bc
00000160: deba 573c a691 f7ba ebc6 da3b 8592 b1bb
00000170: c5cc a7bb 9238 333b 2a90 5a3a 67b1 0abc
00000180: 4caa 923b 5a2b 383c b34e f3ba 8451 abba
00000190: 48d0 3a3c 8153 743c 3709 2fba 85c4 6abb
000001a0: f410 4e3c 8a9d a63b fb11 883b 433b df3b
000001b0: 06c7 c73a 1adc 6cbc 68dc 993b d82e c138
000001c0: b823 06ba 923b bebb c948 1f3b 1084 363c
000001d0: 00ab 51bc a57f cb3b 8da2 b03b 51f7 88bc
000001e0: a049 72bb f029 4d3b 1ec0 33bc 6d0b 193b
000001f0: 8b10 2ebc 52ee 243b a725 f7bb 718c b33b
00000200: ea82 8d3b 4a62 653c 8190 a8bb 0105 e0b8
00000210: e005 0b3c 1505 843b f348 3b3c 5a59 82bb
00000220: 587f ffbb 58d8 a03b 7ee1 673c ad6a 763b
00000230: a8f5 6abb 54b5 5b3c 241d 58bb e8e4 7ebb
00000240: 2aae 1dbc 755e 7abb 13db 683c 9023 d13b
00000250: 2cf8 a1bb 5796 ed3b 474d 3a3c e93d cfba
00000260: e0f8 e83b 64d7 d53b 1b2c e53b 1d45 033b
00000270: 6231 9abb ced3 d3bc a782 e43b c278 203c
00000280: 8727 8ebb 2217 59bc 75a5 013b 082b d43b
00000290: 1206 19bb 7487 0b3c fa54 67bc 617e fc3a
000002a0: 791d 0bbb b742 8fba c706 40bc ea89 c13a
000002b0: 300f 853b bcc3 f2bb 809b 473c 1da3 b13a
000002c0: e934 b93a 2a66 26bc 9227 d8bb ece2 b7bb
000002d0: 58b5 e2bb 90df 8cbc a170 a73a 2026 19ba
000002e0: 155f 083c 0650 c3bb 36b4 a7bb 27a1 653c
000002f0: 4b16 c8b9 c828 3dbc 6a70 9f3b 31f3 65bb
00000300: bfbe 643b 4a51 893c ecbf 9f3b bcc8 fbbb
00000310: de75 87bb c64f 823b 5ab2 e83b f6cf 133b
00000320: f5ba 8f3c 4f59 083c c1e1 7d3b 4e54 893c
00000330: cfcc 31bb ad40 393c 2037 b73a f12c 51ba
00000340: 0c1d 5a3c 8312 863c 544e 90bc dc75 30bc
00000350: 4c77 77bc 5654 983a 995c eb39 217d d23a
00000360: 217c 1c3b 4d9e 96bb 858e 793a 5ce0 11bb
00000370: 94ca e6bb 86b4 94bb fba2 073b 943a 06bb
00000380: dc5e 393c dcd7 4abb f238 a23a 052a 353c
00000390: cd65 67bc 4435 53bc 72b3 3dbb 34ee 2dbb
000003a0: 3c8c 40bb 0405 26bc cd64 4f3c 7f91 98bc
000003b0: a95f b639 e8a8 d0ba bf27 32bc 15be ce3b
000003c0: 8baf 3abb 1a01 783b 648e 453a bff4 d038
000003d0: c644 9e36 71e2 4dbb de7e d2bb d334 4c3c
000003e0: aa1e 47bb a1c4 14bc 5320 3ebb c5ae a238
000003f0: ce42 a63c 2dd8 4bbb b0c8 d03b 98db 823c

bn.running_mean f4 [256]
-0.44958812 0.18758483 -2.2082057 0.4392975 -0.29642376 0.02161404 -1.6228129 -0.23622878
0.96598154 -0.14894867 -0.6550284 0.68956023 -1.3211651 0.33234832 0.15641327 0.94514006
0.39445585 -0.7370243 -0.8293231 0.16361691 -0.19825329 -1.840922 0.2068485 0.08124306
1.1538606 0.36226144 -0.73961055 -0.9488743 0.9905907 0.13697119 -0.42009956 -0.2591792
0.28987986 1.2248174 0.5988137 -1.7566009 0.475705 -1.3688108 -1.4670894 1.0160681
1.3559387 -0.66139495 -0.5678805 0.6648268 -0.42477393 -0.7756401 1.7292193 -0.26358616
-0.064240806 0.5780195 -0.8559162 0.8174884 -0.18390164 -0.36522737 1.2873887 -0.4662901
0.10967437 0.56240726 -0.2074176 0.0033002582 0.5631601 -1.2055101 -1.0138377 -2.147205
-0.35434207 0.83816355 -1.4976407 -1.5198232 -1.552261 -0.3642596 -0.8075805 -1.4333299
-1.2540039 -0.9464702 1.4815361 0.020546462 0.074346706 -0.28683132 -1.0918889 0.65783715
-1.2825859 2.5523384 -0.5592212 -0.5103909 0.67698747 1.153025 -0.26031289 -1.6548105
-0.3960425 0.21835838 -0.10583774 -0.65337193 0.9941928 0.3485447 0.3778232 0.5549281
-2.0709398 -0.36764425 0.6400014 -0.9485521 -1.6299069 -0.7737813 0.28530365 0.7437276
1.0056463 0.5574535 0.22551014 -0.6879795 -0.43587396 -0.47778964 0.33403918 0.40788972
-0.11609203 -1.5156326 1.385445 -0.4803455 0.037666257 1.2075522 -0.13999698 0.47459954
-1.2135725 -0.4681617 -0.8582558 -1.7461987 0.5092882 1.52977 -0.05342325 -0.4526285
1.2819837 0.94730407 -0.6250889 -0.7490071 -1.918163 -0.057255685 -1.0675902 -1.216817
-1.1151748 -0.01911657 -0.43900028 1.0943372 0.3626698 2.0184875 -0.3685868 0.115834296
0.7420658 0.47074106 0.21753496 -0.88203084 -1.8471527 -1.8148327 -2.078073 -1.2992064
0.3889525 -0.046938427 -1.1782129 1.1970363 -0.1226513 0.9825548 0.4934013 -0.5331133
0.7743188 -1.3122363 -1.6922486 0.38296986 -0.3721033 -0.44688404 0.46669617 -0.91586244
0.12823054 0.9758362 -0.5384828 0.15826228 0.9626825 -1.4188955 -0.29081684 -0.21024045
3.6153848 0.17370123 -2.7275722 -2.2854176 -1.3307441 -0.29087138 0.2159771 1.6914995
-0.04385067 0.46949878 1.3554171 0.19300048 0.118124515 -1.024219 1.3560688 -1.0275444
0.61430043 -1.2481658 -0.36593843 1.0867416 -1.6911405 0.8888016 -2.4055414 -0.9217412
1.367953 -1.4490879 -0.13507618 -0.54238975 0.686933 2.7046018 0.20570743 0.15158938
-1.422272 0.39071146 -0.13739797 0.14693484 0.61619246 0.14360274 0.6016248 -2.5276742
2.1040123 -1.3468251 -1.1011462 0.67671525 0.13998102 0.70553476 1.420155 1.6082091
0.95840293 -1.4821639 -1.3245338 1.9585112 -0.325757 -2.741744 1.5664971 -0.51644266
2.2486136 0.56117845 -0.7371936 -0.2900597 0.9816527 1.0691895 -1.0967073 -0.7000346
-0.13146171 -1.6299114 1.1240265 -0.64133936 0.59274936 -1.597435 1.1540337 0.73774916
-0.94791365 -0.24054562 0.36719278 0.10770436 0.54050964 -1.4059268 -0.12625742 -0.6486764
00000000: 6a30 e6be 3d16 403e 3e53 0dc0 9aeb e03e
00000010: dbc4 97be ed0f b13c 55b8 cfbf f5e5 71be
00000020: 914a 773f 0086 18be f1af 27bf 0587 303f
00000030: f01b a9bf 8f29 aa3e cd2a 203e b3f4 713f
00000040: 1ef6 c93e a0ad 3cbf 854e 54bf 318b 273e
00000050: e902 4bbe 55a3 ebbf 18d0 533e c362 a63d
00000060: b4b1 933f 557a b93e 1e57 3dbf 6de9 72bf
00000070: 5a97 7d3f 2d42 0c3e 4a17 d7be 23b3 84be
00000080: 226b 943e d1c6 9c3f db4b 193f 4cd8 e0bf
00000090: 9b8f f33e 3135 afbf 96c9 bbbf 850e 823f
000000a0: 668f ad3f 2e51 29bf 9e60 11bf 1732 2a3f
000000b0: f87b d9be 5990 46bf 0f57 dd3f c4f4 86be
000000c0: af90 83bd 16f9 133f 531d 5bbf eb46 513f
000000d0: b650 3cbe 15ff babe 27c9 a43f 93bd eebe
000000e0: f59c e03d ecf9 0f3f 4865 54be 2549 583b
000000f0: 432b 103f 284e 9abf 6fc5 81bf cf6b 09c0
00000100: 536c b5be e391 563f b1b2 bfbf 9189 c2bf
00000110: 7db0 c6bf 3c80 babe 98bd 4ebf 5b77 b7bf
00000120: 3383 a0bf df4b 72bf faa2 bd3f 0e51 a83c
00000130: 1643 983d 8edb 92be 04c3 8bbf 0468 283f
00000140: c62b a4bf 8359 2340 1f29 0fbf faa8 02bf
00000150: 0d4f 2d3f 5396 933f bb47 85be d5d0 d3bf
00000160: 15c6 cabe 5799 5f3e 75c1 d8bd 6243 27bf
00000170: 6b83 7e3f 7374 b23e 0b72 c13e c50f 0e3f
00000180: 478a 04c0 de3b bcbe 22d7 233f 4fd4 72bf
00000190: caa0 d0bf 8816 46bf 5213 923e ef64 3e3f
000001a0: 05b9 803f 46b5 0e3f 21ec 663e 6d1f 30bf
000001b0: df2a dfbe d8a0 f4be 2f07 ab3e ecd6 d03e
000001c0: a9c1 edbd 4000 c2bf 4356 b13f d8ef f5be
000001d0: ef47 1a3d 1291 9a3f 5e5b 0fbe b6fe f23e
000001e0: 5856 9bbf e4b2 efbe a7b6 5bbf 7083 dfbf
000001f0: b660 023f 81cf c33f 56d2 5abd ecbe e7be
00000200: 0b18 a43f 8582 723f d305 20bf eebe 3fbf
00000210: 5d86 f5bf f084 6abd cca6 88bf a9c0 9bbf
00000220: 0cbe 8ebf 5a9a 9cbc a5c4 e0be 3e13 8c3f
00000230: dbaf b93e e62e 0140 69b7 bcbe 883a ed3d
00000240: 06f8 3d3f f904 f13e 7cc1 5e3e c6cc 61bf
00000250: 806f ecbf 704c e8bf 26ff 04c0 654c a6bf
00000260: c824 c73e 8242 40bd aecf 96bf 7c38 993f
00000270: 9b30 fbbd b688 7b3f 189f fc3e 1d7a 08bf
00000280: c239 463f 5cf7 a7bf 9a9b d8bf a014 c43e
00000290: 5384 bebe fccd e4be cdf2 ee3e f675 6abf
000002a0: de4e 033e 67d0 793f 02da 09bf 820f 223e
000002b0: 5c72 763f 5e9e b5bf f2e5 94be 4649 57be
000002c0: 7762 6740 bcde 313e 8b90 2ec0 4844 12c0
000002d0: d355 aabf 18ed 94be 1a29 5d3e 0e83 d83f
000002e0: c39c 33bd 2562 f03e 4f7e ad3f eba1 453e
000002f0: 44eb f13d 9c19 83bf aa93 ad3f 9386 83bf
00000300: cb42 1d3f e6c3 9fbf 485c bbbe 591a 8b3f
00000310: 4b77 d8bf 8088 633f 64f4 19c0 3bf7 6bbf
00000320: 1519 af3f b67b b9bf 6951 0abe 0eda 0abf
00000330: d7da 2f3f 3218 2d40 f8a4 523e 3f3a 1b3e
00000340: 020d b6bf 550b c83e 0eb2 0cbe 1676 163e
00000350: cabe 1d3f 990c 133e 1504 1a3f 6ac5 21c0
00000360: 23a8 0640 c464 acbf 5cf2 8cbf 363d 2d3f
00000370: 2f57 0f3e ed9d 343f a4c7 b53f ccd9 cd3f
00000380: e559 753f 8cb7 bdbf 538a a9bf 7fb0 fa3f
00000390: 9fc9 a6be bc78 2fc0 fa82 c83f 9635 04bf
000003a0: 49e9 0f40 64a9 0f3f b8b8 3cbf b482 94be
000003b0: 974d 7b3f 34db 883f e860 8cbf 7835 33bf
000003c0: e69d 06be f0a0 d0bf 1ae0 8f3f d12e 24bf
000003d0: 6cbe 173f c078 ccbf 60b7 933f 21dd 3c3f
000003e0: 78aa 72bf 9751 76be b100 bc3e 1a94 dc3d
000003f0: d75e 0a3f 69f5 b3bf a049 01be a80f 26bf

bn.running_var f4 [256]
0.46431017 1.5590916 0.5973453 0.789397 0.84352434 0.38641936 0.9790868 0.63398474
0.5159108 0.52814645 0.61133677 0.45637167 0.5015917 0.66110635 0.71950555 0.540995
0.38291055 0.98493886 0.7649897 1.0854715 0.59104514 0.7070208 0.6994786 0.62136316
0.5285059 0.9688762 0.6668095 0.5491644 0.50282216 0.53136486 1.011652 1.1561863
0.46224266 0.6448898 0.67437685 0.40323293 0.3782289 0.8460945 0.71336013 0.5060289
0.64386207 0.7338604 0.48032397 0.56786263 1.139474 1.0523181 1.1684302 0.3575079
0.55868953 0.39885825 0.658577 0.4421957 0.61826265 0.65904284 0.52329004 0.7222681
0.7095112 0.75616324 0.7362048 0.6467884 0.45020404 0.5385295 0.4081038 1.0798376
0.5684018 0.78512937 0.55826086 0.5797254 0.592118 0.79191655 0.5933561 0.5665195
0.8581874 0.45046294 0.80809027 1.3095858 0.5989387 0.6834672 0.59911406 0.53843695
0.91764265 0.41661114 0.71100175 0.40620315 0.54564816 0.50513244 0.83968455 0.6437351
0.56659204 0.52298087 0.6070311 0.7267198 0.77023095 0.4836558 0.47289988 0.48295617
0.71039474 0.5585203 1.1419662 0.6038966 0.71717304 0.40778562 0.61162895 0.68841004
1.0960222 0.5348076 0.61303174 0.5353335 0.676754 0.804411 0.40668124 0.8067771
0.58461636 0.9560378 0.6293538 0.8851488 0.9879184 0.67042637 0.48306525 0.8184986
0.5741333 0.47323215 0.43268657 0.57372326 1.022755 0.7835387 0.87051415 0.74936974
0.86688983 1.2314605 0.5001762 0.36023623 0.50615066 0.42547283 0.5393545 0.90755326
0.38623205 0.84260005 0.69392127 1.2040087 0.5828062 0.54292727 0.9624176 0.61781865
0.6255839 0.5019753 0.80895275 0.36736435 0.71600235 0.9494949 1.2619169 0.96404594
0.75665593 0.9232887 0.5763431 0.4932048 0.55981684 1.9111557 0.57483053 0.53742725
0.69747406 0.58781755 0.45432022 0.76110995 0.6453591 0.7976087 0.55793417 0.88517994
0.5941648 0.47376648 0.73338056 0.92699295 0.46557942 0.5714439 0.4966475 0.596492
1.2896136 0.58174735 0.4910842 0.6780395 0.4743012 0.7432428 0.7524613 0.43309486
0.9400214 0.69071764 0.6358931 1.3934644 0.45554206 1.062261 0.51298594 0.8507809
0.50907123 0.90302235 0.65996397 0.5963322 0.54431826 0.3915469 0.7523253 0.45422238
0.7533893 0.6197684 0.5336268 0.8607599 0.4096953 0.8482902 0.4683418 0.63155144
0.68639416 0.94477 0.8898859 0.59395045 0.62289304 0.25290805 0.9912297 0.8186063
0.7940477 0.5292501 0.3726602 0.9357907 0.643456 0.55909485 0.6145837 0.54974777
0.5511298 0.73277754 1.231423 0.49734038 0.82702446 0.6399157 0.7811693 0.56664276
0.8095233 0.8086277 0.5571411 0.6009203 0.8817262 0.38190016 0.6876449 0.6043677
1.5559247 0.4029892 0.42368907 0.63812125 0.4015559 0.3856357 0.5593321 0.6022401
0.60676384 0.5070917 0.6852451 0.3665144 0.6411134 0.47029105 1.2604256 0.72070014
00000000: 10ba ed3e 5090 c73f 9feb 183f ec15 4a3f
00000010: 36f1 573f c2d8 c53e 6fa5 7a3f d34c 223f
00000020: bb12 043f 9b34 073f 9180 1c3f 8ca9 e93e
00000030: 5068 003f 443e 293f 8431 383f a67e 0a3f
00000040: da0c c43e f424 7c3f 5dd6 433f bbf0 8a3f
00000050: bc4e 173f 51ff 343f 0811 333f a811 1f3f
00000060: 2a4c 073f 4508 783f 07b4 2a3f 0a96 0c3f
00000070: f4b8 003f 8707 083f d07d 813f eafd 933f
00000080: 12ab ec3e 7f17 253f f6a3 2c3f 8c74 ce3e
00000090: 38a7 c13e a699 583f c59e 363f 1c8b 013f
000000a0: 25d4 243f 46de 3b3f 06ed f53e 725f 113f
000000b0: 49da 913f 5cb2 863f 1f8f 953f 470b b73e
000000c0: 4706 0f3f 2637 cc3e 8198 283f 7a67 e23e
000000d0: 7646 1e3f 08b7 283f 56f6 053f 90e6 383f
000000e0: 87a2 353f ea93 413f eb77 3c3f ed93 253f
000000f0: 2581 e63e 12dd 093f fbf2 d03e 1e38 8a3f
00000100: c882 113f 3dfe 483f 2fea 0e3f e268 143f
00000110: 0c95 173f 0bbb 4a3f 2fe6 173f 6c07 113f
00000120: 2bb2 5b3f 14a3 e63e 01df 4e3f 82a0 a73f
00000130: 0c54 193f b5f7 2e3f 8a5f 193f 01d7 093f
00000140: a1ea 6a3f 0e4e d53e 3604 363f dcf9 cf3e
00000150: 99af 0b3f 5c50 013f 91f5 563f d3cb 243f
00000160: 2d0c 113f 13e2 053f 6466 1b3f 4f0a 3a3f
00000170: db2d 453f bca1 f73e ef1f f23e 0846 f73e
00000180: 6edc 353f 30fb 0e3f f32b 923f f898 1a3f
00000190: a798 373f 47c9 d03e b793 1c3f a43b 303f
000001a0: 754a 8c3f 27e9 083f a6ef 1c3f 9e0b 093f
000001b0: c03f 2d3f e1ed 4d3f 8638 d03e f288 4e3f
000001c0: 6ba9 153f e5be 743f 551d 213f 1d99 623f
000001d0: 38e8 7c3f 10a1 2b3f 5454 f73e 2089 513f
000001e0: 66fa 123f 7c4b f23e 1889 dd3e 87df 123f
000001f0: a3e9 823f fe95 483f 04da 5e3f b2d6 3f3f
00000200: 7eec 5d3f 7fa0 9d3f 8c0b 003f e270 b83e
00000210: 1793 013f 93d7 d93e 2313 0a3f 6955 683f
00000220: 35c0 c53e a3b4 573f d3a4 313f f51c 9a3f
00000230: ca32 153f 48fd 0a3f 0061 763f 5d29 1e3f
00000240: 4426 203f 7481 003f 8717 4f3f 2e17 bc3e
00000250: ee4b 373f 1912 733f 7e86 a13f b7cb 763f
00000260: 34b4 413f a65c 6c3f 398b 133f 5785 fc3e
00000270: 2850 0f3f c0a0 f43f 1828 133f d594 093f
00000280: a98d 323f 367b 163f a99c e83e 1ad8 423f
00000290: 4136 253f 1530 4c3f c6d4 0e3f 279b 623f
000002a0: 2f1b 183f 8591 f23e d4be 3b3f 694f 6d3f
000002b0: 6d60 ee3e 264a 123f 9548 fe3e b3b3 183f
000002c0: 0f12 a53f 65ed 143f 636f fb3e ff93 2d3f
000002d0: 9bd7 f23e 2945 3e3f 4ea1 403f 9cbe dd3e
000002e0: 3ea5 703f dfd2 303f e4c9 223f 0b5d b23f
000002f0: cf3c e93e 2bf8 873f 0c53 033f c7cc 593f
00000300: 7e52 023f 792c 673f 66f3 283f 3aa9 183f
00000310: 7158 0b3f d678 c83e 6498 403f d68f e83e
00000320: 1fde 403f 24a9 1e3f c49b 083f c35a 5c3f
00000330: 95c3 d13e 8c29 593f 7fca ef3e 5bad 213f
00000340: 87b7 2f3f 72dc 713f 90cf 633f 230d 183f
00000350: eb75 1f3f 2a7d 813e 3bc1 7d3f 2f90 513f
00000360: b646 4b3f ef7c 073f 51cd be3e fb8f 6f3f
00000370: 88b9 243f d720 0f3f 5b55 1d3f 45bc 0c3f
00000380: d816 0d3f 4f97 3b3f 459f 9d3f 66a3 fe3e
00000390: e0b7 533f 84d1 233f b6fa 473f 800f 113f
000003a0: eb3c 4f3f 3a02 4f3f cda0 0e3f ead5 193f
000003b0: cfb8 613f 6b88 c33e 7f09 303f d7b7 1a3f
000003c0: 8a28 c73f 9a54 ce3e c6ed d83e ea5b 233f
000003d0: bc98 cd3e 0b72 c53e 6330 0f3f 682c 1a3f
000003e0: e054 1b3f c3d0 013f 396c 2f3f c7a7 bb3e
000003f0: 0220 243f fdc9 f03e a055 a13f ce7f 383f

bottleneck.weight f4 [256, 512]
-0.052447688 -0.021887753 0.050722282 0.022233015 0.0003313805 -0.0053683394 0.15259567 0.0772669
-0.05206484 0.032952126 -0.078531526 0.013302005 -0.040276475 -0.048516314 -0.0838207 0.0008108609
0.015380676 -0.013992751 0.004970499 -0.062339492 0.08081042 -0.0005197494 -0.03561321 0.07313966
-0.04259549 -0.070603535 0.035388246 -0.003516411 0.046579808 0.036991104 0.010157239 0.0077782045
0.05517709 -0.015242663 0.008812354 -0.082986146 0.051138055 -0.012780399 0.020298276 -0.007873374
0.06089036 -0.024589712 -0.0642082 -0.053116146 -0.045639664 -0.04797815 -0.016157897 0.12407251
0.01914635 0.06438338 0.06671228 0.002505398 0.025737273 -0.017798306 -0.040726174 -0.022095997
-0.008438212 0.026520496 -0.01740689 0.013877813 -0.012022492 -0.016209768 -0.0038219173 -0.072311245
-0.0067116492 0.0028542238 0.047187187 -0.001276777 0.0102765905 0.0119678285 0.0018138472 0.0071264175
-0.011949209 -0.06733395 0.09385493 -0.016027415 0.067588255 0.022250883 -0.06279996 -0.0027403468
-0.040930163 0.042371877 -0.03312366 -0.055085227 -0.024195591 -0.006330335 0.049893256 -0.06704796
-0.0052245245 -0.0088262865 -0.024843281 0.07947945 0.06994066 -0.082103774 -0.02094832 -0.0054576634
-0.014288911 -0.07632972 0.07051577 0.026226044 0.012561027 0.056355886 0.04726741 -0.032625996
-0.020544063 0.023974838 0.008396729 -0.10089559 0.015694045 -0.06146671 -0.06664526 -0.050326306
0.031383567 0.00780716 -0.060530536 -0.054124963 -0.013814222 0.028492494 0.023740098 0.007013989
0.09282999 -0.10963573 -0.08528851 0.002325041 0.03347915 -0.035380308 0.07046 0.08062947
-0.092240535 -0.05876241 0.06458231 0.009429136 0.0025289704 -0.0082093375 -0.057148594 -0.019055502
0.03620121 -0.031674217 -0.018431751 0.05824935 0.049580485 -0.05508581 0.07285677 0.011193365
-0.024598597 -0.015525576 -0.035843883 0.08432001 -0.031972814 0.03595558 0.08979861 -0.0056468938
-0.058776256 -0.025741918 0.012370539 0.044281106 0.07805232 0.09247634 -0.007949031 0.1089204
-0.09012746 0.03721577 0.006510432 0.040174272 0.0105093755 0.011455716 -0.0025901867 -0.039222877
-0.0132848695 0.0070227375 0.025074508 0.06348181 -0.02838444 0.029697927 0.10878228 0.07367133
-0.0033704913 -0.046998553 0.06291133 0.0066858935 -0.027966669 0.0053202324 -0.013710075 -0.105247416
-0.012834978 -0.038877446 0.013407487 -0.008451941 -0.06617965 -0.055547956 -0.03248437 -0.021077445
0.00913101 -0.050176855 -0.026574722 -0.030465038 -0.08126993 -0.036568765 0.04355249 -0.06590409
0.0016017266 0.041345313 -0.05149187 0.014137803 -0.019182676 -0.03244318 -0.049422584 -0.0739483
-0.018536137 -0.030801987 0.03550207 -0.026989575 0.06084451 0.06166309 -0.003357582 0.052824594
-0.025796816 -0.058229476 0.05160447 -0.089136966 0.030025221 -0.007876662 -0.016311547 0.026866905
0.010027342 0.089054175 0.019147769 -0.011329425 0.0889808 -0.048752837 0.01196675 -0.0653307
-0.081523284 -0.096731305 0.012102248 0.061126973 0.04364145 0.037321687 0.03390355 -0.08416454
-0.0708344 0.057752714 0.012612654 0.01151737 0.014268675 -0.0113949375 0.0031126388 -0.1148722
-0.008109956 -0.15605539 -0.012805545 0.021666538 -0.039509386 0.1003534 0.014476491 0.049879786
00000000: 63d3 56bd f24d b3bc 2bc2 4f3d 0322 b63c
00000010: 23bd ad39 e5e8 afbb 0a42 1c3e 1c3e 9e3d
00000020: f141 55bd cff8 063d 23d5 a0bd a7f0 593c
00000030: f2f8 24bd 0bb9 46bd 30aa abbd f48f 543a
00000040: 3bff 7b3c da41 65bc 91df a23b b257 7fbd
00000050: ef7f a53d cb3f 08ba 28df 11bd 3fca 953d
00000060: 9c78 2ebd 9698 90bd 44f3 103d 9673 66bb
00000070: 78ca 3e3d fc83 173d 8c6a 263c 4fe0 fe3b
00000080: 5f01 623d 5dbc 79bc b161 103c a4f4 a9bd
00000090: 2376 513d e164 51bc 9248 a63c 53ff 00bc
000000a0: 2c68 793d 5d70 c9bc 977f 83bd 5190 59bd
000000b0: a8f0 3abd bd84 44bd 915d 84bc ba19 fe3d
000000c0: ced8 9c3c 6fdb 833d 73a0 883d 9a31 243b
000000d0: f9d6 d23c c1cd 91bc 7dd0 26bd aa02 b5bc
000000e0: 6d40 0abc 8341 d93c e598 8ebc c45f 633c
000000f0: fcf9 44bc 59ca 84bc 2279 7abb eb17 94bd
00000100: 65ed dbbb ee0d 3b3b 5a47 413d 8759 a7ba
00000110: 255f 283c b614 443c 9dbe ed3a b984 e93b
00000120: 9dc6 43bc 62e6 89bd 0337 c03d ed4b 83bc
00000130: b66b 8a3d 7c47 b63c 449d 80bd 6497 33bb
00000140: 63a6 27bd 228e 2d3d adac 07bd 0ca1 61bd
00000150: d535 c6bc b36e cfbb df5c 4c3d 7150 89bd
00000160: 7d32 abbb 219c 10bc 2384 cbbc 1fc6 a23d
00000170: 0c3d 8f3d 0626 a8bd d09b abbc 33d6 b2bb
00000180: 091c 6abc c252 9cbd 926a 903d 00d8 d63c
00000190: c4cc 4d3c 6ed5 663d 799b 413d d6a2 05bd
000001a0: 064c a8bc e166 c43c 6f92 093c 59a2 cebd
000001b0: cc90 803c 84c4 7bbd 4f7d 88bd f522 4ebd
000001c0: 0e8c 003d 34d3 ff3b deee 77bd 23b2 5dbd
000001d0: 0c55 62bc 1769 e93c 987a c23c 9bd5 e53b
000001e0: a61d be3d b388 e0bd beab aebd b75f 183b
000001f0: 6f21 093d f1ea 10bd 554d 903d 1021 a53d
00000200: 9be8 bcbd dab0 70bd bb43 843d aa7c 1a3c
00000210: 15bd 253b 7580 06bc a514 6abd 491a 9cbc
00000220: b847 143d d3bc 01bd 2ffe 96bc df96 6e3d
00000230: e814 4b3d a9a1 61bd ee35 953d 6064 373c
00000240: ff82 c9bc fc5e 7ebc 09d1 12bd f8af ac3d
00000250: edf5 02bd 2946 133d 55e8 b73d 9409 b9bb
00000260: 5fbf 70bd b7e0 d2bc cdad 4a3c 1b60 353d
00000270: e5d9 9f3d 3c64 bd3d a73c 02bc a911 df3d
00000280: bf94 b8bd 906f 183d 7655 d53b c78d 243d
00000290: 842f 2c3c c1b0 3b3c 1fc0 29bb 2ba8 20bd
000002a0: c8a8 59bc fe1e e63b 0e69 cd3c c002 823d
000002b0: 7c86 e8bc 1149 f33c 3ec9 de3d ffe0 963d
000002c0: 76e3 5cbb 8e81 40bd a8d7 803d 5715 db3b
000002d0: 5b1a e5bc 5855 ae3b 39a0 60bc f58b d7bd
000002e0: cd49 52bc f53d 1fbd 14ab 5b3c 037a 0abc
000002f0: 3289 87bd 4186 63bd 550e 05bd 9baa acbc
00000300: 3b9a 153c 3f86 4dbd 3bb3 d9bc d191 f9bc
00000310: d970 a6bd 21c9 15bd 1964 323d b9f8 86bd
00000320: 07f1 d13a b459 293d 24e9 52bd 3ea2 673c
00000330: fd24 9dbc 24e3 04bd 566f 4abd 3572 97bd
00000340: 19d9 97bc 7354 fcbc 9e6a 113d 3e19 ddbc
00000350: 1838 793d 7092 7c3d e10a 5cbb 9a5e 583d
00000360: d853 d3bc 0882 6ebd 355f 533d 718d b6bd
00000370: 74f7 f53c 1d0d 01bc cb9f 85bc fc17 dc3c
00000380: b849 243c 0962 b63d c8db 9c3c 0d9f 39bc
00000390: 913b b63d 0eb1 47bd 3010 443c 1acc 85bd
000003a0: aef5 a6bd 101b c6bd 8248 463c 4760 7a3d
000003b0: 61c1 323d a0de 183d 73de 0a3d 755e acbd
000003c0: a011 91bd 1c8e 6c3d 4ea5 4e3c 5ab3 3c3c
000003d0: 29c7 693c d5b1 3abc 6afd 4b3b 1e42 ebbd
000003e0: 9fdf 04bc fccc 1fbe 59ce 51bc 067e b13c
000003f0: 98d4 21bd 1586 cd3d ce2e 6d3c bf4e 4c3d

bottleneck.bias f4 [256]
1.1636831e-10 -2.3617466e-10 -2.0294888e-10 3.9423448e-10 -2.8310028e-11 7.453218e-11 -2.0084209e-10 1.9099625e-10
-4.1092957e-10 -1.13369265e-10 2.408707e-10 1.8368997e-10 -6.282857e-11 -5.7032143e-11 -1.9811457e-10 -6.501575e-10
5.5448795e-11 2.8031472e-10 1.091121e-09 -9.275607e-11 -1.196538e-10 4.141676e-11 7.729093e-10 -2.7870228e-10
1.5164674e-10 9.4324396e-11 1.4798024e-10 -1.6574107e-10 -1.4046263e-10 2.7086688e-10 -1.7053561e-10 -5.3451896e-11
6.47698e-10 1.2179084e-10 5.441369e-11 1.2688828e-09 2.6583138e-10 6.2344796e-10 5.899094e-10 2.4902902e-10
-7.367834e-11 1.6763393e-11 1.2159566e-09 1.6066662e-10 -4.551469e-10 -3.8430553e-10 1.9391135e-10 9.28984e-11
-6.168424e-10 -6.938191e-10 3.9676232e-10 -8.580906e-12 2.785914e-10 2.7974653e-10 -5.2541727e-10 -2.238571e-10
-1.248945e-10 9.8795847e-11 -2.752051e-10 -1.15481055e-10 -1.2661501e-10 -2.1404167e-09 -3.752147e-10 -4.2517962e-09
-2.8375632e-10 8.85889e-10 9.993636e-10 1.2968346e-09 1.4458597e-09 8.587848e-11 -1.5796157e-10 6.879572e-11
-2.344124e-11 2.2404677e-11 -2.5817001e-11 -1.4292148e-10 -8.927872e-12 -4.6709425e-10 5.5852857e-12 -3.8767908e-10
4.28521e-10 -1.2869187e-09 1.6113805e-11 1.1659146e-10 3.0688443e-10 -4.2029293e-11 -4.725788e-10 1.009138e-09
-2.201281e-10 4.3228178e-11 -1.502671e-10 3.1788842e-11 1.7697101e-10 1.3869599e-10 -3.1906373e-11 -1.7251378e-10
4.5149628e-10 -9.584431e-11 4.8157003e-11 -1.9487878e-10 1.2093371e-10 -8.6454854e-10 -3.3732152e-11 -1.5753351e-10
-1.1977233e-10 -5.163812e-10 5.5837064e-11 1.3995781e-10 -1.4826014e-10 5.531355e-10 -1.01487076e-10 -4.6352974e-10
3.4157935e-10 -1.9653694e-09 -9.789287e-11 -2.9095643e-10 6.2410743e-10 -2.2888987e-10 -2.0755092e-10 9.452361e-10
5.760807e-10 4.80581e-11 1.7716113e-10 -1.381578e-10 -2.1353705e-09 1.616703e-11 -1.1686957e-10 9.050427e-11
1.619576e-10 2.877879e-10 -1.5881617e-11 1.1652805e-10 3.112076e-10 -2.4831737e-10 -3.9274461e-10 1.9820443e-10
2.8209274e-10 1.5452017e-10 -5.564119e-10 2.979718e-10 -4.2722015e-10 -2.1690472e-09 3.2241243e-10 1.7029168e-10
-2.3240397e-10 5.8499594e-11 7.302267e-11 -1.4255894e-11 -2.132618e-10 -1.7489377e-10 2.0239335e-10 -7.392442e-11
-8.1832895e-11 -2.135805e-11 7.72094e-10 -6.350444e-10 6.349219e-11 -2.2124948e-10 -1.8757396e-10 1.6965686e-10
1.4175983e-11 6.940954e-10 -1.7754181e-10 9.577062e-11 9.068329e-11 -1.6174315e-10 4.276732e-10 5.3953386e-10
-1.10160926e-11 -1.264898e-10 1.1028007e-10 -3.9058192e-12 1.690845e-10 -1.5479905e-10 -6.5846584e-10 -1.7498496e-10
-1.4156137e-10 9.267933e-11 -8.17433e-10 -5.331069e-10 2.4364746e-10 5.4023513e-10 9.765594e-11 1.2870088e-10
-2.5568783e-10 2.824912e-10 -2.9762362e-10 -4.237814e-10 -1.4957516e-10 1.5755898e-11 1.3627047e-10 3.4129594e-10
-4.464922e-10 -1.2879557e-09 -9.353463e-11 -1.1515786e-09 2.0947724e-09 3.6821127e-10 4.564396e-10 2.7427696e-10
-5.4986543e-10 -1.7131563e-09 -4.3391424e-10 -8.326298e-10 8.952779e-11 -5.4455485e-10 -4.1573897e-10 1.2887703e-10
-4.8501336e-10 -7.605349e-11 5.236457e-10 -1.2904784e-10 -3.4016356e-10 -1.582868e-10 1.06417465e-10 1.654936e-11
1.1187303e-10 -1.93264e-12 1.8130452e-11 -9.2423395e-11 -1.5223543e-10 1.188005e-10 1.6799008e-10 -9.147548e-11
-1.5749209e-10 1.6956035e-10 -1.3669358e-11 5.8742944e-10 2.3072931e-10 1.2190045e-09 1.2547255e-10 6.3643826e-11
-1.4492377e-09 9.741465e-11 -4.948534e-10 1.2546341e-09 -1.5247659e-10 2.2688196e-10 2.4004168e-10 -7.029314e-10
6.3779454e-10 -8.5832695e-11 -1.6578736e-10 -1.16064686e-10 -2.6222833e-11 3.714954e-10 -5.3540675e-11 -8.581189e-10
-5.5989754e-11 3.764448e-10 1.05096105e-10 -1.8094529e-10 -3.9295622e-10 3.3866515e-10 -3.0432004e-10 -1.00407e-09
00000000: 89e5 ff2e a1d6 81af 0825 5faf 92bb d82f
00000010: 8404 f9ad e3e5 a32e 06d4 5caf aa00 522f
00000020: 32e9 e1af 394d f9ae 8a6b 842f 21f8 492f
00000030: 5729 8aae 7cd4 7aae 4bd4 59af c4b6 32b0
00000040: cbdd 732e ca1a 9a2f 68f6 9530 06f9 cbae
00000050: 8d8f 03af 2027 362e a874 5430 dc37 99af
00000060: c3bc 262f ea6b cf2e bcb4 222f f73b 36af
00000070: b770 1aaf 20e9 942f 8281 3baf 7c15 6bae
00000080: b209 3230 13e9 052f 5e50 6f2e d864 ae30
00000090: 7124 922f 405f 2b30 2f27 2230 b8e7 882f
000000a0: 3805 a2ae ce73 932d ab1e a730 a2a7 302f
000000b0: 3b38 faaf 3246 d3af 3135 552f 2649 cc2e
000000c0: 6d8e 29b0 2eb7 3eb0 551f da2f f7f4 16ad
000000d0: 4128 992f d3ca 992f f46c 10b0 2c22 76af
000000e0: ad52 09af 1e41 d92e ad4b 97af 0ef2 fdae
000000f0: f536 0baf 9c16 13b1 c646 ceaf 3217 92b1
00000100: 27ff 9baf e582 7330 fb59 8930 503c b230
00000110: aab7 c630 49d9 bc2e 3bae 2daf 8c48 972e
00000120: fb30 cead d912 c52d b816 e3ad d224 1daf
00000130: 900f 1dad d664 00b0 c883 c42c fb20 d5af
00000140: f894 eb2f 6ddf b0b0 10bd 8d2d 9431 002f
00000150: 25b6 a82f c7d8 38ae c7e6 01b0 e3b1 8a30
00000160: 8d08 72af 9a1e 3e2e 6e38 25af 0ecf 0b2e
00000170: e994 422f 737f 182f 6253 0cae 50ae 3daf
00000180: 7436 f82f 8dc3 d2ae f7cb 532e 8045 56af
00000190: d0f7 042f 32a5 6db0 075b 14ae be35 2daf
000001a0: eab0 03af 19f1 0db0 f292 752e 9fe2 192f
000001b0: 8503 23af 730b 1830 252c dfae 03d4 feaf
000001c0: 05c9 bb2f 250f 07b1 c944 d7ae 7af4 9faf
000001d0: a88d 2b30 c5aa 7baf 6434 64af 8ae9 8130
000001e0: 135a 1e30 9c5c 532e 6dca 422f f7e7 17af
000001f0: d6bd 12b1 ea34 8e2d dc7f 00af 6005 c72e
00000200: 0313 322f 8c36 9e2f 39b2 8bad bb1f 002f
00000210: 9316 ab2f 9083 88af e4e9 d7af 96ed 592f
00000220: 0615 9b2f 90e5 292f 02f2 18b0 cdcf a32f
00000230: e4dd eaaf 480e 15b1 843f b12f d93c 3b2f
00000240: e787 7faf 58a4 802e 1c94 a02e d7ca 7aad
00000250: dc7b 6aaf 384c 40af aa88 5e2f c08f a2ae
00000260: d3f3 b3ae 0ede bbad 493b 5430 478f 2eb0
00000270: ed9e 8b2e 3144 73af 603d 4eaf 298a 3a2f
00000280: f462 792d 9fca 3e30 9435 43af 119a d22e
00000290: 276a c72e a6d6 31af a71d eb2f 524e 1430
000002a0: 12cc 41ad b713 0baf 2982 f22e 7e6c 89ac
000002b0: 0ee9 392f 0f34 2aaf 6aff 34b0 e365 40af
000002c0: fca5 1baf d3cd cb2e bcb1 60b0 108a 12b0
000002d0: 55f2 852f ab7f 1430 68bf d62e 1482 0d2f
000002e0: dd90 8caf 1a4d 9b2f cd9e a3af eef9 e8af
000002f0: aa75 24af 2197 8a2d bad4 152f 22a1 bb2f
00000300: 3176 f5af ea03 b1b0 51af cdae 9245 9eb0
00000310: a0f3 0f31 216d ca2f 2aee fa2f 0dc9 962f
00000320: 5725 17b0 5474 ebb0 008c eeaf 1ddf 64b0
00000330: aadf c42e a4af 15b0 0f8e e4af a9b3 0d2f
00000340: c851 05b0 4f3e a7ae 4af0 0f30 bde3 0daf
00000350: c401 bbaf c609 2eaf b503 ea2e d991 912d
00000360: eb02 f62e 59ff 07ac 267a 9f2d bf3d cbae
00000370: 7762 27af 5e9f 022f 01b5 382f 1e28 c9ae
00000380: 152a 2daf ff6e 3a2f 5179 70ad ac78 2130
00000390: 87b0 7d2f e889 a730 62f5 092f 4af4 8b2e
000003a0: 852e c7b0 9337 d62e 3606 08b0 836f ac30
000003b0: 58a6 27af 9875 792f ddf6 832f 6638 41b0
000003c0: cd50 2f30 83bf bcae fe48 36af 9c3a ffae
000003d0: 92a8 e6ad 543b cc2f 7179 6bae c0e0 6bb0
000003e0: dc3e 76ae e5f3 ce2f d91b e72e 92f3 46af
000003f0: ac07 d8af e22e ba2f 3d4d a7af 93ff 89b0
