ckps/source/uda/office-caltech/dslr_2/source_C.pt (torch, 5290 bytes, 3 tensors)

fc.bias f4 [3]
0	0x3e51e755	0.20498402
1	0xbd4e364b	-0.050344747
2	0xbe1e59b6	-0.1546391

fc.weight_g f4 [3, 1]
0	0x3edd7a7a	0.43257505
1	0x3edc4a12	0.4302526
2	0x3f04c5ee	0.51864517

fc.weight_v f4 [3, 256]
0	0xbd2b9293	-0.04188783
1	0xbda2b2a0	-0.07944226
2	0x3aec7614	0.0018040561
3	0xbd1d39c4	-0.038385168
4	0x3c95901d	0.018257195
5	0x3d819813	0.06327834
6	0xbd2cfaaf	-0.042231258
7	0xbde427bb	-0.111403905
8	0xbcc9e4ea	-0.024645288
9	0xbc337750	-0.010953739
10	0x3cb7d0fe	0.022438522
11	0x3d7bddc7	0.0614908
12	0xbd1a6f07	-0.03770354
13	0xbcfafcf2	-0.030638192
14	0xbb4db9e0	-0.0031391308
15	0x3dd864a9	0.105660744
16	0xbd987f7b	-0.0744619
17	0xbd7b92bd	-0.061419237
18	0xbdc07abf	-0.09398412
19	0x3d0ca305	0.034335155
20	0xbb6e4e11	-0.003636245
21	0xbcf185cf	-0.02948275
22	0x3c7f1057	0.015567861
23	0xbc79c295	-0.015244146
24	0x3b62cbbe	0.0034606303
25	0x3d3ba222	0.04580892
26	0x3d799c4d	0.060940076
27	0x3d292463	0.041294467
28	0xbc99134e	-0.018685963
29	0xbc8e44cb	-0.017366787
30	0x3cfda512	0.0309625
31	0x3abe2a8e	0.0014508532
32	0x3c514e22	0.012774976
33	0x3d2142cf	0.039370354
34	0xbd191ada	-0.037379123
35	0x3c3b937f	0.01144874
36	0xbcc8c51f	-0.024508057
37	0x3d713b01	0.05889416
38	0x3d00b8d8	0.03142628
39	0xbd0e9ab9	-0.034815524
40	0x3c702fa1	0.014659793
41	0xbad10f7e	-0.0015950052
42	0xbde32a14	-0.1109201
43	0xbdb5bde3	-0.08874109
44	0x3c1e1c2e	0.009650273
45	0xbd2862a1	-0.041109685
46	0x3d95f734	0.07322541
47	0xbd46ece0	-0.048565745
48	0x3bf6d26f	0.00753241
49	0x3d0e15c3	0.034688722
50	0xbb9ce4d4	-0.0047880206
51	0x3bb08f1a	0.005388153
52	0xbc3ea4a8	-0.011635937
53	0xbd04b451	-0.032398526
54	0xbd101a71	-0.035181466
55	0xbd3462a9	-0.044039402
56	0x3d3b8ba7	0.04578748
57	0xbab471b4	-0.0013766796
58	0x3c542673	0.01294862
59	0x3db15794	0.08659282
60	0xbd13c0c6	-0.036072515
61	0x3d65fd22	0.05614961
62	0x3bf272a3	0.0073989197
63	0x3db674ee	0.08909021
64	0x3c0e4838	0.0086842105
65	0x3d3d06b4	0.04614897
66	0xbbed7e81	-0.0072477465
67	0x3dcde4ef	0.10053431
68	0xbb7c5859	-0.0038504808
69	0xbcd1bc51	-0.025602492
70	0xbc9aadc0	-0.018881679
71	0xbc1967b9	-0.009363108
72	0x3d754a87	0.059885528
73	0x3d4f8502	0.050663956
74	0xbd57c41b	-0.052677255
75	0x3cdbf5b2	0.026850555
76	0xbd39cdb8	-0.045362204
77	0x3d5d2bfe	0.053997032
78	0xbd11a7dd	-0.035560478
79	0x3c4edb17	0.012625477
80	0xbd3768d0	-0.04477769
81	0xbca948bb	-0.020664563
82	0x3c10ce6e	0.008838279
83	0x3d3d0a06	0.046152137
84	0xbd597d17	-0.05309781
85	0xbbab403a	-0.0052261623
86	0x3ca45910	0.020062
87	0xbdba3d66	-0.09093742
88	0x3d3d42ee	0.046206407
89	0x3cca9098	0.02472715
90	0x3d909f23	0.07061603
91	0xbcb1e434	-0.021715261
92	0xbd0fcfa2	-0.035110123
93	0x3d0fcde2	0.035108455
94	0xbd34688e	-0.044045024
95	0xbda8ec71	-0.082482226
96	0xbb93b2e8	-0.0045074113
97	0x3d3d0be0	0.046153903
98	0xbd71233d	-0.058871496
99	0x3d4df79a	0.05028496
100	0x3dd126d3	0.10212483
101	0x3d863174	0.06552401
102	0x3d29287a	0.041298367
103	0xbc3a8cde	-0.011386124
104	0x3cd000b6	0.025390964
105	0xb7c1878f	-2.3070517e-05
106	0xbc43c2ef	-0.011948331
107	0xbd241fe8	-0.04006949
108	0xbc8181b1	-0.015808912
109	0xbda0eca2	-0.07857634
110	0x3c8fcc81	0.01755357
111	0x3c729a38	0.014807276
112	0xbbf31ad8	-0.0074189715
113	0xbdac3112	-0.08407797
114	0x3d53076c	0.05152075
115	0x3d972a3c	0.073811024
116	0xbc70377f	-0.014661669
117	0xbc761ec1	-0.015021981
118	0x3d3687f8	0.044563264
119	0xbdce08bd	-0.100602604
120	0xbc4863a8	-0.012230791
121	0x3d24c0a7	0.04022279
122	0xbdaa81bf	-0.08325528
123	0xbc1e3edb	-0.009658541
124	0xbd1eec23	-0.038799416
125	0xbc57205f	-0.013130276
126	0xbc2deb9a	-0.010615254
127	0x3c0c752b	0.008572857
128	0xbd1233a8	-0.035693794
129	0x3d8fe6ef	0.07026469
130	0xbcf8075a	-0.030276943
131	0xbcb5888f	-0.022159843
132	0x3dc3b139	0.09555287
133	0x3b3319b8	0.0027328562
134	0x3d536d59	0.051617954
135	0xbcb1c639	-0.021700965
136	0xbd35b45e	-0.044361465
137	0x3a2844d6	0.0006418949
138	0x3cbfe006	0.023422252
139	0x3d8d31b4	0.06894246
140	0xbd48eb39	-0.04905245
141	0x3c80b827	0.01571281
142	0xbaac60e7	-0.0013151438
143	0x3c993872	0.018703673
144	0x3c4e4d12	0.012591617
145	0x3ca0c357	0.019624395
146	0x3d9292d5	0.07156912
147	0x3cbf4892	0.023350034
148	0x3a81e901	0.000991136
149	0x3c50d754	0.012746651
150	0x3d64dbab	0.055873554
151	0xbcbb132b	-0.022836288
152	0x3d9869be	0.07442044
153	0xbbe4ebd5	-0.006986121
154	0xbcdde105	-0.027084837
155	0xbd30f1a2	-0.04319919
156	0x3ccd13ea	0.02503391
157	0xbe033af0	-0.12815452
158	0x3d9401de	0.07226919
159	0x3c9303a3	0.01794607
160	0x3c83cd15	0.016089002
161	0xbdb2c8d9	-0.08729715
162	0xbc8afdcf	-0.016966728
163	0x3cbea7fb	0.023273459
164	0xbd812039	-0.06304974
165	0x3d9ab5ad	0.07554183
166	0xbd69adac	-0.057050392
167	0xbc93def6	-0.018050652
168	0x3d301557	0.0429891
169	0xbd48fe2c	-0.049070522
170	0xbb949609	-0.004534487
171	0xbc88560b	-0.016642591
172	0xbc8dda24	-0.017315932
173	0xbc7dc630	-0.015489146
174	0x3d04ab71	0.03239006
175	0x3ce43954	0.027859367
176	0xbc5facd5	-0.013652046
177	0xbc86bb63	-0.016446775
178	0x3c0587bf	0.00815004
179	0xbd6dfa1d	-0.058099855
180	0xbd2039ca	-0.039117612
181	0xbdcdc0a0	-0.10046506
182	0x3d02600e	0.031829886
183	0x3cd51af7	0.026013834
184	0x3cc48d25	0.023993084
185	0x3a8d9da6	0.0010804429
186	0xbd23e048	-0.040008813
187	0x3d8e26eb	0.06941017
188	0x3b52fff4	0.0032196017
189	0xbdb18df7	-0.08669656
190	0xbcf0a8bf	-0.02937734
191	0xbcb89694	-0.022532739
192	0xbbd2b277	-0.006429966
193	0x3db4a8e9	0.088212796
194	0x3d9dfc55	0.07714144
195	0xbd73bb63	-0.059504878
196	0x3bf192a9	0.0073722196
197	0xbbcddb03	-0.0062822117
198	0x3d3a5370	0.04548973
199	0xbd64d188	-0.055863887
200	0x3e0557dc	0.13021797
201	0x3d9965f4	0.07490149
202	0x3d32a50b	0.04361443
203	0x3db2d3b6	0.08731787
204	0xbd07b795	-0.03313406
205	0x3b7b8209	0.0038377068
206	0x3b5be16a	0.0033551105
207	0x3d3ce53a	0.046117045
208	0x3db46699	0.088086314
209	0x3de173a1	0.110083826
210	0xbd559372	-0.052142568
211	0xbd12c72b	-0.035834473
212	0xbd84cf59	-0.06484861
213	0xbcd16ea5	-0.025565455
214	0x3ce9a282	0.028519873
215	0xbd59c8a0	-0.053169847
216	0xbc7ab089	-0.015300878
217	0xbd2c5f0d	-0.042082835
218	0xbceac36c	-0.028657638
219	0x3d18ed81	0.037335876
220	0x3b72b7ce	0.0037035826
221	0xbca813a6	-0.020517182
222	0xbb9e435d	-0.0048298077
223	0x3d282b90	0.04105717
224	0x3d6280ce	0.05529862
225	0xbd09a4b2	-0.03360433
226	0x3d74b990	0.05974728
227	0xbc379c78	-0.011206739
228	0xbda27ae9	-0.079335995
229	0xbce9a4db	-0.028520992
230	0x3c40ad70	0.011760101
231	0xbbab417f	-0.0052263136
232	0xbcbd2966	-0.02309103
233	0xbd531a55	-0.051538784
234	0x3d8d5b2d	0.06902156
235	0xbd9d96dd	-0.076947905
236	0x3d6c8716	0.057746015
237	0xbc0da0ed	-0.008644325
238	0xbd5fe56d	-0.054662157
239	0x3c1b78f7	0.0094892895
240	0xbd4f847a	-0.05066345
241	0xbc42a7d6	-0.0118808355
242	0x3d3f227f	0.046663757
243	0x3d118757	0.03552946
244	0x3cf7fd29	0.030272083
245	0xbc12210f	-0.008919015
246	0xbc131b7f	-0.008978724
247	0x3ce04bdc	0.027379923
248	0x3d01c624	0.031683102
249	0xbd680958	-0.056649536
250	0xbdaff005	-0.08590702
251	0x3d0c4dec	0.034254
252	0x3dc0b64b	0.094097696
253	0x3cfcaa21	0.030842843
254	0x3d112d1a	0.035443403
255	0x3d402d31	0.046918098
