ckps/source/uda/domainnet/sketch_0/source_C.pt (torch, 358186 bytes, 3 tensors)

fc.bias f4 [345]
000000 23 7a 76 3b f8 94 2e bc 36 00 1e 3c 6a 31 9b bc
       0.003760942 -0.010655634 0.009643605 -0.01894446
000010 1a c6 69 3a 53 5b 21 3c 89 99 99 bb 84 0e d4 3b
       0.0008917764 0.009848434 -0.0046874923 0.006471457
000020 9a 08 ad 3b bb 0d 88 bc bf 8e 90 b9 25 24 81 bc
       0.0052805664 -0.01660811 -0.00027572174 -0.015764305
000030 c2 32 8d bc d0 b2 ce bb 83 d4 ec 3c ac 25 43 3c
       -0.017236117 -0.006307937 0.028909927 0.011910837
000040 d6 e8 44 3c e5 f9 e2 bc 55 d0 99 3b 74 de 99 bb
       0.012018403 -0.02770705 0.0046940246 -0.004695708
000050 a3 40 75 bc 3e cb de bb fc d1 07 3b 38 86 69 bc
       -0.014969024 -0.0067991307 0.0020724526 -0.014253192
000060 8e 56 c1 ba 0d fe 56 bc fc 66 2e bb c6 d2 c0 bb
       -0.0014750527 -0.013122094 -0.0026611676 -0.005884501
000070 94 a1 8c bc 92 54 a3 3c d7 7f c8 3a 2d 3f 2a 3c
       -0.01716689 0.019937787 0.0015296888 0.010391039
000080 22 39 24 bb 94 13 83 3b e8 d5 49 bc 8d 06 6f bc
       -0.0025058468 0.0040001366 -0.012319066 -0.014588964
000090 25 1f 45 bc 2f 57 39 bc 26 2e 52 bb 33 4b bd bc
       -0.012031351 -0.01131229 -0.0032070964 -0.023107147
0000a0 b8 c2 98 3b 9e e0 48 bc 68 4d ca 3b 3a 26 05 b9
       0.004661884 -0.012260584 0.0061737783 -0.00012698109
0000b0 6c 46 b0 bb 62 87 5b bc 37 a5 f5 bb ff 3a d4 3b
       -0.0053794887 -0.013398977 -0.007496502 0.0064767594
0000c0 fa 7d 1d bc 28 14 30 3c d2 d2 48 3a d7 0f f5 3a
       -0.009612555 0.010746993 0.0007660809 0.0018696737
0000d0 5a 9f 26 3c 7e db 00 3b 10 c2 62 ba 82 0e 84 bb
       0.010169828 0.0019662078 -0.00086501334 -0.00403005
0000e0 85 e6 9e 3a 20 30 49 3c c1 96 09 3c 27 79 d9 bb
       0.0012123144 0.01227954 0.008397759 -0.006636757
0000f0 6c eb 17 bc b6 63 36 bb eb f3 64 3c 2d 56 ca 3a
       -0.009272438 -0.0027830428 0.01397417 0.0015437059
000100 ce 03 75 b9 5f 40 b2 3c bd 97 cc 3b d5 a7 96 3c
       -0.00023366438 0.02175921 0.0062436746 0.018390575
000110 92 38 22 3a c7 4e 60 3c 01 d2 8d 3c 84 65 ae bc
       0.0006188239 0.013690657 0.017312052 -0.02128864
000120 57 52 70 3c 19 18 30 3c 0a 3d d8 3a b3 c3 b2 3b
       0.014668069 0.010747933 0.0016497683 0.005455458
000130 da 9c 32 3c 3c 74 16 3c b2 a2 88 3c 51 bd 87 bb
       0.010901654 0.009182986 0.016679142 -0.0041424413
000140 f0 4f fb ba 7f db ab 3c b6 12 b5 bb 57 90 30 bc
       -0.0019173604 0.020978687 -0.005525912 -0.010776601
000150 52 02 86 ba 47 b0 10 bb 09 f8 b1 bb 3b 34 5b 3b
       -0.001022408 -0.0022077726 -0.0054311794 0.003344788
000160 da 19 4b 3c 48 a6 97 3c bb d5 00 3b 8e 9c b5 bb
       0.0123963 0.018511906 0.0019658643 -0.0055423444
000170 1e 6f 0c bc 47 15 2a bb d6 d3 05 bc 05 83 82 bc
       -0.008571414 -0.0025952624 -0.008168181 -0.015931616
000180 96 16 cf 3c 5d c7 09 bc 3c 54 54 3c 11 3d 40 bc
       0.025279325 -0.008409348 0.012959536 -0.011733309
000190 bc 25 74 3a fe c9 db 3b d9 1e a5 bc ee c5 88 3c
       0.0009313484 0.006707429 -0.02015631 0.016695943
0001a0 c1 f7 16 bc 9b cf 01 3b cd 6d e5 3c ac db 22 ba
       -0.009214343 0.001980758 0.028006459 -0.0006212543
0001b0 8e fc a8 bb 3c 5e 9a bb 54 cf bc 3c ca 05 42 3c
       -0.00515706 -0.0047109406 0.02304808 0.0118422005
0001c0 64 21 3f bc 33 2b dc 3a ce db 09 bc cb a1 12 bc
       -0.011665676 0.0016797542 -0.008414222 -0.008949707
0001d0 20 6e 91 bb 89 76 45 3b 8b ed 85 3b 6a fd 9f 3a
       -0.0044381768 0.0030130467 0.004087155 0.001220626
0001e0 ec d8 1b bc 5d d0 92 bb bc 3d 1e bc d0 e6 e6 bb
       -0.009512167 -0.0044804052 -0.009658273 -0.007046558
0001f0 4c 9b 90 bc 70 a1 03 bb 5a fe c8 3a 17 a3 2a bc
       -0.017652176 -0.0020085238 0.0015334592 -0.01041486
000200 9b a8 44 39 78 67 13 bc 7c 1f b7 bc 4c 7c a7 3c
       0.00018754827 -0.008996837 -0.02235388 0.020445012
000210 18 92 30 3c 0b e5 da 3a a4 ae 04 3b d5 ab 8e 3b
       0.010777019 0.001670034 0.0020245695 0.00435398
000220 05 28 b4 3b f3 ed a1 bc c6 d5 a8 3c 79 2a 26 3b
       0.0054979348 -0.019766783 0.020609748 0.0025354906
000230 59 31 4a bc 02 a7 5b 3c 52 a8 20 bc 9f 70 0c 3b
       -0.012340867 0.013406517 -0.009805756 0.0021429432
000240 33 3d a7 ba 2b ab 84 ba 1d f3 83 bb 6d 07 19 3c
       -0.0012759328 -0.0010121813 -0.004026784 0.009340149
000250 4a e8 96 3c 53 7b 5e 3c a7 ec 82 3a de ea b5 3b
       0.018421311 0.0135792075 0.0009988741 0.00555168
000260 9e fc 09 3c 97 42 d5 3b 84 fe 2f ba 56 58 19 bc
       0.008422045 0.0065081823 -0.0006713646 -0.00935944
000270 ab 45 92 bb 4c d5 02 bb e4 f2 20 bc 53 59 7e 3b
       -0.0044638715 -0.001996356 -0.009823535 0.0038810566
000280 69 a2 44 bc fb bc f1 3b 23 2b b1 bc 01 fd 8e bc
       -0.012001612 0.0073772646 -0.021627015 -0.017454626
000290 7d 38 6e bc 61 9e ea 3c cb 28 92 3b 14 81 34 bc
       -0.014539835 0.028639974 0.0044604293 -0.011017103
0002a0 f2 6b cb bb 74 6b 99 bb ca 21 4a bb bd ff 21 3c
       -0.0062079364 -0.004681999 -0.0030842894 0.009887633
0002b0 5d 19 50 3c 32 15 f4 3c b5 ab c3 3b 7b 32 09 bc
       0.01270136 0.029795263 0.005971397 -0.008373852
0002c0 1d be 19 bb 2c 3b d4 3a 8f 48 80 bc d3 c8 ea 39
       -0.0023459264 0.0016191951 -0.015659599 0.00044781584
0002d0 4b 33 d2 ba f3 39 8f 3b e3 3c 15 3b 88 e9 7d bc
       -0.0016037015 0.0043709218 0.0022771887 -0.015497573
0002e0 c4 8c 8f 3b 35 83 0a bc ab de ee ba 42 71 69 bb
       0.0043807942 -0.008454134 -0.0018224319 -0.0035620485
0002f0 bc 74 84 bb df 49 8d ba d6 b7 40 ba 85 57 6a bc
       -0.004042236 -0.0010779462 -0.00073516124 -0.014303093
000300 5f 85 02 3c 94 06 bd ba f8 ce 2d bc d8 8f 89 3b
       0.007966368 -0.0014421516 -0.010608427 0.0041980557
000310 2e 61 1b 3c 82 2b 24 3b 63 70 b6 ba 81 96 4b bb
       0.009483619 0.0025050347 -0.0013918992 -0.003106505
000320 34 de 57 bc db ae f3 3b 84 7d 43 3b d7 cc a5 bb
       -0.013175536 0.007436616 0.0029829452 -0.005059819
000330 52 ee cd 3a 14 6e 97 3b e6 8d 82 3c 7d 13 85 3b
       0.0015711284 0.0046212766 0.015936803 0.004061161
000340 6b 19 21 3a e4 0a 80 3c d3 70 9c bb 61 00 2d 3c
       0.000614545 0.015630193 -0.004774192 0.010559172
000350 01 58 a3 ba 7e a0 a1 3b dd 19 05 bc eb 8e 15 3a
       -0.001246214 0.0049324622 -0.008123842 0.00057051954
000360 b0 a0 84 3b 79 66 68 3c 68 24 19 bc 8c ef 74 3c
       0.0040474758 0.014184588 -0.009347059 0.014949691
000370 9b a4 17 3c 71 d8 57 bb e8 62 1e bc 37 96 14 bb
       0.009255554 -0.0032935406 -0.009667136 -0.0022672543
000380 00 39 41 3c 35 92 4b 3b dd 55 62 bc 90 fb 86 bb
       0.011793375 0.0031062488 -0.013814417 -0.004119344
000390 ef 7f d5 bb be b3 b5 bb db 71 76 39 a2 8d 95 3b
       -0.006515495 -0.0055451086 0.00023502803 0.004564003
0003a0 77 bd e0 bb c5 4a 36 bc ea 61 98 bc e3 d7 20 3c
       -0.0068585235 -0.011126225 -0.018601377 0.009817096
0003b0 22 bc 25 3c 37 c3 87 bb 3b 57 0a bc d9 db 0d 3c
       0.010115655 -0.0041431445 -0.008443649 0.008658373
0003c0 cc b5 b4 3b 42 cd 1b 39 6b 8a 64 bb bd 3d e2 3b
       0.005514836 0.00014858416 -0.0034872543 0.0069043324
0003d0 4d ed 3f bc cf eb ff 3b cc 26 a1 bb e5 f0 0f 3b
       -0.011714292 0.007810093 -0.004917955 0.0021963653
0003e0 f8 2b 42 bc d8 ea 5a 3a 1a 48 e8 3a 7b 4f 18 3c
       -0.011851303 0.00083510345 0.0017721683 0.009296293
0003f0 bd 9f fb bb 10 68 4a 3c a5 6a 9c bc 74 32 da 3b
       -0.0076789544 0.012353912 -0.01909382 0.0066588465

fc.weight_g f4 [345, 1]
000000 67 dd 2d 3f 93 7e 74 3f 40 ca 4c 3f 08 ec 46 3f
       0.6791596 0.95505637 0.7999611 0.77703905
000010 f3 9a 70 3f e7 91 45 3f 8b 85 3e 3f 4c af 42 3f
       0.93986434 0.77175754 0.7442252 0.7604873
000020 05 07 48 3f 04 b2 76 3f 00 20 5c 3f 5b bf 67 3f
       0.7813571 0.9636538 0.8598633 0.9052636
000030 6a ba 65 3f 63 00 54 3f 34 d1 34 3f db 3d 4a 3f
       0.8973757 0.8281309 0.7063172 0.79000634
000040 42 10 1f 3f 0e 21 5d 3f 46 57 55 3f fe 3e 60 3f
       0.6213418 0.8637856 0.83336294 0.8759612
000050 be 47 56 3f 49 b8 5b 3f 63 cd 33 3f 78 b1 56 3f
       0.8370322 0.8582807 0.7023527 0.83864546
000060 e2 e1 79 3f b3 5a 48 3f 12 85 4c 3f d1 69 62 3f
       0.97610295 0.78263396 0.7989055 0.88442713
000070 35 86 6e 3f 09 1d 5d 3f 2d 3c 77 3f e8 fb 63 3f
       0.93173534 0.8637243 0.96576196 0.89056253
000080 bc 36 57 3f 36 e9 2b 3f e6 4e 4e 3f a2 5e 61 3f
       0.84067893 0.67152727 0.8058914 0.88035023
000090 f1 00 59 3f a8 09 59 3f 36 7b 75 3f a5 ed 7d 3f
       0.8476706 0.8478036 0.9589113 0.9919074
0000a0 fb dd 5f 3f 67 8a 68 3f 6e a8 63 3f 4a c1 51 3f
       0.8744809 0.90836185 0.8892888 0.8193556
0000b0 73 18 75 3f ba b1 5b 3f f9 2b 5a 3f 5c e7 57 3f
       0.9574043 0.85818064 0.85223347 0.843374
0000c0 60 de 91 3f f4 c8 58 3f d2 48 34 3f f3 92 3f 3f
       1.1395988 0.8468163 0.70423615 0.748336
0000d0 17 f4 16 3f 0b 10 2d 3f 7a dc 40 3f 38 d4 40 3f
       0.589662 0.67602605 0.7533642 0.7532382
0000e0 d0 fb 3d 3f 37 1f 3a 3f b6 22 3a 3f 93 80 47 3f
       0.7421236 0.7270388 0.72709215 0.77930564
0000f0 78 43 55 3f 85 1b 4a 3f 3f f3 26 3f ac a9 32 3f
       0.83306074 0.7894824 0.65214914 0.6979015
000100 d4 ce 5e 3f 32 63 21 3f 0b 5c 38 3f 60 d1 1d 3f
       0.87034345 0.63041985 0.72015446 0.61647606
000110 ac 57 46 3f d0 4f 29 3f 3c 78 19 3f 6a 69 5c 3f
       0.77477527 0.6613741 0.5994909 0.8609835
000120 f9 48 30 3f 88 0a 30 3f 8e 9e 44 3f 3d 83 25 3f
       0.6886135 0.6876607 0.76804435 0.6465338
000130 b6 f2 23 3f 09 37 1f 3f 09 f5 23 3f 96 21 52 3f
       0.6404222 0.6219335 0.6404577 0.820825
000140 33 b4 32 3f 86 43 07 3f c3 69 47 3f bc cd 74 3f
       0.6980621 0.5283741 0.77895755 0.95626426
000150 7d 9d 50 3f 3a 0d 5e 3f 20 fb 47 3f 73 4a 80 3f
       0.8149031 0.8673893 0.7811756 1.002272
000160 49 e3 3d 3f 1e 94 20 3f 88 dc 45 3f e8 26 71 3f
       0.74174935 0.6272601 0.7728963 0.9419999
000170 88 a0 34 3f 07 00 4e 3f b7 79 7b 3f 93 ab 64 3f
       0.7055745 0.8046879 0.982326 0.893243
000180 c8 7e f2 3e bd 84 50 3f cb 9e 5e 3f 68 19 71 3f
       0.4736235 0.8145254 0.8696105 0.9417939
000190 8e ef 59 3f 1b b4 5b 3f f0 5c 59 3f 1f 81 56 3f
       0.85131156 0.85821694 0.84907436 0.83790773
0001a0 14 a3 56 3f 38 88 2f 3f d6 0f 74 3f 87 72 65 3f
       0.8384259 0.6856723 0.95336664 0.8962788
0001b0 50 b8 7f 3f db be 2e 3f 82 89 6a 3f 41 e5 46 3f
       0.99890614 0.6825997 0.9161607 0.77693564
0001c0 db d5 71 3f a3 bd 53 3f 0b 66 3f 3f 2d 0e 78 3f
       0.9446694 0.8271124 0.7476508 0.9689663
0001d0 9a 6c 79 3f c5 69 40 3f 82 7c 40 3f 53 82 48 3f
       0.9743134 0.7516139 0.75189984 0.7832386
0001e0 0b a2 7a 3f 1d a0 73 3f ab 90 4c 3f a8 76 68 3f
       0.9790351 0.9516619 0.79908246 0.90806055
0001f0 17 ed 5e 3f 74 c2 5b 3f 6e 13 60 3f d3 fa 45 3f
       0.8708052 0.85843587 0.8752965 0.7733585
000200 7c 84 48 3f c4 0b 5c 3f 0d c3 63 3f 59 99 92 3f
       0.78327155 0.8595545 0.889695 1.1453048
000210 1e ab 5e 3f 30 6c 56 3f ec 16 46 3f 1b 46 43 3f
       0.86979854 0.8375883 0.77378726 0.7627885
000220 02 9f 2f 3f cf 35 71 3f 97 b0 12 3f f6 de 45 3f
       0.68602 0.9422273 0.57300705 0.77293336
000230 ac 35 52 3f 6d 24 3a 3f d4 3f 56 3f e5 20 60 3f
       0.82113147 0.7271183 0.83691144 0.87550193
000240 45 9e 47 3f 81 d3 46 3f 20 f0 51 3f 6b 73 3a 3f
       0.77975875 0.7766648 0.82007027 0.72832364
000250 39 82 12 3f 62 97 42 3f 97 bf 49 3f ba 16 30 3f
       0.57229954 0.7601224 0.7880797 0.6878468
000260 d0 b0 3f 3f 82 8b 48 3f b7 9d 53 3f 48 a9 4a 3f
       0.7487917 0.7833787 0.8266253 0.7916455
000270 84 12 5b 3f c5 c5 39 3f 28 38 47 3f 13 b2 42 3f
       0.8557513 0.725674 0.7782006 0.7605297
000280 68 e6 56 3f 84 21 3b 3f 9c db 73 3f 6d 4c 5f 3f
       0.8394532 0.73098016 0.9525697 0.8722599
000290 dd 2b 6a 3f 44 a9 25 3f 17 62 68 3f b2 f5 7c 3f
       0.9147318 0.64711404 0.90774673 0.988124
0002a0 a1 5a 54 3f 49 ab 7a 3f 01 fe 4c 3f 83 e1 6f 3f
       0.8295079 0.9791761 0.8007508 0.9370348
0002b0 35 59 40 3f de 70 16 3f a9 6c 67 3f 0c 0f 40 3f
       0.7513612 0.5876597 0.9040018 0.7502296
0002c0 43 75 55 3f 18 62 48 3f 09 bb 5b 3f 43 3e 54 3f
       0.8338205 0.7827468 0.8583227 0.82907504
0002d0 59 0e 59 3f 47 4e 3e 3f 09 1c 5c 3f e2 d7 63 3f
       0.8478752 0.7433819 0.8598028 0.89001286
0002e0 5a 7b 54 3f 57 a3 52 3f 7e 33 57 3f fb 84 53 3f
       0.8300072 0.82280487 0.84062946 0.8262479
0002f0 20 5d 4c 3f 4f 3b 55 3f 4b 41 4e 3f 43 4a 47 3f
       0.798296 0.8329362 0.8056838 0.7784769
000300 ba ef 4b 3f 02 11 52 3f 10 40 62 3f 73 fc 64 3f
       0.7966267 0.820572 0.88379 0.89447707
000310 1b 2a 18 3f b6 d6 47 3f 3c a0 3a 3f e4 10 3d 3f
       0.5943925 0.78062 0.7290075 0.738539
000320 8c a9 4c 3f b2 cd 48 3f c8 a3 48 3f 15 0b 54 3f
       0.7994621 0.78438866 0.7837491 0.8282941
000330 a1 9a 54 3f 89 d0 4a 3f 95 1f 2b 3f a4 74 53 3f
       0.83048445 0.7922445 0.66845065 0.82599854
000340 e2 df 29 3f 1e 0b 4a 3f cd 80 5a 3f 8d f8 55 3f
       0.66357243 0.78923213 0.85352784 0.83582383
000350 26 33 60 3f 3e 8e 43 3f 46 a6 49 3f ee 00 52 3f
       0.87578046 0.7638892 0.7876934 0.8203267
000360 e2 d8 3f 3f c5 65 13 3f 1f d3 5d 3f d0 02 38 3f
       0.7494031 0.57577163 0.8665027 0.7187929
000370 f6 e2 45 3f 43 8a 46 3f ef 57 5a 3f 2a df 41 3f
       0.7729944 0.7755472 0.85290426 0.75731146
000380 f3 20 3e 3f 7f 1b 62 3f ac ce 5b 3f 9a c2 41 3f
       0.74269027 0.88323206 0.8586223 0.75687563
000390 27 b7 41 3f 44 10 46 3f 26 68 3f 3f 84 42 37 3f
       0.75670093 0.7736857 0.7476829 0.7158587
0003a0 48 79 3e 3f 30 dc 48 3f 06 1b 69 3f 7a 97 39 3f
       0.7440381 0.7846098 0.9105686 0.7249676
0003b0 2a ce 73 3f ce d9 5a 3f 14 c2 6c 3f 4a 67 1d 3f
       0.95236456 0.85488594 0.9248364 0.6148573
0003c0 47 61 50 3f 95 36 22 3f 9d 3f 4e 3f 8c af 3b 3f
       0.81398433 0.63364536 0.80565816 0.7331474
0003d0 07 3a 46 3f 08 4e 38 3f ad 8a 54 3f dd 90 6e 3f
       0.7743229 0.71994066 0.830241 0.93189794
0003e0 19 a6 46 3f 40 7a 58 3f 96 8a 66 3f 79 bf 7d 3f
       0.77597195 0.8456154 0.90055215 0.9912029
0003f0 3b ee 84 3f 2e ff 82 3f e1 01 83 3f b6 81 62 3f
       1.0385202 1.0234125 1.0234948 0.88479173

fc.weight_v f4 [345, 256]
000000 1c bc 19 3c cf c8 9f bb e8 a8 3a 3b ce 62 a8 3a
       0.009383228 -0.004876233 0.0028482024 0.0012846829
000010 54 c1 82 b8 05 81 2d bc b9 06 43 3c 51 e7 54 3c
       -6.234893e-05 -0.010589843 0.011903458 0.012994603
000020 a0 a7 ab bc e1 db cd ba 26 f9 31 3b 44 25 16 bb
       -0.020953953 -0.0015705788 0.002715656 -0.0022910396
000030 fd 29 bc 3b ea ce 35 3c db be 83 bc ef 41 a0 3b
       0.00574231 0.011096695 -0.016082218 0.0048906724
000040 24 65 7b 3c b1 d1 28 3b a9 67 31 bc 87 23 98 bc
       0.015343938 0.0025759751 -0.010827937 -0.018571628
000050 16 00 a4 3b c5 93 c8 3b 64 15 ab 3c fc fa 31 bc
       0.005004893 0.006121131 0.020884223 -0.010863062
000060 28 ce e1 3c d3 7c 23 3c 3a 01 42 3c ed db 64 bc
       0.027564123 0.009978491 0.011841113 -0.01396845
000070 56 85 99 3b d5 01 ac bb e5 7f 1c bc 23 78 45 bc
       0.0046850843 -0.005249242 -0.009551977 -0.012052569
000080 b8 09 c7 bb ac d6 95 3b 64 67 32 b8 35 72 cf bb
       -0.0060741566 0.00457271 -4.2534797e-05 -0.006330753
000090 b5 72 35 3c 13 90 9a 3b 16 8a 26 bc e0 f5 a7 3b
       0.011074712 0.004716882 -0.010164758 0.005125746
0000a0 90 89 4e 3c 1b 59 83 3b 3e c0 ca 39 13 94 92 ba
       0.01260604 0.004008425 0.00038671674 -0.0011183046
0000b0 a4 12 27 bc 32 fe d8 bb 59 0a cd bc a0 94 b0 3b
       -0.010197315 -0.0066220993 -0.025029348 0.005388811
0000c0 39 2b 14 bc a7 a3 7c 3c f9 eb 47 bc 53 88 84 3c
       -0.009043508 0.015419877 -0.012202256 0.016178286
0000d0 87 75 0e bb 8e 9e 88 3c 87 af 10 bb ad 89 71 3c
       -0.0021737532 0.016677167 -0.0022077279 0.014742297
0000e0 b6 5c b9 bb 91 d6 ac bc e0 6a 29 bc af fe 8d bc
       -0.005656804 -0.021098407 -0.010340422 -0.017333357
0000f0 62 42 3f bb 7c f1 67 3c 69 0f 20 3c a4 78 ef 3c
       -0.0029183854 0.014156695 0.009769299 0.02923233
000100 81 61 4e 3c dd 29 87 bc fc fd 4b bb 6a 9a 09 bc
       0.012596489 -0.016499454 -0.0031126728 -0.008398632
000110 22 bd 71 bc f9 70 1c 3c 50 e1 dc 3b 84 5a 33 bc
       -0.014754565 0.009548419 0.0067407265 -0.010946874
000120 d4 4a 6d bb f7 6d 3f bc 1c d9 8b bc ee a5 c4 bc
       -0.003620793 -0.0116839325 -0.0170713 -0.024004903
000130 fd be fd bb a0 69 9a 3c 21 b3 68 3c 90 a3 1d bc
       -0.007743715 0.018849194 0.014202864 -0.009621516
000140 b5 ca 2a bc a2 28 02 bc cc 2a d5 3b 35 8f 9a 3b
       -0.010424306 -0.007944258 0.006505346 0.0047167786
000150 84 aa 77 bc 30 e4 6b 3a 9f 80 52 ba 1d 13 17 3a
       -0.015116338 0.0008998541 -0.00080300303 0.0005763041
000160 75 0d b6 bc 18 ed c7 bb 35 cd b4 3c 7a 0a 93 ba
       -0.022223214 -0.006101262 0.022070507 -0.0011218332
000170 c0 fa af 3b 45 fd d0 3c da 2f 23 3c f1 b6 8f 3b
       0.005370468 0.025511393 0.009960139 0.004385822
000180 41 66 8a 3c fb 4e 79 3b 66 3c c2 3a 02 87 9c bc
       0.016894462 0.003804146 0.0014819026 -0.019107345
000190 c5 b0 61 bb f8 6e 34 3a ef 8c 9a 3b 8e c4 0b 3c
       -0.0034437638 0.0006882991 0.0047165076 0.008530749
0001a0 fb 24 32 3c 2d a5 54 3c 84 52 5d 3b 4b 9c 8c 3b
       0.010873075 0.012978834 0.0033771107 0.0042910925
0001b0 42 bb 6c bb 85 17 ae 3c 66 8c 7b bc ee 19 91 b6
       -0.0036122357 0.02125145 -0.015353298 -4.3243554e-06
0001c0 01 a4 57 bb b7 24 57 ba eb 2c 50 bb 1d c5 e6 bc
       -0.003290415 -0.000820707 -0.0031765054 -0.028170163
0001d0 5e 62 9f bb 62 86 21 3a 54 34 21 bc fe 24 f6 3c
       -0.004864021 0.0006161687 -0.009839136 0.030046936
0001e0 e8 b6 94 bc f5 bb bf bc 52 c3 63 3b b9 05 55 bc
       -0.018153623 -0.023405055 0.003475387 -0.013001853
0001f0 62 89 07 3b 92 7c 18 3c f1 77 b0 bb 26 96 af 3b
       0.0020681252 0.009307044 -0.005385392 0.0053584753
000200 d3 4d 03 3c 1d 3a e7 3b 1b bb 49 3b 12 fc 22 bc
       0.00801416 0.007056488 0.003078169 -0.009947794
000210 17 7b d6 bb d9 03 8f bc 61 cd cb 3c d6 13 13 3b
       -0.006545435 -0.01745789 0.024878206 0.0022442243
000220 00 e2 43 bc ad 0a 14 bc 37 10 29 3b c6 dd fc 3b
       -0.011955738 -0.009035748 0.0025797018 0.007716867
000230 f4 c2 ac 3c e2 e5 c4 bc 74 d6 8a 3c a1 07 45 3a
       0.021089055 -0.024035398 0.016947962 0.00075160904
000240 30 61 b8 3c 15 8c 85 bb 98 71 95 ba 78 ef 82 3c
       0.02250728 -0.004075537 -0.0011401651 0.015983328
000250 49 be 75 bb 5e df 8c bc 2f 80 68 3b 17 a1 d8 bb
       -0.0037497452 -0.017196354 0.0035476794 -0.0066110003
000260 e9 4d 71 3c bf 79 06 bc e4 44 e6 ba 88 e0 c0 bc
       0.014728048 -0.0082077375 -0.0017568138 -0.023544565
000270 86 12 f4 bb a4 4d 7f 3b 05 48 e9 b7 5e 5d de 3a
       -0.007448497 0.003895619 -2.7809301e-05 0.0016965081
000280 6c 5d b6 3b 9c b9 5a 3c ac 90 94 bb 03 2c 88 bb
       0.005565336 0.013349917 -0.004533848 -0.004155637
000290 d4 ff 1e bc 4c 4b d9 bb b4 f4 4e bc ce ab df 3c
       -0.009704549 -0.0066312905 -0.012631584 0.027303603
0002a0 0f d9 c4 bb 40 6e 60 bb e7 16 3c bc 65 ce de bc
       -0.0060073207 -0.0034245402 -0.01148007 -0.027198026
0002b0 e1 5b 19 3c a6 5e 3f bb fc b5 41 bb e2 ae ab bb
       0.009360285 -0.0029200702 -0.0029557934 -0.0052393535
0002c0 a5 2d 69 3a 07 3d 0b ba 08 14 cd 3a fa 3a 86 bb
       0.0008895046 -0.0005311523 0.0015646229 -0.004096386
0002d0 05 08 58 bb bc b5 a4 bc 5b 79 d4 3c bf 01 fb 3b
       -0.0032963764 -0.020106189 0.025936773 0.0076601203
0002e0 a2 1f f9 3a f1 b0 08 bc fd d3 7c 3c ad 75 92 bc
       0.001900662 -0.008342967 0.015431401 -0.017878378
0002f0 99 3b 94 bc c9 02 44 bc 9f 7e 7b b9 bf 95 b4 3a
       -0.018094825 -0.011963555 -0.00023984395 0.0013777538
000300 3a 94 2c bb 2a 75 3f bc 04 bd ff 3b 72 6e 4b bc
       -0.0026333467 -0.011685649 0.007804515 -0.012416469
000310 9a d1 a0 bc fd 87 96 bc 6d 44 16 3c 71 3a 09 3b
       -0.019631196 -0.018375391 0.009171587 0.0020939375
000320 5e a2 8b 3c ed e2 0d 3c 22 c3 42 3b 75 f9 98 3c
       0.017045196 0.00866006 0.002971836 0.018673638
000330 9e 9f 89 bc 5c 8c c8 bc 39 74 c2 3b 61 49 19 3b
       -0.016799744 -0.024480991 0.005934265 0.0023389685
000340 de 28 7c bb 1a ed ad bc 84 ad 3c 3c af 80 39 bb
       -0.0038476507 -0.021231223 0.011515979 -0.0028305461
000350 ae 44 72 39 63 d8 a4 3c 1d ee e4 3a 5d 26 53 3a
       0.00023104504 0.020122712 0.0017465983 0.0008054728
000360 ab 0a 75 3c 7f cc b4 bb 1b f4 85 bb 0a 49 22 bc
       0.014956157 -0.005517542 -0.0040879375 -0.009905109
000370 3c e8 a6 bc 23 11 1f 3c ff 69 16 bb 3e 42 01 bc
       -0.02037441 0.009708676 -0.0022951362 -0.0078893285
000380 b9 78 1b bb f5 2c 0a bc c2 b4 a5 3c b9 d0 25 3c
       -0.002372308 -0.00843357 0.020227794 0.010120564
000390 9b 40 df 39 39 90 a4 bc 29 09 15 bc db 41 dd 3b
       0.0004258201 -0.020088302 -0.009096422 0.0067522353
0003a0 e5 bd 79 3b 67 ce 38 3c 64 5d 2a 3c ef fc ab 3c
       0.003810757 0.011279679 0.010398243 0.020994632
0003b0 46 25 c6 bc f7 f0 1c 3c 42 b0 4d bc 3f e2 f7 bb
       -0.024187695 0.009578935 -0.01255423 -0.0075648124
0003c0 a9 e3 7d bb 04 79 e1 bb 94 71 ac 3c ac 70 0b bc
       -0.0038740432 -0.0068808813 0.021050252 -0.00851075
0003d0 d0 62 36 3c d2 1e b9 3c 92 36 b3 bc 43 bf 86 3c
       0.011131957 0.022597704 -0.021876607 0.016448623
0003e0 78 ad 64 bc 0f 80 47 3a 2e 2b 8f 3a 3d a5 a0 bb
       -0.013957374 0.000761033 0.0010922903 -0.0049025104
0003f0 1f a4 92 bc 73 6b a5 3c 19 a8 5b 3b 01 02 9a bc
       -0.017900525 0.020192837 0.0033516942 -0.018799784
