ckps/source/uda/domainnet/sketch_1/source_B.pt (torch, 532830 bytes, 6 tensors)

bn.weight f4 [256]
00000000: 896b 803f 9123 813f 2d43 7e3f 3a0f 7b3f
00000010: 49dc 803f 5190 863f e118 7c3f c387 793f
00000020: be49 803f 2c73 7f3f 1a23 7f3f ec39 823f
00000030: 6fd3 823f 1351 813f b1c5 883f 0b21 743f
00000040: 9e31 763f 7316 833f d3c6 813f 7841 793f
00000050: 4633 8d3f 70e1 6f3f c0d6 613f caf0 743f
00000060: 9281 7f3f ae8b 873f e9a1 813f 332d 783f
00000070: 2342 813f 0919 883f ab17 7e3f aad0 743f
00000080: 34b3 853f 20c7 773f 966e 833f 00cc 823f
00000090: e822 6d3f 2d8f 7e3f 69e6 813f f3c5 733f
000000a0: c958 763f d9f1 773f e1de 813f 6d71 6a3f
000000b0: d36d 833f e044 833f 827c 843f f160 823f
000000c0: 955d 7c3f 3e9d 733f ef1d 893f 8779 893f
000000d0: dabe 7e3f 84b3 7f3f 728c 7b3f 3717 853f
000000e0: e804 813f 2401 803f 31b6 763f 9429 6e3f
000000f0: 1384 803f c4d8 803f 5ca1 803f bcdc 773f
00000100: afa6 803f a612 703f 3853 873f bbbe 7b3f
00000110: b85a 733f a255 803f f93a 823f 8cf0 833f
00000120: 6f18 743f add0 833f 490b 803f 34d0 833f
00000130: dc87 803f 74ba 733f 8074 6f3f 0da9 713f
00000140: e1b7 813f 038b 743f 918d 6f3f b70e 7d3f
00000150: b984 833f a367 833f 5521 793f f414 783f
00000160: 3f8f 7b3f 9618 763f 5723 7d3f b0a0 813f
00000170: 3af5 773f 36f8 833f 3acd 803f efff 843f
00000180: 1ef5 7c3f 34f2 823f efeb 773f 3a18 833f
00000190: 6562 7d3f 1fae 783f 69bc 7c3f 54dd 783f
000001a0: 41ab 823f 7156 7a3f d1e9 753f dc68 7f3f
000001b0: a852 863f edef 753f f9d6 803f 68c5 7b3f
000001c0: 21a6 833f 979f 7b3f 76df 703f 4429 893f
000001d0: d189 7c3f de28 853f f7b4 7e3f 349e 773f
000001e0: b3b7 6b3f bea6 803f 3f98 803f e6d5 813f
000001f0: fe1b 733f bfdd 7c3f e0fc 7f3f ec6f 803f
00000200: 325d 853f 1657 763f 4e0b 853f 9624 7e3f
00000210: b85f 803f 47d4 713f 4679 833f d900 713f
00000220: aa79 853f 17dc 7f3f c9c6 823f 279f 823f
00000230: 906e 7a3f 3541 833f 4a24 823f a3c0 863f
00000240: 76d5 7d3f cf7f 7f3f add1 713f 4cdc 863f
00000250: 8721 7b3f 7231 7a3f 028c 813f 5004 7f3f
00000260: 0cfc 6f3f 8307 833f 0777 6f3f 4eb6 7a3f
00000270: 140f 7b3f 3613 843f ca77 843f 53d0 803f
00000280: 9684 7f3f a1b5 673f 5efe 823f 204e 803f
00000290: d93a 843f be6d 753f fc0c 823f 3e4c 733f
000002a0: a919 763f 3c74 783f 2de6 743f e8fc 803f
000002b0: 850d 7c3f eb37 7d3f dcb6 713f f872 753f
000002c0: dea2 803f ae5f 733f 1cf6 763f 7e01 853f
000002d0: 57c3 823f 87d8 7b3f b64c 7d3f 3c27 753f
000002e0: 03e5 6f3f bbcf 783f 8fa9 7d3f 55a7 7d3f
000002f0: 669a 783f 7542 7b3f 3280 743f 667c 7e3f
00000300: 7477 793f dac4 7f3f 1d8c 6c3f e41b 823f
00000310: d929 843f 91c7 713f 7cb7 823f 981c 793f
00000320: 8f90 8b3f b472 803f 6a9f 7b3f 0bab 793f
00000330: bdf6 7f3f 3935 893f 6372 873f ff10 853f
00000340: 4b4d 7d3f e20c 7f3f aa60 713f 4da5 7d3f
00000350: c8d4 783f f8a9 833f 1ca1 7e3f 04ea 733f
00000360: bde1 753f 4b79 783f fc62 723f 67f3 783f
00000370: 5588 843f 6a7e 813f 92a7 833f f159 7f3f
00000380: 5fe6 863f 36d0 693f 16a7 7b3f a2b2 763f
00000390: c9cd 803f 2bd1 763f 25c6 823f 7411 803f
000003a0: bf1c 7d3f bc69 803f 92f7 7b3f a31d 6e3f
000003b0: 3c1d 873f e516 803f 0ab7 823f 115c 7d3f
000003c0: 63e2 7d3f 2b30 823f 5846 813f a9a1 793f
000003d0: a065 783f db18 763f c6a7 6c3f 00e4 6c3f
000003e0: f43b 833f 014f 813f 9cef 7b3f 8fdb 793f
000003f0: 9866 7e3f 2a86 7d3f 9417 873f 2f35 813f
1.0032817 1.0088979 0.9932125 0.9807011 1.0067226 1.0512792 0.9847546 0.9747278
1.0022504 0.99785113 0.99662936 1.0173926 1.0220774 1.0102867 1.0685331 0.9536292
0.9616946 1.0241226 1.0138801 0.9736552 1.1031272 0.93703365 0.8821831 0.95679915
0.99807084 1.0589502 1.0127536 0.9694397 1.0098308 1.063264 0.99254864 0.95630896
1.0445313 0.96788216 1.0268123 1.0218506 0.9263139 0.9943722 1.0148441 0.9522392
0.96229225 0.96853405 1.0146142 0.91579324 1.0267891 1.0255394 1.0350497 1.0185834
0.98580295 0.9516181 1.071226 1.0740212 0.99509966 0.99883294 0.9826118 1.039771
1.0079622 1.0000348 0.9637175 0.93032193 1.0040306 1.0066152 1.0049243 0.9682119
1.0050868 0.93778455 1.0572271 0.98337907 0.950603 1.0026133 1.0174247 1.0307784
0.9534978 1.0298058 1.0003444 1.0297914 1.0041461 0.9520638 0.9353714 0.94398576
1.013424 0.95524615 0.9357539 0.9885058 1.0274879 1.0266002 0.97316486 0.9690697
0.9826545 0.96131265 0.9888205 1.0127163 0.9685856 1.0310123 1.006263 1.0390605
0.9881152 1.0230165 0.9684438 1.0241768 0.98978263 0.9714069 0.9872499 0.9721272
1.0208513 0.9778815 0.960599 0.9976938 1.0493975 0.9606922 1.0065604 0.98348093
1.0285074 0.9829039 0.94090974 1.0715718 0.9864779 1.0403097 0.9949488 0.96725774
0.9207718 1.0050886 1.0046462 1.0143402 0.9496459 0.9877586 0.9999523 1.0034156
1.0419066 0.9622663 1.0394075 0.99274576 1.0029211 0.94464535 1.0271385 0.9414192
1.0427754 0.99945205 1.0216914 1.020482 0.97824955 1.0254275 1.0167325 1.0527538
0.9915384 0.99804395 0.94460565 1.0535979 0.98098034 0.977317 1.0120852 0.99615955
0.9374397 1.0236667 0.93540996 0.97934425 0.9806988 1.0318363 1.0349057 1.0063576
0.99811685 0.9051152 1.0233877 1.0023842 1.0330459 0.9587058 1.0160213 0.9503821
0.96132904 0.9705236 0.9566372 1.0077181 0.9845813 0.9891345 0.94419646 0.95878553
1.0049703 0.9506787 0.96469283 1.039108 1.0215863 0.9837727 0.98945177 0.9576299
0.9370882 0.9719197 0.9908685 0.99083453 0.97110593 0.9814828 0.9550811 0.99408567
0.97447896 0.99909747 0.92401296 1.0164762 1.0325271 0.9444514 1.0212245 0.97309256
1.0903491 1.0035005 0.9829012 0.97526616 0.9998587 1.0719367 1.0581783 1.0395812
0.98946065 0.9962903 0.9428812 0.99080354 0.9719968 1.0286245 0.99464583 0.95278955
0.96047574 0.9706008 0.9468229 0.972464 1.0354105 1.0116704 1.0285513 0.99746615
1.0539054 0.9133333 0.9830183 0.9636632 1.0062801 0.96412915 1.0216719 1.0005326
0.9887199 1.0032268 0.9842464 0.9301397 1.0555797 1.0006987 1.0212109 0.9896861
0.99173564 1.017095 1.0099592 0.975123 0.9703007 0.96131676 0.924435 0.925354
1.0252671 1.0102235 0.9841249 0.97600645 0.99375296 0.99032843 1.055407 1.0094355

bn.bias f4 [256]
00000000: 5487 2dbc 49ab fb3b f0c0 51bb 553a b3bb
00000010: 81b6 62bc 0604 be3c 32f9 ec3b 8ace 91bc
00000020: 5141 ab3b 40b3 873b b926 98bc d0f3 aa3c
00000030: 5ce9 f7bc 3249 2ebb ff7b eabb b3cb 6fbc
00000040: 161f af3c 3910 8a3b 7d96 d73b cb01 8fbc
00000050: ddab f53c 32e6 9fbc 4936 9fbc a056 0f3d
00000060: 0883 b63c ee4f 2ebc 3427 5a3b 32bf a9bc
00000070: 65ea 383c f834 fc3b 4264 2cbc 9ca6 cdbc
00000080: dda1 c23a e979 2b3d 5e3c c33c c268 523c
00000090: de54 b8bc c753 2fbd 2055 123c 708c 04bc
000000a0: 73dd 883c 46de 67bc cf9b 863c 490b 98ba
000000b0: f1a8 43bb 1635 043d a71e 0f3c 30e0 82bc
000000c0: 6503 6b3b c168 c2bb cb6d 3ebc 3516 c238
000000d0: c30b c4bb 2cf1 c6bb b397 60bc 44e4 783b
000000e0: 9d02 ffbc d781 473c 64ab 88bc 7228 24bc
000000f0: 24f6 113c 4116 b53c 0918 13bd fbdc 8ebc
00000100: 470e a63c f8fe 3dbc 38ee 05bc 674c 87bb
00000110: 3d24 2ebc a223 4e3c 1cc0 83bc 2e18 27bb
00000120: 7f8f 433c 9ece b8bb ce46 333c 91a5 09bb
00000130: 3f09 f5b9 f47d e9ba 0afe c439 7d5b d13b
00000140: 0ba0 33bb 1176 52ba 738a 4bbc d9bf 413b
00000150: f431 b73b 1bfe eb3c f63d ca3b 8c2a 01bd
00000160: 6f3f ebbc 9cd6 f83c 0e1f 30bb 8cec dcbb
00000170: fccf 2d3d 0cc8 a63a cfc9 68bc bef0 b63c
00000180: ecf4 0d3c bc62 71bc d3f1 813c 5956 18bc
00000190: 40d1 d4bc 40bc 463c 33cc c03b e037 053d
000001a0: e751 ae3b 2f2b f33c dc5d 72bc f8b3 07bb
000001b0: 57e4 49bb 9b96 323c cf60 0cbd 82a7 12bc
000001c0: 5af7 c7bc 497e 7bbc 27c6 3abc bc82 91bc
000001d0: e8ff 8a3b 4953 bebc fe2a 303c 7af7 9fbc
000001e0: 6a9a 40bc 2722 89bc 0afc d63c e598 c4bc
000001f0: bf1e 343c 0d75 78bc fc29 5fbc cd4b 2e3a
00000200: b5ec 703c 2e58 03bb 64fc 39bc 8b19 ba3b
00000210: e71e c7bc 1a40 4c3c 349d b23c f3fa 21bc
00000220: af22 d43c 0352 cfbc 32dd 89bc 7491 c43b
00000230: 9342 c83c ccac 7b3c d749 37bc 6913 a9bc
00000240: 0dca 9f3c f6a5 b5bc 188d 39bb 3e1f 8abc
00000250: 576e 37bc 6ce2 2c3c 92d3 f2bb 9f42 533c
00000260: e390 83bb 2a74 9cbb 3a0f 0e3c c8ac 77bc
00000270: 6457 37bc 36ff bbbc f66d 9d3c 6b8c abbc
00000280: ac4e d7ba 06fe 203d 6f8a 5d3c 51a3 98bc
00000290: bf4e 1cbd eaf6 00bc 2e20 103c 249a 17bc
000002a0: 9043 a23c 496c 78bc 4cdb c938 5b69 60bb
000002b0: b71a fa3b 5dc5 0a3d 9812 273c cefd c83c
000002c0: fb6a 923c d046 b5bc 6e4f 9eba 53da 61bc
000002d0: 1920 6c3c bbc0 b63c f807 e43b c886 81bc
000002e0: 67ba e03c 358e 72bb 69f4 31bc 8fa2 11bc
000002f0: 7d0d ab3c 2349 b2bc f160 a53b 5608 233d
00000300: 06e4 833c 26a9 bc3c b3d5 e3bb 5cd0 cf3c
00000310: 6b07 3239 99a7 923c d518 63bc 6a34 babc
00000320: 94ff 6e3c b266 6f3a 9db2 9139 5c73 a1bc
00000330: 238f 853c f91a bb3c d961 a93c 037d 38bc
00000340: 6a09 aebc dd35 87bc 9881 07bc e71f 01bb
00000350: 4b67 02bd 890a 31bc 8653 d83c 7e0b d5bb
00000360: e46d c8bc 2de8 83bc b043 16bc fe67 003b
00000370: b176 85bb 13de 5d3c 092b 7cbc 38bc aa3c
00000380: 2b1a e83c 0182 033d b57f d73c ea2d 8d39
00000390: 03dc bebc ea0f 4f3c 9ac9 023a 1dbf 8aba
000003a0: afbe e4bb f2df e03c fb0d d9bc b40e 86ba
000003b0: 16b7 823b fef7 4a3b 1028 2bbc b136 bcbb
000003c0: f717 1f3d 0daa a9ba 3e6f 263c e680 04bc
000003d0: 9331 873c 1b9e 8d3c 5295 17bd ac22 523a
000003e0: 4a0b 8b3a 10c2 e13a 0fcd 97bc 92c4 c43b
000003f0: dfad 4e3c 33f9 8a3b 6110 553c ef0d ad3b
-0.010591347 0.007680331 -0.003200587 -0.0054696 -0.013837458 0.023195278 0.007231855 -0.01779868
0.005226292 0.0041412413 -0.018573152 0.020868212 -0.030262642 -0.002659392 -0.007155895 -0.014635968
0.021377128 0.0042133597 0.006579219 -0.01745691 0.029989177 -0.019518945 -0.019435065 0.03499472
0.022279277 -0.010639174 0.0033287527 -0.020721052 0.011286353 0.007696744 -0.01052195 -0.02510386
0.0014849264 0.04186431 0.023832496 0.012842359 -0.022501405 -0.042804506 0.008931428 -0.0080901235
0.016707158 -0.014152115 0.016431717 -0.0011600043 -0.0029855336 0.03227719 0.008735335 -0.015976042
0.0035860178 -0.005932898 -0.011622856 9.254777e-05 -0.0059828474 -0.0060712304 -0.013708043 0.0037977854
-0.031129176 0.012176952 -0.016683288 -0.010019409 0.008908782 0.022105338 -0.035911594 -0.017439356
0.02027048 -0.011596434 -0.008174472 -0.004128981 -0.010628757 0.012581738 -0.016082816 -0.002549659
0.011936068 -0.005639865 0.010942174 -0.0021003226 -0.0004673693 -0.0017814026 0.00037573307 0.00638908
-0.0027408625 -0.00080284575 -0.012423146 0.0029563813 0.0055906717 0.02880769 0.006171937 -0.031534716
-0.028716771 0.030375771 -0.0026873979 -0.006742066 0.042434677 0.0012724414 -0.014208271 0.022331592
0.008664351 -0.014733013 0.015862381 -0.009297931 -0.025978684 0.012129843 0.0058837174 0.03252399
0.005319822 0.029683677 -0.014792886 -0.0020706635 -0.0030806267 0.010900165 -0.03427201 -0.00895107
-0.024409939 -0.015349933 -0.011399782 -0.017762534 0.004241932 -0.023233073 0.010752438 -0.019527186
-0.011755565 -0.016739918 0.026243228 -0.023998687 0.010993659 -0.015164626 -0.01362085 0.00066488684
0.014704873 -0.0020041573 -0.0113516785 0.0056793145 -0.024306728 0.012466455 0.021803476 -0.009886491
0.025895445 -0.02530766 -0.016829107 0.0059987847 0.024445808 0.015361022 -0.011187038 -0.020639138
0.019505525 -0.022173863 -0.0028312858 -0.0168606 -0.011195741 0.01055203 -0.007410475 0.012894302
-0.0040150746 -0.00477459 0.0086706225 -0.015116878 -0.011190269 -0.022948842 0.019217473 -0.02094098
-0.0016426644 0.039304756 0.013521775 -0.018632563 -0.038161036 -0.007871369 0.008796735 -0.009253059
0.019807607 -0.015162536 9.625274e-05 -0.0034242484 0.007632579 0.033879627 0.010197304 0.024535086
0.017873278 -0.022128493 -0.0012078115 -0.013784963 0.01441195 0.022308698 0.0069589578 -0.015811339
0.027432634 -0.0037011032 -0.010861495 -0.008888855 0.020880455 -0.02176339 0.0050469567 0.03980287
0.016099941 0.023029875 -0.006952965 0.025367908 0.00016978166 0.017902182 -0.013860901 -0.022730071
0.014587302 0.0009132429 0.00027789632 -0.019708328 0.016303604 0.02284001 0.02067654 -0.011260274
-0.021244723 -0.016505176 -0.008270644 -0.0019702853 -0.03183679 -0.010805734 0.026407015 -0.006501614
-0.024466462 -0.016101921 -0.009171411 0.0019593234 -0.004072987 0.013541716 -0.01539112 0.020841703
0.02833279 0.032106403 0.026306013 0.00026927824 -0.02329827 0.012638072 0.00049891474 -0.0010585521
-0.006980739 0.027450535 -0.026495924 -0.001022777 0.0039891107 0.0030970569 -0.010446563 -0.0057438244
0.038841214 -0.0012944356 0.010158358 -0.008087372 0.016503131 0.017287305 -0.037007637 0.0008016031
0.0010608223 0.0017223973 -0.018530397 0.0060048783 0.012614696 0.0042411326 0.013004393 0.005281202

bn.running_mean f4 [256]
00000000: 3011 8abe a72d 933d ef2f 2abd 3d97 99bd
00000010: d18e 7d3d 524b 65bd 6f07 2dbe 9346 843e
00000020: b9d1 0b3e 05c7 713e e195 ffbe 2a1a a63e
00000030: 613e 3ebe 56c6 553e b64b ab3e 11bb 28be
00000040: fcdc b03e d538 cd3e 0921 32bc 0514 d33b
00000050: 31c7 313c c7ac 933d f2b7 5a3e 5d98 df3d
00000060: e4fd 9f3e fcd2 34bd 98ff 20be 8fa8 a4be
00000070: f99b 34be 1b8e ad3e 201e a1be 47ca 4ebe
00000080: 6eeb 97be 902a e73d 17f2 71bd dd8b 853b
00000090: 20ab d5be 571c cfbe c39b 03bc a94d 03bb
000000a0: 2675 d43e b94d 1bbe 32dc 1e3e 007e c4bc
000000b0: 637f adbd cd42 fd3c 2918 84be b96c bdbe
000000c0: 59c3 27be ed58 773e 77c5 6abe 3642 a9be
000000d0: ee12 07be a25a 363d 2e8a 3dbd e691 993e
000000e0: 51cb c1be 9127 943e c21f ffbd e1bf 9ebd
000000f0: 4163 443e 43e4 a43e cdeb b0be dcc4 ed3d
00000100: 9f6b 243e ce43 4abe 2d6b 67be fc1d 45bc
00000110: beae 8cbd 07fb 78bd 31db 45bd edfa 20be
00000120: 5ddb 163f 9330 183d 4cdc 933c 082e 8d3e
00000130: 4934 89be 923a 4fbe b379 0fbd e581 fd3d
00000140: ec2b adbe 2e10 ffbe dc21 bbbe e7b6 cb3e
00000150: 4c44 49bd 8a54 933d 51bd 123e 3fc2 59be
00000160: 4102 74be 6c52 283e 8846 dcbe 6f2f a0be
00000170: 66ec a33d a0d7 c43e e2dd fabd ed2e e93e
00000180: d602 18be 5323 ddbe 8899 833e 2273 05bd
00000190: e96e 043e 8f27 b93d 9b6f acbe 3385 723e
000001a0: 69dd 85be 47d6 b33e 7396 44bd fb12 ec3c
000001b0: c12c 333e d640 b63e a23c 71be d1be d53b
000001c0: 95b3 173e 5b73 013e d2ce f6bd ae05 bbbd
000001d0: 2b1b 65bb ad95 0bbf 6578 2cbd 5c71 abbe
000001e0: 7751 a93d 4dfb 58be eb99 f1bd 957e 0f3e
000001f0: 6f5d c5be 8c8f 63be 6c30 983e 6cc7 52bd
00000200: 5967 b3bd d1b6 48be d7ba 5c3e 9ef2 963d
00000210: 1803 25be 821b 193d e00c f83e d36f 30be
00000220: e56f ae3e dfef cd3d 2ca8 edbe b9b6 d03e
00000230: c5d7 7c3e 32df f03c 9b89 a1be f800 64be
00000240: d444 09be 92c1 cabd 84bf 60be eaf7 38be
00000250: cadd b1bd 9285 0bbe 0c9f 0bbe ea15 b73e
00000260: 7a31 31bd a765 8dbc 5131 9c3e 10aa a1be
00000270: 1540 4ebe 8064 80bd b6bb a03d 5e42 1cbe
00000280: b259 40bd 619a bc3d ec22 8f3e 92b3 c4be
00000290: 0d90 96be 0653 09be be2f 0dbe 7a10 75be
000002a0: 03f7 c4bd 201c 4ebd 4bf1 463e 5425 55be
000002b0: 96d6 a83e 89d6 ce3e ad52 ab3e ed4e 463e
000002c0: d123 5b3d 80c7 1cbd be57 ce3d d090 a9bd
000002d0: 767b f2bb d601 9e3e d7fb 23be ab0f 3bbe
000002e0: 3988 943e 6429 92be c5ed 13bf 1519 23be
000002f0: 7f80 3f3e 6399 7bbd 150c 96be edb6 093f
00000300: dc60 6b3c 9bb7 e6bd 8622 30be 83db 2b3f
00000310: 0576 bbbe fa06 20be 4162 c83d fcef afbd
00000320: 347d 383e 07dc 703b df5e a0bc f7f7 5d3e
00000330: a4eb 5d3e 536e 623e 8014 57bd 98e9 46be
00000340: c05e dabd 207d f6be c914 64bd b4c1 d6be
00000350: a92e 043e 151c 933e 144b 1d3e 36bc 53be
00000360: 98b8 b2be df03 aabe 8eeb 373d ba08 93bd
00000370: c75f 82b9 fe55 bb3e 9a04 27be b8d1 a23d
00000380: 4eac 6a3d d505 ff3e 84c7 3a3e d9c8 673e
00000390: 2070 1fbd 4c40 bb3d a968 68bd 4731 cd3d
000003a0: 8e2d 8e3e e26c db3e 030f 83bd 6ea9 5b3c
000003b0: 84b3 5b3d a45b bdbe 6329 6b3e 4412 013f
000003c0: 18e6 613d 92d3 413d bb70 053e a74b 55be
000003d0: 5a05 dfbd 51b6 013e 3ba9 b6be 6902 5fbd
000003e0: 613d 71be 9c24 8b3e 194a 81be a5f7 08bf
000003f0: ef26 f2bd 6d36 a0bd 0773 5a3e ef00 843d
-0.26966238 0.07186442 -0.04154962 -0.074995495 0.06190378 -0.055980034 -0.16897367 0.25835094
0.13654222 0.23611076 -0.49919036 0.32441837 -0.18578483 0.2087644 0.334562 -0.1647761
0.34543598 0.40082422 -0.010872134 0.0064415955 0.010850714 0.07210689 0.21359232 0.10917733
0.3124839 -0.044146523 -0.15722501 -0.3215985 -0.17637624 0.3389748 -0.31468296 -0.2019435
-0.29671806 0.11287415 -0.059068765 0.004075511 -0.4173212 -0.4045131 -0.008032742 -0.0020035303
0.41495627 -0.15166368 0.15513685 -0.023985863 -0.08471563 0.030915642 -0.25799683 -0.3699701
-0.16383113 0.24155016 -0.2292689 -0.33058327 -0.13190815 0.044520028 -0.046274357 0.29994124
-0.3785043 0.28936437 -0.12457229 -0.07751442 0.19178487 0.322054 -0.34554902 0.116098136
0.16056679 -0.19752428 -0.22599478 -0.012031075 -0.06869267 -0.060786273 -0.04830474 -0.1572072
0.5892847 0.0371557 0.018049382 0.27574182 -0.26797703 -0.20237187 -0.03502817 0.12378291
-0.33822572 -0.49817032 -0.3654927 0.3978798 -0.0491374 0.07193859 0.14330031 -0.21265505
-0.23828985 0.16437691 -0.4302256 -0.3128619 0.08004074 0.3844576 -0.12249352 0.45543614
-0.14844832 -0.43191013 0.25703073 -0.032580502 0.12932934 0.09040748 -0.33678898 0.23683624
-0.26145485 0.35124418 -0.047995042 0.028817644 0.17497541 0.3559634 -0.23558286 0.006522991
0.14814599 0.12641661 -0.120511666 -0.09131943 -0.003495882 -0.5452526 -0.042107005 -0.33484924
0.08267491 -0.21189614 -0.11796936 0.14013131 -0.38547847 -0.22222728 0.29724443 -0.051459715
-0.087599464 -0.19600989 0.21555649 0.07370494 -0.16114461 0.03737975 0.48447323 -0.17230158
0.34069744 0.100555174 -0.46417367 0.40764406 0.24691685 0.029403303 -0.31550297 -0.22265995
-0.13405162 -0.09900202 -0.21948057 -0.18063322 -0.08684881 -0.13625172 -0.1363489 0.35758907
-0.043260075 -0.017260386 0.30506375 -0.3157506 -0.20141633 -0.06269169 0.07848303 -0.15259692
-0.04696054 0.09209133 0.2795633 -0.3841825 -0.29406777 -0.13410577 -0.13787743 -0.23932067
-0.09617426 -0.05031979 0.19427983 -0.20815021 0.32976216 0.40398052 0.33461514 0.19366045
0.053500954 -0.038276196 0.10075329 -0.08279574 -0.0073999716 0.30860776 -0.16014038 -0.18267696
0.2901018 -0.28547204 -0.5778468 -0.15927537 0.18701361 -0.061425578 -0.29306093 0.5379475
0.014366355 -0.11265489 -0.1720067 0.67131823 -0.3661348 -0.15627661 0.097843654 -0.08590695
0.18016511 0.003675224 -0.019576488 0.21676622 0.21671921 0.22112398 -0.052509785 -0.19425046
-0.106626034 -0.48142338 -0.055683885 -0.4194466 0.12908424 0.28732362 0.15360671 -0.20677266
-0.3490646 -0.33206078 0.044902377 -0.07179399 -0.00024866892 0.36589044 -0.16310349 0.07950157
0.05729323 0.49809137 0.18240172 0.22635211 -0.03892529 0.09143123 -0.056740437 0.100191645
0.2776913 0.42856508 -0.06399348 0.013407094 0.053637996 -0.3698398 0.22965007 0.50418496
0.055151075 0.04732091 0.13031285 -0.2082964 -0.108896926 0.12667204 -0.35675988 -0.054445658
-0.2355857 0.27176368 -0.25251845 -0.53502876 -0.11823832 -0.07822881 0.21332942 0.064454906

bn.running_var f4 [256]
00000000: 5c28 423d 6118 363d b2c4 333d 6b13 203d
00000010: f005 653d a1fc 4f3d 96d7 3a3d c33c 473d
00000020: 1447 4d3d acb2 2e3d 0d8c 3b3d f042 343d
00000030: 7beb 413d 00ab 483d 54ce 7a3d afa0 2f3d
00000040: d161 173d 5923 513d 65ad 383d af7b 363d
00000050: 4d56 603d d666 1a3d 9edd 193d d0b7 233d
00000060: 7add 263d aae0 3f3d cc98 313d 4f1b 2f3d
00000070: 7173 3d3d 9c31 3e3d a48d 583d ccda 2e3d
00000080: e60e 653d 2cf3 383d 4663 1f3d 8a48 4b3d
00000090: b7c1 5d3d 6a38 3a3d 867d 403d 1da9 253d
000000a0: 16dc 423d 914a 213d 5fdf 3f3d 822d 1b3d
000000b0: d410 473d d89d 3e3d 50d3 493d fa46 633d
000000c0: 2106 323d cd0f 293d cad5 623d 3bc9 5d3d
000000d0: 669a 473d 9c9a 523d 7f33 423d cac5 523d
000000e0: 8f58 313d 34e7 303d 484c 243d 2f0f 2a3d
000000f0: f8de 3d3d 0492 4d3d d4cd 553d 66bc 2b3d
00000100: 620a 5f3d 4a3f 233d a334 4a3d 5c8c 2e3d
00000110: 5541 1a3d 66da 403d 08b9 453d cfce 453d
00000120: 080c 1f3d 673a 213d 79f3 2b3d 033d 4b3d
00000130: 289e 263d db16 153d 8064 163d 1f92 403d
00000140: 9662 3e3d 23a0 253d 7c80 243d 97ba 2a3d
00000150: 1b48 4c3d 944a 3b3d 4719 443d aff6 2e3d
00000160: 4993 3f3d 5974 173d 4e10 583d 9c6f 463d
00000170: 7ed8 583d be6c 383d e836 483d b224 593d
00000180: f6cd 3b3d 9b8b 4b3d 0545 2e3d ff70 2c3d
00000190: 1e38 4a3d 713a 223d fca9 413d b1e6 553d
000001a0: 06e7 433d e86d 3b3d 3988 3b3d 977a 493d
000001b0: 0441 313d 74bd 363d 3d62 443d 0fc4 403d
000001c0: 2c8d 453d 8909 533d 4e8e 333d ecdf 683d
000001d0: 04d7 343d 0f3f 3d3d 784a 253d 5b93 143d
000001e0: 72fb 323d 49f8 443d c164 663d 210c 4d3d
000001f0: 4d15 2d3d 9d8d 3a3d 9c7a 2f3d 7634 643d
00000200: 2dce 343d c9e5 213d 7daf 493d 1a20 293d
00000210: f3cc 3e3d d6a2 253d a9b7 283d c03f 283d
00000220: 5e6a 3c3d ac34 373d 41a0 4d3d 9060 343d
00000230: 3d02 3d3d 9db9 4f3d 1c9f 563d 5fbc 443d
00000240: 8872 313d 8d18 413d 4cff 353d f5ce 443d
00000250: 4e72 453d 1eac 543d 79fe 2c3d cbe2 4d3d
00000260: 2a00 203d 70cf 5b3d 27d8 1c3d ed31 413d
00000270: 8db7 2c3d 064a 383d 6ece 473d 4077 4b3d
00000280: e7e7 433d 182a 303d 433a 343d 7466 633d
00000290: 73bf 493d 0a6c 363d 07a4 5a3d ee97 653d
000002a0: e2d2 373d 5420 353d e5ec 3e3d 8ee7 5e3d
000002b0: 1a2d 4d3d dd72 4b3d 1af0 3d3d 8b5c 403d
000002c0: 54f7 423d 3f1b 313d 6abd 323d e13b 543d
000002d0: 410e 563d 5d1d 303d 2012 463d cf9d 2c3d
000002e0: 7cc7 4b3d 3eb9 333d 8a56 383d 55b0 2d3d
000002f0: b29f 253d cbed 353d f7d5 373d 1051 363d
00000300: b1ce 323d 14bd 233d 5003 303d 0a67 303d
00000310: 03c1 493d ab4d 353d 4230 503d 18b0 303d
00000320: 6d18 5f3d 910a 343d 808e 423d c91c 4b3d
00000330: d70c 393d da84 373d 09ff 5e3d 547e 353d
00000340: b4a2 263d 40c9 3e3d a20c 293d 6613 503d
00000350: e421 413d 2815 3e3d 147b 403d ec3c 313d
00000360: 4af3 273d 32f3 1f3d 904b 343d 05c6 1b3d
00000370: fb99 493d 61ac 363d 9b94 583d cb92 413d
00000380: 106f 6a3d fd6b 1f3d 9762 233d 6315 463d
00000390: d463 483d a60f 3b3d aff9 3c3d 5ce2 473d
000003a0: 0580 3d3d 7e5a 383d e932 393d c416 253d
000003b0: 65d8 4e3d e82e 543d bc7f 3f3d e300 3d3d
000003c0: 92c7 3d3d 61c7 453d 75e5 303d 0cde 4b3d
000003d0: 89cc 113d 58f3 3e3d 55de 4e3d 33e2 3b3d
000003e0: c1a5 4c3d e3a9 3e3d 5fbb 363d 306c 5b3d
000003f0: f616 4f3d acc5 373d f41b 443d d45b 4b3d
0.04740177 0.044456843 0.043888755 0.03908102 0.055913866 0.050778035 0.045615755 0.04864193
0.050116614 0.042650864 0.04578786 0.04400915 0.047343712 0.048991203 0.061231926 0.04287785
0.03695852 0.0510591 0.045087237 0.044551548 0.054769803 0.03769573 0.037564866 0.03997022
0.04073856 0.046845116 0.04335861 0.042750653 0.04625267 0.04643403 0.052869454 0.04268913
0.05592241 0.04515378 0.038913034 0.049629726 0.05413982 0.045463957 0.04699471 0.040444482
0.04757317 0.039377753 0.046843883 0.037885197 0.048600033 0.04653725 0.04927379 0.05548761
0.043462876 0.041274834 0.055379666 0.054146986 0.04873123 0.05141698 0.04741239 0.051458158
0.043297347 0.043189242 0.04011181 0.041518386 0.046355218 0.05018808 0.052198246 0.041927718
0.05445326 0.03985528 0.049366605 0.042614326 0.03765996 0.04708328 0.048272163 0.04829293
0.038829833 0.039362337 0.04198024 0.049618732 0.040678173 0.03639875 0.036716938 0.047014352
0.046480738 0.04043592 0.040161595 0.041681852 0.049873453 0.04572542 0.04787567 0.042715725
0.04677132 0.036976192 0.052749924 0.048446283 0.052940838 0.04502558 0.048880488 0.05301351
0.045850717 0.049693685 0.04254629 0.04209995 0.049369924 0.039606515 0.04728125 0.052221958
0.047827743 0.04575911 0.04578421 0.049189176 0.043274894 0.04461427 0.04794525 0.047061976
0.048230335 0.051522765 0.043836884 0.056854174 0.044150367 0.046202715 0.040354222 0.03627334
0.04369683 0.048088346 0.05624843 0.050060395 0.042256642 0.04554521 0.04284154 0.055714093
0.044141937 0.03952578 0.049239624 0.04129038 0.046582174 0.040438496 0.041190777 0.04107642
0.045999877 0.044727966 0.05020166 0.0440374 0.046144713 0.050714124 0.052397832 0.048031207
0.043322116 0.047142554 0.044432923 0.048048932 0.048204713 0.051921956 0.04223487 0.050265115
0.039062656 0.053664625 0.038292076 0.047166754 0.042167235 0.04499247 0.04878085 0.049674273
0.04782858 0.043008894 0.044000875 0.05551763 0.049254846 0.044536628 0.053379085 0.056053095
0.044878848 0.044220284 0.04661264 0.054420047 0.05009184 0.04967009 0.046371557 0.046963256
0.04759915 0.043238875 0.04363767 0.051814917 0.052259687 0.042996753 0.04835713 0.042142686
0.04975079 0.043877833 0.045004405 0.04240449 0.0404355 0.04441623 0.044881787 0.0445109
0.043654148 0.03997524 0.04297191 0.043067016 0.049256336 0.044263523 0.050827272 0.043136686
0.054466654 0.04395539 0.04749918 0.049588 0.04517826 0.04480443 0.05444244 0.04430993
0.04068251 0.046578646 0.041271813 0.05079975 0.04715146 0.046406895 0.046992376 0.04327099
0.041003503 0.03905029 0.044017375 0.038030643 0.049219113 0.044597987 0.052876096 0.047259133
0.057234824 0.038921345 0.039888944 0.04836024 0.04892333 0.04566922 0.046136554 0.048799857
0.046264667 0.045008175 0.045214567 0.040304914 0.05049934 0.051802546 0.046752676 0.046143424
0.046332903 0.048285846 0.043187577 0.049772307 0.03559545 0.04661879 0.050505 0.045870017
0.049962763 0.046548735 0.044612285 0.053569973 0.050559007 0.04486625 0.04787822 0.04964812

bottleneck.weight f4 [256, 512]
00000000: d4ae 213c 7b72 bd3c b1cb 31bc 5e43 61bc
00000010: a547 cb3c c756 973b 4416 513c 690d 1dbd
00000020: 5924 d1bc 2e2b 46bb 4852 aa3c d301 aa3c
00000030: bb18 523c 5e7b 933c c4cc 77bd 584d dc3b
00000040: 0eee c4bb 9ebe 243d b35a 073c d3b7 b6bc
00000050: 7df8 c03c 6596 183d d958 a6bc ec61 b6bb
00000060: 6eb9 083d 4ba7 f6bc 78e0 72bb 5d0e 1e3b
00000070: ac2d 763c b645 013c 5fc9 40bd e250 9a3c
00000080: 2d99 6a3c b78c 453c 3317 24bc 3632 0c3c
00000090: 3a6e ba3b 95c0 76bb 8b95 593c c7f8 493c
000000a0: d491 6cbc 3225 18bc 3e2c e1bc 4e1a 67bc
000000b0: 6957 e2bc d22b 9bbc d9bd f73b 3ea1 9bbb
000000c0: fa09 453c 13b9 2f3a e3df a6b9 7c7b bbbc
000000d0: 6fa7 a7bb 94ca 0b3c 80db bdbc f8f1 433c
000000e0: aead 3c3c a3e4 0dbd 871c 643a d6c8 0bbc
000000f0: 25d2 a5bc 6181 c83c b0d6 d73b 3290 853c
00000100: 3e97 703c 3f07 4fbc 499d 2abb d977 aebb
00000110: 578b b93b 10d9 f7bc ff9c c83b a528 5abb
00000120: 8ac1 463c 6220 d83a 6b72 04bc 281e 2d3b
00000130: 0071 9a3c 7be8 c0bc 0482 0b3c e49d 25bd
00000140: 9f45 34bc 8547 353b 5189 ac3c a744 89bc
00000150: 43f3 423c 4911 943c 3fee f83b 7a9c f6bb
00000160: 69e2 413c 062c 323c 374a 31bc 8d04 b0bb
00000170: 7137 12bb 82aa 82bc beab 0a3b 16e0 2abb
00000180: a999 21bd 28a1 393d f88e 393c 5e6d 773c
00000190: 9f49 01bd 42c8 03bd b610 5dbb e61d 193b
000001a0: 0ab0 1a3c 2102 ad3b 91f1 2cbc d2a5 c0bc
000001b0: 8e12 f03c 4b15 bdbc e676 18bd 7d8b 593c
000001c0: d361 003d 80c1 603b 1366 91bc 0fd4 013c
000001d0: 6501 153c 376e 8fbc 4bf5 babc 21ca c9ba
000001e0: 08a5 fb3b 4741 c5bb 8cf7 f6ba ccbe c4bc
000001f0: d87e 6dbb f669 da3c 1e53 f73c ba01 7fbc
00000200: 9e67 ef3c a1ff b6bc 9ac9 563c 29f1 bf3c
00000210: 88c2 b23a 23b9 a6bb 1b3c 6e3c d2aa 9abc
00000220: f62c 3c3b a234 aebc 3aef bd3c 3b3a 2cba
00000230: c809 6abc a80f 0bbd 3963 123c 0ae9 343c
00000240: 6afc 7b3c 13d4 de3a 4c78 fabb dbd1 12bc
00000250: 87a6 213c 2f81 303a 7f0d 70bb d0a9 92bc
00000260: 6449 7cbc 88d8 7dbc 9ea6 60bc df04 a2bc
00000270: adc2 803c 66f7 e0bc 0f7a f5bc 0363 823b
00000280: 0b17 a6bc 9067 523b 4ac0 163d ab43 983c
00000290: 3a4a 2c3d 26ea 02bc 41f2 4fbd 7535 023b
000002a0: 2c42 febb 3fcf c8bc a79b f7bc 1283 b4bc
000002b0: 4535 6e3c 403d 9fbb c5db 953c 82fb f939
000002c0: 26b7 df3b d836 86bc 9bd7 3fbc 16a3 553b
000002d0: 96b6 bebc 2068 ea3b 5dcd 84bb 926c 5dbb
000002e0: 833a 003d 7a00 55bb 9e04 2f3c b2fe 1dbc
000002f0: 991b 673c f5c6 473c e9de acbc 654a 0bbd
00000300: 1ca3 d53c f919 e3bb 46c0 e23b 2aa6 b0bc
00000310: 6e10 89bc c446 ad3a f068 f8bb 4451 f53b
00000320: 90b8 bb3c 2d67 7bbb 9c9b 283c 2f0f 07bd
00000330: 116a 73bc 977d d9b8 0a20 e7bb 92a6 823c
00000340: b007 643b ef5a 8d3c 9a74 ddbc c3ba 61bc
00000350: 1969 2dbb d27a 86bc 8d4f c2bc 7b08 d8bc
00000360: fa59 22ba b058 9abc a3aa 09bd 917f 57ba
00000370: c23d 28bc 2b45 70bd 685a 5d3b f705 753c
00000380: 8140 bc3b 5b1c 14bc 4849 59bc 87a6 113c
00000390: ee63 86bb 5cb8 68bc fe9a 44bd 8bc2 cfbc
000003a0: 8777 afbb 97c3 17bd 6aff 973c be82 45bb
000003b0: a659 a83c ea23 b63c 2935 563a c2c4 88bc
000003c0: 8676 753c e8b8 793c f128 393c c25b 5b3b
000003d0: e99b 47bc 17a6 dd3c 69b3 f4bb 6f1a 93bb
000003e0: b17b a73b 0c41 5abc 3132 cc3b 5ad4 3abb
000003f0: b5df 1b3d d736 b53c c5a8 3e3c 7291 c83c
0.009868342 0.023125878 -0.0108517865 -0.013748972 0.024814436 0.004618499 0.012761656 -0.038342867
-0.025530027 -0.003023814 0.020791188 0.020752823 0.012823279 0.018003162 -0.060498014 0.0067230873
-0.0060098236 0.04022085 0.0082613705 -0.022304451 0.023555988 0.037252802 -0.020306038 -0.0055658724
0.033379965 -0.030109068 -0.0037060063 0.0024117448 0.015025537 0.007890156 -0.047067042 0.018837396
0.0143187465 0.012057475 -0.010015297 0.008556893 0.0056894096 -0.003765141 0.013280283 0.01232738
-0.014439065 -0.009286212 -0.027486917 -0.014105393 -0.027629571 -0.018941794 0.0075604734 -0.004749446
0.012026304 0.00067032984 -0.00031828796 -0.02288603 -0.005116395 0.008532185 -0.023175955 0.011959545
0.011516018 -0.034641873 0.00087017607 -0.00853177 -0.020241806 0.024475755 0.006586872 0.01630411
0.014684496 -0.012636005 -0.002603369 -0.0053243455 0.0056623626 -0.03025487 0.006122231 -0.0033288386
0.012131104 0.0016489143 -0.00808392 0.002641568 0.01885271 -0.023548355 0.008514885 -0.04043378
-0.011002927 0.0027661037 0.021061571 -0.016756369 0.011898818 0.018074648 0.0075967605 -0.0075259777
0.011833766 0.010874754 -0.010820917 -0.0053716362 -0.0022310878 -0.015950445 0.0021159495 -0.0026073507
-0.039453182 0.045319706 0.01132559 0.015101759 -0.03156435 -0.032173403 -0.0033731884 0.0023363768
0.009441385 0.005279795 -0.010555641 -0.02351657 0.029305723 -0.023081442 -0.037222765 0.0132778855
0.031343292 0.0034295022 -0.017748868 0.007924094 0.009094571 -0.01750861 -0.022822043 -0.0015395322
0.0076795854 -0.0060197446 -0.0018842085 -0.02401676 -0.0036238935 0.026661854 0.030191 -0.0155643765
0.029224213 -0.02233869 0.013109589 0.023430424 0.0013638297 -0.005087988 0.014540697 -0.018880282
0.0028713322 -0.021265332 0.023185361 -0.00065699563 -0.014284559 -0.033950478 0.008934789 0.011041889
0.015380004 0.0017000459 -0.007643735 -0.008961166 0.009866363 0.0006733117 -0.0036629138 -0.017903239
-0.015398357 -0.01549352 -0.0137116 -0.019777713 0.015717829 -0.027461719 -0.029965429 0.0039790883
-0.02027466 0.0032105185 0.036804475 0.018586954 0.042062975 -0.007990396 -0.05076814 0.0019868289
-0.007759353 -0.024512885 -0.030225588 -0.022035155 0.014539068 -0.0048595965 0.01829327 0.0004768037
0.006827253 -0.016383573 -0.011709119 0.0032598427 -0.023280423 0.007153526 -0.0040528015 -0.0033786637
0.0313058 -0.0032501505 0.010682253 -0.009643244 0.014105701 0.012193431 -0.021102386 -0.034006495
0.026078753 -0.0069305864 0.0069198934 -0.021563608 -0.016731467 0.0013219942 -0.007580869 0.0074864943
0.022915155 -0.0038361058 0.010291006 -0.032973465 -0.014856831 -0.00010370759 -0.00705338 0.015948568
0.0034794621 0.017255275 -0.027033139 -0.013777438 -0.0026460348 -0.016415987 -0.023719573 -0.026371231
-0.0006193217 -0.018841118 -0.033609997 -0.0008220608 -0.01026863 -0.058659714 0.003377581 0.014955035
0.005744994 -0.009039964 -0.0132621005 0.008889801 -0.004101268 -0.014204111 -0.047999375 -0.02536132
-0.005354825 -0.037051763 0.018554408 -0.0030137743 0.02055056 0.022233922 0.00081713736 -0.016695384
0.0149818715 0.015241839 0.011301265 0.003347144 -0.012183168 0.027056737 -0.0074676764 -0.004489235
0.0051111807 -0.013321172 0.006231569 -0.002850792 0.03805514 0.022120876 0.0116369175 0.024483416

bottleneck.bias f4 [256]
00000000: f86c 18b3 0c43 7d32 3c5a 6bb0 b72c bab2
00000010: 0ff3 5d32 0eb8 57b2 6e4a a2b2 7d80 d832
00000020: aa54 c732 94b2 2d33 89a3 9eb3 4f7e 4a33
00000030: fba5 dbb2 7b66 a632 e399 7433 b447 dab2
00000040: 3571 5e33 332c 6933 ebb2 1c31 2af3 0f32
00000050: 5682 2b32 11d2 4e32 3b26 0d33 7d7a 2232
00000060: 096d 3833 d951 ddb1 8683 32b2 11e6 06b3
00000070: 8161 81b2 0558 1633 5676 1ab3 8572 d1b2
00000080: 39be 09b3 0dc1 de32 6aeb 65b2 ee0c b7b1
00000090: e1d8 0ab3 3fb6 1cb3 8c71 89b1 a96c 34b1
000000a0: c365 3c33 dc20 f5b1 21cb ca32 60e3 ad31
000000b0: b117 45b2 f342 03b1 a09e 0ab3 5778 29b3
000000c0: 8441 fdb2 56d5 1b33 9b4e e2b2 0f0c 1eb3
000000d0: 9554 b0b2 5d44 4932 c5b7 6eb2 4351 dc32
000000e0: 4490 53b3 b6b0 2e33 a34c 68b2 bb70 a4b1
000000f0: dd7f 0833 16b2 3d33 9123 14b3 68a4 2830
00000100: 691a b032 bba8 b7b2 0b73 ccb2 03ba a431
00000110: 1ffa f1b2 5ed8 24b2 3651 db31 c2c8 c9b2
00000120: 6da1 a833 325a 1d32 24c7 b9b1 aab6 0233
00000130: 7efd 18b3 316e 9eb2 eff1 29b2 a541 c832
00000140: 7972 1eb3 96f6 8ab3 7b66 33b3 7d71 3333
00000150: 8919 1eb2 7955 a832 4280 8432 4b96 04b3
00000160: 951a dfb2 2f52 c632 288b 5bb3 9972 21b3
00000170: fc68 9bb0 bfdc 7d33 2a02 45b2 cb7c 3533
00000180: 9cee 6fb2 433e 70b3 b7b8 1633 37e2 a731
00000190: 5f20 da31 de3a c531 a23d 40b3 d32d fb32
000001a0: 14fc 15b3 9b0b 2d33 08ed f931 e591 2932
000001b0: 3332 1333 708e 2333 1813 dfb2 9c5f c331
000001c0: c5d6 1933 8e3c c632 2101 59b2 2e19 66b1
000001d0: 4ca7 aab1 a129 aeb3 6ee0 3db2 75f8 5ab3
000001e0: 9a73 3432 84f7 eab2 c6c9 6eb2 b103 f032
000001f0: 28e7 1db3 7ced c5b2 4de7 3933 ff9d eab1
00000200: ac2f 30b2 5f29 ddb2 8024 bb32 97a7 c932
00000210: e7e9 ceb2 8445 5c32 88c3 b333 28f5 eeb2
00000220: df3c 3c33 d220 9132 f17a 9cb3 7c89 6b33
00000230: 805d fe32 4c17 1cb1 787e 13b3 8d7c 2db3
00000240: 8077 0bb2 2abe 6bb2 643c fdb2 414e 26b3
00000250: 761a acb2 0dfe 9cb2 ab31 1eb3 f6ed 2d33
00000260: d234 bcb0 dd42 44b2 e0af 2033 6b07 11b3
00000270: 799c b2b2 af13 97b1 fb42 3032 bbf7 fcb2
00000280: 9fae b0b1 3b3e 1432 8a49 1233 dfea 09b3
00000290: 41ac 15b3 fd4c 1ab2 c738 c8b2 9df2 d2b2
000002a0: fa4b 2cb2 27a2 57b2 9f29 8732 4e03 d0b2
000002b0: fdec 3433 df1e 7c33 6e02 ec32 1f74 e932
000002c0: 01e6 2032 93a7 4cb0 9e87 d432 1cdd 87b2
000002d0: 6cfe b0b1 8ef6 1a33 0db5 a1b2 9e59 98b2
000002e0: b26f e332 da23 28b3 3f0d a5b3 9a58 5bb2
000002f0: cb73 9932 7df4 b630 e506 1cb3 dc74 a933
00000300: 056a 8a32 17b8 60b2 4092 bfb2 ad80 bc33
00000310: 932d 28b3 aee4 d4b2 e7e0 7432 ff4f 5ab0
00000320: f6d5 c432 3563 1eb1 27cf 13b1 c123 e232
00000330: e98b d232 a464 de32 7dad f5b1 c2b7 1bb3
00000340: d63a acb2 c6b8 5fb3 86f7 49b2 e919 3eb3
00000350: f280 ae32 653a ba32 34ba 4032 89f7 dbb2
00000360: baa6 28b3 9bd6 2ab3 1574 d631 d875 5cb2
00000370: 83ec 5831 70b5 7733 9ed7 32b2 5516 5032
00000380: 16b3 8e32 54bf 3c33 4754 a932 4428 8032
00000390: dad1 7731 2f2a d232 7404 c0b1 4be2 8f32
000003a0: ec59 e132 6987 7433 ce1a 0831 bc1c 8b31
000003b0: f454 d031 caaa 13b3 6ef1 2233 c67a 8833
000003c0: 59dd 6731 ee6b 2d32 98ca 4532 344b 00b3
000003d0: 2cfa 0cb3 e2ce 1132 7d1e 5bb3 f287 48b2
000003e0: 638a ebb2 b877 0a33 cf7c 13b3 52a1 7ab3
000003f0: d104 c5b2 f3d0 76b1 ec32 0233 8f73 a132
-3.5489364e-08 1.4741783e-08 -8.562073e-10 -2.1673584e-08 1.2919158e-08 -1.2556496e-08 -1.8893129e-08 2.520414e-08
2.320515e-08 4.0442117e-08 -7.387195e-08 4.7146667e-08 -2.5570435e-08 1.9371546e-08 5.6950636e-08 -2.5411147e-08
5.1791364e-08 5.428974e-08 2.280269e-09 8.378985e-09 9.983145e-09 1.2038542e-08 3.286389e-08 9.457492e-09
4.2940005e-08 -6.4412515e-09 -1.0390869e-08 -3.140855e-08 -1.5061916e-08 3.500465e-08 -3.5963545e-08 -2.438288e-08
-3.2070805e-08 2.593199e-08 -1.3383081e-08 -5.327471e-09 -3.232788e-08 -3.6487332e-08 -4.0001336e-09 -2.6255214e-09
4.3864713e-08 -7.134174e-09 2.3608267e-08 5.060812e-09 -1.1472296e-08 -1.9101065e-09 -3.2274897e-08 -3.9457827e-08
-2.948287e-08 3.6282778e-08 -2.6345608e-08 -3.679821e-08 -2.052756e-08 1.1715284e-08 -1.3895208e-08 2.5648324e-08
-4.9258475e-08 4.067325e-08 -1.35216025e-08 -4.785844e-09 3.178126e-08 4.416696e-08 -3.4491283e-08 6.135168e-10
2.0501107e-08 -2.1380734e-08 -2.3801041e-08 4.7941753e-09 -2.8169834e-08 -9.595253e-09 6.3829715e-09 -2.3490774e-08
7.852473e-08 9.159111e-09 -5.4068483e-09 3.0434116e-08 -3.5620808e-08 -1.844373e-08 -9.892104e-09 2.3312916e-08
-3.6891354e-08 -6.4709795e-08 -4.176989e-08 4.1779902e-08 -9.2026164e-09 1.9596643e-08 1.5425147e-08 -3.0870336e-08
-2.5972705e-08 2.3087606e-08 -5.1116473e-08 -3.758996e-08 -1.1307573e-09 5.910692e-08 -1.1467401e-08 4.2255845e-08
-1.39658844e-08 -5.593598e-08 3.5092594e-08 4.8860573e-09 6.348315e-09 5.740147e-09 -4.475954e-08 2.9241084e-08
-3.492103e-08 4.0290256e-08 7.273801e-09 9.870267e-09 3.427176e-08 3.808094e-08 -2.59693e-08 5.6861165e-09
3.581842e-08 2.307777e-08 -1.2631319e-08 -3.3483718e-09 -4.9666706e-09 -8.110079e-08 -1.1052277e-08 -5.098305e-08
1.0503664e-08 -2.7353742e-08 -1.3899301e-08 2.7941356e-08 -3.6764646e-08 -2.3041814e-08 4.3284036e-08 -6.8282584e-09
-1.0255388e-08 -2.57466e-08 2.1786263e-08 2.347569e-08 -2.4087923e-08 1.2821491e-08 8.370904e-08 -2.781833e-08
4.3827523e-08 1.6895147e-08 -7.286679e-08 5.4840243e-08 2.961201e-08 -2.271423e-09 -3.4341127e-08 -4.039298e-08
-8.118036e-09 -1.3722039e-08 -2.9480539e-08 -3.872106e-08 -2.0035468e-08 -1.827632e-08 -3.6832414e-08 4.0496126e-08
-1.3693813e-09 -1.14239045e-08 3.741286e-08 -3.376719e-08 -2.0793083e-08 -4.396916e-09 1.0259778e-08 -2.9449316e-08
-5.1421263e-09 8.628883e-09 3.4060157e-08 -3.2111412e-08 -3.484843e-08 -8.981485e-09 -2.3308884e-08 -2.4557545e-08
-1.0028993e-08 -1.2551516e-08 1.5734996e-08 -2.421589e-08 4.2125055e-08 5.87014e-08 2.747512e-08 2.7177576e-08
9.365523e-09 -7.4452905e-10 2.474172e-08 -1.5816617e-08 -5.1511986e-09 3.608016e-08 -1.88252e-08 -1.7735882e-08
2.6477071e-08 -3.9148155e-08 -7.685821e-08 -1.2767623e-08 1.78642e-08 1.3311731e-09 -3.632785e-08 7.890932e-08
1.6113527e-08 -1.3080373e-08 -2.2301833e-08 8.777838e-08 -3.9156998e-08 -2.478404e-08 1.4253806e-08 -7.942162e-10
2.2914701e-08 -2.3048419e-09 -2.1509068e-09 2.6326122e-08 2.4510841e-08 2.5889968e-08 -7.150162e-09 -3.6255877e-08
-2.005019e-08 -5.2089284e-08 -1.175602e-08 -4.4261387e-08 2.0314904e-08 2.1679805e-08 1.1218209e-08 -2.5607521e-08
-3.9267185e-08 -3.9776392e-08 6.2414167e-09 -1.283248e-08 3.1566578e-09 5.7674185e-08 -1.0409989e-08 1.2112271e-08
1.6612415e-08 4.3946173e-08 1.9712514e-08 1.4919472e-08 3.6062517e-09 2.44664e-08 -5.5884417e-09 1.6750297e-08
2.623434e-08 5.6933832e-08 1.9805841e-09 4.048699e-09 6.063255e-09 -3.4381436e-08 3.7938143e-08 6.355326e-08
3.3740746e-09 1.0094466e-08 1.1512974e-08 -2.987072e-08 -3.282382e-08 8.4871505e-09 -5.101764e-08 -1.1672443e-08
-2.7420532e-08 3.2239512e-08 -3.4339617e-08 -5.835438e-08 -2.2936009e-08 -3.5916485e-09 3.0314297e-08 1.8795417e-08
