ckps/source/uda/office-caltech/caltech_2/source_C.pt (torch, 5290 bytes, 3 tensors)

fc.bias f4 [3]
0.21597409 -0.09955288 -0.11642108
00000000: 5028 5d3e 61e2 cbbd 2d6e eebd

fc.weight_g f4 [3, 1]
0.4685598 0.48327264 0.47408006
00000000: 12e7 ef3e 836f f73e 9fba f23e

fc.weight_v f4 [3, 256]
-0.06568207 0.0432959 0.0065192454 -0.05074954 0.020494267 0.033761293 -0.044828467 -0.0944281
0.01947625 -0.045172792 -0.005041877 0.019341182 -0.04538286 -0.056545436 0.028458608 0.06446947
0.014559196 0.059060104 -0.054005746 0.035548944 0.014416476 -0.0532906 0.0780854 0.005005297
0.010368911 -0.0471974 -0.07116764 -0.01386353 -0.033650402 0.044397704 -0.062744215 -0.083748624
-0.0399715 0.103842996 0.035597794 -0.049535643 -0.062437683 -0.09720944 -0.035117835 0.004569819
-0.061734658 0.045260947 -0.027918039 0.0066739144 -0.032385815 -0.01812235 -0.030670695 -0.043635882
0.035693217 0.03671378 0.056642946 0.051687613 0.030255927 -0.021584192 -0.04907569 -0.033911876
0.041627917 0.066522494 -0.1050225 0.07386847 -0.046040084 0.0026418453 0.03291839 0.0926229
-0.010805877 -0.007314181 0.0685686 0.0016738385 0.00057361275 -0.028254434 -0.062288456 0.0108168665
-0.031778943 -0.010371111 0.096499406 -0.06543566 -0.03134605 0.0044156774 -0.07514784 0.005265706
-0.072353035 -0.033653136 -0.069233 -0.057583924 -0.025988001 0.02908442 -0.0010468359 -0.01794279
-0.07943379 0.03931636 -0.07822022 -0.06168918 -0.021899197 0.068473496 0.027592275 0.040376123
0.058226608 0.027267735 -0.008967112 0.022955483 -0.013130604 -0.018644636 0.05608139 -0.009852787
0.11216451 0.047333293 0.016762914 -0.029830664 0.09452447 0.007613378 0.0409761 -0.025649682
-0.02917545 -0.015538898 -0.03361969 -0.018173603 0.042523768 -0.048717327 0.029077163 0.05897175
0.01561873 0.030716412 -0.023992732 -0.032278724 -0.046149317 -0.10073203 -0.0678822 0.025253534
0.0642284 -0.052807994 0.0065261927 -0.015405395 0.08614172 -0.03331888 -0.04231414 0.008904627
-0.0022386566 0.017289875 0.015787253 0.020892074 -0.0039992617 0.025396384 0.11062118 -0.015094408
0.038495004 -0.025375113 -0.023109794 -0.0066909106 -0.07240587 0.027243897 0.04659871 0.055991005
0.045789745 -0.045212567 0.014614299 0.014163491 -0.015097074 0.021944867 0.048833568 -0.04135723
0.0077288123 -0.0049012275 -0.06729554 -0.02703879 -0.08304793 -0.077724546 -0.061611038 0.091493025
-0.054203846 -0.009445699 0.025438052 0.07363749 -0.049578372 -0.015517016 0.04382695 0.057012882
0.03686889 -0.08366302 -0.02774554 -0.0057954937 -0.02395766 0.012614137 -0.01272774 -0.024991095
-0.027519453 -0.03358008 -0.03405306 -0.070235595 -0.047219 -0.10337498 -0.00060760276 0.08454149
0.06665692 0.06815877 0.008274214 0.032201905 -0.008286286 -0.014510777 -0.068624735 -0.09843092
-0.028685784 0.028145935 -0.009577881 0.042420223 -0.069494285 0.045072924 -0.00063074246 -0.0298615
-0.04443751 -0.05009883 0.08106849 -0.08087965 0.010475637 -0.018723432 0.017173344 0.022167057
0.017870564 0.10749 0.030535206 0.0030823206 0.006877224 0.035586502 0.0031077613 0.0062142797
0.026354792 -0.10422132 0.06827817 0.035723705 -0.026039168 -0.017958846 -0.02235075 0.0019574638
-0.0031450114 -0.09376763 -0.07992768 -0.006744147 0.058648996 -0.025760071 -0.033070985 -0.06996587
-0.03040136 0.08073324 0.060308818 0.02702239 0.013910166 -0.03802576 -0.0072478224 -0.035854097
-0.06291202 0.043419976 0.047775332 0.066907756 -0.023627006 -0.00037925053 -0.024196133 -0.015609588
00000000: 5284 86bd 0b57 313d 659f d53b c0de 4fbd
00000010: 98e3 a73c 4849 0a3d 0e9e 37bd 8563 c1bd
00000020: a88c 9f3c 1b07 39bd 5436 a5bb 6671 9e3c
00000030: 61e3 39bd 309c 67bd 0722 e93c 9208 843d
00000040: b289 6e3c 02e9 713d 2135 5dbd c59b 113d
00000050: 1533 6c3c 3f47 5abd 3deb 9f3d 7903 a43b
00000060: 5de2 293c 1052 41bd 57c0 91bd dc23 63bc
00000070: 01d5 09bd 5eda 353d 0a80 80bd 6684 abbd
00000080: 28b9 23bd a3ab d43d fece 113d e3e5 4abd
00000090: a8be 7fbd be15 c7bd b8d7 0fbd 6cbe 953b
000000a0: 7bdd 7cbd 8b63 393d 5fb4 e4bc dab0 da3b
000000b0: fda6 04bd 5375 94bc 1c41 fbbc 8abb 32bd
000000c0: 0d33 123d 3061 163d 6f02 683d 64b6 533d
000000d0: 47db f73c 55d1 b0bc 9703 49bd 2ee7 0abd
000000e0: 0982 2a3d f23c 883d 0916 d7bd 5a48 973d
000000f0: 8794 3cbd cf22 2d3b 6fd5 063d 13b1 bd3d
00000100: 220b 31bc ccab efbb b26d 8c3d b364 db3a
00000110: 805e 163a d875 e7bc 2e22 7fbd 3a39 313c
00000120: a32a 02bd 98eb 29bc 7ba1 c53d 2203 86bd
00000130: b764 00bd 63b1 903b 1ce7 99bd f28b ac3b
00000140: d42d 94bd dfd7 09bd 08ca 8dbd 1fdd 6bbd
00000150: cae4 d4bc 7342 ee3c fc35 89ba c2fc 92bc
00000160: 2fae a2bd 310a 213d ec31 a0bd cbad 7cbd
00000170: f265 b3bc d53b 8c3d 3209 e23c 6f61 253d
00000180: 067f 6e3d 9660 df3c cbea 12bc 230d bc3c
00000190: bf21 57bc a3bc 98bc 99b5 653d 956d 21bc
000001a0: 82b6 e53d 8ee0 413d 6152 893c 705f f4bc
000001b0: 0c96 c13d a579 f93b 8ed6 273d 481f d2bc
000001c0: 5a01 efbc dd96 7ebc cdb4 09bd cfe0 94bc
000001d0: 672d 2e3d d28b 47bd 3b33 ee3c 5d8c 713d
000001e0: b4e5 7f3c fca0 fb3c 688c c4bc b236 04bd
000001f0: 1107 3dbd 984c cebd d305 8bbd 80e0 ce3c
00000200: 2e8a 833d 324d 58bd acd9 d53b e966 7cbc
00000210: 126b b03d 6179 08bd 9751 2dbd b6e4 113c
00000220: 6db6 12bb 7fa3 8d3c 4554 813c db25 ab3c
00000230: 3d0c 83bb 140c d03c 5b8d e23d 894e 77bc
00000240: f0ac 1d3d 78df cfbc c050 bdbc 6d3f dbbb
00000250: 8749 94bd 982e df3c 4ade 3e3d d356 653d
00000260: 078e 3b3d d030 39bd d070 6f3c fd0d 683c
00000270: b859 77bc b9c5 b33c b505 483d 3366 29bd
00000280: fa41 fd3b 7a9a a0bb 3ed2 89bd 7480 ddbc
00000290: 0815 aabd 0c2e 9fbd db5b 7cbd b260 bb3d
000002a0: da04 5ebd 22c2 1abc 7663 d03c 41cf 963d
000002b0: b112 4bbd 153b 7ebc e383 333d 5786 693d
000002c0: d503 173d 8457 abbd 9d4a e3bc 20e8 bdbb
000002d0: db42 c4bc 86ab 4e3c 0388 50bc 20ba ccbc
000002e0: 7a70 e1bc 448b 09bd 397b 0bbd aed7 8fbd
000002f0: b668 41bd 43b6 d3bd 8847 1fba 1724 ad3d
00000300: 6c83 883d d396 8b3d 9290 073c 25e6 033d
00000310: 34c3 07bc 9cbe 6dbc 208b 8cbd 2696 c9bd
00000320: 73fe eabc 4e92 e63c 8bec 1cbc d4c0 2d3d
00000330: 0553 8ebd 639e 383d 6958 25ba 1ba0 f4bc
00000340: 1b04 36bd 6e34 4dbd 3d07 a63d 3ba4 a5bd
00000350: 02a2 2b3c e261 99bc 1daf 8c3c b097 b53c
00000360: 4a65 923c b823 dc3d f824 fa3c c200 4a3b
00000370: 565a e13b 27c3 113d 95ab 4b3b 28a1 cb3b
00000380: 01e6 d73c fd71 d5bd 6dd5 8b3d 0553 123d
00000390: 1850 d5bc 6e1e 93bc ec18 b7bc cb48 003b
000003a0: 891c 4ebb 3e09 c0bd 20b1 a3bd 01fe dcbb
000003b0: ee39 703d c906 d3bc 7175 07bd 444a 8fbd
000003c0: 460c f9bc 7857 a53d 6106 773d 0f5e dd3c
000003d0: 77e7 633c e6c0 1bbd 247f edbb bfdb 12bd
000003e0: 04d8 80bd 25d9 313d 11b0 433d ef06 893d
000003f0: 6c8d c1bc 25d6 c6b9 f836 c6bc 5bbf 7fbc
