ckps/source/uda/domainnet/clipart_0/source_B.pt (torch, 532830 bytes, 6 tensors)

bn.weight f4 [256]
000000 18 cf 76 3f aa d4 7f 3f 7f aa 7b 3f 85 0c 7f 3f
       0.9640975 0.99933875 0.9830703 0.9962848
000010 0a e6 7c 3f 59 38 6d 3f 12 8d 81 3f 79 5c 7a 3f
       0.9878851 0.92664105 1.0121176 0.9779735
000020 a5 69 82 3f 11 4d 80 3f e4 24 7f 3f 9e 1d 82 3f
       1.018849 1.0023519 0.99665666 1.0165288
000030 76 47 7f 3f c2 cd 75 3f 1c 3b 73 3f 6b 32 74 3f
       0.99718416 0.96017087 0.9501207 0.9538943
000040 a0 a4 7f 3f 47 78 71 3f eb 50 70 3f f5 70 80 3f
       0.9986057 0.94324154 0.9387347 1.0034472
000050 8e c5 76 3f cc 45 6f 3f c3 33 83 3f b1 aa 83 3f
       0.96395195 0.93465877 1.0250171 1.0286466
000060 7c 7a 7f 3f 4e a3 83 3f bf a8 84 3f 19 be 80 3f
       0.9979627 1.0284212 1.0363997 1.0058013
000070 81 c0 83 3f de 0f 80 3f 96 23 79 3f ea c6 81 3f
       1.0293123 1.0004842 0.97319925 1.0138829
000080 08 7b 79 3f 8a 25 82 3f 0e c8 72 3f 3f 1d 79 3f
       0.97453356 1.0167706 0.9483651 0.9731025
000090 26 69 7a 3f 0b a4 86 3f fb 90 7a 3f d6 ea 89 3f
       0.97816694 1.0518812 0.9787747 1.0774791
0000a0 50 10 80 3f 22 67 89 3f cb 6b 82 3f 03 8f 82 3f
       1.0004978 1.0734599 1.0189146 1.0199894
0000b0 8f dd 85 3f 4f d8 7b 3f 92 c3 80 3f a5 85 80 3f
       1.0458239 0.98376936 1.0059683 1.0040785
0000c0 69 f5 7f 3f 22 45 81 3f 96 5b 84 3f 77 fe 83 3f
       0.9998384 1.0099223 1.034045 1.0312032
0000d0 9f 98 79 3f f7 6a 80 3f 9c 65 75 3f 9f 4f 7a 3f
       0.97498506 1.0032643 0.9585817 0.9777774
0000e0 21 bb 82 3f a6 fb 81 3f b4 e4 81 3f 0c eb 72 3f
       1.0213357 1.0154922 1.014792 0.94889903
0000f0 61 ed 82 3f 33 cd 85 3f 2e a1 80 3f dc ad 85 3f
       1.0228692 1.0453247 1.0049188 1.0443683
000100 e0 fa 7f 3f 7e c5 70 3f d1 95 84 3f 5c 81 7f 3f
       0.9999218 0.9405135 1.035822 0.9980676
000110 1c c8 7f 3f f3 88 76 3f 54 86 81 3f d3 c6 82 3f
       0.9991472 0.9630272 1.0119119 1.0216926
000120 1e 89 8a 3f 85 ad 8a 3f 37 8f 7d 3f 29 c5 7b 3f
       1.0823095 1.0834204 0.99046654 0.9834772
000130 60 56 80 3f 0b 2c 7b 3f 79 fb 80 3f 04 d0 7b 3f
       1.002636 0.9811408 1.0076743 0.9836428
000140 b6 f0 82 3f 59 a5 76 3f e1 3e 89 3f 73 78 6c 3f
       1.0229709 0.9634605 1.0722314 0.9237129
000150 2a 79 74 3f 47 25 80 3f 9a 5d 7c 3f 16 82 86 3f
       0.9549738 1.0011376 0.98580325 1.0508449
000160 50 d8 84 3f 4f 40 72 3f 1a 45 7b 3f a5 44 85 3f
       1.0378513 0.9462938 0.98152316 1.0411574
000170 8d ad 7e 3f c7 e6 6b 3f 18 fb 7c 3f ce 4c 73 3f
       0.9948357 0.92149013 0.9882064 0.9503907
000180 1a 65 7c 3f c3 14 7b 3f 70 57 79 3f 2a 94 84 3f
       0.9859177 0.98078555 0.97399044 1.0357716
000190 01 f6 86 3f 70 95 83 3f 84 a4 85 3f e0 d1 86 3f
       1.0543824 1.027998 1.0440831 1.0532799
0001a0 8e 00 86 3f 41 1f 85 3f 6f bf 7c 3f 06 fd 84 3f
       1.0468919 1.0400163 0.98729604 1.0389717
0001b0 c7 ed 82 3f e9 e1 7f 3f 89 20 74 3f fa 42 78 3f
       1.0228814 0.99954087 0.95362145 0.969772
0001c0 fc f7 77 3f 31 30 7b 3f ff 89 83 3f 6a ce 80 3f
       0.9686277 0.9812041 1.0276488 1.0062993
0001d0 16 9c 87 3f c6 8a 81 3f d7 6a 7a 3f d9 b4 79 3f
       1.0594509 1.0120475 0.97819275 0.97541577
0001e0 7b d3 82 3f e2 00 80 3f 14 31 81 3f 1d d4 82 3f
       1.0220789 1.000027 1.0093102 1.0220982
0001f0 90 3f 8b 3f 0e a2 6f 3f fe 5c 84 3f 8f f1 7c 3f
       1.0878773 0.9360665 1.0340879 0.9880609
000200 21 34 82 3f 94 49 8b 3f ad 1e 88 3f 49 58 75 3f
       1.0172158 1.0881829 1.0634362 0.9583784
000210 94 08 7c 3f d9 44 79 3f fe d3 89 3f b7 1e 80 3f
       0.9845059 0.9737068 1.076782 1.0009373
000220 38 6a 86 3f e1 53 72 3f ff 93 84 3f 23 9e 81 3f
       1.0501165 0.9465924 1.0357665 1.0126384
000230 09 fe 85 3f 9c 62 72 3f ff f2 88 3f d1 17 83 3f
       1.046815 0.94681716 1.0699157 1.0241643
000240 1c fa 80 3f 71 85 89 3f 3b 17 85 3f ec ed 88 3f
       1.0076327 1.0743848 1.0397714 1.0697608
000250 73 27 7c 3f d6 5e 83 3f 86 a5 6f 3f 3c b9 70 3f
       0.98497695 1.0263317 0.93611944 0.94032645
000260 ae 37 83 3f 3a 75 84 3f 6e 1b 87 3f a3 db 82 3f
       1.0251367 1.0348275 1.0555246 1.0223278
000270 e4 a1 77 3f 47 8a 78 3f 5e b1 7d 3f 9d f8 82 3f
       0.967314 0.97085994 0.99098766 1.0232121
000280 97 17 7e 3f cf 58 7d 3f 0f bb 76 3f ce fa 77 3f
       0.99254745 0.98963636 0.9637918 0.9686707
000290 8e 07 82 3f ea 41 77 3f 6b 23 83 3f bf 89 6f 3f
       1.0158556 0.9658495 1.0245184 0.9356956
0002a0 0f 43 7e 3f 5c 6b 78 3f 78 9b 81 3f 1b 1b 77 3f
       0.99321073 0.9703882 1.012557 0.96525735
0002b0 52 1e 7e 3f b2 a1 6b 3f ab c5 84 3f 8a 64 85 3f
       0.99265015 0.920436 1.0372823 1.0421307
0002c0 ab 9d 81 3f 2f ed 7b 3f f1 b4 71 3f b6 e4 73 3f
       1.0126241 0.9840879 0.9441672 0.9527086
0002d0 32 c3 82 3f d3 fd 7e 3f 12 17 81 3f 98 08 80 3f
       1.0215819 0.99606055 1.0085166 1.0002623
0002e0 5b c2 7c 3f 9b 96 73 3f 80 c4 83 3f 19 de 73 3f
       0.9873406 0.9515168 1.0294342 0.9526077
0002f0 30 a1 82 3f 26 d9 81 3f 65 4d 80 3f 78 4e 84 3f
       1.020544 1.0144393 1.0023619 1.0336447
000300 6e cb 77 3f 38 a7 76 3f 52 51 81 3f 5e d2 77 3f
       0.96794784 0.96348906 1.0102942 0.9680537
000310 1b 0d 7a 3f 61 f6 6b 3f 20 63 86 3f 5d 78 87 3f
       0.9767625 0.9217282 1.0499 1.0583607
000320 e6 56 7c 3f 4e 33 81 3f 73 d3 82 3f 12 4b 82 3f
       0.98570096 1.0093782 1.0220779 1.017916
000330 bc 8d 82 3f 61 63 6d 3f f8 bf 82 3f 89 48 7b 3f
       1.0199504 0.92729765 1.0214834 0.98157555
000340 d2 df 82 3f de 9f 75 3f 71 9f 80 3f 56 ac 78 3f
       1.0224555 0.9594706 1.0048658 0.97137964
000350 81 59 7b 3f 4c 41 76 3f 7a ff 78 3f 71 11 78 3f
       0.9818345 0.96193385 0.97264826 0.96901613
000360 af d2 77 3f e0 2b 81 3f 82 ad 82 3f 32 1f 75 3f
       0.9680585 1.0091515 1.02092 0.95750725
000370 01 0b 83 3f 3e 0b 82 3f 2a e1 77 3f 9d ef 81 3f
       1.0237733 1.0159681 0.9682795 1.0151249
000380 84 03 88 3f 93 ad 77 3f 11 d4 80 3f bf ac 72 3f
       1.0626073 0.9674923 1.0064718 0.9479484
000390 33 ee 87 3f 9d 65 7d 3f a8 fc 77 3f c7 3b 87 3f
       1.0619568 0.98983175 0.968699 1.0565118
0003a0 2c e5 75 3f 4a a4 80 3f df ac 83 3f 02 9a 7e 3f
       0.96052814 1.0050137 1.0287131 0.9945375
0003b0 fb 9b 83 3f 01 34 7b 3f a5 9b 82 3f 4c 1f 78 3f
       1.0281976 0.98126227 1.0203749 0.96922755
0003c0 ac d6 70 3f 87 3d 7d 3f ab 74 79 3f e1 74 79 3f
       0.94077563 0.9892201 0.97443646 0.9744397
0003d0 36 92 72 3f ae fe 80 3f 99 af 7d 3f fd e0 80 3f
       0.9475435 1.0077722 0.99096066 1.0068661
0003e0 9f 57 7b 3f 8e 91 71 3f 21 c5 81 3f d9 4b 82 3f
       0.98180574 0.94362724 1.0138284 1.0179397
0003f0 13 54 7b 3f 2e 08 6d 3f 67 27 83 3f e3 4e 7b 3f
       0.9817516 0.92590606 1.02464 0.98167247

bn.bias f4 [256]
000000 ff fb 10 bc 83 a2 0b 3c 69 b5 a3 3b be c6 99 bc
       -0.008849143 0.0085226325 0.004995991 -0.018771525
000010 10 c8 f6 3b 27 9a ae bb 10 6b 24 3b 57 d2 23 bc
       0.0075311735 -0.005328435 0.0025088228 -0.009998879
000020 61 b7 eb 3b ea c9 c5 39 b3 23 50 3b b4 2f 8b 3b
       0.0071934913 0.00037725206 0.003175956 0.00424763
000030 97 b0 d6 bb 8e 48 eb 3b 12 72 11 3c 59 2b 8f ba
       -0.006551813 0.00718028 0.008877294 -0.0010922953
000040 03 d4 f6 bc 65 f9 85 bc c3 b6 7a b9 34 21 a9 3b
       -0.030130392 -0.016354272 -0.00023909942 0.005161429
000050 9f 32 6b bc 07 9b e7 3c 3b da 85 bb 7c 5f ba bc
       -0.014355331 0.028272165 -0.004084853 -0.022750609
000060 3b dd 80 bb 55 6d 85 bc be ac f1 3b 2d da 05 bb
       -0.0039326227 -0.016287485 0.007375329 -0.0020424232
000070 fc e9 26 3c f6 d9 a5 bb 57 60 73 3c 52 98 43 ba
       0.010187622 -0.0050613834 0.014854512 -0.0007461357
000080 04 77 04 3b cd 29 f6 3b b9 35 a3 3c 2b d7 38 bc
       0.002021254 0.0075123073 0.019923078 -0.011281769
000090 b3 a0 8d 3c 63 35 15 bc 3c 1d 00 bb fd 56 27 3a
       0.017288541 -0.009106967 -0.0019548675 0.00063835067
0000a0 eb 54 91 bb d0 ad 7e bc 8b a9 12 bc 8a fe 39 3a
       -0.004435172 -0.01554437 -0.008951555 0.0007095119
0000b0 ab b3 2e bc 1a 8b 47 bc 7f b8 9c 3c 03 6c b2 3b
       -0.010662953 -0.0121791605 0.019130943 0.005445005
0000c0 10 ae 9a bb d0 e2 8e 3b 48 55 05 bc 7f 9d be 3b
       -0.004720457 0.0043605343 -0.008138008 0.005817115
0000d0 f9 f4 2d 3c 87 73 05 bc 0e 21 18 3c 9b c2 3a bc
       0.010617488 -0.00814522 0.009285225 -0.011398937
0000e0 46 fb 58 3b e8 0a 5c bc 9b 05 31 bc 84 c2 38 3c
       0.0033108755 -0.013430335 -0.010804559 0.011276845
0000f0 21 20 b6 3c 2f 7b 88 3c 49 a8 eb bb f9 9b cb bc
       0.022232117 0.016660301 -0.007191692 -0.024854647
000100 d0 79 d6 bb 8e 59 4e bb f7 2f 4c bb bd 01 03 3c
       -0.006545283 -0.0031486484 -0.003115652 0.00799602
000110 c5 dd 94 bb 16 39 6f bc 0b 7d 30 bc 97 2f 8d 3c
       -0.0045430386 -0.014601013 -0.010772 0.017234607
000120 3e f7 38 bb 51 34 b8 3c 81 7a 99 3b 1d 9d af bc
       -0.002822354 0.022485884 0.004683793 -0.021437222
000130 89 43 35 bc 80 fa 1b bc 55 34 80 bb 8c 30 e3 bb
       -0.011063465 -0.009520173 -0.0039124885 -0.0069332775
000140 2a 76 13 3c bb b0 4c 3c d9 ab 0d 3d b5 68 9e 3b
       0.0090003405 0.012493308 0.034587715 0.0048342594
000150 ae b9 86 3b dc 3d 8f bc 59 65 87 3b c3 bc 84 bb
       0.00411149 -0.017485552 0.0041319546 -0.0040508225
000160 c4 1a 52 3c 00 b0 65 3c 5c bb e9 bc bd 41 d6 bc
       0.012823764 0.014019012 -0.028531723 -0.026154393
000170 10 60 b2 38 49 39 72 bc 57 bf 93 bc 4a 04 d9 bb
       8.5055945e-05 -0.014784166 -0.018035574 -0.0066228257
000180 2d 34 b9 bc 65 e8 5b 3c 0d 2b 98 3b 11 c4 fa ba
       -0.022607887 0.013422106 0.004643804 -0.0019131919
000190 ac 8c dd 3a 42 3e 61 bc 4b 65 34 3c 00 47 bb bc
       0.0016902885 -0.013747754 0.011010478 -0.022861004
0001a0 a8 b2 76 bc 22 5d ae 3a 23 7e 15 3c 77 bb 91 3b
       -0.015057243 0.0013302902 0.009124312 0.0044473964
0001b0 7e e4 22 bc 3c 3f 19 bb 04 b0 61 bb 78 b5 08 3b
       -0.009942172 -0.0023383638 -0.003443719 0.0020860117
0001c0 5b 53 1d 3c b7 42 7f bb c0 38 11 3b b5 43 47 3c
       0.009602393 -0.0038949677 0.002215907 0.012162139
0001d0 1c 13 a1 3c 2e b3 21 bc 5e ea a4 bc cd 91 37 3c
       0.019662432 -0.00986938 -0.020131286 0.011204195
0001e0 cb 91 91 3b 5a e5 02 3c 5f 8a 6f 3b b7 39 62 3a
       0.0044424287 0.007989252 0.0036550981 0.0008629816
0001f0 fa c7 2f bc 00 3d 2a bc 33 07 24 bc ed ed 81 bb
       -0.0107288305 -0.01039052 -0.010011482 -0.0039651305
000200 f8 84 60 3c 2a df bd bb fc 2b 9e 3b 65 23 a4 bb
       0.013703577 -0.0057944255 0.0048270207 -0.005009102
000210 85 2d e3 3b 70 2d 58 3c 2c ac c0 3b b8 2b 51 bc
       0.0069329166 0.013194427 0.0058798995 -0.012766771
000220 0e 96 34 3c 21 2e 03 3b 52 44 7b 3a 07 6f 1b bc
       0.011022104 0.0020016509 0.00095850707 -0.00948692
000230 c6 ad 4d 3c 7c 60 ac 3b fe cc 1d bb 50 5b d4 3c
       0.012553638 0.0052605253 -0.0024078484 0.025922447
000240 69 48 03 3c cf 41 c1 3a 89 da 52 bc d6 6a 79 3c
       0.008012869 0.0014744344 -0.012869486 0.015223226
000250 35 7f cb bc 76 09 02 3b 1d ef 94 bc d5 9b 03 3a
       -0.02484093 0.0019842065 -0.018180424 0.0005020474
000260 26 49 1d 3c 38 86 d2 3a fc c2 03 3c 18 e8 ed ba
       0.0095999595 0.0016061729 0.008042093 -0.0018150834
000270 5c ef 93 bb af 33 1e bc 95 70 3c b9 2d 29 ba 3b
       -0.004514618 -0.009655877 -0.00017971017 0.005681178
000280 fd 96 f1 bb 75 3e 54 bb e3 83 b0 3c a6 77 3c ba
       -0.0073727355 -0.003238586 0.021547263 -0.000718946
000290 de 58 81 3c e6 2d 41 3c ab 7b 8a 3c 53 87 8c 3b
       0.015789445 0.011790728 0.016904673 0.004288593
0002a0 f0 f9 78 bc 61 8a 65 3c ab ab 93 3c 25 af 22 bb
       -0.0151963085 0.014010043 0.018026194 -0.0024823633
0002b0 a9 0a 1d 3b 48 78 08 3b be 1a 71 bb 28 97 0b ba
       0.0023962653 0.0020823646 -0.0036789621 -0.0005324953
0002c0 5f 63 64 bc 26 82 82 bc 79 71 83 3c e3 9a 26 3c
       -0.013939708 -0.0159312 0.016045319 0.010168764
0002d0 38 82 1b ba 3a a4 1a bb 3f 15 25 bc 71 c8 3c bc
       -0.0005932185 -0.0023596422 -0.010075866 -0.011522398
0002e0 3c 19 b0 bb 1f 6d 12 bc 7f 31 fd bb c0 b0 e4 3b
       -0.005374102 -0.008937149 -0.0077268477 0.006979078
0002f0 54 2e 3b bb 1b a7 03 3a 4a f5 df bb 9e d4 c6 3b
       -0.002856155 0.0005022154 -0.0068346607 0.0060678264
000300 3d 13 54 bc e2 0d 6e bc c2 63 e7 3b ee cf 93 ba
       -0.01294404 -0.014529677 0.0070614526 -0.0011277178
000310 06 81 65 bc be cf 7e ba 8b 1d 91 3b a2 96 9e 3b
       -0.014007812 -0.0009720287 0.0044285706 0.004839734
000320 e9 91 6e ba 48 ab f4 3b ed 4e fc bb 8a eb 9d 3b
       -0.0009100722 0.0074667074 -0.0076998384 0.004819338
000330 56 f6 bb bb d5 ac 33 3b 9c c5 cc 3a fe 70 86 3a
       -0.0057361526 0.0027416248 0.0015622857 0.0010257063
000340 15 4c 4d bb 7b aa 02 3b 4b 3c c7 bb 7a 38 f8 3b
       -0.0031325866 0.001993804 -0.0060801855 0.007575092
000350 0d 6b 08 bc bc de 68 bc dd 41 3f bb f1 60 22 bb
       -0.008326304 -0.01421326 -0.0029183545 -0.002477702
000360 11 65 8d bb 5c 08 83 bc ed 1c 23 3b 0b 94 0a bc
       -0.0043150266 -0.015995197 0.0024889067 -0.008458148
000370 26 ab 08 bc d8 20 49 bc 1d 49 a7 3c 93 93 44 3c
       -0.008341586 -0.012275897 0.020420605 0.011998075
000380 c1 fa 6a ba 62 da 20 bb cd fb ea bb 91 df 0f 3d
       -0.0008963757 -0.0024544229 -0.0071711303 0.03512532
000390 d0 9b 17 bc 3a 74 76 bb 1d da bf bc a5 ad bc b9
       -0.009253457 -0.0037605898 -0.023419434 -0.0003598753
0003a0 00 aa e5 3b 4a c5 78 bb 19 90 80 bb 08 11 3a bb
       0.007008791 -0.003795939 -0.003923428 -0.00283915
0003b0 8a 35 64 bc e9 ea 4d bb 3f 4f 9e bb 6b 40 3c bc
       -0.01392878 -0.0031420535 -0.004831224 -0.011489968
0003c0 d7 96 ac ba 42 a9 4e bc a2 b5 cb 3a ed b8 f4 bb
       -0.0013167512 -0.012613596 0.0015541802 -0.007468334
0003d0 27 b2 78 3c 8d 3b b4 3b e9 c9 5d 3c 4c c3 6e 3b
       0.015179194 0.005500263 0.013536909 0.0036432324
0003e0 e9 85 13 bc 04 ea 17 bc 01 36 81 3b f8 89 56 bb
       -0.009004095 -0.009272102 0.0039432053 -0.0032736044
0003f0 93 d8 c3 3b ae 1e 03 bb 97 47 e7 bc 99 e4 b7 3b
       0.0059767454 -0.00200073 -0.028232379 0.0056119678

bn.running_mean f4 [256]
000000 81 8d a5 3c dd b4 f6 3e 5e fd ae 3e db fe 97 be
       0.020209076 0.48184863 0.3417768 -0.29686627
000010 01 ae 98 bd 5e ba 75 3e 0e d5 b6 be bb 6e fc 3c
       -0.074550636 0.23996875 -0.35709423 0.03081452
000020 39 11 d3 3e f2 a7 c6 bc f7 ae 97 3d c6 26 16 be
       0.41224077 -0.024250004 0.07406419 -0.14663228
000030 6f 2f 3a 3d 4b 24 06 be 6d 0a d2 bd f7 be 64 3d
       0.045455392 -0.13099782 -0.10255895 0.05584618
000040 cf 64 8e be 6c d0 61 be fc f4 c1 3d 26 f2 ba 3d
       -0.27811286 -0.22052163 0.09470555 0.091282174
000050 32 7f 2e 3d 3f d4 99 bc 43 18 e3 be 8e 4c 95 bd
       0.04260177 -0.018777965 -0.44354448 -0.07289992
000060 9c 64 8c 3e 04 94 46 3e 49 d4 8b bd 84 0b 03 3d
       0.2742051 0.19392401 -0.068275996 0.031993404
000070 fb 8e 17 3d 81 2b 07 be 9e 49 60 bd 80 49 90 3d
       0.03700159 -0.13200189 -0.054757707 0.07045269
000080 69 59 c8 be 4f 63 d6 be 10 d9 34 3f 0c 65 7c be
       -0.39130715 -0.4187264 0.7064371 -0.24647921
000090 1d 3c 8c 3d 4a 4e 9d bd 28 ba 69 be 82 ba 19 3e
       0.06847403 -0.07680948 -0.22824919 0.15012553
0000a0 10 67 df 3d f8 c8 be be 02 11 77 be cf 2f de 3d
       0.109083295 -0.37262702 -0.24127582 0.108489625
0000b0 a7 78 f5 be 9f bf 9a be f8 fb c2 bd 7f a9 a4 3d
       -0.47943613 -0.3022432 -0.095207155 0.08040141
0000c0 74 91 89 3e 7e e9 23 be ea 19 a0 3e 5b d4 96 bd
       0.26868784 -0.16007039 0.3126977 -0.07364722
0000d0 97 65 97 bc a1 9e ab bd 9c e4 23 3d 96 12 80 3d
       -0.018481059 -0.083798654 0.04001294 0.06253545
0000e0 f3 4b 90 be cc 7e 98 be 82 2d b0 3e ee da a2 3e
       -0.28182945 -0.29784238 0.3440972 0.31807655
0000f0 2e 33 28 3f 9a be 83 3e 6b 46 85 be 82 70 62 3e
       0.65703094 0.25731355 -0.26030287 0.22113231
000100 f8 49 51 be cd f6 08 bf c3 24 65 3d 9a 25 49 3e
       -0.20438373 -0.5350159 0.05594326 0.1964325
000110 df 2c 9c be ee 61 4e 3e 20 11 ba be 37 2e a1 be
       -0.30502984 0.20154545 -0.3634119 -0.31480572
000120 1b 85 18 bf 4e 17 80 3d 51 68 9d 3d 5c 33 5c be
       -0.595781 0.06254445 0.076859124 -0.21503967
000130 7c c6 68 3d 36 1a a7 be fd d3 db bd 02 ae 19 be
       0.056829914 -0.32637185 -0.10733793 -0.15007785
000140 fe b8 4e bd 23 f0 89 3c 54 b0 05 3f ed b4 ed 3d
       -0.05046939 0.016838139 0.5222218 0.116067745
000150 67 7b 11 be 1f 98 6c be 1d ac bc 3d 16 02 e1 be
       -0.1420723 -0.23104905 0.092125155 -0.43946904
000160 73 6b 64 be de 69 c9 3e 09 85 1c 3e fc 07 c7 be
       -0.22306614 0.39338583 0.15285124 -0.3887328
000170 34 5d 8c be 48 df 3c 3e 32 07 c3 be 4e df db 3d
       -0.27414858 0.1844455 -0.38091427 0.10735951
000180 64 dc 44 3e 62 90 c2 3e ae 4e 8a ba eb 18 84 3e
       0.19224697 0.3800078 -0.0010552013 0.2580026
000190 78 09 b5 be a3 b5 6e bd 8a d2 8e bd 9a 82 ef bd
       -0.35358787 -0.05827869 -0.06973751 -0.11694832
0001a0 6e 56 67 bd fd 1b 74 bd 1b b6 a7 3c d5 0a 8d be
       -0.05647891 -0.059597004 0.020472577 -0.27547327
0001b0 1e b0 ee 3e 61 63 3d be 6b ee c7 3d fa 67 fd bc
       0.46618742 -0.18494941 0.097622715 -0.030933369
0001c0 21 3c e3 3d 48 4a e3 be 5b 85 00 be 9f bf be bd
       0.11095453 -0.4439261 -0.12550871 -0.093138926
0001d0 1a 73 f0 3d 65 bd 99 3e b5 aa 62 bc 53 59 29 bb
       0.11740704 0.3002731 -0.013834645 -0.0025840595
0001e0 d3 17 01 be 47 75 85 bd a6 a9 c1 bc c4 c9 ec 3e
       -0.12606744 -0.065165095 -0.023640465 0.46247685
0001f0 94 c0 10 3f bc d1 98 bd ae a6 0b bd c5 4a 2f be
       0.5654385 -0.07461879 -0.034094505 -0.17118366
000200 a1 ec aa 3d da f8 5a bd e2 85 86 3e 6b b7 d6 3e
       0.08345915 -0.05345998 0.2627402 0.41936812
000210 01 d0 f3 3d c2 c5 f1 3d 30 43 8b bd 19 58 10 3c
       0.11904908 0.118052974 -0.067999244 0.008810067
000220 3b a3 b8 3d 5e a2 09 be 78 34 ff 3c 96 02 a5 3d
       0.09015509 -0.13440844 0.031152949 0.08057134
000230 4f 29 7e 3e a3 3a c0 3e 3f c0 26 be 0c 89 0b be
       0.24820445 0.37544736 -0.16284274 -0.13626498
000240 0f 17 8c 3e 66 45 82 3e 14 3e e6 3e b8 c4 8a 3d
       0.27361342 0.25443572 0.44969237 0.067758024
000250 9d bb 7d be 58 28 12 be ae 53 a7 be ab 5f 95 3e
       -0.247786 -0.14273202 -0.3268103 0.2917455
000260 a8 5c 66 3e c0 ad a8 be 8a c1 e3 3e 84 ef bc bc
       0.22496283 -0.3294506 0.44483596 -0.023063429
000270 4b 9f 4b be 20 0a 26 3e 12 1a f1 bb ad ef 01 3e
       -0.19884984 0.162148 -0.007357844 0.12689085
000280 bd dd 76 3d 01 db a2 3d 25 7d 2c 3d 63 3d e9 3d
       0.06027006 0.07951928 0.042111535 0.11388662
000290 51 94 d5 3e f3 fc 0a be 60 5e 97 3d d4 ed 8f 3d
       0.4171472 -0.13573055 0.073910475 0.07027784
0002a0 dc 6a 8c 3e ec 39 92 bd 7d 63 8d 3e 19 be 30 be
       0.27425277 -0.07139954 0.27614966 -0.17260017
0002b0 e6 08 1e bd 21 ca 97 be ce 79 15 3e 89 c1 88 bc
       -0.038582705 -0.296464 0.14597246 -0.016693847
0002c0 2e 7d 3e bf 7d 79 23 3d 30 a5 ca 3e 34 39 58 bc
       -0.7440976 0.039910782 0.39579153 -0.013197232
0002d0 bb 25 03 bf 14 0f 29 bd c4 8a a6 bd b1 11 97 bd
       -0.5122945 -0.041274145 -0.08131936 -0.07376421
0002e0 8a 54 31 bd ea 34 57 be 36 5e e6 3c a7 7d 21 3e
       -0.043293513 -0.21016279 0.028121095 0.15770589
0002f0 8c 55 83 3d 0b 06 52 be 90 5f 54 be a3 17 7d 3e
       0.06412801 -0.20510118 -0.20739579 0.24716048
000300 a7 65 c4 be 7e 68 b6 3e 0f 0a 66 bd 75 a4 24 3e
       -0.38358805 0.35626596 -0.056161936 0.1607836
000310 d6 77 86 bb d1 1a 45 be 4a 15 30 3e 3b 89 86 bd
       -0.004103641 -0.19248511 0.17195621 -0.065691434
000320 37 dd a9 3c 8c 02 0c 3f 26 fd f6 be eb 07 78 be
       0.020735366 0.54691386 -0.48240012 -0.2422177
000330 e7 99 ec 3d f7 55 36 be 50 dc 3f bd 75 31 55 be
       0.11552792 -0.1780623 -0.046840966 -0.20819648
000340 7b 86 ba 3d 1a 4d 03 bd 61 c5 c8 3e 19 e6 58 be
       0.09107681 -0.03205595 0.39213088 -0.21181525
000350 57 66 9b bd a3 87 c1 bd 7c 23 97 bb 2c a1 d0 3e
       -0.07587879 -0.09449699 -0.0046123844 0.40747964
000360 02 64 90 bc b9 5f 6e be ac 5a a7 bd 71 fc 3b 3e
       -0.017625812 -0.23278703 -0.08171591 0.18358018
000370 ec d4 8f bd 13 e3 b8 3a 56 48 4d 3f 16 5b 2d 3e
       -0.070230335 0.0014105759 0.801885 0.16929278
000380 19 9a 16 3e b8 e6 94 3d 0b 52 84 3e 94 20 95 3d
       0.14707221 0.072705686 0.25843844 0.072816044
000390 d8 bd f7 be 3d bc b1 bd c7 8f 09 be 78 0c ce 3d
       -0.48387027 -0.08678482 -0.13433753 0.10060972
0003a0 2f 30 fb bd e2 12 86 3e b6 94 98 bd 51 f3 d8 3c
       -0.1226505 0.2618628 -0.07450239 0.02648321
0003b0 a5 96 d2 bd 11 aa 3e 3e e3 68 ab bd 93 37 88 3e
       -0.102826394 0.18619563 -0.08369615 0.266049
0003c0 fe 35 27 be 8b 07 47 bc e8 5b 17 3e 0d e3 d9 bd
       -0.1632919 -0.0121477945 0.14781153 -0.106390096
0003d0 db 93 e2 3e 4a 64 e0 b9 35 00 14 3f 9b 83 0b be
       0.4425343 -0.0004279933 0.57812816 -0.13624422
0003e0 62 ea 2f bd 70 9d f3 be ca b4 65 be d3 19 a9 bd
       -0.042948134 -0.47581053 -0.22432247 -0.08256879
0003f0 d6 d5 67 3d 0a a6 0d 3e a5 5a 9b be 70 d5 70 3d
       0.056600414 0.1383287 -0.30342594 0.0587973

bn.running_var f4 [256]
000000 6e d1 ac 3d 6c 4c c5 3d b8 ff ac 3d 77 2f a6 3d
       0.08438383 0.09633717 0.08447212 0.08114522
000010 46 a9 ac 3d 90 39 c2 3d 7a be b0 3d e2 a9 b4 3d
       0.08430724 0.094836354 0.086300805 0.08821465
000020 62 25 b1 3d 84 04 a6 3d 6e 61 ce 3d d7 35 ba 3d
       0.08649708 0.0810633 0.10077177 0.090923004
000030 34 d9 cd 3d 2a 6e bb 3d 13 5c d8 3d 36 cf c5 3d
       0.10051194 0.091518715 0.10564437 0.09658663
000040 c7 73 cb 3d ff f7 9d 3d a3 10 bc 3d c5 35 a9 3d
       0.09934192 0.07713317 0.09182861 0.08262209
000050 bb d1 9e 3d ab 3f a1 3d 8b 68 b6 3d 27 78 ad 3d
       0.07754847 0.07873472 0.08906659 0.08470183
000060 ac 01 ab 3d af b4 b6 3d 3b f4 a9 3d 04 30 ac 3d
       0.08349928 0.089211814 0.082985364 0.08407596
000070 cc 4c a9 3d 90 82 b5 3d 50 ab b7 3d 6f a6 dd 3d
       0.08266601 0.088627934 0.08968222 0.1082276
000080 db 71 ae 3d 16 03 b7 3d 12 07 c6 3d 03 64 bc 3d
       0.0851781 0.089361355 0.09669317 0.09198763
000090 01 9c f7 3d 30 3f a0 3d bd c6 b5 3d aa d4 be 3d
       0.12090302 0.07824552 0.08875797 0.09317906
0000a0 7e 33 a5 3d 76 95 c0 3d 75 be cb 3d 3e 3d d3 3d
       0.08066462 0.094035074 0.09948436 0.103144154
0000b0 7e 3d a2 3d c4 22 c4 3d 96 9f b5 3d 92 32 9b 3d
       0.07921885 0.095769435 0.08868329 0.07578005
0000c0 b1 05 ac 3d f5 d6 9e 3d 75 2e be 3d 65 7b b8 3d
       0.08399523 0.077558435 0.09286205 0.09007911
0000d0 67 d6 b5 3d e1 2a cb 3d a4 bc 9e 3d d0 f4 cb 3d
       0.088787846 0.09920288 0.07750824 0.09958804
0000e0 e8 5d ac 3d e7 bf b9 3d 8a 2c c3 3d a3 25 bf 3d
       0.08416349 0.090698056 0.095299795 0.093333505
0000f0 94 29 af 3d e7 52 d0 3d 14 df c2 3d c6 52 c2 3d
       0.08552852 0.10172062 0.09515205 0.09488444
000100 8f 07 be 3d a4 6c e1 3d 51 ee b7 3d 96 ef cc 3d
       0.092787854 0.1100705 0.08981002 0.10006635
000110 05 41 ad 3d ec 57 c1 3d 65 02 b3 3d 30 c7 d9 3d
       0.08459667 0.09440598 0.08740691 0.10633695
000120 a1 7a ae 3d c1 4e c0 3d 45 dc d5 3d 62 f9 b5 3d
       0.08519483 0.09390021 0.10442404 0.088854566
000130 47 ff 9a 3d fb f2 b5 3d 3a 7e c3 3d 64 19 9e 3d
       0.075682215 0.088842355 0.0954556 0.077196866
000140 16 75 ab 3d 7c 93 b3 3d e2 2a bc 3d ec 4e c5 3d
       0.08371942 0.08768365 0.09187867 0.09634194
000150 3f b4 bf 3d 47 e3 c6 3d 33 f0 b8 3d 0d 3d b5 3d
       0.09360551 0.097113185 0.09030189 0.08849535
000160 ff e3 aa 3d e6 9e c1 3d d6 4c a3 3d c3 b2 d7 3d
       0.08344268 0.094541356 0.0797364 0.10532143
000170 38 74 9e 3d 07 02 ba 3d 86 25 9b 3d 20 2d e2 3d
       0.07737011 0.09082418 0.075755164 0.11043763
000180 98 5f c4 3d 3a c7 b1 3d b3 81 aa 3d b6 5d b9 3d
       0.095885456 0.086805776 0.083255194 0.09051077
000190 05 29 ec 3d c2 66 e5 3d 1b 6a 9a 3d 39 e6 c3 3d
       0.11531261 0.1120124 0.07539769 0.09565396
0001a0 a1 c8 8c 3d 18 d2 b6 3d dc 4a c6 3d 68 94 af 3d
       0.068742044 0.08926791 0.09682247 0.08573228
0001b0 d6 1e c2 3d ee fe b5 3d a0 f1 b4 3d 3e 4e ab 3d
       0.09478538 0.088865146 0.08835149 0.08364533
0001c0 4b b9 bf 3d 10 73 b6 3d ae 61 d4 3d c1 74 a8 3d
       0.09361514 0.08908665 0.103701934 0.08225394
0001d0 fa 54 d7 3d 61 af cf 3d c1 6f b1 3d 14 c7 cc 3d
       0.10514255 0.10140873 0.086638935 0.09998909
0001e0 ac b6 b3 3d 96 73 b4 3d f7 75 8a 3d 98 e2 d1 3d
       0.08775076 0.08811109 0.06760781 0.102482975
0001f0 09 91 af 3d 4e 87 b4 3d d7 3c da 3d e9 28 be 3d
       0.08572585 0.0881487 0.106561355 0.09285147
000200 19 16 ca 3d 57 91 a5 3d a0 cd 94 3d 29 9f de 3d
       0.09867496 0.08084362 0.07265782 0.10870201
000210 6e c2 cd 3d 3a d0 cb 3d 3e e7 83 3d 5f 99 cf 3d
       0.1004685 0.099518254 0.0644059 0.10136675
000220 c5 90 9b 3d 17 ec b1 3d d4 b1 a3 3d b3 ba c7 3d
       0.07595972 0.08687609 0.079929024 0.09752407
000230 29 06 b2 3d 84 4c b4 3d cc 53 a3 3d de 90 e4 3d
       0.08692581 0.08803657 0.07974967 0.11160444
000240 19 63 a6 3d 26 1c a0 3d e0 d9 c8 3d 97 41 ad 3d
       0.0812437 0.07817869 0.09807181 0.08459776
000250 1f 64 a5 3d 91 7f d0 3d a1 06 b5 3d 8d 09 dd 3d
       0.08075737 0.10180581 0.08839155 0.10792837
000260 e7 58 ae 3d 9a 16 c4 3d ca 3a b0 3d b3 d5 ca 3d
       0.085130505 0.095746234 0.08604963 0.09904041
000270 99 21 a5 3d e0 ca 88 3d d9 e0 a6 3d bb 9c ae 3d
       0.08063049 0.0667932 0.08148355 0.08525988
000280 62 60 b5 3d a2 01 b0 3d 91 e6 cd 3d 68 86 ca 3d
       0.08856274 0.085940614 0.10053743 0.09888917
000290 da ad c0 3d 5a 91 af 3d 98 7f b0 3d 29 87 9e 3d
       0.094081596 0.085726455 0.086180866 0.077406235
0002a0 a7 81 b5 3d f3 19 a0 3d eb cf b1 3d 88 16 b9 3d
       0.0886262 0.078174494 0.08682235 0.090375006
0002b0 19 df bf 3d e7 cc c9 3d f4 8d b8 3d f2 c8 bb 3d
       0.093687244 0.09853535 0.090114504 0.09169187
0002c0 d5 51 b5 3d 4f ce a7 3d bd 7a a7 3d 66 bd f1 3d
       0.08853499 0.08193647 0.08177707 0.11803703
0002d0 1f 2a c7 3d 62 02 a6 3d c7 6d ad 3d 22 0b d3 3d
       0.09724831 0.08105923 0.08468204 0.10304858
0002e0 ac f2 b7 3d 34 fe b7 3d 13 c3 c2 3d c6 1b bf 3d
       0.08981833 0.08984032 0.09509864 0.09331469
0002f0 ad 9e a7 3d 2e ae 96 3d 50 cc 8d 3d 2c f7 cb 3d
       0.08184562 0.07357441 0.06923735 0.09959254
000300 f5 fb b0 3d 37 1d c4 3d 24 3a a9 3d 28 03 b0 3d
       0.08641807 0.09575885 0.082630426 0.08594352
000310 61 a2 b4 3d b4 cf 9b 3d e4 de c1 3d d8 8b c7 3d
       0.08820034 0.076079756 0.09466341 0.0974347
000320 49 52 bc 3d 74 7b a5 3d 4f fe bd 3d de 76 b9 3d
       0.09195382 0.080801874 0.09277021 0.09055875
000330 80 1a b7 3d b7 49 db 3d c5 33 c6 3d 27 a9 aa 3d
       0.08940601 0.10707419 0.09677843 0.083330445
000340 bb fb c8 3d d0 92 b4 3d a9 9c c0 3d 39 69 c8 3d
       0.09813639 0.08817065 0.094048806 0.09785695
000350 2f 65 b2 3d 54 8f ca 3d 4f b8 aa 3d 54 c1 aa 3d
       0.087107055 0.09890619 0.08335935 0.08337656
000360 45 22 a8 3d b1 1a bb 3d 12 18 bf 3d 58 cc b6 3d
       0.082096614 0.0913595 0.09330763 0.08925694
000370 61 e5 b1 3d 54 5f 99 3d 79 58 b7 3d 4e e5 da 3d
       0.08686329 0.074888855 0.08952422 0.10688268
000380 eb 89 c0 3d 8c e7 ae 3d 7e 2d c0 3d 96 82 9e 3d
       0.09401306 0.08540258 0.09383677 0.07739751
000390 62 6e da 3d 45 89 8c 3d 04 8c dc 3d 63 9f c3 3d
       0.10665585 0.068621196 0.10768893 0.09551885
0003a0 8b 0b b3 3d ad 98 b3 3d f3 32 c9 3d e3 7e bc 3d
       0.08742436 0.08769355 0.09824171 0.09203889
0003b0 5c 59 a8 3d 6a 99 af 3d 59 f1 a7 3d ca d4 af 3d
       0.08220169 0.08574183 0.0820033 0.08585508
0003c0 b4 51 9b 3d f6 8e d0 3d a4 d4 b4 3d 46 5e 92 3d
       0.07583943 0.10183518 0.088296205 0.071468875
0003d0 16 82 b6 3d f2 bc be 3d d2 22 ac 3d 1f 85 a5 3d
       0.08911531 0.09313382 0.08405079 0.080820315
0003e0 4e 5b dd 3d 68 22 b4 3d 06 69 bc 3d 0a ba 9d 3d
       0.108084306 0.08795625 0.09199719 0.077015
0003f0 ed 77 e2 3d 27 e1 b3 3d 6b 49 bf 3d 59 3f b6 3d
       0.1105803 0.08783179 0.09340175 0.08898801

bottleneck.weight f4 [256, 512]
000000 51 de ea 3c 71 2c 22 3b 52 2b c9 bb 1a e5 db 3c
       0.028670462 0.0024745727 -0.0061391974 0.026842643
000010 2f 9a f4 bc 1d 47 d2 bc d0 62 65 3c e5 c4 69 bb
       -0.029858677 -0.025668675 0.0140006095 -0.0035670337
000020 e3 b6 7c bd 23 8e 66 38 6f df 9e bc 26 c5 7c 3c
       -0.061697852 5.496865e-05 -0.01939365 0.015427863
000030 de ed e2 3c 6b 49 f5 bb 19 64 86 3c 6d 53 b8 3c
       0.027701315 -0.0074855587 0.016405152 0.022500718
000040 a8 c7 18 3d d2 50 6d bc c8 44 a4 3c a0 63 23 3d
       0.037299782 -0.014484601 0.020052329 0.03988993
000050 b0 5c f4 bb cd 93 26 bd 56 fb 6a 3c 6c af 3c 3b
       -0.0074573383 -0.040668298 0.01434215 0.0028791083
000060 e4 53 5b bc 9f 2c b2 bc 28 c2 03 bd 09 f6 eb ba
       -0.0133867 -0.021749793 -0.032167584 -0.0018002401
000070 a1 e6 44 3b d8 42 c2 bc 19 a6 5c bc 0e a7 0c ba
       0.0030044692 -0.023713514 -0.013467335 -0.0005365469
000080 75 11 c3 3c 35 ff 4a 3c c5 f9 90 3c 54 ae 93 3b
       0.023812035 0.012389948 0.017697224 0.0045068655
000090 12 85 f7 bc 9b c7 78 bc 38 a5 c1 bb d0 9a 99 bc
       -0.03021482 -0.015184308 -0.005909588 -0.018750578
0000a0 d2 4b fd 3b ce 9a 57 bb be e5 3a 3d 5f b5 69 bb
       0.0077299858 -0.0032898667 0.045629255 -0.0035661084
0000b0 20 2f 7d bc 8e 07 91 bb bb d0 25 3b 46 37 45 bc
       -0.01545313 -0.0044259494 0.0025301415 -0.012037104
0000c0 59 95 eb 3c 7e 6a 9b bc 6b 84 52 3c 24 c0 86 bc
       0.028757738 -0.018971678 0.012848954 -0.016449042
0000d0 e7 8d 8a 3c b4 16 47 3c 9c cc 11 bc a4 b7 b5 ba
       0.016913367 0.012151409 -0.00889888 -0.0013863933
0000e0 1d 8d 20 3c 2b 55 52 bc fd 99 4d bd 57 9a ba 3b
       0.009799269 -0.012837688 -0.050195683 0.0056946683
0000f0 17 60 b1 bc d2 75 c9 bc 05 b1 27 3c 03 30 5d bc
       -0.021652265 -0.024592314 0.010235076 -0.013500216
000100 e0 8c 96 3c c3 62 90 3b b5 b6 29 3b 5b 57 10 3d
       0.018377721 0.0044063046 0.0025896255 0.03523956
000110 03 81 05 3d 3e 72 1d bc 33 3e f0 bb a4 5e 08 bc
       0.03259374 -0.009609757 -0.0073316335 -0.008323345
000120 84 a5 71 3d 36 33 a1 bc 15 98 01 3c 35 2c e1 bb
       0.05899574 -0.01967774 0.007909794 -0.006871725
000130 03 f2 2c 3d 1d 4c c6 3b e9 f7 4f bc bc ff 7e bc
       0.042222988 0.006051554 -0.012693384 -0.0155639015
000140 f9 7b 46 bb 7b 4e 89 3c 64 9f b1 3b 5a 78 fa bb
       -0.0030286296 0.016761055 0.005420612 -0.0076437416
000150 c7 5c 58 3a 76 53 09 3d 07 9c 79 bc 6a b3 cf bb
       0.0008253571 0.03352686 -0.015234954 -0.0063385265
000160 64 c9 4b 3c c3 68 1b 3b a6 11 b5 3c 76 9c c7 bb
       0.012438152 0.0023713566 0.022103142 -0.0060916496
000170 fa 9f 12 bc a8 fb 5f bc 76 a5 f9 bb 2b 9e 01 bc
       -0.008949274 -0.013670839 -0.0076186014 -0.007911245
000180 b4 ee 47 3b 6b d0 bd 3c 80 d8 a5 3c 29 42 70 bc
       0.0030507268 0.02317067 0.020244837 -0.014664211
000190 e2 99 02 3c 1f e5 54 bd 6e 78 b3 bc 60 e7 ec 3b
       0.007971259 -0.05197632 -0.021908011 0.0072297305
0001a0 4f b8 af bb 25 ff 83 bc 7c 0b 93 bb cf ad fc bb
       -0.0053625475 -0.016112873 -0.004487453 -0.0077111493
0001b0 d1 db 4b 3c c2 86 b3 bc 5d 3d 4c 39 a0 48 c1 bb
       0.012442545 -0.021914843 0.00019477816 -0.00589855
0001c0 73 a7 21 3c fa ce f7 bc 18 2e 85 3c 4e ec 99 3c
       0.009866583 -0.030250061 0.01625733 0.018789437
0001d0 82 58 ce bb f9 9b f4 3a a9 3f 96 3a 45 b0 c3 3c
       -0.006297172 0.0018662206 0.0011463064 0.023887763
0001e0 68 d0 c7 3c d0 e4 e6 bc 07 cc eb bc 45 6a b2 bc
       0.024391368 -0.028185278 -0.028783811 -0.021779189
0001f0 fe c1 25 3d 5a 13 de 3c fd 76 52 3c 9a fc aa 3c
       0.04046821 0.027108837 0.012845752 0.020872403
000200 25 2c c4 3b aa a0 f9 ba 84 89 4e bd a6 c6 81 3c
       0.0059867078 -0.0019045074 -0.050424114 0.015841793
000210 42 73 e2 3c 52 dd a0 3b d7 79 15 bc 6a 09 6e bc
       0.02764285 0.004909196 -0.009123287 -0.014528612
000220 49 da 31 3c c6 4e 60 3d 0d cd ec 3b a5 4c b8 bc
       0.010855266 0.054762624 0.0072265924 -0.022497484
000230 ec 92 24 3b c4 bc bb 3c ba 7f 22 3c 58 70 04 3b
       0.0025111986 0.022917159 0.009918148 0.0020208564
000240 87 2e 54 3d 5a de 25 3c 50 15 41 bd e2 41 fd bc
       0.051802184 0.0101238135 -0.047139466 -0.030915204
000250 9e 3b 81 3c d5 67 34 bc ec 0a 4c 3d aa 8b 28 3c
       0.015775498 -0.011011084 0.049815103 0.010287205
000260 0d eb 57 3d 41 82 74 3c fa 1f 8d 3c a9 a5 81 3c
       0.052714396 0.014923633 0.017227162 0.015826063
000270 79 88 49 3d 9d 5d be bb ce f5 ac ba 13 63 e3 3c
       0.049202416 -0.0058094994 -0.0013195814 0.027757203
000280 07 d3 0a bc 43 d0 dd bc 66 eb d7 bc 03 42 d0 3c
       -0.008473164 -0.027076846 -0.026357364 0.025422102
000290 c4 73 76 bc 01 eb 9f bc f0 57 1e 3d ed 1f 80 bc
       -0.015042249 -0.019521238 0.038658082 -0.015640223
0002a0 6c 1b 65 bc 7f 47 b6 bc 09 de 0c ba ad 71 78 bb
       -0.013983589 -0.022250889 -0.0005373662 -0.0037909553
0002b0 72 59 14 bc d3 0b 22 b9 73 ca 53 3b 45 23 ad bc
       -0.009054529 -0.00015453929 0.0032316714 -0.021134982
0002c0 ee d4 f0 bc 84 f1 b2 bc e2 ac ab 3c 39 19 cf bc
       -0.029398408 -0.02184368 0.02095646 -0.025280582
0002d0 58 7e 16 3d 99 c1 f3 3c fe ce 40 3b 0d 1f 35 bc
       0.036741585 0.0297554 0.0029420252 -0.011054766
0002e0 7d be 88 3b 14 6d 01 bc a8 ed db 3c f0 c9 80 3b
       0.0041730986 -0.007899541 0.026846722 0.003930323
0002f0 19 c1 92 ba 9d 1f 88 ba 05 f8 cc 3c 50 37 06 bc
       -0.0011196464 -0.0010385398 0.025020609 -0.008191898
000300 ad 01 f8 bb ec f2 b0 3b 4f 8b 23 3d 3c 44 c6 3c
       -0.007568559 0.0054000523 0.039927777 0.024202459
000310 a7 95 10 3d a0 7c be bb 7f 3b 71 3b 4e 31 1f 3c
       0.03529897 -0.0058131963 0.0036809144 0.009716345
000320 c5 ef 43 ba c1 de fc 3b 91 0b 21 3a c7 d5 db bc
       -0.0007474388 0.007716984 0.0006143386 -0.026835335
000330 28 e6 e2 bb b9 df 50 bd 94 58 c1 bb 0a b7 ae bc
       -0.0069244094 -0.05099461 -0.005900452 -0.021327514
000340 cb 13 06 3d a9 2c 4e 3d 60 ed 89 bc 63 22 e2 3c
       0.03273372 0.05033556 -0.016836822 0.027604287
000350 65 01 4f 3b a8 af 65 bc 80 e4 80 bc 58 a8 86 3c
       0.0031586525 -0.0140189305 -0.015733957 0.016437694
000360 24 01 e4 3b 06 90 82 3a f5 37 59 3b 5f 37 1c bb
       0.006958144 0.0009961135 0.0033144925 -0.0023836715
000370 b7 54 d0 bb ff 25 c5 bc f5 b4 97 3b 27 6a 82 bb
       -0.006357755 -0.02406597 0.004629726 -0.0039799395
000380 06 a1 83 ba 0b 12 a4 3b 28 8f 33 3c 70 30 9a 3c
       -0.0010042496 0.0050070337 0.010959424 0.018821925
000390 c7 0e bd bb db 6e d3 bc 33 14 41 3c 49 92 6c bc
       -0.005769584 -0.025809696 0.011784601 -0.014439174
0003a0 36 b2 ef 3b 17 f3 d8 3c 6a 08 ff 3b 56 d3 5a bc
       0.0073149456 0.026483102 0.0077829855 -0.0133560505
0003b0 ec d6 f5 3c d5 df da bb 38 a4 3d bc 4f 0f 9d 3b
       0.03000971 -0.006679515 -0.011574797 0.0047930847
0003c0 dd d3 8b bc fe ed 95 bc 3a bf fa 3c a0 1d 3e bc
       -0.017068798 -0.01830196 0.030608762 -0.011603743
0003d0 eb e8 06 3d 37 44 56 3c 13 92 45 3c 27 92 c7 3b
       0.03293697 0.013077787 0.012058753 0.0060904208
0003e0 13 d4 23 3c 47 93 d6 bc 4a 35 b4 bc 52 47 e7 bc
       0.009999293 -0.026193274 -0.021998066 -0.02823225
0003f0 17 ea 8c 3c 5a f5 dc 3c 20 39 38 3b d2 f5 c2 bc
       0.017201466 0.026972461 0.002811022 -0.023798857

bottleneck.bias f4 [256]
000000 7e 6c 83 b0 ec e0 05 33 4a 49 f8 32 4c 8c 96 b2
       -9.56234e-10 3.117104e-08 2.8904328e-08 -1.7526098e-08
000010 8a 55 c1 af c0 3f 30 32 f8 d1 9e b2 e4 65 2b 31
       -3.5167275e-10 1.0259043e-08 -1.8489104e-08 2.4941693e-09
000020 d0 92 1f 33 00 cb c1 af b8 5f 97 31 9e c6 72 b2
       3.7153598e-08 -3.5250736e-10 4.4055604e-09 -1.4131414e-08
000030 2e c2 5d 31 33 7b f9 b1 af 33 3e b1 d7 3c e9 31
       3.227011e-09 -7.26086e-09 -2.7678018e-09 6.788109e-09
000040 bf 56 77 b2 48 0f 89 b2 1c 7f 40 32 80 e6 0a 32
       -1.4397016e-08 -1.5955848e-08 1.1204772e-08 8.085067e-09
000050 e5 27 af 31 84 0a 9e ae e2 a5 8c b2 e4 6a 24 b2
       5.097706e-09 -7.186876e-11 -1.637358e-08 -9.5703605e-09
000060 3a c2 85 32 ec fc 2c 32 09 27 7d 31 dc 61 a4 b0
       1.5571562e-08 1.00692255e-08 3.6838534e-09 -1.1960384e-09
000070 10 89 de 31 ec ab 55 b2 1f 81 d5 b1 e3 8f a0 30
       6.4766326e-09 -1.2437322e-08 -6.2137953e-09 1.1682427e-09
000080 5f 20 e7 b2 33 24 9a b2 34 45 d8 32 6e fb 56 b2
       -2.690666e-08 -1.7944421e-08 2.517718e-08 -1.2513608e-08
000090 e7 cd 32 31 cf 09 c9 b1 03 8f 3b b2 6a 93 e2 31
       2.601945e-09 -5.850985e-09 -1.091735e-08 6.5942247e-09
0000a0 61 21 11 32 12 d3 aa b2 a3 03 d1 b2 6e 02 0b 31
       8.4477e-09 -1.9886588e-08 -2.4332456e-08 2.0228543e-09
0000b0 15 f0 1b b3 90 15 61 b2 37 49 27 b2 38 fb 86 31
       -3.6307103e-08 -1.31016265e-08 -9.7373265e-09 3.9284735e-09
0000c0 2a a9 2a 32 4e e1 03 b2 6c 00 91 32 7a 20 21 b1
       9.933766e-09 -7.676432e-09 1.6880414e-08 -2.3447044e-09
0000d0 a0 40 7d 30 4b b4 03 b1 ef a8 25 31 6c ea d4 31
       9.21327e-10 -1.9165494e-09 2.4106688e-09 6.1966627e-09
0000e0 34 38 a8 b2 e0 ad a1 b2 17 19 8a 32 19 57 83 32
       -1.9583332e-08 -1.8821936e-08 1.6076724e-08 1.5290015e-08
0000f0 78 0b 45 33 54 6d cb 32 b1 c1 6e b2 85 f8 99 32
       4.5878068e-08 2.3682027e-08 -1.3897464e-08 1.7924558e-08
000100 f6 d5 32 b2 5e 8f dd b2 14 d4 77 30 9a ff 26 32
       -1.0409613e-08 -2.5792982e-08 9.015946e-10 9.720589e-09
000110 f0 6e 90 b2 3e dd f7 31 67 6b f1 b2 8e ec 2c b2
       -1.6814255e-08 7.2137984e-09 -2.8104933e-08 -1.0065504e-08
000120 9f f9 10 b3 95 e6 9e 31 aa 43 23 31 71 e6 75 b2
       -3.375464e-08 4.6246194e-09 2.3758084e-09 -1.4313273e-08
000130 f3 23 f6 ae 71 71 d0 b2 f8 87 ab b1 71 04 a2 b2
       -1.1193171e-10 -2.4265974e-08 -4.992213e-09 -1.8861302e-08
000140 d3 74 7c b0 51 68 b0 b1 e8 20 27 33 ac 5a 47 32
       -9.1843083e-10 -5.1341336e-09 3.8912646e-08 1.1603941e-08
000150 b4 42 8c b1 16 25 6d b2 29 c3 9d 2e 5d 0a 06 b3
       -4.0821195e-09 -1.3803648e-08 7.174201e-11 -3.120873e-08
000160 f5 09 5d b2 13 7f b4 32 08 56 81 32 51 61 8b b2
       -1.2866157e-08 2.1012545e-08 1.5056699e-08 -1.6225984e-08
000170 2c 45 b8 b2 fa 91 35 32 48 17 c3 b2 5b f2 31 32
       -2.1451875e-08 1.0568778e-08 -2.2711575e-08 1.0357861e-08
000180 ff 26 25 32 51 08 92 32 4b 01 bd 2f e6 9f 3a 32
       9.613131e-09 1.7000419e-08 3.4379818e-10 1.0862982e-08
000190 1e eb a1 b2 fe dd 0a b1 76 84 b2 b0 93 69 07 b2
       -1.8849786e-08 -2.020783e-09 -1.2988852e-09 -7.882039e-09
0001a0 6c 8f 0e b2 28 5e 26 b2 d8 cb 8a 30 b8 d1 4c b2
       -8.298098e-09 -9.68388e-09 1.0098757e-09 -1.1922047e-08
0001b0 60 90 ae 32 2a 79 6d b2 45 6a 5d 31 1b 02 ec b1
       2.032192e-08 -1.3822765e-08 3.222014e-09 -6.8687434e-09
0001c0 73 42 d3 ae 7c 3d c4 b2 09 f9 85 b2 f4 ce 02 b2
       -9.606973e-11 -2.2845363e-08 -1.5596486e-08 -7.614052e-09
0001d0 94 fd d4 31 c4 56 b5 32 70 17 19 b0 b2 3a 36 30
       6.1988406e-09 2.111063e-08 -5.569438e-10 6.6294625e-10
0001e0 06 8b af b2 6a a7 14 b2 6c 1d 20 b2 71 8c 02 33
       -2.0435902e-08 -8.652799e-09 -9.3199155e-09 3.0395714e-08
0001f0 1f c3 3c 33 32 9b ac b1 d5 3e dd 2f ad fa 86 b2
       4.3949623e-08 -5.0235025e-09 4.024431e-10 -1.5713647e-08
000200 98 ff 11 31 2f 71 a8 b1 ac f8 a4 32 87 7d 93 32
       2.1245565e-09 -4.902311e-09 1.9205196e-08 1.7170136e-08
000210 9e 12 a6 31 fa f3 32 32 2e f1 68 b2 99 de a1 31
       4.8333524e-09 1.04164375e-08 -1.3559015e-08 4.711023e-09
000220 42 5e 91 31 6c ac 80 b1 a0 96 aa b1 e4 0d 60 32
       4.2307713e-09 -3.7448924e-09 -4.9647753e-09 1.3041674e-08
000230 7b 3a b2 31 8d fc 9a 32 0f 7c bb b1 aa 10 1b b2
       5.1871303e-09 1.8042806e-08 -5.45652e-09 -9.025976e-09
000240 02 42 8e 32 89 98 96 32 d7 79 c9 32 9d 4c 41 32
       1.6560993e-08 1.7531663e-08 2.3454886e-08 1.1251498e-08
000250 5d c0 91 b2 82 2e ae b1 88 c0 91 b2 46 52 2e 32
       -1.6967698e-08 -5.069354e-09 -1.6967775e-08 1.014684e-08
000260 97 9c 89 32 49 e7 92 b2 ed d8 fd 32 59 ad 11 30
       1.6020108e-08 -1.7101813e-08 2.9551723e-08 5.2997035e-10
000270 d9 69 45 b2 90 fd 84 31 a7 b7 b0 30 f5 da 33 31
       -1.1490976e-08 3.8705323e-09 1.2857883e-09 2.617239e-09
000280 39 e4 a8 b1 d6 b5 cc 31 d6 76 b3 2f 44 d4 14 32
       -4.9153894e-09 5.9578538e-09 3.2644348e-10 8.662997e-09
000290 ec 09 e9 32 a0 3b bf b1 2c c5 7a af 83 b7 c4 31
       2.7129282e-08 -5.56561e-09 -2.2807417e-10 5.7252136e-09
0002a0 21 68 9b 32 b6 f1 29 b2 7c ec a5 32 e9 36 fa b1
       1.8091727e-08 -9.892053e-09 1.9316069e-08 -7.2822e-09
0002b0 64 12 36 b1 2c 10 66 b2 47 35 4a 32 7f 7a 59 30
       -2.649494e-09 -1.3391439e-08 1.1770061e-08 7.911822e-10
0002c0 bb 76 20 b3 87 4c 7b b0 64 25 8b 32 d8 2e 0e b1
       -3.7360888e-08 -9.142202e-10 1.6198733e-08 -2.0690347e-09
0002d0 46 5e 1b b3 73 b9 bf 31 79 0d 91 b2 a5 28 e1 b1
       -3.617449e-08 5.5799148e-09 -1.6886348e-08 -6.5529826e-09
0002e0 ee 3f 9a b1 08 e1 4e b2 db 04 f8 30 b5 a5 ca 31
       -4.489258e-09 -1.2041944e-08 1.8045755e-09 5.8978125e-09
0002f0 48 35 cf 31 f7 57 19 b2 3b a2 94 b2 b1 08 93 32
       6.0305503e-09 -8.925773e-09 -1.7303242e-08 1.7117005e-08
000300 f3 a5 82 b2 ec 85 81 32 9a f2 f3 b0 4b b8 1f 32
       -1.5209457e-08 1.5078477e-08 -1.7749529e-09 9.2969215e-09
000310 6e de e9 30 39 4a cf b1 ff 15 27 32 df 0e 18 b1
       1.70162e-09 -6.032931e-09 9.725681e-09 -2.2127364e-09
000320 73 78 95 31 e5 aa 37 33 7d 01 13 b3 8d 14 39 b2
       4.3501642e-09 4.2763435e-08 -3.4227458e-08 -1.077309e-08
000330 51 2a a0 b0 31 68 10 b2 75 32 9c b1 01 e1 b4 b2
       -1.1653559e-09 -8.4055936e-09 -4.545934e-09 -2.1057078e-08
000340 76 27 dc 31 27 dd a9 b1 a9 fd a7 32 54 93 26 b2
       6.407329e-09 -4.9436895e-09 1.955671e-08 -9.69597e-09
000350 ca 95 06 b1 7c e4 cb b1 1b 57 94 31 98 8c d5 32
       -1.9584712e-09 -5.9340532e-09 4.3172697e-09 2.4860398e-08
000360 be 85 df b1 e9 00 b4 b2 b3 94 eb b1 17 17 27 32
       -6.505359e-09 -2.0955172e-08 -6.8563053e-09 9.725929e-09
000370 e0 6b 1d b2 90 56 55 32 27 6e 1e 33 f0 42 51 32
       -9.163131e-09 1.2417914e-08 3.6887425e-08 1.2180621e-08
000380 cc 10 2a 32 55 d0 fb 31 e7 d1 6a 32 84 72 23 32
       9.8991215e-09 7.328746e-09 1.3668319e-08 9.513887e-09
000390 0a e5 e4 b2 c7 94 43 b2 97 2b b2 b1 39 09 33 31
       -2.6646848e-08 -1.1384322e-08 -5.1854374e-09 2.605317e-09
0003a0 cb 72 af b1 b3 28 86 32 85 2d 2c b2 c6 aa ce 31
       -5.106221e-09 1.5618161e-08 -1.0022068e-08 6.0148038e-09
0003b0 63 d9 15 b2 64 01 37 32 f5 2f cd b1 55 26 53 32
       -8.7223695e-09 1.0652318e-08 -5.9717373e-09 1.2290532e-08
0003c0 5f ec c7 b1 e4 d0 02 b1 b2 3f 64 32 51 6a 34 b2
       -5.8185345e-09 -1.903623e-09 1.3285829e-08 -1.05015525e-08
0003d0 0b 81 d0 32 80 ed b9 31 a4 5a c4 32 39 b5 43 b2
       2.4273069e-08 5.4112093e-09 2.2858622e-08 -1.1391699e-08
0003e0 0e 35 aa af 6c 11 a2 b2 86 37 1e b2 80 72 47 b1
       -3.0960517e-10 -1.8867205e-08 -9.209435e-09 -2.9023397e-09
0003f0 1c f0 a5 b1 95 6f 12 32 a3 f3 e2 b2 79 c8 32 31
       -4.8294293e-09 8.523689e-09 -2.6420656e-08 2.6016365e-09
