ckps/source/uda/domainnet/clipart_0/source_C.pt (torch, 358186 bytes, 3 tensors)

fc.bias f4 [345]
0.005911757 -0.00664521 -0.005909473 -0.0009003011 -0.0065111215 0.021995172 -0.004257419 -0.0029920817
0.00093524216 0.010974362 -0.0015339603 -0.005952084 -0.0011991638 -0.0038592168 0.002650429 0.0020702123
0.008835745 -0.006733886 0.002076322 0.006346599 0.0028367874 -0.008015483 0.0037121654 -0.01445697
-0.018336043 -0.013030186 -0.0013634644 -0.004788662 0.00047977324 0.0037795191 0.0060275085 -0.004653154
0.0008417377 -0.0050027226 -0.0011290417 -0.017683245 -0.0018045914 -0.011851026 0.007977346 0.0005878243
-0.0055305837 -0.010713214 0.00057505415 0.00046966298 -0.0004363405 0.00039976073 -0.0024973361 -0.005703473
-0.0018197084 -0.015503817 -0.005592539 -0.010407436 -0.002825545 0.0069985916 0.006591878 0.002972595
0.011700015 0.007406057 0.009031468 -0.003673182 -0.0046392386 -0.00879974 0.008634166 0.0034908454
-0.0058821375 0.0089861015 -0.0053545 0.005179178 -0.003919469 0.016473219 0.0024097 -0.00022780441
0.0053778384 -0.0009288713 -0.0011685342 0.010692024 -0.003657734 0.023408845 0.0027146381 0.0024180817
0.013333733 0.015224455 -0.0058012307 -0.016607486 -0.007713884 0.0057248385 0.0077025807 0.0006807218
-0.008080022 -0.018111274 -0.011656153 -0.0063923937 -0.0074609458 -0.0032051438 0.0033892354 0.0032594895
0.0029839654 -0.00429682 0.0048840744 0.0001638977 0.008090578 0.0003444388 -0.002455043 -0.00032177888
-0.008277454 -0.01521782 0.006795496 -0.0043582274 0.0024940015 -0.0068671075 0.007274966 0.007039574
-0.009754494 0.0099882195 0.00557703 0.0027184412 -0.006557942 0.006002635 -0.023621283 -0.009965707
-0.021527022 0.00023830772 -0.004684159 0.002535146 -0.019385364 -0.0056309225 -0.01417246 -0.0030495063
0.0017344682 0.0024544862 -0.008116576 0.017214239 -0.00702962 0.0034256107 -0.010060981 0.011064968
-0.0034559413 0.0075289723 0.039398894 -0.0010701737 0.013964719 0.00037566197 -0.008603582 0.018335266
-0.019039562 -0.01912232 -0.0061079585 -0.007861009 0.008387304 0.011768907 0.007443879 -0.0059049153
0.012626571 0.00181779 0.003612057 0.0003698976 0.0031536398 -0.001598401 -0.00035003774 -0.005180562
0.020759804 0.0062187156 0.005208474 0.0017377444 -0.0005527129 -0.0025172422 0.0048443866 0.0062719546
0.000110069624 0.0054476825 0.007608833 0.0023611812 0.0003503 0.011382728 0.0026109722 0.0024627256
-0.004152823 -0.002817299 0.011791336 -0.003403474 -0.007352616 0.0033337288 0.00084252196 -0.0032535444
-0.009925008 -9.7998556e-05 -0.007806709 -0.009419684 -0.008487574 -0.00074993545 -0.0068463897 -0.008234168
0.019701391 -0.0024747907 -0.01440423 -0.0017331504 9.373285e-05 -0.0018815368 0.003809586 0.007596667
0.011026985 -0.0025237435 -0.0033116755 0.0041711526 0.00050436397 0.009810788 0.0053804703 0.0025003788
-0.009214144 0.017180167 -0.010932189 0.0068226233 -0.0031991608 0.010234222 -0.0012290784 -0.0012526186
-0.0057000075 -0.002828603 0.0030842994 0.014666917 0.0006617236 -0.0074941856 -0.0011514202 -0.0156452
0.0074851816 -0.0050136773 0.009014596 -0.013479817 -0.014581107 -0.01654036 0.006561643 0.0072567575
-0.005945326 -0.00056395825 0.005008679 0.01561628 0.00086684176 0.0033914598 -0.0061199083 0.0011371376
-0.016850973 0.0022931057 -0.00020600126 -0.010107529 -0.011004768 -0.00053390756 -0.006532289 0.0060243374
-0.007365078 -0.009977484 0.00061549793 -0.0023986162 -0.010475528 -0.0025284714 -0.008500572 0.010512732
00000000: 69b7 c13b 10c0 d9bb 41a4 c1bb 2f02 6cba
00000010: 3f5b d5bb 382f b43c d281 8bbb cd16 44bb
00000020: 0a2b 753a cfcd 333c 2b0f c9ba b309 c3bb
00000030: 432d 9dba eaea 7cbb d2b2 2d3b 66ac 073b
00000040: cdc3 103c eea7 dcbb e712 083b 22f7 cf3b
00000050: 65e9 393b 5f53 03bc cd47 733b eddc 6cbc
00000060: 7835 96bc 907c 55bc 46b6 b2ba 35ea 9cbb
00000070: 138a fb39 cfb1 773b 6882 c53b 7c79 98bb
00000080: 10a8 5c3a e1ed a3bb 5afc 93ba 74dc 90bc
00000090: 0a88 ecba ce2a 42bc 6ab3 023c 3918 1a3a
000000a0: e639 b5bb 7a86 2fbc 3bbf 163a 193d f639
000000b0: a1c4 e4b9 fa96 d139 59aa 23bb 33e4 babb
000000c0: 4883 eeba b903 7ebc 9e41 b7bb f383 2abc
000000d0: c72c 39bb 7154 e53b ae00 d83b decf 423b
000000e0: 6bb1 3f3c 82ae f23b b9f8 133c c5b9 70bb
000000f0: c104 98bb c92c 10bc 5176 0d3c abc6 643b
00000100: f2be c0bb 713a 133c cd74 afbb 18b6 a93b
00000110: e46e 80bb d8f2 863c 0fec 1d3b c8de 6eb9
00000120: 9438 b03b 7f7f 73ba 8029 99ba 992d 2f3c
00000130: 98b6 6fbb e8c3 bf3c 12e8 313b ae78 1e3b
00000140: bb75 5a3c fe6f 793c 4018 bebb 6c0c 88bc
00000150: c0c4 fcbb 6d97 bb3b ee65 fc3b 7772 323a
00000160: 1262 04bc 185e 94bc 73f9 3ebc 4977 d1bb
00000170: f37a f4bb 640d 52bb ef1d 5e3b 299d 553b
00000180: a28e 433b 57cc 8cbb 960a a03b f4db 2b39
00000190: 588e 043c cb95 b439 c9e4 20bb 6eb4 a8b9
000001a0: 299e 07bc 2a54 79bc c1ac de3b 76cf 8ebb
000001b0: 6772 233b 7905 e1bb d762 ee3b 3aac e63b
000001c0: 50d1 1fbc a1a5 233c 85bf b63b e027 323b
000001d0: 01e4 d6bb c1b1 c43b 6c81 c1bc 3447 23bc
000001e0: 7059 b0bc 3ee2 7939 937d 99bb b124 263b
000001f0: 0ece 9ebc 9a83 b8bb 9b33 68bc 3ada 47bb
00000200: 1857 e33a 72db 203b 63fb 04bc e004 8d3c
00000210: ba58 e6bb 3680 603b d0d6 24bc d749 353c
00000220: 137d 62bb 99b5 f63b bc60 213d 1245 8cba
00000230: 47cc 643c 7ff4 c439 0af6 0cbc d733 963c
00000240: dbf8 9bbc 69a6 9cbc 4525 c8bb 76cb 00bc
00000250: e76a 093c 60d2 403c c8eb f33b 057e c1bb
00000260: addf 4e3c e942 ee3a 43b8 6c3b d1ee c139
00000270: 4cad 4e3b 7081 d1ba 4585 b7b9 b4c1 a9bb
00000280: 7710 aa3c 5ec6 cb3b d9ab aa3b 07c5 e33a
00000290: efe3 10ba 51f8 24bb a9bd 9e3b f884 cd3b
000002a0: 2ed5 e638 7982 b23b 8453 f93b 0cbe 1a3b
000002b0: 78a8 b739 9f7e 3a3c d81c 2b3b ae65 213b
000002c0: 6714 88bb 6fa2 38bb 7330 413c d20c 5fbb
000002d0: 37ee f0bb b07a 5a3b b1dc 5c3a 6b39 55bb
000002e0: 809c 22bc 9384 cdb8 6ccf ffbb 0555 1abc
000002f0: 770f 0bbc 5197 44ba ae57 e0bb 9be8 06bc
00000300: d064 a13c 1930 22bb b8ff 6bbc e12a e3ba
00000310: 7192 c438 e69d f6ba 3faa 793b 76ed f83b
00000320: 87aa 343c 6465 25bb b208 59bb 2aae 883b
00000330: 4b37 043a 6dbd 203c a84e b03b 65dd 233b
00000340: ecf6 16bc 6cbd 8c3c ed1c 33bc 5090 df3b
00000350: 03a9 51bb 70ad 273c 0719 a1ba e82e a4ba
00000360: 21c7 babb 1560 39bb f521 4a3b 824d 703c
00000370: 8577 2d3a c991 f5bb 40eb 96ba 5d2a 80bc
00000380: 4146 f53b c649 a4bb f5b1 133c 73da 5cbc
00000390: 98e5 6ebc a67f 87bc 0d03 d73b 18ca ed3b
000003a0: 02d1 c2bb 99d6 13ba d81f a43b 6ddb 7f3c
000003b0: c43c 633a 4143 5e3b 8389 c8bb 020c 953a
000003c0: 0d0b 8abc ee47 163b 0b02 58b9 0d9a 25bc
000003d0: 584d 34bc eef5 0bba d00c d6bb ce67 c53b
000003e0: c156 f1bb 9a78 23bc 5e59 213a 1a32 1dbb
000003f0: 8da1 2bbc b6b4 25bb fc45 0bbc 983d 2c3c

fc.weight_g f4 [345, 1]
0.6085436 0.73875606 0.76892936 0.7145335 0.89811516 0.85773295 0.80738854 0.8713642
0.8028811 0.7975662 0.6880116 0.77832544 0.67153573 0.7549864 0.6817595 0.80353826
0.7791977 0.8291777 0.71134067 0.7274335 0.63511497 0.7910155 0.7580446 0.8648622
0.8971952 0.9167157 0.9154021 0.87817526 0.7800089 0.6432526 0.9884253 1.0031838
0.8627944 0.7899779 0.88287085 0.8973675 0.80197257 0.7960118 0.8736156 1.0019761
0.81496704 0.93724537 0.76798785 0.73335505 0.9142353 0.84684217 0.7814655 0.78830886
0.67629033 0.86131257 0.77641445 0.7967653 0.6514529 0.7097524 0.84925056 0.7291268
0.8486469 0.81755376 0.8169958 0.8188582 0.80059534 0.80143654 0.6856932 0.6193344
0.7175732 0.70589566 0.77888757 0.72182155 0.7682407 0.87903076 0.7008386 0.9589252
0.92893887 0.72116905 0.89392537 0.98722315 0.87131804 0.9503553 0.78341085 0.95283204
0.5837803 0.88040924 0.7954491 0.8825242 0.8594097 0.9170915 0.8423115 0.83556527
0.9132088 0.81212074 0.92805684 0.7560892 0.76086557 0.8489588 0.7127925 0.8150625
0.6584371 0.86512166 0.88411963 0.8491399 1.0299349 0.8295395 0.96891296 0.7733162
0.8899265 0.8566116 0.7389059 0.9173957 0.7380067 0.8384254 0.95616645 0.80732244
0.90800023 0.8419456 0.7761604 0.83681685 0.8821529 0.91774803 0.9841548 0.87789536
0.93043816 0.9277328 0.9598466 0.8086418 0.92680097 0.832192 0.9020923 0.71783966
0.90609795 0.7750495 0.966944 0.9974865 0.75341845 0.8123732 0.76763207 0.8110997
0.9021811 0.8051418 0.9046788 0.88409895 0.97352594 0.81926876 0.8771408 0.87862134
0.9080227 0.94145495 0.91214687 0.87418765 0.74542516 0.8451135 0.6648304 0.8583887
0.7522982 0.7460448 0.621286 0.8517118 0.89165145 0.73555636 0.7904335 0.7967161
0.79600626 0.66342944 0.7309853 0.65599024 0.74762267 0.91903675 0.6478652 0.59549004
0.84747297 0.59549785 0.7252677 0.81479377 0.87994385 0.7534859 0.67157835 0.8425753
0.92289805 0.78239286 0.5639666 0.68880665 0.752668 0.80291265 0.77563024 0.9328247
0.90933096 0.71739006 0.826884 0.860264 0.77127326 0.6858446 0.71521837 0.777871
0.92075735 0.85900074 0.8862204 0.8138362 0.7151415 0.7508017 0.76202023 0.75463593
0.6216985 0.84795296 0.7922752 0.65714073 0.8105018 0.65522313 0.8052699 0.6912656
0.7311973 0.5376252 0.7842797 0.7368563 0.76152104 0.61937535 0.7580482 0.7393476
0.7723407 0.73426926 0.7913501 0.5625391 0.65985423 0.8087233 0.7414969 0.92186606
0.7046385 0.75956756 0.6451047 0.78923035 0.8226288 0.8721084 0.96611977 0.8120512
0.7717104 0.6089642 0.75424385 0.8162182 0.90428036 0.65646076 0.75284034 0.656353
0.8625475 0.8850544 0.76534593 0.8244897 0.83677936 0.92274266 0.97481525 0.85849714
0.9090999 0.81425357 0.9379365 0.83842975 0.91301197 0.856641 0.9449089 0.8945311
00000000: 83c9 1b3f 1e1f 3d3f 8ed8 443f abeb 363f
00000010: e0ea 653f 6394 5b3f 04b1 4e3f b911 5f3f
00000020: 9e89 4d3f 4c2d 4c3f 8721 303f 5640 473f
00000030: c4e9 2b3f ca46 413f ca87 2e3f afb4 4d3f
00000040: 8079 473f fd44 543f 6c1a 363f 1539 3a3f
00000050: e596 223f fe7f 4a3f 360f 423f 9c67 5d3f
00000060: 96ae 653f e1ad 6a3f cb57 6a3f 18d0 603f
00000070: aaae 473f 34ac 243f 7109 7d3f 5468 803f
00000080: 18e0 5c3f fe3b 4a3f d303 623f e0b9 653f
00000090: 134e 4d3f 6ec7 4b3f 46a5 5f3f c140 803f
000000a0: aea1 503f 50ef 6f3f da9a 443f 28bd 3b3f
000000b0: 530b 6a3f a6ca 583f 1f0e 483f 9cce 493f
000000c0: 5d21 2d3f fb7e 5c3f 19c3 463f d0f8 4b3f
000000d0: 9ec5 263f 55b2 353f 7c68 593f 0ea8 3a3f
000000e0: ec40 593f 344b 513f a326 513f b1a0 513f
000000f0: d1f3 4c3f f22a 4d3f 9789 2f3f b38c 1e3f
00000100: e1b2 373f 94b5 343f 2d65 473f 4cc9 383f
00000110: 6cab 443f 2908 613f 296a 333f 1f7c 753f
00000120: f0ce 6d3f 899e 383f 4bd8 643f a8ba 7c3f
00000130: b30e 5f3f 7c4a 733f 9d8d 483f cdec 733f
00000140: a072 153f 8062 613f 8da2 4b3f 1bed 613f
00000150: 4602 5c3f 82c6 6a3f baa1 573f 9be7 553f
00000160: 0dc8 693f 25e7 4f3f 2295 6d3f 108f 413f
00000170: 16c8 423f 5d55 593f 9279 363f f0a7 503f
00000180: 558f 283f 9d78 5d3f aa55 623f 3c61 593f
00000190: e8d4 833f b35c 543f ae0a 783f 0df8 453f
000001a0: 39d2 633f e64a 5b3f f028 3d3f 72da 6a3f
000001b0: 02ee 3c3f 0ca3 563f 53c7 743f afac 4e3f
000001c0: b472 683f bf89 573f 73b2 463f a139 563f
000001d0: c6d4 613f 89f1 6a3f 92f1 7b3f c0bd 603f
000001e0: 3231 6e3f e67f 6d3f 82b8 753f 2603 4f3f
000001f0: d442 6d3f 890a 553f 85ef 663f 57c4 373f
00000200: 09f6 673f a569 463f a489 773f 465b 7f3f
00000210: 08e0 403f b1f7 4f3f 8983 443f 3ba4 4f3f
00000220: 57f5 663f c61d 4e3f 0899 673f 4f54 623f
00000230: ff38 793f 99bb 513f 4d8c 603f 54ed 603f
00000240: 2d74 683f 3103 713f 7582 693f c3ca 5f3f
00000250: 2fd4 3e3f 5c59 583f 5332 2a3f 5dbf 5b3f
00000260: 9d96 403f cbfc 3e3f 990c 1f3f c909 5a3f
00000270: 4543 643f 6c4d 3c3f da59 4a3f 96f5 4b3f
00000280: 11c7 4b3f 83d6 293f da21 3b3f faee 273f
00000290: 3364 3f3f fe45 6b3f 7eda 253f 0972 183f
000002a0: fdf3 583f 8c72 183f 25ab 393f 5396 503f
000002b0: 0044 613f 74e4 403f 8fec 2b3f 04b3 573f
000002c0: 0c43 6c3f e64a 483f 1d60 103f a255 303f
000002d0: daae 403f af8b 4d3f b48f 463f 99cd 6e3f
000002e0: eac9 683f e0a6 373f abae 533f 433a 5c3f
000002f0: 2a72 453f 8393 2f3f 8d18 373f 8e22 473f
00000300: c1b6 6b3f 79e7 5b3f 57df 623f 9257 503f
00000310: 8313 373f 8a34 403f c213 433f d22f 413f
00000320: a227 1f3f 7213 593f 8cd2 4a3f 603a 283f
00000330: 0c7d 4f3f b4bc 273f 2b26 4e3f c8f6 303f
00000340: bf2f 3b3f cea1 093f 8ec6 483f 9da2 3c3f
00000350: 0bf3 423f 628f 1e3f 720f 423f e245 3d3f
00000360: 1fb8 453f 12f9 3b3f ec95 4a3f 9002 103f
00000370: 35ec 283f 7d08 4f3f bed2 3d3f 6aff 6b3f
00000380: 3063 343f 0573 423f 9525 253f 000b 4a3f
00000390: cd97 523f 7f42 5f3f a053 773f 96e2 4f3f
000003a0: d08e 453f 14e5 1b3f 2016 413f adf3 503f
000003b0: eb7e 673f d00d 283f 25ba 403f c006 283f
000003c0: eacf 5c3f ed92 623f b6ed 433f c211 533f
000003d0: 2c37 563f dd38 6c3f 7e8d 793f 78c6 5b3f
000003e0: c5ba 683f ec72 503f 9b1c 703f 55a3 563f
000003f0: 27bb 693f d34c 5b3f 8de5 713f fdff 643f

fc.weight_v f4 [345, 256]
0.029179042 0.021726629 -6.8883244e-05 0.009144147 -0.018656105 0.02699495 -0.011506436 0.009350027
-0.0085600605 0.011339974 -0.012635783 -0.0047464105 -0.0008573184 -0.008637488 -0.014013868 0.0019561464
-0.004966521 0.006232505 0.009549016 -0.002149866 0.002210569 0.012737331 -0.030807378 0.015553828
-0.00199738 -0.006316961 -0.002190893 0.0027842026 0.0075514824 0.022281751 -0.006217179 -0.008838961
-0.008003754 -0.015754415 0.009464739 0.011756431 -0.025986485 -0.027833529 -0.008484418 0.006541637
0.0091885645 0.012148722 -0.017541874 0.015873775 0.012750491 0.0025358202 0.015068756 -0.023348307
0.009718837 -0.01097913 0.0059695737 -0.0038893414 0.0073191295 -0.012084204 0.00010467228 -0.0088949045
-0.015797205 -0.01619936 0.016673064 -0.022751441 0.009143456 0.03176041 0.009494922 0.003327381
-0.01698186 0.016543288 0.005448217 -0.019707866 0.0009441867 -0.012494591 -0.023632219 -0.0016470297
-0.003331161 0.023106657 0.017854948 0.022688026 0.0010586045 0.023724204 0.0005691256 0.03126417
0.013499587 -0.014059077 -0.014637907 -0.021437665 0.0098901475 -0.012328547 0.0026834407 -0.029796423
0.0016924925 0.00787607 -0.013214018 -0.02288312 -0.0015002065 0.016038438 0.014530032 -0.008868861
0.0036491056 -0.0075741396 0.0004710411 0.013562652 0.007961621 -0.025206903 0.040332228 0.008594326
-0.010370905 0.016480817 -0.016259544 0.026332626 0.005317652 -0.015559115 0.011358224 0.012730064
0.008154673 0.014361142 0.0030889953 0.03133515 0.004093432 0.011677706 0.011787959 -0.0027045906
0.009918117 -0.0069516925 0.0039784727 -0.016051043 0.0024840157 -0.030709334 -0.002760444 0.014720264
-0.0036214844 -0.011522654 0.0032839389 0.0015591744 0.025899412 0.009897793 0.002605982 -0.031963985
0.006451808 0.0013104042 0.010017634 0.012188794 -0.00021303253 -0.012845258 -0.0028422815 0.01442936
0.0086394595 -0.010451766 0.009196564 -0.03289112 -0.0046562175 -0.0007026237 0.009827987 0.01876343
-0.018286662 0.01796078 0.019613953 0.014945082 -0.02228902 0.013536192 0.0022891255 0.016188115
0.01314355 -0.0023572377 0.0114326365 -0.008243052 0.02769179 0.019051017 -0.0130988555 -4.764272e-05
0.011486573 -0.020796306 0.022440324 -0.033941925 0.0026078697 -0.003209004 -0.0006245697 -0.0021315368
0.014182106 -0.024527842 -0.0015433958 0.015685938 -0.0032060414 0.01850477 -0.026053395 0.012856592
-0.022783553 -0.012059887 -0.009057578 0.0031149164 -0.0052745077 -0.002779814 0.010758861 -0.010955413
0.015814349 -0.03561307 0.025308311 -0.0033136355 -0.007955828 -0.001509567 -0.027991518 -0.00929662
0.0052333474 -0.005787237 -0.013362192 -0.012201329 0.0016117117 0.0016766918 -0.0017071506 0.01262713
-0.008277973 0.019430244 -0.012803438 0.02516136 0.002231723 0.009608412 -0.0055569247 0.010427413
0.013406457 0.01664693 -0.01917318 -0.019414194 0.0060673826 0.021466142 0.019323716 -0.010836904
-0.0062330803 0.019907678 0.029341888 0.013972577 0.017997386 3.2847493e-05 -0.008150018 0.023945391
-0.006481429 -0.0014818023 0.027279602 -0.012494028 0.016040727 0.0058422987 0.0077067036 0.027320348
-0.016306162 -0.027214278 0.01399388 0.016184473 0.0020648302 0.0028349827 -0.018073391 0.008109692
-0.0031212883 0.019305086 -0.0003671449 0.00119074 0.015571609 -0.0062992857 0.004473693 -0.011880335
00000000: e308 ef3c 0bfc b13c 6975 90b8 55d1 153c
00000010: b0d4 98bc 8324 dd3c 7e85 3cbc db30 193c
00000020: 7f3f 0cbc 4ccb 393c 5106 4fbc c787 9bbb
00000030: aabd 60ba 4084 0dbc 6c9a 65bc b132 003b
00000040: 33be a2bb 0b3a cc3b 7a73 1c3c c4e4 0cbb
00000050: 32df 103b 3db0 503c c15f fcbc 7cd5 7e3c
00000060: 7ae6 02bb 82fe cebb 1695 0fbb 2b77 363b
00000070: 6d72 f73b 3888 b63c 7ab9 cbbb 4ad1 10bc
00000080: 2d22 03bc 670f 81bc fe11 1b3c 0c9e 403c
00000090: 9ce1 d4bc 2403 e4bc 3a02 0bbc 3a5b d63b
000000a0: a28b 163c 6f0b 473c fab3 8fbc b809 823c
000000b0: 6fe7 503c 0130 263b f2e2 763c f344 bfbc
000000c0: c23b 1f3c cfe1 33bc 6a9c c33b 52e4 7ebb
000000d0: 4fd5 ef3b d3fc 45bc 8183 db38 efbb 11bc
000000e0: 2469 81bc 85b4 84bc f395 883c 3b61 babc
000000f0: 6fce 153c 3417 023d 9790 1b3c 3110 5a3b
00000100: 8b1d 8bbc ca85 873c f586 b23b 6472 a1bc
00000110: 4c83 773a 1db6 4cbc 5b98 c1bc 25e1 d7ba
00000120: 9c4f 5abb 2c4a bd3c 8a44 923c 3ddc b93c
00000130: dfc0 8a3a 4359 c23c 5f31 153a dc0e 003d
00000140: 5f2d 5d3c 0b58 66bc d5d3 6fbc 0b9e afbc
00000150: 490a 223c adfd 49bc aadc 2f3b a117 f4bc
00000160: a0d6 dd3a a20a 013c 9c7f 58bc 6275 bbbc
00000170: 94a2 c4ba 0b63 833c 5f0f 6e3c b34e 11bc
00000180: d525 6f3b 7d30 f8bb 11f6 f639 e335 5e3c
00000190: 7571 023c b57e cebc 6833 253d 37cf 0c3c
000001a0: baea 29bc c702 873c bc32 85bc 85b7 d73c
000001b0: b33f ae3b a9eb 7ebc d817 3a3c c291 503c
000001c0: 2d9b 053c ff4a 6b3c be70 4a3b 4959 003d
000001d0: 3222 863b d953 3f3c 4922 413c 803f 31bb
000001e0: 997f 223c 06cb e3bb d95d 823b 7a7d 83bc
000001f0: deca 223b 2492 fbbc 91e8 34bb 432d 713c
00000200: 6d56 6dbb 84c9 3cbc 5a37 573b 365d cc3a
00000210: 012b d43c 5a2a 223c 1fc9 2a3b abec 02bd
00000220: b069 d33b dec1 ab3a 0121 243c 82b3 473c
00000230: 7c61 5fb9 eb74 52bc 9245 3abb 1f69 6c3c
00000240: 858c 0d3c e23d 2bbc 2fad 163c d7b8 06bd
00000250: 2f93 98bb 4730 38ba 9105 213c c4b5 993c
00000260: e9cd 95bc 7c22 933c 71ad a03c 38dc 743c
00000270: 7697 b6bc e7c6 5d3c 2705 163b f09c 843c
00000280: 0b58 573c e37b 1abb f44f 3b3c de0d 07bc
00000290: e5d9 e23c e110 9c3c 959c 56bc fbd3 47b8
000002a0: 2e32 3c3c 045d aabc c5d4 b73c b006 0bbd
000002b0: cbe8 2a3b 274e 52bb 2aba 23ba 41b1 0bbb
000002c0: 105c 683c 9dee c8bc c54b caba cc7f 803c
000002d0: 731c 52bb 5197 973c ee6d d5bc 75a4 523c
000002e0: 93a4 babc d596 45bc 3c66 14bc a023 4c3b
000002f0: c7d5 acbb 8a2d 36bb ef45 303c 557e 33bc
00000300: 188d 813c 03df 11bd 6053 cf3c 9429 59bb
00000310: 2959 02bc aadc c5ba 784e e5bc da50 18bc
00000320: 807c ab3b dda2 bdbb 18ed 5abc 15e8 47bc
00000330: 1240 d33a 71c4 db3a 78c2 dfba 06e2 4e3c
00000340: 56a0 07bc 2d2c 9f3c 83c5 51bc 321f ce3c
00000350: 1942 123b 9a6c 1d3c dd16 b6bb bdd7 2a3c
00000360: c2a6 5b3c 245f 883c 1311 9dbc 840a 9fbc
00000370: e5d0 c63b c3d9 af3c c54c 9e3c 458d 31bc
00000380: de3e ccbb 6d15 a33c 665e f03c 3ced 643c
00000390: 416f 933c bac5 0938 a787 05bc 2029 c43c
000003a0: 2b62 d4bb 0939 c2ba 7979 df3c c0b3 4cbc
000003b0: d867 833c c170 bf3b 8488 fc3b ecce df3c
000003c0: 8094 85bc 7af0 debc 9646 653c 4d95 843c
000003d0: 1a52 073b 1ecb 393b a60e 94bc 83de 043c
000003e0: 878e 4cbb b325 9e3c 5b7d c0b9 9b12 9c3a
000003f0: 1020 7f3c 3d6a cebb 0f98 923b bda5 42bc
