ckps/source/uda/office-caltech/caltech_0/source_B.pt (torch, 532830 bytes, 6 tensors)

bn.weight f4 [256]
0.96276593 0.96376073 0.9642441 0.965696 0.965863 0.9633373 0.9631919 0.96594864
0.96377325 0.9590039 0.9623841 0.963027 0.96324205 0.96360093 0.9624369 0.9643286
0.9634935 0.96470755 0.9655064 0.963771 0.9640155 0.9615268 0.96469754 0.9630006
0.9628937 0.9647837 0.96661747 0.9673414 0.9644704 0.96595603 0.96096945 0.95975626
0.9677455 0.9642469 0.96456736 0.9634309 0.9677629 0.964825 0.959105 0.9639835
0.9653331 0.96339804 0.9608533 0.9624577 0.9635515 0.96999085 0.9623809 0.9667193
0.9666518 0.9662049 0.9643098 0.9625712 0.96351564 0.96390873 0.9636268 0.9658349
0.96316105 0.962436 0.964803 0.9635489 0.9644846 0.9622896 0.9613955 0.9649752
0.9650781 0.959736 0.9630317 0.963465 0.96406764 0.96484697 0.967394 0.9653576
0.9635074 0.9613779 0.96485513 0.9648908 0.964237 0.9646405 0.96399933 0.9679831
0.96463984 0.96488 0.9599845 0.96191615 0.96434015 0.96462727 0.9623289 0.96330464
0.9656389 0.9621264 0.9689807 0.9645104 0.96337306 0.9590554 0.9612918 0.96435285
0.966414 0.9629105 0.9639892 0.96490264 0.964765 0.9666946 0.9665215 0.9644086
0.9652981 0.96641576 0.9650246 0.9646715 0.96674764 0.9676765 0.96502924 0.9626676
0.9652974 0.9632659 0.96222275 0.96119016 0.9624072 0.96259654 0.9679703 0.9630623
0.9652849 0.96595496 0.9646099 0.96284854 0.96380466 0.9641625 0.96392184 0.96282965
0.9641204 0.9641938 0.9614112 0.9641665 0.9587839 0.95789474 0.9715477 0.96442753
0.9621086 0.9619915 0.9622653 0.96745557 0.96429116 0.96522915 0.9660652 0.9664127
0.9641561 0.9632767 0.9608103 0.964708 0.96148694 0.96469617 0.9660777 0.9650232
0.9617784 0.96489096 0.96802807 0.9656989 0.96523964 0.96383154 0.9647113 0.9656057
0.96205896 0.9643405 0.96539915 0.96377605 0.96641934 0.9650737 0.96249294 0.9640422
0.9639737 0.96188587 0.96306413 0.9637537 0.9653773 0.96416384 0.9633751 0.96468705
0.96536404 0.963524 0.9658661 0.9652989 0.96303993 0.9658477 0.96344054 0.9644259
0.9654842 0.9636146 0.9644049 0.9639199 0.96848065 0.96406597 0.96392 0.9631546
0.96567976 0.9638468 0.96529746 0.96270007 0.9644337 0.96652704 0.9648912 0.9654355
0.96490026 0.96309644 0.9632015 0.96590143 0.961001 0.96567035 0.9650798 0.96494704
0.9625377 0.9650108 0.96602136 0.96489376 0.96593064 0.96543723 0.96646917 0.967356
0.9667663 0.9631096 0.962842 0.9673907 0.9663998 0.962399 0.96318156 0.9651799
0.9714369 0.96391404 0.9641784 0.9627183 0.965177 0.96061647 0.9637412 0.96744883
0.9636363 0.9667605 0.96363485 0.9645522 0.9646798 0.96678364 0.96576 0.963974
0.965156 0.96594715 0.9647892 0.96443284 0.9652695 0.9650366 0.96416765 0.96827096
0.9657579 0.9656724 0.9629586 0.9614678 0.9651081 0.96746343 0.963042 0.96845317
00000000: d477 763f 06b9 763f b4d8 763f da37 773f
00000010: cc42 773f 469d 763f bf93 763f 6948 773f
00000020: d8b9 763f 4881 753f ce5e 763f f088 763f
00000030: 0897 763f 8dae 763f 4462 763f 3dde 763f
00000040: 83a7 763f 13f7 763f 6d2b 773f b2b9 763f
00000050: b8c9 763f 9f26 763f 6bf6 763f 3587 763f
00000060: 3480 763f 11fc 763f 3e74 773f b0a3 773f
00000070: 88e7 763f e548 773f 1802 763f 96b2 753f
00000080: 2bbe 773f e3d8 763f e3ed 763f 68a3 763f
00000090: 4fbf 773f c5fe 763f e887 753f 9fc7 763f
000000a0: 1220 773f 41a1 763f 7bfa 753f a163 763f
000000b0: 50ab 763f 5251 783f 985e 763f eb7a 773f
000000c0: 7e76 773f 3459 773f 02dd 763f 116b 763f
000000d0: f6a8 763f b9c2 763f 3fb0 763f f540 773f
000000e0: b991 763f 3562 763f 54fd 763f 24ab 763f
000000f0: 76e8 763f 9c58 763f 041e 763f 9d08 773f
00000100: 5c0f 773f 42b1 753f 3f89 763f a4a5 763f
00000110: 23cd 763f 3600 773f 22a7 773f ad21 773f
00000120: 6ca8 763f dd1c 763f bf00 773f 1503 773f
00000130: 3cd8 763f aef2 763f a9c8 763f becd 773f
00000140: a3f2 763f 6002 773f 8bc1 753f 2340 763f
00000150: ffde 763f d0f1 763f 305b 763f 229b 763f
00000160: 1c34 773f ea4d 763f 1f0f 783f 27ea 763f
00000170: 9e9f 763f a884 753f 3817 763f d4df 763f
00000180: e866 773f 4d81 763f ffc7 763f dc03 773f
00000190: d7fa 763f 4c79 773f f46d 773f 7be3 763f
000001a0: c71d 773f 0667 773f da0b 773f b6f4 763f
000001b0: c67c 773f a6b9 773f 280c 773f 6271 763f
000001c0: bb1d 773f 9898 763f 3b54 763f 8f10 763f
000001d0: 5160 763f ba6c 763f e7cc 773f 408b 763f
000001e0: e91c 773f d348 773f adf0 763f 3e7d 763f
000001f0: e7bb 763f 5bd3 763f 95c3 763f 017c 763f
00000200: 98d0 763f 68d5 763f 0b1f 763f 9ed3 763f
00000210: dd72 753f 9738 753f 5ab7 783f b9e4 763f
00000220: c04c 763f 1345 763f 0557 763f 2bab 773f
00000230: c9db 763f 4219 773f 0d50 773f d366 773f
00000240: efd2 763f 4d99 763f aaf7 753f 1af7 763f
00000250: 0224 763f 54f6 763f de50 773f c30b 773f
00000260: 1c37 763f 1803 773f b0d0 773f 0b38 773f
00000270: f219 773f aabd 763f 52f7 763f ef31 773f
00000280: 7f49 763f 05df 763f 6624 773f 07ba 763f
00000290: 4267 773f 120f 773f f065 763f 78cb 763f
000002a0: fbc6 763f 273e 763f 5f8b 763f 90b8 763f
000002b0: f722 773f 71d3 763f c09f 763f bbf5 763f
000002c0: 1922 773f 82a9 763f 0043 773f d41d 773f
000002d0: c989 763f cb41 773f 0aa4 763f 9ee4 763f
000002e0: f929 773f 72af 763f 3de3 763f 74c3 763f
000002f0: 59ee 773f 07cd 763f 76c3 763f 4d91 763f
00000300: ca36 773f aabe 763f bc1d 773f 8373 763f
00000310: 21e5 763f 516e 773f 1c03 773f c826 773f
00000320: b403 773f 7d8d 763f 6094 763f 5145 773f
00000330: 2904 763f 2c36 773f 780f 773f c506 773f
00000340: df68 763f f30a 773f 2d4d 773f 4703 773f
00000350: 3b47 773f e526 773f 866a 773f a5a4 773f
00000360: ff7d 773f 5a8e 763f d07c 763f eba6 773f
00000370: fa65 773f c85f 763f 1193 763f 0816 773f
00000380: 17b0 783f 12c3 763f 65d4 763f b574 763f
00000390: d715 773f f6ea 753f beb7 763f baaa 773f
000003a0: deb0 763f 9e7d 773f c6b0 763f e5ec 763f
000003b0: 41f5 763f 227f 773f 0c3c 773f 00c7 763f
000003c0: 7714 773f 5048 773f 6dfc 763f 12e5 763f
000003d0: e71b 773f a30c 773f b1d3 763f 9be0 773f
000003e0: e93b 773f 4e36 773f 7484 763f c122 763f
000003f0: 5311 773f afab 773f ec89 763f 8cec 773f

bn.bias f4 [256]
0.0015353345 0.0068631894 0.0021765123 0.011752381 0.0035422416 0.011462695 -0.0007354657 0.00011623169
-0.0055239047 0.00053747126 0.013297144 -0.0016770528 0.014365429 0.0019123297 0.0055844057 0.015672218
0.011745778 -0.0060322713 -0.0002848232 0.002910364 0.004769358 0.013196192 0.005200039 0.0037074275
-0.0018634244 0.0060433974 0.016530858 0.008372778 -0.0029594044 -0.015106048 0.0026181475 -0.013158497
0.0174402 -0.011841488 -0.014372049 -0.0014744792 -8.197313e-05 0.007569649 0.00954949 0.006524232
-0.004579107 -0.0025540926 0.009146251 -0.01070301 -0.016285509 0.0076417355 0.008565177 0.017045315
0.005709962 0.014020623 0.02100461 0.00022600232 -0.001972822 0.006334371 0.0013888864 0.023722442
0.0018591398 0.010330002 0.0016858082 0.008857382 0.00016863295 0.0060911807 3.0622236e-06 -0.0008202311
-0.010183232 -0.0146612525 -0.0052994182 -0.0057592774 -0.014206551 -0.00080249587 0.0007114015 0.017617263
0.00017579894 -0.003992129 0.011805808 -0.0040333592 -0.005510999 -0.0008814164 -0.0031126076 0.002482965
0.00039636492 0.0026138136 0.0043385723 0.009694358 0.0021958416 -0.009939624 -0.009423948 0.000729359
0.009626629 -0.00024718637 -0.0015371587 -0.010849123 0.0067487927 -0.0036444413 -0.005571332 0.013533925
-0.0060422476 -0.004917598 0.0023165436 0.008580393 -0.000659257 -0.008948873 0.021724 0.0042717033
0.016778758 0.008385708 -0.007937826 0.0031481362 -0.010759734 0.0057179197 -0.0042776666 -0.0029021776
-0.011550661 -0.006160899 -0.009416367 0.0003330459 -0.0056868442 0.001260303 -0.020027844 -0.015344097
0.008525625 -0.010499852 0.004938012 -0.010562308 0.010765118 -0.0032735397 0.00038634974 -0.006157282
0.01505503 0.021043397 -0.006559841 0.0042557023 -0.0010888348 -0.0053589703 -0.01394491 0.014531077
-0.0028395252 -0.006216742 -0.00724589 -0.015648711 0.00024389282 -0.012866454 -0.011561606 0.011381394
0.0057599386 0.014143561 0.0071401806 0.001019389 0.006625758 -0.014667029 0.0121811675 -0.008082994
-0.0023377405 -0.004149578 -0.0117217535 -0.008273425 -0.010843899 -0.011204522 0.0053293183 0.013408618
-0.0019537187 0.01082111 -0.015404015 -0.005401315 -0.0073858774 -0.0037129463 0.008893995 -0.005975467
0.010638699 -0.0051422995 0.014395653 0.0051279687 -0.0102909645 0.009130737 -0.005435963 0.007881261
-0.015828216 0.016433321 -0.010366188 -0.008299235 -0.004768626 0.003748465 -0.007275003 0.004551419
0.0002071479 -0.0017307705 -0.003737295 -0.0046798075 -0.007037857 0.011362301 0.005825676 0.0013583568
-3.9061717e-05 -0.0018053921 -0.00088291464 0.0022791142 0.00877855 0.004996719 0.0040660016 0.006642811
-0.005203146 -0.013351667 -0.0053898054 0.0111412555 0.00085806224 -0.009799413 -0.015844699 0.009833869
0.0031393704 -0.0044851075 0.008485764 -0.0073387665 0.0030384273 0.012988828 -0.011407306 -0.008227191
0.0046304194 -0.003960422 0.0106854355 -0.00043380167 0.0129732555 -0.0010905103 -0.006607419 -0.00583235
-0.02639598 0.008380321 0.005793294 0.0073465924 0.00860961 -0.0075216293 0.020318052 0.009297023
-0.0064435066 0.01721904 -0.005303076 -0.01675289 -0.0015991199 -0.013500213 -0.0012020317 0.0014173479
-0.00554764 -0.008824839 -0.00651793 0.0019248368 0.00566926 0.001504476 -0.0064667165 -0.009568738
0.004472494 0.011006761 -0.00090134237 0.0025369304 -0.001471984 -0.022278136 0.0008074379 0.00930798
00000000: 473d c93a 9be4 e03b d1a3 0e3b 0f8d 403c
00000010: f424 683b 07ce 3b3c 45cc 40ba 6ac1 f338
00000020: df01 b5bb 16e5 0c3a 44dc 593c 8ed0 dbba
00000030: fa5c 6b3c 23a7 fa3a 64fd b63b 0663 803c
00000040: 5d71 403c 5caa c5bb 5354 95b9 cebb 3e3b
00000050: 4648 9c3b d734 583c 1765 aa3b 50f8 723b
00000060: 263e f4ba b107 c63b b96b 873c fa2d 093c
00000070: 91f2 41bb 5c7f 77bc 3a95 2b3b bd96 57bc
00000080: c0de 8e3c cd02 42bc be78 6bbc 5043 c1ba
00000090: fde8 abb8 d10a f83b 7775 1c3c 3ac9 d53b
000000a0: 550c 96bb 9062 27bb 28da 153c ad5b 2fbc
000000b0: 3069 85bc 8667 fa3b f554 0c3c 9ea2 8b3c
000000c0: a21a bb3b c1b6 653c dc11 ac3c 09fb 6c39
000000d0: 764a 01bb 8e90 cf3b 4b0b b63a 9155 c23c
000000e0: 61ae f33a 2b3f 293c 56f6 dc3a 8e1e 113c
000000f0: 10d3 3039 8798 c73b 9a80 4d36 c704 57ba
00000100: 92d7 26bc c035 70bc bea6 adbb 52b8 bcbb
00000110: 98c2 68bc 965e 52ba 597d 3a3a 1452 903c
00000120: ab56 3839 68d0 82bb 266d 413c 452a 84bb
00000130: 9c95 b4bb da0e 67ba e4fc 4bbb 3db9 223b
00000140: 33cf cf39 844c 2b3b 952a 8e3b 16d5 1e3c
00000150: 1ce8 0f3b ced9 22bc e766 1abc 7432 3f3a
00000160: 02b9 1d3c cb98 81b9 7d7a c9ba 85c0 31bc
00000170: fa24 dd3b 94d7 6ebb b88f b6bb 65bd 5d3c
00000180: 0cfe c5bb cd23 a1bb 27d1 173b c794 0c3c
00000190: fdd1 2cba 4b9e 12bc 88f6 b13c a5f9 8b3b
000001a0: 9b73 893c 3564 093c a80d 02bc f650 4e3b
000001b0: 9849 30bc 635d bb3b ab2b 8cbb 7632 3ebb
000001c0: fc3e 3dbc 5ee1 c9bb 1b47 1abc aa9c ae39
000001d0: b558 babb c030 a53a 6f11 a4bc cf65 7bbc
000001e0: 10af 0b3c 9207 2cbc 0ccf a13b 880d 2dbc
000001f0: 2d60 303c e288 56bb fc8e ca39 06c3 c9bb
00000200: 5fa9 763c 3463 ac3c eff3 d6bb 6b73 8b3b
00000210: 3cb7 8eba 4d9a afbb 3179 64bc c113 6e3c
00000220: 5417 3abb d0b5 cbbb ee6e edbb ba31 80bc
00000230: 7bbd 7f39 d2cd 52bc e46c 3dbc 0779 3a3c
00000240: debd bc3b 65ba 673c 2df8 e93b 059d 853a
00000250: e31c d93b fa4d 70bc 8593 473c 896e 04bc
00000260: c734 19bb 2ff9 87bb 990c 40bc 428d 07bc
00000270: 9caa 31bc 2c93 37bc 90a1 ae3b d2af 5b3c
00000280: f609 00bb 064b 313c 1f61 7cbc 84fd b0bb
00000290: 3b05 f2bb e754 73bb 1eb8 113c dacd c3bb
000002a0: f04d 2e3c bc80 a8bb bfdb 6b3c 8508 a83b
000002b0: 6f9b 28bc 1699 153c 2a20 b2bb 6820 013c
000002c0: 2daa 81bc 2c9f 863c f2d6 29bc 84f9 07bc
000002d0: 2242 9cbb cfa8 753b 2663 eebb 1224 953b
000002e0: d735 5939 05db e2ba 68ed 74bb 1259 99bb
000002f0: d39d e6bb f228 3a3c 50e5 be3b e40a b23a
00000300: 33d6 23b8 e8a2 ecba 6673 67ba 315d 153b
00000310: e8d3 0f3c 84bb a33b 183c 853b f0ab d93b
00000320: 277f aabb f3c0 5abc f79c b0bb d089 363c
00000330: 95ef 603a b88d 20bc becc 81bc 3c1e 213c
00000340: e5bd 4d3b cff7 92bb e007 0b3c 097a f0bb
00000350: 5a20 473b 18cf 543c b6e5 3abc 57cb 06bc
00000360: c6ba 973b 6dc6 81bb f711 2f3c e06f e3b9
00000370: c78d 543c 74ef 8eba 0c83 d8bb 4c1d bfbb
00000380: 623c d8bc 9d4d 093c acd5 bd3b afbb f03b
00000390: 520f 0d3c 0078 f6bb 0b72 a63c 8a52 183c
000003a0: 0d24 d3bb f20e 8d3c 6dc5 adbb 5b3d 89bc
000003b0: 8f99 d1ba ff2f 5dbc 7e8d 9dba 4ec6 b93a
000003c0: fac8 b5bb 0f96 10bc 5c94 d5bb ce4a fc3a
000003d0: 33c5 b93b d631 c53a c0e6 d3bb 32c6 1cbc
000003e0: 008e 923b b455 343c 1048 6cba a142 263b
000003f0: 96ef c0ba a380 b6bc 3daa 533a 7f80 183c

bn.running_mean f4 [256]
-0.7024723 -0.3274738 -0.937227 -0.0843115 0.68495744 -0.35298622 -0.7071117 0.14566879
-0.2152579 0.6786528 0.13798605 -0.57470214 -0.68799937 0.631678 0.60667306 1.9453772
-0.18351023 -0.83428705 -0.9566495 0.25035265 -1.2741107 -0.57099986 -0.6270688 1.4499959
-0.14474618 -1.0338542 0.15978462 -0.9687017 0.5355493 0.06945863 -1.1228876 -0.21323505
1.3609208 0.29404518 -0.8649688 -0.29953822 -0.011159563 -1.6575491 0.12474098 2.2098246
-0.19687963 -0.038009394 0.13877958 0.4867069 -1.1449112 -0.16063707 0.20148623 -0.27206668
0.21898538 0.73893476 -0.91264766 0.6017354 -0.36477822 0.01225989 0.7416165 -0.5618704
0.003269063 0.5871118 0.22835042 0.51404756 -0.55924654 0.13050084 -1.4977686 -0.50700957
-0.494522 -0.16589844 -1.4297605 -0.74100286 -1.8690455 -0.92440856 -0.048617695 -1.2516253
-2.5091074 0.59948987 -0.6028299 -1.0357612 0.2005121 -2.0198567 -0.8207354 0.43984014
1.5629163 0.3339462 0.18662679 0.26792204 0.9062043 1.1432828 -1.3980682 0.33625203
-0.92068774 0.063908756 0.21245742 -0.26391894 0.0048548444 -0.36064854 0.11991574 -0.43254417
-1.1119044 0.5068403 -2.1917393 -1.7011311 -0.85661834 0.2771648 0.41104418 1.7598771
1.1192989 -0.7091267 -0.26334858 -1.234154 0.31291783 0.5916109 0.4882385 0.31228626
-0.9717999 -0.1843208 2.069762 -1.6981741 1.06613 0.37606063 -0.3996244 -1.1783653
0.7895112 -0.7044752 -0.4111741 0.1510729 -0.31651926 -0.9350316 1.127991 -1.5263784
2.6110883 0.4280704 -1.8179265 -1.6773747 -0.43967095 -0.6999238 -1.453769 -0.36456677
0.082514614 -0.07180547 -0.25695994 1.4654294 0.60626006 -0.38613507 0.5950821 -0.0816851
1.1641062 0.602904 0.45469898 -1.7880818 -1.2523004 -0.91667545 -1.6310756 0.3171122
-0.71404254 -0.0059148753 0.41351923 -1.2258087 0.7692275 1.9448978 -0.18831743 0.6359187
1.6214163 -2.2888458 0.70672214 -0.25174072 0.8023236 -0.218028 -0.01234397 -2.193011
2.5190094 -1.0029117 0.62287635 -0.5135494 0.15702511 -0.7870472 -0.08066413 1.6136248
-0.5422641 0.082992695 -1.909183 -1.4590151 -0.46468365 1.4102025 2.0501058 0.78477913
1.4606565 0.14464054 0.7561794 -0.52779895 -1.4826577 1.2145624 -0.86774 1.2410595
-0.89115846 0.23231283 -0.087226786 -0.91775554 -0.48162463 -1.6128155 -2.2566533 0.4526265
0.5703901 -1.7635506 -0.15125985 -1.5219064 2.3394034 0.29651284 1.4983925 -1.9942157
-0.01342668 0.11792974 -0.35190555 -0.022032097 1.4875852 -0.42665982 -1.1991146 0.38946465
0.30094478 -1.0625852 0.73263156 0.2147751 0.4648146 2.4803462 0.94918555 0.7931035
1.2870781 -0.5632555 0.16720743 -0.7505308 -1.9676728 1.3172971 0.37295997 -0.44435343
0.5820957 -0.36937407 -0.88656974 1.1587219 0.81219596 0.4588517 -0.7678656 -1.0204018
-1.5994881 0.011888971 -0.30042002 1.2868853 -0.3736604 0.73880315 1.5348095 0.7070665
1.2681615 -0.4195317 0.4885814 0.061751988 -1.5638782 -1.086176 -0.45787957 -0.5709935
00000000: 3ad5 33bf a5aa a7be 1cee 6fbf 82ab acbd
00000010: 5f59 2f3f 9cba b4be 4605 35bf 332a 153e
00000020: 916c 5cbe 31bc 2d3f 374c 0d3e ae1f 13bf
00000030: ba20 30bf a6b5 213f ed4e 1b3f 1f02 f93f
00000040: 1bea 3bbe d693 55bf fbe6 74bf 392e 803e
00000050: 0f16 a3bf 0c2d 12bf 9587 20bf 7799 b93f
00000060: 5838 14be 5655 84bf 949e 233e d6fc 77bf
00000070: c219 093f 5440 8e3d c8ba 8fbf 4a5a 5abe
00000080: a732 ae3f 178d 963e 986e 5dbf 135d 99be
00000090: 9ad6 36bc 922a d4bf 3378 ff3d c46d 0d40
000000a0: d09a 49be bdaf 1bbd 3c1c 0e3e a631 f93e
000000b0: 738c 92bf 0b7e 24be 6852 4e3e 534c 8bbe
000000c0: b43d 603e d42a 3d3f 47a3 69bf 550b 1a3f
000000d0: 36c4 babe b5dd 483c 94da 3d3f bdd6 0fbf
000000e0: c73d 563b f54c 163f b1d4 693e 9f98 033f
000000f0: c82a 0fbf 03a2 053e e2b6 bfbf 61cb 01bf
00000100: fd31 fdbe 48e1 29be 6402 b7bf 5db2 3dbf
00000110: e23c efbf 0aa6 6cbf 5923 47bd 4235 a0bf
00000120: 3795 20c0 2b78 193f 0f53 1abf d393 84bf
00000130: 0b53 4d3e 5545 01c0 b71b 52bf ba32 e13e
00000140: a40d c83f fffa aa3e 181b 3f3e 142d 893e
00000150: 01fd 673f 1757 923f e6f3 b2bf 3a29 ac3e
00000160: 31b2 6bbf 98e2 823d 708e 593e 6220 87be
00000170: 6315 9f3b eda6 b8be 6296 f53d 6e76 ddbe
00000180: e252 8ebf 49c0 013f 7545 0cc0 aabe d9bf
00000190: 574b 5bbf 8be8 8d3e 6274 d23e a743 e13f
000001a0: 3045 8f3f 5489 35bf a0d5 86be c2f8 9dbf
000001b0: c436 a03e d073 173f 66fa f93e fce3 9f3e
000001c0: e1c7 78bf 97be 3cbe fb76 0440 c55d d9bf
000001d0: f376 883f 058b c03e 929b ccbe add4 96bf
000001e0: 681d 4a3f 7d58 34bf 6985 d2be dbb2 1a3e
000001f0: d00e a2be 3b5e 6fbf 0262 903f 5e60 c3bf
00000200: 121c 2740 0b2c db3e d1b1 e8bf 37b4 d6bf
00000210: 8d1c e1be 352e 33bf 1a15 babf 7fa8 babe
00000220: 6cfd a83d bf0e 93bd 4190 83be 3193 bb3f
00000230: dc33 1b3f 7fb3 c5be 4d57 183f 854a a7bd
00000240: 6f01 953f eb57 1a3f 4ece e83e dddf e4bf
00000250: 614b a0bf 3eab 6abf 16c7 d0bf 885c a23e
00000260: 7ecb 36bf 92d1 c1bb cbb8 d33e 4de7 9cbf
00000270: 18ec 443f 69f2 f83f 49d6 40be 91cb 223f
00000280: 928a cf3f 737c 12c0 beeb 343f 29e4 80be
00000290: 1465 4d3f bb42 5fbe 5d3e 4abc 4b5a 0cc0
000002a0: 7337 2140 695f 80bf d374 1f3f f977 03bf
000002b0: 31cb 203e ed7b 49bf 3c33 a5bd 428b ce3f
000002c0: d2d1 0abf 13f8 a93d 1c60 f4bf 02c1 babf
000002d0: 04eb edbe 8481 b43f ef34 0340 49e7 483f
000002e0: cbf6 ba3f a61c 143e f994 413f d51d 07bf
000002f0: bac7 bdbf c876 9b3f 3524 5ebf 0adb 9e3f
00000300: f622 64bf 6ae3 6d3e f5a3 b2bd 07f2 6abf
00000310: 8197 f6be bd70 cebf 026d 10c0 a9be e73e
00000320: 1605 123f 07bc e1bf dde3 1abe d4cd c2bf
00000330: c9b8 1540 88d0 973e 53cb bf3f 7642 ffbf
00000340: 94fb 5bbc 2685 f13d f72c b4be a87c b4bc
00000350: 3169 be3f 2873 dabe 967c 99bf e967 c73e
00000360: 6f15 9a3e cb02 88bf be8d 3b3f 01ee 5b3e
00000370: 2efc ed3e febd 1e40 d3fd 723f d508 4b3f
00000380: fabe a43f 8331 10bf 6d38 2b3e c922 40bf
00000390: b4dc fbbf 319d a83f 9cf4 be3e 4b82 e3be
000003a0: 3904 153f 991e bdbe 3cf6 62bf 0051 943f
000003b0: 13ec 4f3f 9cee ea3e d792 44bf 879c 82bf
000003c0: 07bc ccbf f5c9 423c a7d0 99be a8b8 a43f
000003d0: 6a50 bfbe 3422 3d3f a374 c43f 4f02 353f
000003e0: 1e53 a23f dccc d6be 5727 fa3e a7ef 7c3d
000003f0: 292d c8bf d107 8bbf 316f eabe a12c 12bf

bn.running_var f4 [256]
0.9034128 0.619188 0.57558817 0.6472729 0.5522598 1.0182638 0.71439695 0.718245
0.794039 0.55943054 0.760654 0.67995214 0.7840287 0.6322707 0.9496694 1.016505
0.81229234 0.8692088 0.74174726 0.49467275 0.53648657 0.7805994 0.6254931 0.6531311
0.6594163 0.6045233 0.6427487 0.76015776 0.8194688 0.69432473 0.52260184 0.97037876
1.1920719 0.6127357 1.2134304 0.84365815 0.6911252 0.6412303 0.95938164 0.8800687
0.5289153 0.65771437 1.1227214 0.8642687 0.8854693 0.759468 0.92307824 0.98320997
0.72384477 0.8446276 0.6378947 0.79737973 0.7622975 0.6966614 0.6290203 1.0910761
0.7249835 0.7497145 0.432231 0.73465794 0.56941265 0.8947162 0.5427388 0.5130187
0.6572081 1.2982763 0.5866162 0.8009357 0.8733363 0.5765246 0.6613918 1.0037581
0.9714605 0.8974943 0.6877372 0.7434089 0.69356734 0.72349936 0.7343226 0.9546984
0.6410062 0.5112446 1.2118134 0.6253922 0.7804583 1.3163193 0.9422842 0.64522207
0.7795133 0.53712773 0.7760883 0.78662366 1.1756693 0.8552556 0.5420847 0.8394644
0.7072876 0.77250856 0.7106914 0.8466723 0.8507352 0.79210114 1.3981917 0.5872237
0.89777607 0.7007794 1.0819247 0.5743627 0.69707006 0.6007147 0.65350926 0.7518339
0.6082062 0.86166996 0.9777183 0.8374072 0.9759584 0.70727724 1.0746974 1.0387498
0.8169558 0.767216 0.6464117 1.3444393 0.54212725 0.9065368 0.5901202 0.8997218
1.2512354 0.81921667 1.0442283 1.2572544 0.58731014 0.9335436 1.1382238 0.8300523
0.5839031 0.5930943 1.0961123 0.77482045 0.65323037 0.54628843 0.80986947 0.5180491
0.5874066 0.60311747 0.73053575 0.8599043 0.94548607 0.9135346 0.5414606 0.819408
0.69062203 0.8188667 0.6308366 0.9358506 0.6762663 0.9384307 0.4332812 0.738642
0.65169156 0.895423 1.0396425 0.8188726 0.8031501 0.9584247 0.9122435 0.9586012
1.0599697 0.60465705 0.8756483 0.5458546 0.53691405 0.71384436 0.726485 0.7301841
0.71277106 0.8631663 1.1681911 0.84265614 0.5778407 0.98695934 0.67538905 0.48502645
0.85714984 0.53137875 0.700615 0.76552045 0.9818184 0.97313327 0.9834308 0.6423785
0.7127269 0.44379756 0.6497203 0.6416991 0.5715883 0.78915817 0.91894174 0.5903755
0.90372336 0.93629104 0.84242225 0.826667 0.89089686 0.823626 0.7358442 0.9704474
0.6338256 0.729819 0.80359185 0.53261817 0.7338835 0.7181434 0.8566692 0.88942087
0.7123354 0.41331074 1.0224185 0.68705547 0.82773095 0.6081286 0.7457277 0.6340309
0.9874143 1.081877 0.60025686 0.7547876 0.63945305 0.8902892 1.3280339 0.94059104
0.8166714 0.9632851 0.5911958 0.95423955 0.86565936 0.74557644 0.7979084 0.82409394
0.5717295 0.60276836 0.7046017 0.67703116 0.6887815 0.84611845 0.7751665 1.223783
0.7141437 1.0849627 0.678281 0.7956852 0.61114883 1.0968367 0.8982303 0.7547261
00000000: 1046 673f 1b83 1e3f bf59 133f adb3 253f
00000010: e660 0d3f 7856 823f b8e2 363f e8de 373f
00000020: 2446 4b3f d736 0f3f 38ba 423f 5811 2e3f
00000030: 1bb6 483f 7edc 213f 891d 733f d61c 823f
00000040: 64f2 4f3f 7884 5e3f 26e3 3d3f bf45 fd3e
00000050: 2f57 093f 5dd5 473f 5120 203f 9a33 273f
00000060: 82cf 283f 0ac2 1a3f 2e8b 243f b399 423f
00000070: b5c8 513f 44bf 313f 3cc9 053f be6a 783f
00000080: d095 983f 3fdc 1c3f b051 9b3f fbf9 573f
00000090: 95ed 303f ab27 243f 099a 753f 2f4c 613f
000000a0: fe66 073f f85f 283f 56b5 8f3f b740 5d3f
000000b0: 1eae 623f 7f6c 423f db4e 6c3f a6b3 7b3f
000000c0: e44d 393f 8439 583f 114d 233f 1421 4c3f
000000d0: ee25 433f 6758 323f 7907 213f 62a8 8b3f
000000e0: 8598 393f 4aed 3f3f 624d dd3e 8b12 3c3f
000000f0: 07c5 113f 1f0c 653f eef0 0a3f 3255 033f
00000100: ca3e 283f eb2d a63f 7b2c 163f 1f0a 4d3f
00000110: f892 5f3f 1e97 133f f950 293f 257b 803f
00000120: a3b1 783f 30c2 653f 8c0f 303f 0c50 3e3f
00000130: a18d 313f 4137 393f 91fc 3b3f 1d67 743f
00000140: fb18 243f ede0 023f b41c 9b3f b419 203f
00000150: 1dcc 473f 277d a83f 8a39 713f 462d 253f
00000160: 2f8e 473f 3481 093f b9ad 463f 2b60 493f
00000170: 557c 963f 08f2 5a3f 10c6 0a3f 24e7 563f
00000180: cd10 353f 1fc3 453f dfef 353f 84bf 583f
00000190: c8c9 593f 24c7 4a3f f2f7 b23f 4b54 163f
000001a0: a7d4 653f 4766 333f 827c 8a3f 6f09 133f
000001b0: 2f73 323f 70c8 193f 624c 273f 3078 403f
000001c0: 67b3 1b3f 6796 5c3f bf4b 7a3f 5160 563f
000001d0: 69d8 793f 1f10 353f af8f 893f c1f5 843f
000001e0: 0424 513f 4568 443f 3d7b 253f 9616 ac3f
000001f0: dac8 0a3f cc12 683f 1e12 173f 2b54 663f
00000200: 7b28 a03f 2fb8 513f 46a9 853f b6ed a03f
00000210: f559 163f b7fc 6e3f 51b1 913f 4f7e 543f
00000220: ac7a 153f 07d5 173f 684d 8c3f a25a 463f
00000230: 1b3a 273f 8fd9 0b3f 9b53 4f3f de9e 043f
00000240: 4760 163f e865 1a3f 6404 3b3f b022 5c3f
00000250: 600b 723f 67dd 693f 299d 0a3f b9c4 513f
00000260: 9bcc 303f 40a1 513f 827e 213f e893 6f3f
00000270: ca1f 2d3f ff3c 703f 09d7 dd3e a417 3d3f
00000280: 42d5 263f 713a 653f 0113 853f a2a1 513f
00000290: 3f9b 4d3f 525b 753f ca88 693f e366 753f
000002a0: 16ad 873f ceca 1a3f 7d2a 603f 21bd 0b3f
000002b0: 3373 093f 81be 363f ecfa 393f 58ed 3a3f
000002c0: 2a78 363f 77f8 5c3f 4987 953f 50b8 573f
000002d0: 5eed 133f 5ea9 7c3f 4ce6 2c3f 6355 f83e
000002e0: 2c6e 5b3f 7008 083f 815b 333f 26f9 433f
000002f0: 7358 7b3f 431f 793f 1fc2 7b3f eb72 243f
00000300: 4575 363f 6f39 e33e 1254 263f 6446 243f
00000310: 9c53 123f 4506 4a3f c43f 6b3f d922 173f
00000320: 6a5a 673f c5b0 6f3f fca8 573f 73a0 533f
00000330: d111 643f 27d9 523f 4960 3c3f 3e6f 783f
00000340: 6542 223f 6bd5 3a3f 32b8 4d3f aa59 083f
00000350: cadf 3b3f 3fd8 373f ac4e 5b3f 16b1 633f
00000360: 9d5b 363f 779d d33e 9cde 823f dee2 2f3f
00000370: 2de6 533f 51ae 1b3f 03e8 3e3f d94f 223f
00000380: 2fc7 7c3f f27a 8a3f 6faa 193f c339 413f
00000390: 32b3 233f fee9 633f 04fd a93f 93ca 703f
000003a0: 6011 513f da99 763f 9c58 173f 0b49 743f
000003b0: da9b 5d3f 19de 3e3f ba43 4c3f d2f7 523f
000003c0: dd5c 123f 074f 1a3f c760 343f ea51 2d3f
000003d0: fc53 303f 389b 583f 5071 463f eca4 9c3f
000003e0: 1fd2 363f 0fe0 8a3f d3a3 2d3f 06b2 4b3f
000003f0: 4074 1c3f 2565 8c3f 6cf2 653f bb35 413f

bottleneck.weight f4 [256, 512]
-0.0068044355 -0.053173516 0.03730963 -0.01088467 0.016740127 0.028958678 -0.06921383 0.013059967
-0.02378644 -0.064514324 -0.02371994 -0.0021897748 0.0040240525 0.03782254 0.0026608924 -0.028051918
-0.040340226 -0.009239495 0.038226385 0.01677623 -0.00011257041 0.11899023 -0.072826445 0.027356649
-0.04974276 0.08307821 -0.032625794 0.023468498 0.044724073 -0.03858685 0.015282501 -0.056620207
-0.05918442 0.03220642 0.07233738 -0.0030594415 -0.03378103 -0.06735383 0.024406655 -0.030794563
0.035387613 -0.0652963 -0.09034051 0.011293791 -0.006860905 -0.006644342 0.038912784 -0.032124117
-0.0655999 0.0638597 -0.04232753 -0.01932986 0.022681605 -0.053076398 -0.0493644 0.059767216
0.010135671 0.08784216 -0.013890896 0.008726141 -0.044679314 -0.022317473 -0.028265538 -0.02854306
-0.05319964 0.1070503 0.022397501 -0.037554212 -0.0020900576 0.0021200958 -0.019988338 0.07008516
0.026196832 -0.06767538 0.012122428 -0.034479182 0.03846185 0.048425913 0.08281717 -0.047495503
-0.040450606 -0.035262212 0.03702348 0.023495285 0.055583574 0.07554057 0.004721159 0.02446941
0.02881752 -0.0099732885 0.04952362 -0.044490144 0.018245516 0.06826054 -0.031587876 0.007466505
0.0125854965 -0.0149862 0.043132775 -0.019962596 -0.06276226 -0.041114356 -0.036026776 -0.10638187
-0.049125906 0.0033762958 -0.009237511 -0.06154643 0.045912668 -0.0464474 -0.021712296 -0.04691641
-3.2347827e-05 -0.02041318 0.0065610665 -0.0031491502 0.029015876 -0.053208005 -0.057499155 -0.035414223
0.06357649 -0.02920312 -0.020301746 -0.019532891 -0.053540494 0.05584957 0.053074073 0.03412568
-0.044720132 -0.024836356 0.035521477 -0.04564852 -0.027338246 -0.044626184 0.040715672 -0.029741984
-0.012252434 0.09895759 0.005473774 0.09607134 -0.0024414188 -0.015328222 0.020232351 0.06721459
-0.025244333 -0.051930536 0.0039694645 -0.017527202 -0.029735694 -0.03018207 0.03445807 -0.028025268
-0.050306525 -0.042040013 0.034793023 0.008196649 -0.008486496 -0.028660884 0.009925454 0.040832292
-0.02199558 0.022704616 -0.053271364 0.020652048 0.03977175 0.025498707 -0.012802591 0.06622024
-0.01159844 0.04077509 -0.04525959 -0.10028367 -0.04741548 -0.013932147 0.01205295 0.015348828
-0.063613206 -0.09026481 0.070200294 -0.0046476643 -0.03633311 0.031910617 -0.07140733 -0.03618715
0.09589941 0.036762822 0.09149808 -0.008163501 0.017875211 0.06737732 0.009578566 0.055259038
-0.07139306 0.011997606 -0.03737081 -0.07328208 -0.05189121 0.02767497 -0.08840637 0.029293142
-0.15142132 0.008815731 0.08128694 -0.010069905 0.009372007 0.029174598 -0.021211559 0.038020212
0.081134796 -0.017459193 -0.027165579 0.047462698 -0.062953115 -0.033257373 0.03798491 -0.09508308
-0.00012070442 0.09329628 0.021297261 -0.039159637 0.055139054 -0.052153505 0.04125158 -0.05379584
0.0995184 -0.02187373 -0.0034326708 -0.003040284 0.05579831 -0.067705914 0.07167221 -0.07469936
0.0025871312 0.07007226 0.055336885 -0.092760764 0.12966388 -0.015838873 -0.07224228 0.040699337
0.08196063 -0.07707887 0.013315863 0.006892506 -0.05435189 -0.025309011 0.05594726 -0.029819906
-0.03533951 -0.024402292 0.038172472 0.06979812 -0.0340568 0.080413654 0.07222065 0.04083927
00000000: bef7 debb 79cc 59bd fcd1 183d 9d55 32bc
00000010: 9722 893c c03a ed3c fbbf 8dbd 79f9 553c
00000020: c8db c2bc 1620 84bd 5250 c2bc 5382 0fbb
00000030: 33dc 833b cfeb 1a3d 5e62 2e3b 23cd e5bc
00000040: cb3b 25bd 4061 17bc 4593 1c3d 4e6e 893c
00000050: c713 ecb8 26b1 f33d 0826 95bd 0d1b e03c
00000060: 10bf 4bbd e924 aa3d a0a2 05bd 0241 c03c
00000070: 9730 373d 3f0d 1ebd 7463 7a3c 97ea 67bd
00000080: 5d6b 72bd e1ea 033d 9f25 943d e980 48bb
00000090: fa5d 0abd cef0 89bd 77f0 c73c e144 fcbc
000000a0: 9af2 103d 11ba 85bd 7204 b9bd 9809 393c
000000b0: 71d1 e0bb c8b8 d9bb 0363 1f3d 9494 03bd
000000c0: 3e59 86bd e0c8 823d a25f 2dbd a859 9ebc
000000d0: c6ce b93c a366 59bd 5332 4abd 78ce 743d
000000e0: 1610 263c 97e6 b33d a496 63bc 17f8 0e3c
000000f0: a801 37bd 22d3 b6bc 218d e7bc 23d3 e9bc
00000100: dee7 59bd 303d db3d f77a b73c 72d2 19bd
00000110: 59f9 08bb 4ef1 0a3b 95be a3bc cf88 8f3d
00000120: bd9a d63c 6499 8abd 269d 463c 0b3a 0dbd
00000130: 2c8a 1d3d 405a 463d 0c9c a93d a58a 42bd
00000140: 89af 25bd 1c6f 10bd efa5 173d 2f79 c03c
00000150: 9aab 633d 04b5 9a3d f4b3 9a3b 1274 c83c
00000160: b812 ec3c 0167 23bc 48d9 4a3d 4c3b 36bd
00000170: 9f77 953c 2fcc 8b3d 4a62 01bd 95a9 f43b
00000180: 6633 4e3c ae88 75bc feab 303d 9988 a3bc
00000190: 8089 80bd 8767 28bd d090 13bd bdde d9bd
000001a0: 3f38 49bd d844 5d3b ee58 17bc 1c18 7cbd
000001b0: ec0e 3c3d a13f 3ebd fcdd b1bc 6c2b 40bd
000001c0: 37ad 07b8 8b39 a7bc 37fe d63b f961 4ebb
000001d0: b4b2 ed3c a3f0 59bd 3c84 6bbd 810e 11bd
000001e0: 6434 823d 623b efbc d94f a6bc 7103 a0bc
000001f0: 474d 5bbd 85c2 643d 3364 593d 5ec7 0b3d
00000200: 752c 37bd 9d75 cbbc f87e 113d f1f9 3abd
00000210: 75f4 dfbc f2c9 36bd 7ac5 263d 76a5 f3bc
00000220: 6fbe 48bc 47aa ca3d 585d b33b 0dc1 c43d
00000230: 3600 20bb 3923 7bbc 51be a53c cea7 893d
00000240: 34cd cebc 1db5 54bd 4812 823b 3595 8fbc
00000250: 4598 f3bc 6340 f7bc e823 0d3d 3f95 e5bc
00000260: 370e 4ebd 2632 2cbd 2183 0e3d 3d4b 063c
00000270: f20a 0bbc 3bca eabc 5f9e 223c c33f 273d
00000280: 1330 b4bc 08ff b93c 1333 5abd 7c2e a93c
00000290: b4e7 223d aae2 d03c f5c1 51bc 7a9e 873d
000002a0: 6207 3ebc c803 273d 1f62 39bd 8661 cdbd
000002b0: bc36 42bd a943 64bc bd79 453c a779 7b3c
000002c0: a447 82bd c2dc b8bd 2cc5 8f3d 6f4b 98bb
000002d0: 07d2 14bd b5b4 023d 023e 92bd fa38 14bd
000002e0: e966 c43d 9d94 163d 5863 bb3d 34c0 05bc
000002f0: 096f 923c 1ffd 893d 6bef 1c3c 4d57 623d
00000300: 8636 92bd 9b91 443c 2212 19bd ea14 96bd
00000310: e18b 54bd 9eb6 e23c 660e b5bd 2cf8 ef3c
00000320: 310e 1bbe db6f 103c c479 a63d 3efc 24bc
00000330: 0c8d 193c 91ff ee3c ddc3 adbc 15bb 1b3d
00000340: 002a a63d 9506 8fbc 598a debc 3f68 423d
00000350: 90ed 80bd e238 08bd 1196 1b3d ebba c2bd
00000360: b122 fdb8 1f12 bf3d 9877 ae3c db65 20bd
00000370: 7dd9 613d ea9e 55bd 6bf7 283d 0759 5cbd
00000380: 4ed0 cb3d 8930 b3bc a9f6 60bb 803f 47bb
00000390: c58c 643d 66a9 8abd e1c8 923d fafb 98bd
000003a0: dc8c 293b 0c82 8f3d eea8 623d 5bf9 bdbd
000003b0: 9cc6 043e 86c0 81bc c3f3 93bd 59b4 263d
000003c0: fada a73d 87db 9dbd c72a 5a3c 88da e13b
000003d0: 16a0 5ebd d854 cfbc f428 653d e048 f4bc
000003e0: 29c0 10bd 51e7 c7bc bd5a 1c3d 51f2 8e3d
000003f0: 257f 0bbd eaaf a43d 6ce8 933d 1447 273d

bottleneck.bias f4 [256]
-1.2007229e-10 -5.419086e-11 1.281464e-10 9.902708e-11 -4.6422102e-11 3.628958e-10 8.898918e-11 -2.3007983e-10
-9.0100497e-11 -6.2374016e-11 4.5918783e-11 7.272555e-11 -4.2628776e-09 -1.2363925e-09 -2.1028299e-10 2.4073439e-09
1.5705148e-10 -1.327847e-10 6.1970185e-10 -1.2184818e-09 -1.6636931e-09 1.4634462e-10 -1.09558786e-10 -2.6504374e-10
3.4203012e-11 -1.2917056e-09 -2.0611979e-10 -1.3321007e-09 3.4295294e-10 -3.0792724e-10 3.7089315e-10 -8.9306174e-11
-1.0138013e-10 -1.1640223e-09 -1.931788e-10 -1.1816303e-10 -2.3128949e-10 1.1165212e-10 6.816306e-10 -4.5282086e-10
2.0109643e-09 5.0975505e-11 -9.4533666e-11 -1.4176446e-10 1.6583492e-10 -1.084447e-09 -3.9818174e-10 -5.903555e-10
-2.2024307e-10 2.0879891e-10 1.0377167e-09 -2.2045042e-10 3.475935e-10 -1.9712403e-10 -1.488836e-09 -2.488506e-11
9.807375e-11 -1.9654516e-09 -4.556853e-10 6.813278e-11 -4.1325568e-10 2.5234972e-11 4.0798864e-10 1.4162389e-11
5.492446e-10 2.918319e-10 1.0060427e-11 3.256628e-10 1.868544e-09 -7.624626e-12 -7.595818e-11 2.645091e-10
1.2530166e-09 -1.2471281e-10 2.4868552e-10 -1.4598746e-09 -3.5413333e-10 4.3903817e-10 -4.1779513e-10 1.3035929e-10
-2.5425452e-11 1.2656035e-10 4.6326974e-11 2.76595e-10 -7.4154816e-10 -1.0246692e-09 6.4496075e-10 -1.6849992e-10
-5.956264e-11 4.6888462e-11 -3.3458775e-10 -7.271478e-10 9.6408905e-12 3.0568305e-11 -7.0867485e-11 -7.986757e-11
4.3247277e-09 9.241316e-11 -8.165575e-10 5.633549e-10 -4.0861428e-10 -6.68711e-10 -4.1128455e-11 -1.2900078e-09
-6.2396394e-10 -4.5678564e-10 2.2152888e-10 -1.8073215e-10 3.4903755e-10 -1.5245037e-10 4.487565e-10 2.904545e-11
1.9534191e-10 9.673116e-10 1.6223631e-09 3.749979e-10 -1.593357e-10 -1.2208622e-10 -5.5549215e-10 -2.6046368e-10
-4.1694526e-10 2.0974527e-09 6.487527e-11 1.069e-10 3.8050363e-09 4.7284476e-10 -1.0871882e-10 2.5827362e-10
-1.9459936e-10 6.2343236e-10 3.6464137e-10 1.8578665e-10 -9.602253e-11 2.3817362e-10 2.6745444e-09 -5.114817e-10
-1.5114833e-10 -8.0724184e-11 4.181629e-11 1.80987e-09 -5.1328847e-11 -1.3124679e-09 8.596205e-11 8.545922e-11
1.8494889e-10 -1.4170751e-09 -2.0609668e-11 1.535158e-10 -4.2436176e-11 -2.833629e-09 -1.0459621e-09 -3.1563008e-10
5.574319e-10 2.526941e-12 1.8883163e-10 6.906205e-10 1.2410555e-10 -2.0874869e-10 4.773281e-10 -6.3592666e-11
-8.609415e-11 -6.761256e-10 1.210966e-09 6.088036e-10 -2.3385993e-10 1.4568344e-10 2.931927e-10 -6.4509564e-10
9.773057e-10 5.8251926e-10 -5.9888255e-10 3.405704e-10 -1.4379257e-11 -3.7469627e-10 -1.2080105e-11 3.678294e-10
1.5474932e-09 8.1601736e-10 -1.5038171e-09 -8.55279e-10 4.1990403e-10 -5.0653826e-10 -2.7828961e-09 8.070891e-11
3.5311817e-10 1.3492024e-10 -8.89385e-11 -1.8359807e-11 9.186683e-10 -1.3763983e-10 -1.2983216e-09 5.4091287e-10
9.975701e-10 -3.3498274e-10 3.097748e-11 1.11087764e-10 1.4945793e-10 7.9907747e-10 -4.780319e-10 -2.5797917e-10
-1.249872e-10 1.1679306e-09 3.826019e-10 1.2995954e-10 1.9802902e-10 -1.8416482e-10 1.4931072e-10 2.3173186e-09
8.290334e-11 3.8683948e-10 1.999112e-10 2.2620511e-10 -8.042256e-11 -6.0229993e-10 -5.5754723e-10 -1.4062168e-10
-3.416532e-10 -4.1255552e-10 -9.3743034e-11 2.347054e-11 1.106656e-09 -7.731327e-10 -1.7226293e-09 1.8091315e-10
-1.2520504e-09 4.2705012e-10 -3.893851e-11 6.648048e-10 -1.0630119e-09 -5.261271e-10 2.3746613e-10 8.0236395e-10
9.319078e-12 -3.2973282e-10 3.0317684e-10 -1.0417534e-09 4.7803406e-10 -3.4526346e-10 1.2417795e-10 -1.0193246e-10
3.8726877e-10 -3.5875694e-10 4.2366145e-11 1.7079416e-10 -2.3399137e-11 -3.2485672e-10 5.2189575e-10 1.8558807e-09
-1.9798821e-10 9.681668e-10 1.2237031e-10 -9.139465e-11 -6.410825e-10 -3.8934655e-10 -5.0002773e-11 -2.025622e-09
00000000: 5805 04af 7c55 6eae 01e6 0c2f 4ac3 d92e
00000010: a42a 4cae 0b81 c72f 74b0 c32e b7f9 7caf
00000020: 1222 c6ae 7329 89ae f4f3 492e d8ec 9f2e
00000030: ab78 92b1 b2ed a9b0 6635 67af 716e 2531
00000040: 10ae 2c2f 92ff 11af a457 2a30 8477 a7b0
00000050: ffa7 e4b0 59e8 202f 1dec f0ae 97b5 91af
00000060: 2b6d 162e da87 b1b0 90a1 62af 2015 b7b0
00000070: 568a bc2f e848 a9af 92e6 cb2f e862 c4ae
00000080: f1ef deae 65fb 9fb0 0067 54af f0eb 01af
00000090: 344e 7eaf 8e86 f52e 7d5d 3b30 dff0 f8af
000000a0: 4231 0a31 5131 602e b9e1 cfae 26df 1baf
000000b0: 6156 362f 960b 95b0 19e7 daaf 9346 22b0
000000c0: ea28 72af ab93 652f 699f 8e30 4763 72af
000000d0: 7017 bf2f 7bbd 58af c39f ccb0 2ce4 daad
000000e0: 9daa d72e 9710 07b1 0184 faaf 58d3 952e
000000f0: 9130 e3af 1bf8 dd2d 4c4b e02f bb25 792d
00000100: a7f9 1630 b06f a02f 23fc 302d f708 b32f
00000110: c667 0031 4322 06ad a708 a7ae 596a 912f
00000120: 9a36 ac30 891f 09af 60b7 882f c5a4 c8b0
00000130: d6af c2af 215d f12f 70af e5af e154 0f2f
00000140: 07a5 dfad 9227 0b2f 89bf 4b2e 490f 982f
00000150: d0d5 4bb0 58d4 8cb0 1449 3130 8344 39af
00000160: c9fa 82ae b737 4e2e 0af1 b7af 7ae0 47b0
00000170: b69a 292d da70 062e d9d6 9bae 72a1 afae
00000180: b598 9431 fc37 cb2e 2074 60b0 94da 1a30
00000190: 59a3 e0af 5ad0 37b0 86e2 34ae 1d4c b1b0
000001a0: 8f83 2bb0 dd1e fbaf d692 732f 94b7 46af
000001b0: abe2 bf2f f79e 27af ddb4 f62f 8a7c ff2d
000001c0: dcc7 562f 40f2 8430 d4f9 de30 4328 ce2f
000001d0: 0331 2faf 373c 06af 49b1 18b0 0131 8faf
000001e0: d437 e5af c722 1031 88a9 8e2e 5a13 eb2e
000001f0: 74bd 8231 7ef9 0130 4113 efae c8fc 8d2f
00000200: daf6 55af 275e 2b30 b676 c82f 4b46 4c2f
00000210: e127 d3ae f5ef 822f 15cb 3731 5398 0cb0
00000220: 7930 26af ad83 b1ae f5e8 372e 24bf f830
00000230: 25bf 61ae 5c62 b4b0 5508 bd2e 44ed bb2e
00000240: 7c5a 4b2f e6c2 c2b0 d948 b5ad dbca 282f
00000250: e3a2 3aae bbb9 42b1 85c1 8fb0 fc84 adaf
00000260: c839 1930 52d1 312c 619f 4f2f 19d6 3d30
00000270: 9b74 082f 8885 65af fb34 0330 7dd7 8bae
00000280: b352 bdae 1cda 39b0 146f a630 bf58 2730
00000290: dc90 80af 3e2e 202f 342f a12f 9252 31b0
000002a0: e351 8630 261f 2030 9d9e 24b0 063b bb2f
000002b0: 6bf6 7cad d0fd cdaf f583 54ad 6337 ca2f
000002c0: 94af d430 1e4e 6030 dcae ceb0 e918 6bb0
000002d0: 3dd8 e62f 763c 0bb0 3a3d 3fb1 147b b12e
000002e0: f720 c22f ac58 142f ed93 c3ae 9c7e a1ad
000002f0: 8985 7c30 2b56 17af a170 b2b0 5caf 1430
00000300: e11a 8930 a128 b8af 8b3d 082e da48 f42e
00000310: ab54 242f 14a6 5b30 8166 03b0 57d3 8daf
00000320: c56c 09af e884 a030 6e56 d22f 5ce4 0e2f
00000330: 37bc 592f ca7d 4aaf 3b2b 242f b33e 1f31
00000340: 6e4e b62e d1aa d42f 00ce 5b2f 14b7 782f
00000350: e0d9 b0ae 178f 25b0 e641 19b0 7c9d 1aaf
00000360: 6ad3 bbaf 07ce e2af a324 ceae f572 ce2d
00000370: ff18 9830 6184 54b0 a1c1 ecb0 86ea 462f
00000380: 9b14 acb0 f6c5 ea2f dd40 2bae 7bbd 3630
00000390: 6819 92b0 e79e 10b0 638c 822f 588d 5c30
000003a0: 65f1 232d c545 b5af 59ac a62f 702d 8fb0
000003b0: a866 0330 83cf bdaf fc88 082f e026 e0ae
000003c0: 3ce7 d42f 8d3a c5af 0a54 3a2e 48ca 3b2f
000003d0: 2cd2 cdad 8597 b2af 2675 0f30 ff11 ff30
000003e0: bab0 59af 5710 8530 2e8c 062f 9dfa c8ae
000003f0: 2c38 30b0 a80b d6af 1eea 5bae 1e33 0bb1
