ckps/source/uda/office-caltech/dslr_1/source_B.pt (torch, 532830 bytes, 6 tensors)

bn.weight f4 [256]
00000000: 4b4f 7e3f 6fd0 7e3f 2b62 7e3f 8335 7e3f
00000010: c86e 7e3f 943a 7e3f b532 7e3f 98e0 7e3f
00000020: 575c 7e3f a630 7e3f f93b 7e3f 8c78 7e3f
00000030: d857 7e3f 69e5 7e3f 9cbb 7d3f 5181 7e3f
00000040: f421 7e3f 4fd6 7d3f f455 7e3f fc4b 7e3f
00000050: 5820 7e3f 9bc2 7e3f cf25 7e3f 7150 7e3f
00000060: 015d 7e3f 1f83 7e3f c021 7e3f 8799 7e3f
00000070: 6c61 7e3f 746f 7e3f 6469 7e3f 088c 7e3f
00000080: c0d6 7d3f 1144 7e3f 418d 7e3f cf8f 7e3f
00000090: 9d5e 7e3f 8985 7e3f ee54 7e3f ac32 7e3f
000000a0: 0ca4 7d3f 95d2 7d3f c2b1 7e3f 9390 7e3f
000000b0: c153 7e3f 2e97 7e3f 0ea5 7e3f 038f 7e3f
000000c0: c670 7e3f 7857 7e3f 30fa 7d3f 4c1a 7e3f
000000d0: 16a5 7e3f a305 7e3f 8563 7e3f b25a 7e3f
000000e0: 4034 7e3f 2e54 7e3f 999a 7e3f 5904 7e3f
000000f0: cb6c 7e3f 9346 7e3f d56d 7e3f 2163 7e3f
00000100: 6620 7f3f 493a 7e3f 2866 7e3f 6acb 7e3f
00000110: dc6b 7e3f 0c54 7e3f ccec 7d3f 6758 7e3f
00000120: daf0 7d3f 855c 7e3f eb07 7e3f 15ee 7d3f
00000130: 5338 7e3f 9c32 7e3f 4b7b 7e3f c21b 7e3f
00000140: 4f58 7e3f a5c3 7e3f f6f9 7d3f 8e70 7e3f
00000150: 6254 7e3f 5c54 7e3f 0b3e 7e3f 293d 7e3f
00000160: cbb2 7e3f 874c 7e3f ce18 7e3f 5052 7e3f
00000170: 852a 7e3f 5a43 7e3f b71b 7e3f 7b7c 7e3f
00000180: 7470 7e3f 2277 7e3f 655f 7e3f fa06 7e3f
00000190: 38f6 7e3f 356d 7e3f 2a73 7e3f aea9 7e3f
000001a0: 216a 7e3f ef7b 7e3f b10f 7e3f c4e6 7e3f
000001b0: ff5d 7e3f d89f 7e3f c55e 7e3f cca4 7e3f
000001c0: 670e 7e3f 9855 7e3f df2c 7e3f 0b0b 7e3f
000001d0: 9f32 7e3f 0dd9 7d3f fb4d 7e3f 0470 7e3f
000001e0: 1fdc 7e3f f44f 7e3f ef54 7e3f 8776 7e3f
000001f0: 8071 7e3f ef58 7e3f 1f27 7e3f ae38 7e3f
00000200: c5e0 7d3f 80f4 7d3f 8a2c 7e3f 2476 7e3f
00000210: 80ce 7d3f 573a 7e3f ae76 7e3f cf6e 7e3f
00000220: eb37 7e3f 568a 7e3f f92b 7e3f d070 7e3f
00000230: c2c8 7e3f 9a7c 7e3f 976e 7e3f af54 7e3f
00000240: f2d7 7e3f f686 7e3f 9b06 7e3f 6e48 7e3f
00000250: 661e 7e3f 9b95 7e3f 2341 7e3f 97de 7e3f
00000260: ae05 7e3f e03e 7e3f 011c 7e3f ba3a 7e3f
00000270: 5a96 7e3f d069 7e3f c566 7e3f a98e 7e3f
00000280: 76ff 7d3f 68ca 7d3f c741 7f3f 2e7d 7e3f
00000290: 994f 7e3f 1982 7e3f 2f6f 7e3f 7e6a 7e3f
000002a0: c1cf 7e3f a653 7e3f 3233 7e3f 5f2c 7e3f
000002b0: 60c2 7d3f aeb4 7e3f 9d7d 7e3f af04 7e3f
000002c0: ee8f 7e3f a138 7e3f ca69 7e3f 7c7a 7e3f
000002d0: b67d 7e3f 8a8b 7e3f 5280 7e3f 7a60 7e3f
000002e0: b497 7e3f 4b84 7e3f 942d 7e3f dffd 7e3f
000002f0: 5f84 7e3f 5f38 7e3f d7b5 7e3f ac00 7e3f
00000300: 13d3 7e3f dc3d 7e3f 4a4a 7e3f ff55 7e3f
00000310: c6a0 7d3f b56e 7e3f e545 7e3f 19d4 7e3f
00000320: 756c 7e3f 4446 7e3f 0d68 7e3f de50 7e3f
00000330: 13ab 7e3f 1654 7e3f 43ad 7e3f 0d8a 7d3f
00000340: 1e0e 7e3f eb14 7e3f 71a0 7e3f 8612 7e3f
00000350: f475 7e3f d1a6 7e3f 8867 7e3f 907e 7e3f
00000360: 7042 7e3f b7e2 7e3f 2a4e 7e3f 1f65 7e3f
00000370: a569 7e3f 4370 7e3f 28a4 7e3f 13a5 7e3f
00000380: 0bec 7d3f a061 7e3f c503 7e3f 8c22 7e3f
00000390: c556 7e3f ad68 7e3f eb77 7e3f 4c6e 7e3f
000003a0: 2cf1 7d3f 9939 7e3f a08f 7e3f ef39 7e3f
000003b0: a24c 7e3f 716e 7e3f 4367 7e3f 526b 7e3f
000003c0: 2a99 7e3f ff77 7e3f e37f 7e3f 9357 7e3f
000003d0: 9027 7e3f a751 7e3f 9ae9 7d3f b097 7e3f
000003e0: c866 7e3f a28d 7e3f a969 7e3f 05fa 7d3f
000003f0: ad4c 7e3f 6342 7e3f ee10 7e3f f2bd 7d3f
0.9933974 0.99536794 0.9936854 0.993004 0.9938779 0.99308133 0.9929612 0.9956145
0.9935965 0.9929298 0.9931026 0.9940269 0.9935279 0.995688 0.99114394 0.9941607
0.9927056 0.99155134 0.99349904 0.9933469 0.992681 0.99515694 0.9927644 0.99341494
0.9936066 0.99418825 0.9927025 0.99453014 0.99367404 0.99388814 0.99379563 0.9943242
0.9915581 0.9932261 0.99434286 0.99438184 0.9936312 0.9942251 0.9934834 0.9929607
0.9907844 0.9914945 0.99489987 0.9943935 0.9934655 0.9944943 0.99470603 0.9943697
0.9939083 0.99352217 0.9920988 0.99258876 0.9947065 0.9922735 0.99370605 0.9935714
0.9929848 0.993472 0.9945465 0.99225384 0.99384755 0.9932644 0.9938634 0.9937001
0.9965881 0.99307686 0.9937463 0.99529135 0.9938333 0.99346995 0.9918945 0.9935364
0.99195635 0.99359924 0.9923083 0.9919141 0.99304694 0.99295974 0.9940688 0.99261105
0.993535 0.9951728 0.99209535 0.99390495 0.9934751 0.9934747 0.9931342 0.99312073
0.99491566 0.9933552 0.992566 0.9934435 0.9928363 0.9932152 0.9926104 0.9940869
0.9939034 0.9940053 0.9936431 0.99229395 0.9959445 0.99385387 0.99394476 0.9947766
0.9938069 0.9940786 0.99242693 0.9957087 0.99362177 0.9946265 0.99363357 0.9947021
0.99240726 0.99349356 0.9928722 0.992356 0.9929599 0.9915932 0.9933774 0.9938967
0.9955463 0.9934075 0.9934835 0.9939961 0.9939194 0.9935445 0.99278444 0.99305236
0.99171096 0.992012 0.9928671 0.9939902 0.9914322 0.9930777 0.9939984 0.9938783
0.99304074 0.99429834 0.99285847 0.9939089 0.9952508 0.99408877 0.99387497 0.99347967
0.99548256 0.99424684 0.9922883 0.9932927 0.99265134 0.9944703 0.9931814 0.99558395
0.99227417 0.9931469 0.9926148 0.9930836 0.9944817 0.9938021 0.99375564 0.9943643
0.9921793 0.9913697 0.99709743 0.9940976 0.99340206 0.99417263 0.993884 0.99381244
0.9953576 0.9934639 0.9929687 0.99286455 0.9912472 0.99494445 0.9941042 0.99225897
0.9943837 0.9930516 0.9938017 0.99405646 0.9941057 0.9943167 0.9941455 0.9936596
0.9945023 0.99420613 0.99288297 0.99606127 0.9942073 0.99304765 0.99496216 0.99219775
0.99540824 0.9931314 0.99332106 0.9934997 0.99073446 0.99387676 0.993254 0.99542385
0.9938424 0.99325967 0.9937752 0.99342144 0.9947979 0.99347055 0.99483126 0.99038774
0.9924029 0.9925067 0.99463564 0.99247015 0.9939873 0.9947329 0.99376726 0.9941187
0.99320126 0.9956469 0.9933802 0.9937305 0.9937995 0.9939005 0.9946923 0.99470633
0.991883 0.99367714 0.992245 0.99271464 0.9935115 0.9937847 0.9940173 0.9938705
0.99196124 0.9930664 0.99437904 0.9930715 0.9933568 0.9938727 0.99376315 0.9938251
0.9945246 0.9940185 0.9941389 0.9935238 0.9927912 0.9934334 0.9918457 0.99450207
0.9937558 0.99434865 0.99379975 0.99209625 0.9933575 0.9932005 0.9924458 0.9911796

bn.bias f4 [256]
00000000: 675b babb cc21 ae3c 2099 fb3b defc b3bb
00000010: eefa 1e3c 559f 973c 230f c33b 19d3 80bc
00000020: c7dc 673b e42a 77b9 7081 91bc d7fd 36bb
00000030: d569 49bc c087 96bc 874c 3b3b 7544 fbbb
00000040: 4a00 e1bb 5fd1 c63b c5d4 263c f62c 2e3a
00000050: 83e6 3c3c ec38 82bc 9914 0a3c 08ca c6ba
00000060: 518e e23a 5950 883b 63d3 7dbc 1cbc 523c
00000070: eb67 d93a 7219 8e3b 460a 06bb a395 58bc
00000080: 64d0 403c 5b17 d6bb a7d7 3ebc 6eeb e23b
00000090: 7b07 833b 063d 00bc 61a2 0b3b 71d4 c3b9
000000a0: 306b 913b 6575 d7bb eb73 ea3b 5d7e 593b
000000b0: 971f 34bc ed0e 5ebc 2a7c 7f3c 3b05 ce3c
000000c0: 4eb0 8a3c dedd bcba 2abf 47bc cdad 463c
000000d0: de26 923c e164 68ba f766 83bb 0a46 73ba
000000e0: b4fe 0bbc 66ba 383b 0cd5 55bc e8bf ebbb
000000f0: 1b13 0d3b df0e cab9 009b 16bc b106 473a
00000100: 2166 893c 93d4 2fbb 416d 203b 0848 d0bc
00000110: 2ff0 883a 4bd2 803b ef34 6abb 0037 c83b
00000120: bc14 a0ba d449 0bbc e27a 953a 3319 4c3c
00000130: 20cf fd3b e0a0 04bc f61f 073c 47c8 a63b
00000140: 0ddc fc3b f68a 2e3b f528 6ebb 8019 a6b9
00000150: 3e65 70bc ccd2 9fbb 9f85 973a 5f7f 0c3c
00000160: 9eb2 ff3b eb5c 8a3b d12d 95ba 527c 803b
00000170: 58a6 1dbc 5a50 af3a 98a8 ca3b f98c 03bc
00000180: 39b7 debc e99f 04bb a872 a5b8 e852 8f3b
00000190: fa35 e4bc d2c6 db3b 0bee ccbb 09cd 53bc
000001a0: d4f9 9b3b a456 70bc 3175 e0bb 6051 7ebc
000001b0: a68f 53bc 0333 413c 7f12 51bc 1e24 dc3b
000001c0: b4c8 21bc 8d9a 8abc 5f6d 783b d471 1c3b
000001d0: 575d 9dbb 26ed 963b 078f 433b 8950 c4bb
000001e0: c3d2 84bc 98e5 883b 60a8 3d3b f715 1fbc
000001f0: 4bb9 99bb ff2d ff3b 4437 213c 5330 d4bb
00000200: aa02 deb9 1f8b 48bc 43ae 8939 1a54 5b39
00000210: 95ed 98bb 14ab 3abc 344f e63a a0ea b3bb
00000220: dd0e 103b 257d b23b 1cf7 cf3b 70fe 4a3c
00000230: ed7d c73c dca0 abbc d59d e2bb d246 5f3b
00000240: aa23 4f3c 7348 0d3b 31e1 24bc e5d9 183c
00000250: d38d 1abc b225 a0bb 2acd 54bc b406 9b3c
00000260: bece 943c f20e dabb 0d43 32bc ceea 06bc
00000270: 9553 7f3c b29f 18bc 2a58 31bb b0d9 fd3b
00000280: 6dea c9ba 6a1c c3bb e903 bdbc 5a68 2b3b
00000290: c530 313a 731e 203c 1586 06bc 56b5 b9ba
000002a0: 66be 933c 3258 22bc ba0f 643c b781 0ebc
000002b0: 970f 033c c1dd 873c 68c5 5036 4bf8 053c
000002c0: 2602 c13c 1a06 743c ee27 02bb 9344 7e3b
000002d0: b1e7 dc3b 4053 64bc df02 76bc e9cb 2f3b
000002e0: 2f2c 6a3c 8ff9 5cbc f770 e7ba 722b cbbc
000002f0: 50cd 7c3c 9d26 413c 6517 22bc 4ee4 953c
00000300: 0ae1 5abc 0d10 81bb 241d 22bb a01e 673c
00000310: 6853 ea3b ee8f 5e3c 3baa 78bc d208 843c
00000320: f2d7 c6bb a73e 9b3a 7cc4 fdba e1b8 97bc
00000330: cd28 b7bc c963 0039 6e68 903c 07ab 2a3c
00000340: c5f7 973a 7a81 ec3b 83ab 17bc d76f b0bb
00000350: cb48 7e3c b4d9 06bc 49dc 9bbb cd90 b03c
00000360: b4b3 e33b 697a b7bc 93a1 8fba 0e69 29bb
00000370: f293 483c 88da c4ba e32b 53bc 2ba1 533c
00000380: 4cc0 373a aeea 8eba a4db 32bb 75ac c53a
00000390: a105 cdbb 3d34 3cbc 83f1 a33b 6009 563c
000003a0: c9bf 15bc 3920 e73b 8928 ac3b 310b 62bc
000003b0: 8ebc 27ba 08ac 8a3b cbfa 96ba 49f9 98bb
000003c0: c445 3e3c 6a6e 253c 3662 d4bb 96e2 aa3b
000003d0: 282d 263c 5e94 42bb 9f15 803b 5918 93bc
000003e0: 29b7 4f3c 5e53 19bc 00bc 27bc 86d2 56bb
000003f0: 2305 333c 33cc fabb 4980 713b bebc 3dbc
-0.0056871655 0.02125635 0.007678166 -0.0054927906 0.009703381 0.018508593 0.005952732 -0.01572566
0.0035379396 -0.00023571734 -0.017761916 -0.0027922296 -0.012293299 -0.018375278 0.002857955 -0.007668073
-0.0068664895 0.0060674394 0.010182564 0.0006644273 0.011529568 -0.015896283 0.008427762 -0.0015166411
0.0017284845 0.004159969 -0.015492293 0.012862232 0.0016586756 0.0043365294 -0.00204529 -0.01321927
0.011768434 -0.006533546 -0.011648095 0.006925038 0.0039986945 -0.007827049 0.0021306502 -0.0003735158
0.0044378266 -0.006575274 0.007154932 0.003318689 -0.01099386 -0.013553363 0.015593568 0.025148978
0.016929772 -0.0014409383 -0.012191573 0.012126398 0.017840799 -0.000886513 -0.004010077 -0.0009280151
-0.008544613 0.0028187274 -0.013051283 -0.007194508 0.002152628 -0.00038539522 -0.009192228 0.00075922447
0.016772332 -0.0026829585 0.0024479183 -0.025424972 0.0010447557 0.003931319 -0.0035737117 0.006110072
-0.001221321 -0.008501489 0.001140442 0.01245718 0.0077456385 -0.008094996 0.008247366 0.005089793
0.007716662 0.002663312 -0.003634033 -0.00031680986 -0.0146725755 -0.004877424 0.0011560208 0.0085752895
0.0078032752 0.0042225025 -0.0011381452 0.00392107 -0.009622179 0.0013375387 0.0061846487 -0.008029216
-0.027186977 -0.0020236915 -7.8891695e-05 0.004373897 -0.02785777 0.006707051 -0.006253963 -0.012927302
0.0047600064 -0.014669094 -0.006849908 -0.015522331 -0.012912666 0.011791947 -0.0127607575 0.0067181727
-0.0098745115 -0.016919399 0.0037906987 0.0023871558 -0.0048023867 0.004605907 0.002983989 -0.005991046
-0.01621378 0.0041777603 0.002893947 -0.009709827 -0.004691278 0.0077874656 0.0098398365 -0.0064754873
-0.00042345125 -0.0122402 0.0002626051 0.00020916798 -0.004666994 -0.011393327 0.0017571212 -0.005490616
0.0021981515 0.0054470473 0.0063465964 0.012389764 0.024352038 -0.020950727 -0.0069157877 0.0034069312
0.01264278 0.0021558076 -0.010063455 0.009329294 -0.009433228 -0.004887306 -0.012988368 0.018924095
0.018164989 -0.0066546137 -0.010880244 -0.008234693 0.015583892 -0.009315418 -0.0027060607 0.0077468976
-0.0015404947 -0.005954315 -0.023073154 0.0026154728 0.00067592814 0.009772885 -0.008210679 -0.0014168422
0.018035125 -0.009908723 0.013919765 -0.008697919 0.007999322 0.016585233 3.110932e-06 0.008176873
0.023560595 0.014894033 -0.0019860226 0.0038798198 0.006741487 -0.013935864 -0.015015333 0.002682442
0.014292761 -0.013487234 -0.0017657568 -0.02480099 0.01542981 0.011788991 -0.009893273 0.01829734
-0.013359318 -0.003938681 -0.0024736607 0.014106423 0.007151056 0.01358412 -0.015177305 0.016117487
-0.006068223 0.0011844233 -0.0019360925 -0.018520774 -0.022358323 0.00012244204 0.017627921 0.010416753
0.0011594227 0.0072175832 -0.0092572 -0.005384426 0.015520285 -0.008230615 -0.0047564846 0.021553421
0.0069489125 -0.022397237 -0.0010958187 -0.002584997 0.012242304 -0.0015018741 -0.012888881 0.012916843
0.00070095505 -0.001090368 -0.002729156 0.0015081303 -0.0062567745 -0.011487064 0.0050031557 0.013063759
-0.009139963 0.007053402 0.0052538556 -0.013796614 -0.0006398641 0.0042319335 -0.0011518834 -0.004668389
0.011613313 0.010097126 -0.006481434 0.0052149994 0.010142602 -0.0029690485 0.0039088274 -0.017955946
0.012677946 -0.009358255 -0.010237694 -0.003277929 0.010926518 -0.007653737 0.0036850146 -0.011580644

bn.running_mean f4 [256]
00000000: 8a64 8b3e 5ab7 b53e b63b ebbf 9912 2dbf
00000010: 2e4e 6d3f ce67 043f 556d 13c0 fcfc 75be
00000020: 42ff 2140 7a07 69bf b335 93bd 874e 993f
00000030: 37cd 16c0 d4f2 2ebf b1eb c2be 4e20 3c3f
00000040: c475 07bf d4dc ef3d e027 9b3e 7dfb 033f
00000050: d7b9 f83e 705f 9bbf 8239 7d3f 7de8 bc3e
00000060: 2496 1540 ff48 2740 dac9 9cbe e7c6 e43e
00000070: 8832 aebf 2340 31bf cbaf b6be 0d08 f23e
00000080: 9188 71be 9d1e ccbf 7f2b 883f 06b3 60be
00000090: bbd3 8fbe a27f 0b3e f02b 8c3c 58a1 613e
000000a0: e1ec 3a3f eb1d 4dbf 9fff 3fbf 2e6f 0ebf
000000b0: cd66 64be cbae 69bf b164 0d40 5c4e 8abd
000000c0: 7cbe 853f 8a6b 2d3f c0d1 17bf d306 923f
000000d0: aae3 70bd 6a8a 09c0 368c af3e b2c1 0abf
000000e0: 83f6 583f fb78 0bc0 9f1a c0bf 26e3 0e3f
000000f0: 83f4 58bd 0494 d03f 3f69 ba3d 1370 a8bf
00000100: 8165 6fbe f934 e03e 209f ad3c 262b 68bf
00000110: 8109 2ebf 8afa 273f 0a64 cb3e 0e22 0a3f
00000120: ef29 763f 069c bfbf f964 e43f c6aa 24c0
00000130: 3671 0d3f c1c7 80bf 05e8 62bd 28b3 163e
00000140: c600 3bbe 1e82 b93f 5ed9 93be d396 edbf
00000150: 1358 75be 5784 673f b18d acbf 04c3 c0be
00000160: 1797 8cbf 2ebe 933f 3056 2ac0 7431 863f
00000170: aca0 253e ba8d a13f 3ee2 a7bf 27c6 0a3f
00000180: 69bb 9d3e e781 99bd 0767 863c aa3f 9cbc
00000190: 006d 02bf bf31 0bc0 aa10 9ebe 5076 6fbe
000001a0: 7a86 c63f be92 63be 6658 ad3f 3e56 6a3f
000001b0: d9ad 8d3f 6201 3d3f ccfc 0c3e 400e 423f
000001c0: bea7 48bf 116d b6bf d7da 44be 6c5a 58be
000001d0: 4ec5 2f40 ac05 163c 1fc5 8d3f c5b3 af3e
000001e0: 3c2c 94be a34d 0ebf 57fe 48bf 8bf2 a6bf
000001f0: 5648 95bd 9872 1b40 19d2 a9be baca b43e
00000200: 7978 1e3e 34eb 9ebf b3c2 ce3e 8a73 b4bd
00000210: 49a3 713e 7abf 7abf 3f83 03c0 749d cfbd
00000220: d0dd bbbf 42e2 01bf c0dd ddbe 8c9a 2bbf
00000230: 6c5c 343d 5f53 623f 942b 47bd ba5b babf
00000240: 8b03 203f 07a8 003f d1aa 99bf 54e3 16bf
00000250: 26ee 9bbf 9693 3dbf 5cfb 3e3e a669 84bf
00000260: ae9e 113f db14 6abf 7280 60bf 30c1 f6be
00000270: 90e1 26bd 922b ae3f 8489 ae3f 547e aabe
00000280: 93f9 b6bc ac6d acbf c071 21c0 610b 6f3f
00000290: dc35 bcbe 6c99 babf dfcb 37bf 0efc c1bf
000002a0: bf9d ca3f 4103 1640 e23f 03bf add9 14bf
000002b0: 7459 3d3f a02c 823f 89f0 193f 6c06 45bf
000002c0: 73f4 e03f 3c0f 623e ef68 dfbf 1147 093f
000002d0: 06d1 c6bf 95a8 e8be 64fa d8bf a7fe 9c3f
000002e0: d7ce 3cbf 3182 5b3e 417c 8e3f 3b27 2d3f
000002f0: 3b92 a23e 5876 95be 8109 a23f 4d56 82bf
00000300: 15e5 993f d19a c7bf 51bc 70bf a489 2fbf
00000310: 10b5 f53e ec22 dd3d 2779 76bf 7575 bbbf
00000320: 56fa 3a3c 1fa1 543c 8cca 713f b961 39bf
00000330: 3282 74be dd11 793f 5778 cb3e 1cb5 6abe
00000340: 5288 c5bd b440 32bf 8ad5 5ebe 2c96 c7bf
00000350: 62cf a4bf 3071 a4bc 3eca 063f 487e c1be
00000360: 2298 3c3f f1be 02c0 8e2c 083f d235 0a3e
00000370: c547 a13f e706 fc3e 08e5 c2bf 5b0c 3d3f
00000380: f1b8 abbf 18b5 2a3f 7b66 1f3f 3bad c83f
00000390: c08a 73bc 1ab7 433e a8bd f83f 9ac5 be3f
000003a0: a4fa 19bf aefe 1140 8a38 9b3e b553 bc3e
000003b0: d857 80bf 2b99 00c0 b639 6abe cc76 a4bf
000003c0: 8b70 52bf 42f7 90bf bf7f 223f 5999 d33c
000003d0: b66a 1cbe 04db b5bf 3152 c5bf 9b2d 70be
000003e0: b77f cebf fceb 26be bc10 8bbc 2a67 ac3e
000003f0: 228d f73d 07a2 5abe 75d3 3dbf df6c a13e
0.27225143 0.3549145 -1.8377597 -0.676065 0.9269742 0.51720893 -2.303548 -0.24022287
2.5312047 -0.91027033 -0.07187977 1.197709 -2.3562753 -0.68339276 -0.38070443 0.73486793
-0.5291407 0.117120415 0.3030386 0.51555616 0.48579285 -1.21385 0.98915875 0.36896124
2.3372889 2.6138303 -0.3062275 0.44683 -1.3609171 -0.6923849 -0.35680994 0.47271767
-0.23587252 -1.5946842 1.0638274 -0.21943292 -0.28091225 0.13622907 0.017110795 0.22034204
0.730177 -0.80123776 -0.7499942 -0.55638397 -0.2230484 -0.9128234 2.2092707 -0.06753227
1.0448756 0.67742217 -0.5930443 1.1408333 -0.058810867 -2.1490731 0.3428666 -0.54201806
0.8475115 -2.179259 -1.5008124 0.5581535 -0.05296756 1.6295171 0.09102105 -1.3159202
-0.23378564 0.43790415 0.02119404 -0.9069084 -0.6798325 0.6561667 0.3972476 0.53958213
0.96157736 -1.496949 1.7843314 -2.5729232 0.5525087 -1.006096 -0.055397052 0.1471678
-0.18262014 1.4492834 -0.28876776 -1.8561653 -0.23959379 0.9043631 -1.3480741 -0.37648785
-1.0983609 1.1542413 -2.6615105 1.0483842 0.16174573 1.2621377 -1.3115919 0.54208606
0.30807045 -0.0749548 0.01640655 -0.019073326 -0.5094757 -2.1749113 -0.3087209 -0.23384976
1.5509789 -0.22223946 1.3542602 0.91537845 1.1068679 0.73830235 0.1376831 0.75802994
-0.78380954 -1.4252034 -0.19224106 -0.21128243 2.7464175 0.009156626 1.1075782 0.3431684
-0.28939998 -0.55587214 -0.7851309 -1.3042768 -0.072891876 2.4288692 -0.33168104 0.35310918
0.15475644 -1.2415528 0.4038292 -0.088111 0.23597445 -0.9794842 -2.0548856 -0.10137454
-1.4677067 -0.5073587 -0.43333244 -0.67032695 0.044033453 0.88408464 -0.048625544 -1.4559243
0.62505406 0.5025639 -1.2005254 -0.58940625 -1.2182052 -0.74053323 0.18650573 -1.0344741
0.5688275 -0.9143807 -0.8769599 -0.48194265 -0.040742457 1.3607047 1.3635716 -0.33299506
-0.022335803 -1.3470969 -2.5225677 0.9337674 -0.3675984 -1.4578071 -0.7179546 -1.5155046
1.582939 2.3439486 -0.5126935 -0.58144647 0.7396462 1.0169868 0.6013265 -0.76962924
1.75746 0.22076124 -1.7453898 0.53624064 -1.5532539 -0.45441118 -1.6951413 1.2265214
-0.7375311 0.21436383 1.1131669 0.67637986 0.3175219 -0.29191852 1.265915 -1.0182587
1.2023035 -1.5594121 -0.9403735 -0.685694 0.47989702 0.107976764 -0.96278614 -1.464522
0.011412224 0.012977867 0.94449687 -0.7241474 -0.2387779 0.9729288 0.3974025 -0.2292065
-0.09645142 -0.6962998 -0.21761146 -1.5592704 -1.2875788 -0.020073503 0.5265235 -0.37791657
0.73669636 -2.0429041 0.53192985 0.13497093 1.2600027 0.49224016 -1.5226145 0.7384698
-1.3415815 0.6668258 0.6226575 1.5677866 -0.014864624 0.19112816 1.9432878 1.4904053
-0.6014807 2.2811694 0.30316573 0.36782613 -1.0026808 -2.0093486 -0.22873577 -1.2848754
-0.82202977 -1.1325457 0.63476175 0.025829958 -0.15275082 -1.4207463 -1.5415708 -0.23454897
-1.6132725 -0.16300958 -0.016975753 0.33672458 0.12087466 -0.21350871 -0.7415078 0.31528375

bn.running_var f4 [256]
00000000: efb6 0c3f c142 4e3f d518 4e3f bc8a 103f
00000010: 4eae 283f ed31 113f e5f4 aa3f ad20 fb3e
00000020: b145 6e3f 14dc 6a3f c6f0 1d3f 8a34 e83e
00000030: 80f8 523f 98e1 103f 45c8 c23e f6fe f43e
00000040: 5461 fd3e 5df0 203f 6032 353f bd2c 4a3f
00000050: dd19 5c3f c590 003f 73b5 2e3f 175a 4c3f
00000060: b3a5 393f 07cb 2f3f 94c3 593f 4328 933f
00000070: 7c7c 003f 0ce5 0d3f 8a98 783f 867b 0e3f
00000080: e745 233f ece0 c03e ea2b 1d3f 11e6 913f
00000090: c7c5 273f de97 273f bead f73e 4599 e73e
000000a0: 673b 0f3f a3e6 753f cd19 da3e d32f 693f
000000b0: d31d 083f 336c 173f 13ed 533f b1e4 a33f
000000c0: 8d70 1e3f 3570 3b3f fa7c 203f b834 1c3f
000000d0: 7840 573f 0171 563f 8500 3d3f 8392 063f
000000e0: dc66 c83e a1a6 4d3f 9a80 893f 5e76 7f3f
000000f0: 1e40 1d3f e4f5 003f f2d1 4f3f f078 6e3f
00000100: b6dd 0e3f ccb5 033f ce26 4a3f c24a 2e3f
00000110: 4de4 223f 2f1c 0c3f 3f86 d43e 3a83 1f3f
00000120: be9e 383f 6fe0 683f cb02 4b3f 5e6e 193f
00000130: 2504 283f e17a 1e3f a996 c23e 9460 623f
00000140: 5666 2b3f 7bda 4d3f 964b 2a3f a76a ed3e
00000150: 6e3f 7b3f 06de dc3e adf9 3d3f 3b52 3c3f
00000160: bced 1c3f e7db 463f 8b83 ef3e 500d 273f
00000170: 10e5 5f3f 30f7 5c3f 186e 213f f49f ae3e
00000180: a8cf 403f f664 2a3f 1c85 463f 6d1e 0c3f
00000190: c8da 483f c3f4 743f 0aeb 793f 2af6 303f
000001a0: 1b05 083f 03ee 5f3f a7bf 273f ab38 1e3f
000001b0: 7185 393f c23c 683f 24b4 633f f877 a23f
000001c0: 1e9e f13e 3e79 5d3f c24c 0e3f 91ab 423f
000001d0: 5050 1f3f b7ab cd3e b71c 403f c612 383f
000001e0: 404a 083f af20 9a3e c82f 603f 1dba 473f
000001f0: 37f7 5e3f 68c5 103f bb07 443f 6bdc c33e
00000200: a6d4 433f 7ce5 0b3f e9a0 623f 5268 4e3f
00000210: fd50 593f 8c73 3e3f 8ae3 5c3f 5a91 123f
00000220: ee9c 013f 3f7d 1b3f fd86 0e3f 3cc7 0f3f
00000230: aae5 a33f d5c2 083f 7c60 103f 8d01 ea3e
00000240: 3a63 5b3f e764 eb3e a102 023f b64a 203f
00000250: cf1a d73e 43c8 0d3f 1700 c73e dc5a 613f
00000260: 2aab 833f 9cb1 2a3f 1f63 173f 42ef 4b3f
00000270: db87 5c3f 9d0c 393f 500c 043f 2e28 2b3f
00000280: 050f fd3e 3bb8 4c3f 157e 563f 7920 1e3f
00000290: 733c 483f 7248 483f 7187 313f 5979 193f
000002a0: 14c0 3b3f 1d80 533f cce0 2d3f 7558 ef3e
000002b0: d535 0b3f 5ed2 523f 9a4d 123f c73a 073f
000002c0: e094 7f3f 35f3 673f 0344 3a3f 0e40 3c3f
000002d0: 5a12 3b3f 5af1 1d3f 7739 373f a151 0c3f
000002e0: 3dc6 863f 3640 403f cd75 3a3f 700e 133f
000002f0: a0fc c43e 394b 183f fb3d 613f 1d63 343f
00000300: a1a3 df3e 8148 b93e 2ae3 893f ee29 3b3f
00000310: 6bd7 123f 7844 0b3f a4c6 5d3f 1edc d73e
00000320: 4aa5 2c3f b271 483f 2d2c 2c3f e002 023f
00000330: 3dbe 333f b492 0a3f f513 413f 01f3 753f
00000340: 572b 2c3f 4acb 283f ae54 f93e b2b1 2b3f
00000350: 8db3 153f deb0 0d3f 5953 573f 1b32 5b3f
00000360: 25e6 a43f 6d94 943f 7065 e93e 6643 f53e
00000370: 5bac 853f d793 153f 3ce4 503f 447e 993f
00000380: 5fee 413f 342e f23e 5e82 4f3f 7294 0e3f
00000390: 8e85 343f cc2b 3c3f 7dda 003f c45b 133f
000003a0: 5596 643f 5f87 1e3f f064 073f c846 943f
000003b0: 8165 cb3e 7375 e53e 83f3 053f 4d54 2c3f
000003c0: 7224 153f f373 8c3f 45f6 aa3f 2acd 853f
000003d0: 61b2 293f b4d3 1d3f 4d4d 003f a22a c43f
000003e0: 642f 8a3f 1347 253f 8764 363f 161a 113f
000003f0: 9f84 403f 6fc4 1a3f 4abd f53e 81be 463f
0.54966635 0.8057061 0.8050664 0.5646169 0.6589097 0.56716806 1.3355986 0.49048367
0.9307509 0.9174206 0.61695516 0.45352584 0.8241043 0.5659423 0.3804342 0.4785077
0.49488318 0.62866765 0.7077999 0.78974515 0.85976964 0.502209 0.6824562 0.79824966
0.7251846 0.6866917 0.85064054 1.1496662 0.5018995 0.5542762 0.97107756 0.5565723
0.6377854 0.37671602 0.6139513 1.1398336 0.6553616 0.65466106 0.48374742 0.45234123
0.55950016 0.9605505 0.4259781 0.910886 0.5317051 0.59149474 0.8278362 1.2804166
0.6189049 0.7321809 0.626907 0.6101794 0.84082747 0.8376618 0.7382892 0.5256731
0.39140975 0.8033238 1.0742371 0.9978999 0.6142596 0.503752 0.81179726 0.93153286
0.55807054 0.51449275 0.7896546 0.6808282 0.6362961 0.54730505 0.41508672 0.6230961
0.7211722 0.9096746 0.79301137 0.5993403 0.65631324 0.6190625 0.3800557 0.88428617
0.6695303 0.804115 0.66521585 0.46370432 0.9814366 0.4313814 0.742091 0.73562974
0.61300254 0.77679294 0.46780047 0.6525469 0.87458897 0.8631468 0.63058615 0.3410641
0.7531686 0.66560304 0.7754686 0.54733926 0.78458834 0.95685977 0.97624266 0.69125617
0.5313279 0.8747255 0.65526813 0.6180522 0.7246924 0.9071771 0.8894675 1.2692862
0.47190946 0.86513126 0.55585873 0.7604304 0.6223192 0.4017007 0.75043815 0.71903646
0.53238297 0.3010306 0.8757291 0.7801836 0.8709597 0.5655122 0.76574296 0.38254103
0.7649635 0.5464704 0.8852678 0.8062793 0.84889203 0.7439506 0.862847 0.5725304
0.5063008 0.60737985 0.55674726 0.5616338 1.2804463 0.5342229 0.56397223 0.45704308
0.8569828 0.4597542 0.5078526 0.62614 0.4201264 0.553837 0.38867256 0.88029265
1.028661 0.6667726 0.5913562 0.79661953 0.861448 0.7228487 0.5158129 0.66858184
0.49425521 0.79968613 0.83786136 0.617683 0.7821724 0.7823554 0.6934729 0.59950787
0.7333996 0.8261736 0.6792114 0.46747175 0.54379016 0.82352245 0.5714966 0.5282406
0.9983654 0.9060548 0.7276003 0.7353524 0.7307488 0.616964 0.7157206 0.54812056
1.0529248 0.7509798 0.72836 0.57443905 0.38473988 0.5948978 0.879852 0.70463735
0.43679526 0.3618813 1.077245 0.73110855 0.5735995 0.5440135 0.86631227 0.42160124
0.6743971 0.78298485 0.67254907 0.50785637 0.70212156 0.541301 0.75421077 0.9607392
0.6725363 0.65935194 0.48697418 0.67068017 0.584771 0.55348 0.84111553 0.8562333
1.2882735 1.1607796 0.45585203 0.47902983 1.0443224 0.5842871 0.8159826 1.1991658
0.7575435 0.47300875 0.810583 0.5569526 0.7051629 0.7350433 0.50333387 0.575619
0.8929189 0.6192531 0.52888393 1.1584101 0.3972588 0.4481617 0.52324694 0.6731613
0.58258736 1.0972885 1.3356405 1.0453236 0.6628781 0.6165116 0.5011795 1.532551
1.0795712 0.64561576 0.7124714 0.5668043 0.75202364 0.60455984 0.4799598 0.77634436

bottleneck.weight f4 [256, 512]
00000000: 663c 92bb 5b81 193e e7f9 933d f655 9ebc
00000010: 9bee e9bc f458 f03c 815c bcbc c74e 1b3d
00000020: ddd7 45bd 586f aebd 2552 8b39 5a70 8a3d
00000030: 4eab 0ebd c2c9 c13d ecfa 413a 0749 98bd
00000040: a846 573a 65d2 f5bc 9629 983d fdec d0bc
00000050: 2baa 083d 4945 09bd 7dac 0a3d b939 b3bc
00000060: 0709 1a3d e773 423c 2f03 943b df03 b5bd
00000070: 6157 9a3d bf96 16bc 07f8 50bd d9c2 0ebc
00000080: a82d 37bc 7a92 cb3c 2dc4 05bc 6408 c63c
00000090: bed6 85bd f237 87bd 6b07 873d 9ee0 9b3d
000000a0: b80f 3ebd 213b 7fbc de93 fe3d 2e15 7f3c
000000b0: 252f 11bd 67f6 5bbd a954 733c 0178 9a3d
000000c0: 07d5 47bc da88 2cbd c140 c5bc 96e3 f23d
000000d0: 6692 61bc bcdb cf3d e76f d63c 737d b7bd
000000e0: 4f21 84bc 6fc5 0cbb cb9d 99bd 85fb 9d3c
000000f0: 97e0 30bc 958e a8bd 7092 b13b cc76 87bd
00000100: c894 0a3c fef0 e838 ecc2 fa3b 4ed1 d3bc
00000110: e511 52bc 3df7 7eba 6092 413d 6ab5 b3bc
00000120: cdbf a63c 609f 78bd c5cd 09bb 5834 863d
00000130: aa92 a73d e2ff f83c ab7e 8fbd c0e3 f9bc
00000140: 2faa f7bb da4b 553d a24a 8fbd 3fb2 123d
00000150: 3b85 36bd bfda 1cbd 0946 0d3d 0b83 153d
00000160: 0e87 a0bd c868 b4bc d5a8 c7bb f9a8 4a3d
00000170: 240a fbbd 509d 6cbd 145f 00bd 0c49 c63c
00000180: bcee 733d 156c 323d f975 01bd 5e8e 093d
00000190: c0f3 293d 529f c33b 11f1 90bd 5298 75bb
000001a0: dd3e 6ebd f599 88bd 7110 4fbd cb36 8ebd
000001b0: 3fae 13bd 7729 efbb f528 653d 19a3 e83c
000001c0: a33c cc3c 6557 c53c 3f68 023c fdf0 a33c
000001d0: e7ff 9abd 6a25 90bd 6d53 6bbd 4d69 0fbd
000001e0: 4997 13bd 1632 813d 31ef 9b3d 9eab e3bc
000001f0: 963f 2dbd 7cfe a4bc 5de0 6d3c 684d cf3c
00000200: c4ed 2abc a515 76bd caeb bebc 1852 61bd
00000210: 7f75 943c 9d78 0dbc 49dd 943c 2c96 4dbb
00000220: 90dc 53bd f75b 923d 5e4c 633c 846c 6dbc
00000230: a4c0 823d dc01 053e be9c ffbc 6da5 1abd
00000240: 1933 1b3d 00ca b03d b239 f9bb 5701 853c
00000250: 2725 a83b 3b82 3e3d daef 20bc 38e5 143d
00000260: a6d0 c23d b723 10bc ea91 d93d 5b38 99bd
00000270: cf62 953d 241e f73c 5926 84bc 6e72 f33c
00000280: ca7b 103c 46e0 2138 0f17 25bd bd86 743d
00000290: 6140 61bc 4fca 07bd 8b0c ec3c 0743 66bd
000002a0: 684f dc3c dd08 e13d 16ee 973d d469 4c3c
000002b0: 84c8 51bb 6147 55bc f952 423b a416 9cbd
000002c0: 7da8 ce3b f258 88bc eb9f ddbd 8d1b a13d
000002d0: 934d 8cbd 66d3 54bc 8f37 02bb 8451 7f3b
000002e0: b0a9 68bd 4d04 05bd 5156 a1bc 5076 e2b8
000002f0: 5d07 8bbc aca1 b83b 9cab cb3d ec16 9fbd
00000300: 32e5 2cbd 8ac1 3c3d b2d7 88bd 3b1d 963d
00000310: 2d57 1fbd e783 9bbd 678f 973c 0a81 68bd
00000320: 5633 00bd bead 5dbd 4a80 94bd 2576 d73d
00000330: 5959 02bd a89e 46bc 23cc 54bd ff2d efbc
00000340: 3362 843d 0ebe b2ba 4136 4a3d 0fa4 6e3c
00000350: 08e8 973d 36da c33c ebcd a3bd d88b 063c
00000360: 4bdd 11bc 5a1e 93bc 264b ec3c 9e37 96bd
00000370: 3a2b 67bc 9f35 753c e07b d63b a136 84bc
00000380: fe3e 4abd 7ded 473c b9a9 7dbd 635c 7cbd
00000390: bc03 d03d 4177 c73c 9417 0c3d e604 14bc
000003a0: a163 103d 3ee3 193d a2de a5bd 3859 6abd
000003b0: af33 67bb 9020 e13b dfff b33c 667f 8b3c
000003c0: 854a 2abc c597 5a3a 4380 f1bd 5cd3 2bbd
000003d0: 93db b73d 3c45 b9bd 3463 c43c 3b58 89bd
000003e0: c319 cb3d fdd6 683c 6c40 453d 2ed3 38bd
000003f0: 62d6 2cbc 61ff 2e3d c0a9 ae3c 44c7 843d
-0.0044627665 0.14990751 0.072253995 -0.019328099 -0.028556159 0.029339291 -0.022993328 0.037916925
-0.048301566 -0.08517331 0.00026573348 0.067597106 -0.034831338 0.094623104 0.0007399756 -0.07435804
0.0008212128 -0.03000755 0.07429807 -0.02550363 0.03336541 -0.03351334 0.033855904 -0.02187811
0.037606265 0.011868454 0.004516981 -0.08838629 0.075361975 -0.009191214 -0.051017787 -0.0087134475
-0.011180319 0.024850119 -0.008164448 0.024173923 -0.065350994 -0.066024676 0.06593212 0.07611202
-0.04640171 -0.015578062 0.12430547 0.0155690145 -0.03544535 -0.053701784 0.0148517275 0.0754242
-0.012196786 -0.0421227 -0.024078729 0.11859815 -0.013767814 0.10149333 0.026176406 -0.089594744
-0.016129164 -0.0021479984 -0.075008 0.019284973 -0.010795734 -0.0823032 0.005419068 -0.066144556
0.008458324 0.0001110751 0.007652631 -0.02585664 -0.012821649 -0.00097261724 0.047258735 -0.02193709
0.02035513 -0.060698867 -0.002102719 0.065529525 0.08182271 0.030395452 -0.07006582 -0.030504107
-0.0075581293 0.05207429 -0.06996657 0.03581452 -0.044560652 -0.03829455 0.03449062 0.036501925
-0.0783826 -0.02202262 -0.0060931244 0.04947755 -0.122577935 -0.057767212 -0.031340674 0.024204753
0.059553847 0.043560106 -0.031606648 0.033583038 0.041492224 0.00596992 -0.0707723 -0.0037474823
-0.05816542 -0.0666999 -0.05055279 -0.06944045 -0.036054846 -0.007298644 0.055947263 0.028398084
0.024931258 0.024089525 0.0079594245 0.020012373 -0.07568341 -0.07038386 -0.057452608 -0.035012532
-0.03603295 0.06308381 0.076139815 -0.027791794 -0.04229697 -0.020140879 0.014518824 0.025305465
-0.010432664 -0.060079236 -0.023305792 -0.05500993 0.018122433 -0.0086347135 0.018171923 -0.0031370027
-0.051724017 0.07146447 0.013873188 -0.014491204 0.063843995 0.1298899 -0.03120267 -0.03775542
0.037890527 0.086322784 -0.007605755 0.01623599 0.005131382 0.046510916 -0.00982281 0.036351413
0.09512453 -0.008797578 0.10623534 -0.07481452 0.07294237 0.03016574 -0.016131567 0.02971765
0.008818576 3.8594262e-05 -0.040305194 0.05969881 -0.013748259 -0.03315192 0.028814575 -0.056216266
0.026893333 0.10988019 0.07418458 0.012476403 -0.0032010386 -0.013017506 0.0029651506 -0.07621506
0.0063067065 -0.016643975 -0.108215176 0.07866583 -0.068507336 -0.012989854 -0.0019869541 0.00389585
-0.05680245 -0.032474805 -0.01969448 -0.00010798557 -0.016971285 0.005634507 0.09944841 -0.07768044
-0.042210765 0.04608301 -0.066817656 0.07329794 -0.038901497 -0.07593518 0.018500997 -0.056763686
-0.031298958 -0.05412077 -0.07251032 0.10520581 -0.03182349 -0.012122788 -0.051952492 -0.029196737
0.064640425 -0.0013636963 0.049368147 0.014565482 0.07417303 0.023907762 -0.0799826 0.008212052
-0.008902858 -0.017958809 0.028844427 -0.07334827 -0.014109427 0.014966398 0.006545529 -0.01613933
-0.04937648 0.012202618 -0.06192944 -0.061611544 0.10156962 0.024348857 0.034202173 -0.009034371
0.035251264 0.03757023 -0.080991045 -0.057213992 -0.0035278609 0.006870337 0.021972595 0.017028522
-0.010393743 0.00083386555 -0.11792042 -0.041949615 0.08977427 -0.090464085 0.023973085 -0.06706282
0.09917023 0.014211413 0.04815714 -0.04512327 -0.01054916 0.042724017 0.021321177 0.064833194

bottleneck.bias f4 [256]
00000000: f486 4c2f c538 a7af 7e9d 17af 37ac 01ae
00000010: 9a95 b4af 840e 1eb0 8755 1dae 3370 9a2f
00000020: 5708 10af 7324 722e e737 b52f 9c24 202e
00000030: 06d5 e12f 7639 52ae 1536 c5ad e710 662f
00000040: dd0d 752f b911 a6ae c91a 8dae 52e6 2eae
00000050: b3fe 2caf 1520 1daf d2da 11b0 f747 a3ad
00000060: b81a 14af 5f2d 96ae 6672 752f a17f 78af
00000070: 46e4 ffad d7a9 13af d331 9aad f7a9 f42e
00000080: 1b91 e4af 963b 5e2f 64c3 4d2e ffac feab
00000090: c2b0 c72d 1d23 a22e 0047 602e cf1f ab2c
000000a0: 49b1 c9af 2e05 c92f 3309 33af 9cee 6cae
000000b0: ae17 8d2f 1894 1aaf dac9 6e2f 5875 4baf
000000c0: f156 47af d84c 512e e345 182f 69e7 44b0
000000d0: add4 f2ad eeb2 0130 43ad 992e ffe4 982e
000000e0: c9b8 1030 a057 22b0 4ed7 4b2f d3d4 042f
000000f0: 3548 7eae 918e 3faf 9d59 f42e c155 3f2f
00000100: 0fb7 acaf 2420 082d 3d42 aeae 7cde 16b0
00000110: db0c ad2d cc01 0faf 5366 b9af 6429 82ae
00000120: 9ed7 b7ae d1a1 8ead 03d9 bf2f 4ecd 0b30
00000130: 9aad 9eaf e5b1 ea2e d271 94ae 82af 66ae
00000140: da6e 97af 9bfb cf2f 7503 b52e afec 68af
00000150: 15ac cc2f 893f 32af aa5a cc2e 8db8 e8ae
00000160: 2768 57ac d07d 17af abe3 932f 5727 192d
00000170: a4b2 8d2f cf07 18af 7042 192f 5e83 0c30
00000180: a035 522f 6dab e82e 5dfa 70ac 9780 8e2d
00000190: 98a1 c630 6255 6b2e 9aab 01af c68e 8eaf
000001a0: c4f8 a22f b814 242d 659f e22c d55a a32f
000001b0: cdae 5c2f ccf3 dbaf 1155 4fad 6c25 4fad
000001c0: 4242 84af d6e9 9a2f 8e12 beae 362f 11af
000001d0: 4f19 5c2f 1632 9eae 74fd 6f2d b94e 842e
000001e0: 5319 1e2f 72ed 802e 9b46 6c2e 4f8a e82f
000001f0: 4b4a ec2d 55e3 ffaf b494 dcac f0ac 86af
00000200: 2c40 462e 93cd 34ae 12d3 212d 5ab3 10ad
00000210: 9672 79ae e992 32af b65c 172e 9bef de2e
00000220: ca95 1e2e 7e83 19af bc4a c2ae cca6 41af
00000230: 019d 1eb0 da05 fc2f bb73 0030 c73f 3faf
00000240: f0e2 7bae 1e95 b5af 9eea 0130 7ff4 18af
00000250: 8e3d 64af 3c7b b4ae 6b1f 882f 2e7f 2eb0
00000260: 9a7d 8baf 9231 71ae 9322 8b2f a0b9 892f
00000270: a3c8 c62b 7c7d 09af 599b b0ae 180f 3f2e
00000280: 4dcd 53af 8c18 4a2f 7f52 042f 7498 67ae
00000290: ead9 0cae 8a1f aaae c758 732e 07d4 8d2d
000002a0: e83b fe2e 139e d22f 3c06 b22b e0f6 032e
000002b0: 314a 4b2f 57cc a5af 7bc1 5aae f8aa f5ad
000002c0: 03da 44b0 e13d 78af 8068 37af 5c95 0aaf
000002d0: 0719 98ae 7d06 3d2f 38f1 972f 0055 c4af
000002e0: 8d19 76af 54fe 932f 54e0 c0ac 4328 2130
000002f0: 86b3 fdae 242a 13ae 7fae 222f 4633 a3af
00000300: fde2 e32f 057d 312f 07ab 512e b442 4cae
00000310: 028a 82af 3dd6 04ad 7b1d ad2e fd22 e9af
00000320: 423b e72d 3d22 3a2f 0e02 c52c d565 df2f
00000330: a9c5 0930 1c16 07af 0028 16b0 3b3e 34b0
00000340: 837a 5bae 80fe dcaf cd6a 02af 60e7 dcae
00000350: 39c0 a52f ba35 062f 97b2 0b2e f5ad 82ae
00000360: 2d87 b4af 607e 2c30 26e7 e4ad cfc0 08ae
00000370: 20dc 59af 4134 a52e 7b02 322d 5788 a4af
00000380: daf1 64ad c75e 83ae 8fea 732f c7a3 10af
00000390: 094a 962e 7845 822f 4855 342f 85dc baaf
000003a0: 99ac 6bad 6598 5cb0 c677 0aaf f508 df2d
000003b0: 863a 722e b720 1d2e 52b2 f32e 68f4 1e2f
000003c0: 37a1 99af 24da fcae 9e71 9fae 4568 24ad
000003d0: 9e47 812e d71e 01af 6716 1d30 888c 1daf
000003e0: 2dfd 20af cc3e 85ae e50b b82f 9bb7 01af
000003f0: e906 47ae 656c 302f 04a3 d4ae f4ab 7aaf
1.8601637e-10 -3.041746e-10 -1.3789322e-10 -2.948416e-11 -3.2848108e-10 -5.7500693e-10 -3.577363e-11 2.809216e-10
-1.3099687e-10 5.5056803e-11 3.296343e-10 3.6412304e-11 4.1078624e-10 -4.7799507e-11 -2.2420324e-11 2.0924383e-10
2.2287545e-10 -7.551954e-11 -6.4166956e-11 -3.9767585e-11 -1.5733796e-10 -1.4290465e-10 -5.3061655e-10 -1.8562913e-11
-1.3470014e-10 -6.82927e-11 2.2323263e-10 -2.2600812e-10 -2.9091517e-11 -1.3429911e-10 -1.75299e-11 1.1126027e-10
-4.1576062e-10 2.0211952e-10 4.6785145e-11 -1.8095802e-12 2.2702177e-11 7.3731445e-11 5.0994764e-11 4.8636438e-12
-3.6687656e-10 3.6565367e-10 -1.6283223e-10 -5.3872115e-11 2.5664576e-10 -1.4058832e-10 2.1717686e-10 -1.8504431e-10
-1.8129832e-10 4.758935e-11 1.3849148e-10 -7.163324e-10 -2.7606662e-11 4.71842e-10 6.988412e-11 6.9528376e-11
5.264949e-10 -5.905978e-10 1.8539234e-10 1.208094e-10 -5.7817046e-11 -1.7421999e-10 1.1111754e-10 1.7401815e-10
-3.141669e-10 7.737842e-12 -7.92437e-11 -5.488585e-10 1.9673532e-11 -1.3006413e-10 -3.372401e-10 -5.919068e-11
-8.360178e-11 -1.6215392e-11 3.4896894e-10 5.085966e-10 -2.8863384e-10 1.06726884e-10 -6.750479e-11 -5.2451828e-11
-2.7545505e-10 3.7831857e-10 8.231541e-11 -2.1184364e-10 3.7229655e-10 -1.6211578e-10 9.292951e-11 -1.0582921e-10
-3.0611154e-12 -1.3778068e-10 2.6900912e-10 8.705778e-12 2.5774682e-10 -1.3827094e-10 1.3938872e-10 5.111839e-10
1.911844e-10 1.058059e-10 -3.424503e-12 1.6200636e-11 1.4452324e-09 5.350865e-11 -1.1793447e-10 -2.5931096e-10
2.9644387e-10 9.326921e-12 6.4410027e-12 2.9714067e-10 2.0070985e-10 -4.0009096e-10 -1.1785476e-11 -1.1774897e-11
-2.405774e-10 2.8178587e-10 -8.6434956e-11 -1.3204446e-10 2.0017875e-10 -7.193905e-11 1.3641855e-11 6.016649e-11
1.4379013e-10 5.862945e-11 5.3722898e-11 4.2298828e-10 2.6863086e-11 -4.654576e-10 -6.2692854e-12 -2.4497337e-10
4.5076984e-11 -4.1109848e-11 9.1986575e-12 -8.225276e-12 -5.6717818e-11 -1.6241199e-10 3.441577e-11 1.0137954e-10
3.605808e-11 -1.3961984e-10 -8.835374e-11 -1.7612506e-10 -5.770318e-10 4.584269e-10 4.673059e-10 -1.7394007e-10
-5.7272354e-11 -3.3029662e-10 4.726334e-10 -1.3911182e-10 -2.0758348e-10 -8.207343e-11 2.476058e-10 -6.3481564e-10
-2.5373198e-10 -5.4841083e-11 2.530852e-10 2.505205e-10 1.4124434e-12 -1.2504658e-10 -8.031149e-11 4.3441778e-11
-1.9263276e-10 1.8380514e-10 1.2034639e-10 -5.2658725e-11 -3.202586e-11 -7.7363074e-11 5.5330653e-11 1.6124003e-11
1.1561224e-10 3.8311096e-10 1.2649391e-12 3.000522e-11 1.84891e-10 -3.0158517e-10 -4.9739306e-11 -2.79292e-11
-7.16142e-10 -2.2577452e-10 -1.6680879e-10 -1.260409e-10 -6.9166055e-11 1.7191755e-10 2.7638136e-10 -3.5712588e-10
-2.2382647e-10 2.6919855e-10 -5.4818736e-12 5.8628674e-10 -1.1536998e-10 -3.346136e-11 1.4795808e-10 -2.968596e-10
4.1452344e-10 1.6142472e-10 4.7673e-11 -4.6443474e-11 -2.3744923e-10 -7.550902e-12 7.872366e-11 -4.2407314e-10
2.6287975e-11 1.6928765e-10 5.599305e-12 4.063582e-10 5.01212e-10 -1.2286033e-10 -5.4626526e-10 -6.5572053e-10
-4.9903647e-11 -4.01986e-10 -1.1861374e-10 -1.0045542e-10 3.0149908e-10 1.2206317e-10 3.176356e-11 -5.9426165e-11
-3.2837857e-10 6.2752825e-10 -2.602325e-11 -3.109407e-11 -1.9814239e-10 7.5126134e-11 1.0118679e-11 -2.9928302e-10
-1.3014001e-11 -5.974026e-11 2.2184053e-10 -1.3154909e-10 6.8343615e-11 2.3696223e-10 1.6401203e-10 -3.3989891e-10
-1.3396528e-11 -8.02521e-10 -1.2593579e-10 2.5356143e-11 5.507641e-11 3.5726724e-11 1.1082037e-10 1.4456847e-10
-2.7945088e-10 -1.1498383e-10 -7.250665e-11 -9.345473e-12 5.8789626e-11 -1.1743438e-10 5.7148103e-10 -1.4328994e-10
-1.4641861e-10 -6.059295e-11 3.3477857e-10 -1.1797711e-10 -4.52535e-11 1.6045616e-10 -9.669601e-11 -2.2798458e-10
