ckps/source/uda/domainnet/real_0/source_C.pt (torch, 358186 bytes, 3 tensors)

fc.bias f4 [345]
000000 aa a3 54 3c 94 4c f7 bb 49 c2 f8 3b 8d 0d 96 3c
       0.012978474 -0.0075469706 0.00759152 0.018317008
000010 80 e1 19 3c ce d6 8f 3c 2f 97 1d 3b c7 88 8c 3b
       0.009392142 0.017558482 0.0024046411 0.004288766
000020 a5 15 44 3c 76 f6 87 bc 9d 35 42 3b 35 c5 b0 bb
       0.011968051 -0.016597014 0.0029634007 -0.0053946027
000030 66 3c 6e 3b 3e 21 22 3c 4d e6 c0 3b 46 86 11 3c
       0.0036351918 0.009895621 0.005886829 0.008882111
000040 a4 f6 2e 3c e8 ee 9a bb 43 06 f5 3b 2e 59 16 bb
       0.010678921 -0.004728187 0.007477553 -0.0022941339
000050 7d 2e 20 bc 3a 40 21 bb 5b fa b4 3a 81 31 32 bb
       -0.009776709 -0.0024604932 0.0013807522 -0.002719015
000060 7a 49 38 3c e7 6c d2 3b 55 ed 38 bc 7b 31 f8 bc
       0.011247987 0.0064216736 -0.011287053 -0.030297032
000070 69 1a 6d bc a6 61 d7 3c 8f a6 60 3c ce 03 31 bc
       -0.014471629 0.02629168 0.013711586 -0.01080413
000080 20 3b 84 bc e6 dd 69 bc d7 a7 4d bc c5 aa d8 bc
       -0.016141474 -0.014274096 -0.012552223 -0.026448617
000090 4d 53 18 bd ff 4f d5 bc 0c 9f e2 3c f3 75 8f bc
       -0.037188817 -0.026039122 0.02766373 -0.017512297
0000a0 d3 2d 16 bc 92 e0 e8 3b 02 4b 3b bc 31 d4 ba 3c
       -0.009166199 0.007106849 -0.0114314575 0.022806259
0000b0 35 c3 9a bb 34 07 84 3b 38 1a 87 3c b8 b3 21 3c
       -0.0047229775 0.004029179 0.016491994 0.009869508
0000c0 20 e4 11 3c 2c b6 b6 3c 54 e5 83 b9 49 f3 12 bc
       0.008904487 0.022303663 -0.0002515713 -0.0089691365
0000d0 5b 68 88 3b c6 81 2b 3b 76 d9 34 bc 46 36 41 3b
       0.0041628308 0.002616988 -0.011038175 0.0029481812
0000e0 16 81 b1 3a ff 2a d5 3b 88 be 4b 3b 46 56 0a bc
       0.0013542499 0.0065053697 0.0031088907 -0.008443421
0000f0 74 f8 99 3c d8 48 ad ba c4 a9 34 bc 6c d9 8f 3c
       0.01879523 -0.0013220562 -0.011026803 0.01755973
000100 eb 5e af 3c e7 f7 01 bb 2a b3 2d 3c 9f 40 01 bc
       0.021407565 -0.00198316 0.010601798 -0.007888942
000110 7d a8 ec 3b 7b db d6 bb f6 e3 f0 bb 67 25 91 3b
       0.007222234 -0.006556926 -0.007351394 0.0044295075
000120 f1 f9 cf 3b ef 3d 19 3c 4c 02 9c bb c7 ef 7a bc
       0.006346934 0.009353145 -0.004761016 -0.015315956
000130 ed 22 32 3c ec 54 47 bb 8c 7a 12 bc b8 51 dc bc
       0.010872585 -0.0030415608 -0.00894035 -0.026894435
000140 3f e8 41 3c 91 8c df 38 d1 c8 c7 3b 15 c8 4d bc
       0.011835157 0.00010659651 0.006096937 -0.01255991
000150 97 e0 76 3b e0 43 66 3b 12 1b bb 3c 21 7b ae bc
       0.0037670487 0.0035135671 0.022840057 -0.021298947
000160 a5 a0 45 3b 07 93 aa 3b f3 4f b1 bc 06 e7 08 3c
       0.0030155566 0.0052055153 -0.021644568 0.0083558615
000170 2c 52 95 3a c8 17 68 3c 28 4a 1f bb da c3 95 3a
       0.0011392287 0.014165826 -0.0024305675 0.0011426166
000180 0c 9d 6c 3c 22 4e 93 bc a7 8b 00 3d 5c 87 84 bb
       0.01444174 -0.017981593 0.031383183 -0.0040444564
000190 b2 17 f3 3b 7b e0 60 bc d9 6b 1c bd 05 d0 05 3d
       0.007418596 -0.013725395 -0.03818879 0.032669086
0001a0 ad 09 04 3c 77 45 c3 bc ab 29 9a bb 68 1a 2f 3d
       0.0080589475 -0.023836834 -0.0047046742 0.042749792
0001b0 40 a4 a8 ba a2 1f 04 bc fd 01 75 3b 63 84 8b 3c
       -0.0012866333 -0.0080641825 0.0037385218 0.0170309
0001c0 f9 eb d5 bc 48 f1 8d 3b 26 c1 75 3c 4f 22 8c 3a
       -0.026113497 0.0043317415 0.014999663 0.0010691377
0001d0 5a f4 17 bc 0a 73 38 3c f5 56 4c 3a 16 73 41 bb
       -0.009274567 0.011257896 0.000779494 -0.002951806
0001e0 47 fe 4b bc d7 23 62 3c 85 83 fb bb 42 2c 8a bc
       -0.012450761 0.01380249 -0.0076755905 -0.016866807
0001f0 64 4c 96 bb 34 18 b2 3c e1 af aa 3c 9a b5 09 bc
       -0.004586743 0.021740057 0.020835819 -0.008405114
000200 1e 9f aa bc 86 5c 15 3c d2 80 a0 bb d8 a9 ce 3b
       -0.020827826 0.009116298 -0.004898169 0.006306868
000210 4f 5e 26 3c 61 b5 96 3b 77 f1 0b 3d 95 f7 94 3c
       0.010154321 0.004599259 0.034165826 0.018184463
000220 f1 97 a8 bb 5c 25 95 bc bf b5 ab 3c 1b 26 63 ba
       -0.005145066 -0.01820629 0.020960687 -0.0008665041
000230 17 41 a1 ba 5e ed e9 3c cc 4c 91 3b 0e 0e fb 3b
       -0.0012302723 0.028555568 0.0044342037 0.0076615876
000240 09 98 ba bb c2 1b 02 bc 84 b9 27 bb 8c 79 39 3b
       -0.0056943935 -0.007941188 -0.0025592754 0.0028301207
000250 13 0c a4 bc 15 7d 01 3c 38 ba 08 3c 91 ad bc 3b
       -0.020025289 0.007903357 0.008345179 0.0057579954
000260 19 79 a9 3c 44 86 98 bb 17 e6 ce bb c6 07 78 bc
       0.020687627 -0.0046546776 -0.00631405 -0.015138572
000270 21 cb 4c 3b c4 7a cf 3b 51 f0 8f bb 10 5d 11 bc
       0.0031249004 0.0063317735 -0.0043926616 -0.0088722855
000280 d3 a4 d3 bb a9 bb 76 3c 57 68 c1 bc bb c2 fe bb
       -0.0064588576 0.01505939 -0.023609323 -0.0077746785
000290 fe bd 23 3c c4 b9 b7 bc 6a f3 2f 3c d9 fd 49 bc
       0.009994028 -0.022427447 0.010739187 -0.012328588
0002a0 12 8e d5 bc f4 91 8c 3b dd f8 b5 bb 20 16 2f 3a
       -0.026068721 0.00428986 -0.0055533485 0.0006679017
0002b0 9a 6d dc 3c 09 c6 c4 3b 0d bb d6 3a 25 48 2d 3b
       0.02690773 0.006005053 0.001638265 0.0026440707
0002c0 70 37 26 3a 48 b0 9f bb 69 14 91 bb fd d9 6e 3c
       0.00063406583 -0.0048733093 -0.004427482 0.01457834
0002d0 f3 85 87 bc 4f 00 07 bc 22 0b d5 3b 6b bc 2f bc
       -0.016543364 -0.00823982 0.0065015713 -0.010726075
0002e0 68 3f 0c bc 57 f5 4f bc 70 09 77 3c 6c 82 06 b9
       -0.008560039 -0.012692771 0.015077934 -0.00012827822
0002f0 b7 cb 50 bb 0a eb 3f 3c 44 74 f4 ba 77 bb 0e bc
       -0.0031859705 0.0117137525 -0.0018650373 -0.008711687
000300 2a 55 b3 bc 11 a4 a7 bc 9e 72 3d bc 42 60 e0 bb
       -0.021891195 -0.020463975 -0.011562971 -0.0068474123
000310 fd be cb 3b 5f bf 7d 3c 35 57 73 bc 2c 14 dc bc
       0.006217836 0.015487521 -0.014852335 -0.026865087
000320 b2 30 a6 bc 36 46 82 3b bb 3b bd bc f8 69 13 bc
       -0.020286892 0.003975655 -0.02309977 -0.008997433
000330 60 de f7 3b d4 b1 4e bc 1a a7 b9 bc e8 e5 25 3b
       0.007564351 -0.01261564 -0.022662688 0.0025314037
000340 38 84 9c 3c e0 ea 20 3c 61 6f de bb fe bc d0 ba
       0.019106016 0.009821624 -0.0067881797 -0.0015925465
000350 9c 34 3a 3c bb 38 86 3b d7 c6 be bc a7 39 25 bc
       0.011365082 0.0040961183 -0.023288174 -0.010084546
000360 cf 5b 88 bb 19 86 87 bc 79 db 3e bb f9 a2 22 3d
       -0.004161335 -0.016543435 -0.0029122515 0.039706204
000370 82 dd 0e 3c 72 6b d6 bb 97 e2 2c bb 3c b5 8c bb
       0.008719804 -0.00654357 -0.0026380175 -0.0042940658
000380 d8 d4 c4 3a 64 2a ab 3c cf f8 b1 bb e8 5a fc 3b
       0.0015017046 0.020894237 -0.0054312716 0.0077012666
000390 05 a4 25 bc 8c 7f 0a bc d0 58 29 bb 7c 00 a8 bc
       -0.010109906 -0.008453261 -0.002584029 -0.020508043
0003a0 ab 79 b0 bc a7 15 80 bc 71 d2 ac bc 58 e4 84 3c
       -0.02154239 -0.015635325 -0.02109644 0.016222164
0003b0 15 69 95 3b da 83 cb bc f7 36 c4 bc 75 ad ee 3b
       0.004559646 -0.024843145 -0.02395199 0.0072838613
0003c0 64 a2 03 bd 87 fd 7d bc b0 a3 9e 3c a4 30 1c 3c
       -0.03213729 -0.01550234 0.019365162 0.009533081
0003d0 54 eb a6 bc 81 93 aa ba e8 cc 20 ba b0 cc 3c 3c
       -0.020375885 -0.001301393 -0.0006134049 0.011523411
0003e0 02 29 3a 3b ed be bf bb 9b 0f 8a 3c 40 56 9d 3c
       0.002840579 -0.0058516175 0.016853144 0.019206166
0003f0 3c 25 7b bb 3d b1 73 3c bf 22 06 bc f8 57 3d 3c
       -0.0038321754 0.0148738 -0.008186995 0.011556618

fc.weight_g f4 [345, 1]
000000 47 28 36 3f 6f 57 2e 3f 1a d9 47 3f 5b 25 47 3f
       0.7115521 0.68102163 0.78065646 0.77791375
000010 16 cd 03 3f d3 fc 3e 3f 17 92 3f 3f 2d aa 3e 3f
       0.5148481 0.7460453 0.7483229 0.7447842
000020 bc 33 f4 3e c3 64 3e 3f b1 93 55 3f 71 08 4a 3f
       0.4769572 0.743725 0.83428484 0.7891913
000030 99 72 45 3f ea f4 30 3f a0 8b 45 3f 0b 95 2f 3f
       0.7712799 0.6912371 0.77166176 0.68586797
000040 5a 9c 03 3f 2a c8 25 3f a6 3d 43 3f 70 91 32 3f
       0.5141045 0.6475855 0.76265943 0.6975317
000050 88 2e 46 3f 62 5c 4b 3f 5f 85 56 3f c7 ed 49 3f
       0.7741475 0.7943784 0.8379726 0.78878444
000060 d1 49 51 3f f2 05 5b 3f 16 38 4d 3f b8 af 6f 3f
       0.8175326 0.85555947 0.80163705 0.936275
000070 a1 02 63 3f 96 d3 4d 3f 46 79 46 3f 1e e1 6d 3f
       0.88675886 0.8040098 0.775288 0.92921627
000080 a6 05 43 3f c2 a6 5e 3f 02 36 6b 3f 82 4d 75 3f
       0.76180494 0.869732 0.91879284 0.9582139
000090 c7 b2 73 3f 47 fd 65 3f 66 d8 45 3f a6 f9 62 3f
       0.9519467 0.89839596 0.7728332 0.88662183
0000a0 71 6a 67 3f a4 9e 5e 3f b6 52 67 3f 15 fd 4b 3f
       0.9039679 0.86960816 0.9036058 0.7968305
0000b0 fe 0d 5f 3f 39 08 42 3f 19 73 4e 3f e1 b4 56 3f
       0.87130725 0.75793797 0.80644375 0.8386975
0000c0 99 a0 00 3f 95 e0 4d 3f b8 2d 5c 3f 85 c2 63 3f
       0.5024505 0.8042081 0.8600726 0.8896869
0000d0 eb 83 3c 3f 78 49 1e 3f 2a 83 51 3f ba c2 46 3f
       0.7363879 0.61830854 0.81840765 0.7764088
0000e0 e4 b6 1e 3f f5 7f 46 3f c9 b4 5a 3f 86 ec 3f 3f
       0.6199782 0.77538997 0.85432106 0.7497028
0000f0 a7 8d 57 3f 94 ec 50 3f b0 6d 54 3f 12 bf 4e 3f
       0.8420052 0.8161099 0.8297987 0.807603
000100 b6 75 52 3f 2b d0 2e 3f c3 b3 40 3f ea bd 55 3f
       0.8221086 0.6828639 0.75274295 0.8349291
000110 2b 76 36 3f 5f a3 47 3f ca c4 59 3f 44 68 34 3f
       0.7127406 0.7798366 0.850659 0.70471597
000120 c9 b5 43 3f db 8b 55 3f 22 25 3a 3f cd ed 57 3f
       0.7644926 0.8341653 0.7271291 0.8434723
000130 36 7e 31 3f 2e 5e 49 3f 8a 93 5e 3f 0a 12 5a 3f
       0.6933321 0.7865933 0.86943877 0.85183775
000140 69 5b 50 3f 1d ad 4b 3f 0b 24 5c 3f 46 8e 56 3f
       0.8138948 0.79561025 0.859925 0.8381084
000150 5b 7d 56 3f 35 3f 28 3f 62 7d 4c 3f 1b f6 50 3f
       0.8378503 0.65721446 0.7987882 0.8162553
000160 e3 07 56 3f b5 15 4f 3f 8e 4a 63 3f 05 76 59 3f
       0.83605784 0.808925 0.88785636 0.8494571
000170 7a 5b 53 3f 73 fc 53 3f 37 02 46 3f 01 e6 4e 3f
       0.8256146 0.8280708 0.7734713 0.8081971
000180 7d 47 23 3f 71 62 62 3f 90 a0 54 3f 4e 73 43 3f
       0.6378096 0.8843146 0.830575 0.76347816
000190 b1 f5 50 3f a2 01 4e 3f 94 99 5c 3f c0 23 51 3f
       0.81624895 0.8047124 0.8617184 0.81695175
0001a0 18 89 57 3f ac 79 53 3f bf b6 5f 3f 25 55 4d 3f
       0.84193563 0.8260753 0.87388223 0.80208045
0001b0 39 6a 58 3f d3 ec 4f 3f 9f d6 50 3f 41 0e 5a 3f
       0.8453708 0.8122074 0.81577486 0.85178
0001c0 e6 3a 6c 3f 5d b0 4f 3f e4 2a 4c 3f 4a 7d 4e 3f
       0.9227737 0.81128484 0.79752946 0.80659926
0001d0 a7 b4 4e 3f cd 32 4b 3f 3f 39 4a 3f 9d 70 54 3f
       0.80744404 0.7937439 0.789936 0.82984334
0001e0 41 e5 39 3f 3b 87 38 3f 91 92 4d 3f bd a8 5d 3f
       0.7261544 0.72081345 0.8030177 0.865856
0001f0 e8 48 4b 3f 21 fa 51 3f 8d 45 3e 3f c1 9f 60 3f
       0.7940812 0.8202229 0.74324876 0.87743765
000200 3f f4 60 3f 1d eb 4b 3f 3d 99 4e 3f 20 ab 4a 3f
       0.8787269 0.7965563 0.80702573 0.79167366
000210 b2 a7 60 3f da 89 3c 3f 9e 28 46 3f e6 27 49 3f
       0.8775588 0.73647845 0.77405727 0.78576505
000220 5f d5 47 3f 37 bc 65 3f 9c 83 50 3f 3c 8b 50 3f
       0.78059953 0.8974032 0.8145082 0.81462455
000230 ff e7 57 3f 46 64 49 3f 4b 36 5e 3f 58 a4 57 3f
       0.8433837 0.7866863 0.86801594 0.84235144
000240 54 a0 5b 3f 8b 5b 4d 3f b6 2a 48 3f c4 a0 55 3f
       0.85791516 0.8021781 0.7819017 0.83448434
000250 4f f5 5d 3f 83 5b 52 3f 21 dc 52 3f 79 10 5e 3f
       0.86702436 0.82170886 0.8236714 0.86743885
000260 79 e7 2c 3f 71 35 40 3f 3d 49 4d 3f 41 a9 4d 3f
       0.675407 0.75081545 0.8018988 0.80336386
000270 e8 4c 5f 3f 83 b8 3f 3f 2f 4d 5f 3f 62 f3 52 3f
       0.87226725 0.7489092 0.8722715 0.8240262
000280 3d 44 41 3f 8e aa 41 3f ab 88 61 3f 2e 39 53 3f
       0.7549475 0.7565087 0.88099164 0.82509124
000290 22 36 48 3f 88 c1 57 3f 7e 9e 3a 3f 39 07 4c 3f
       0.782076 0.8427968 0.7289809 0.7969852
0002a0 48 80 68 3f 0b 85 33 3f 5b f3 5e 3f 6d 29 56 3f
       0.9082074 0.7012488 0.8709008 0.8365696
0002b0 8d 5a 43 3f e3 96 1a 3f c5 08 45 3f 0a a7 43 3f
       0.76310045 0.60386485 0.76966506 0.76426756
0002c0 96 3d 57 3f 7a 59 59 3f 8b 3f 60 3f e7 b0 4a 3f
       0.8407835 0.84902155 0.8759696 0.7917618
0002d0 ee 8e 48 3f 99 49 49 3f 63 b1 54 3f 1c ca 4f 3f
       0.78343093 0.78627926 0.8308317 0.8116777
0002e0 9d 6c 56 3f 85 57 3e 3f e4 1b 51 3f b4 59 4b 3f
       0.8375948 0.74352294 0.8168318 0.7943375
0002f0 71 0b 4f 3f 35 25 59 3f 56 b4 66 3f 6a 7a 2c 3f
       0.80876833 0.848224 0.9011892 0.6737429
000300 7c 01 4c 3f a3 74 5a 3f df de 5c 3f 90 dd 68 3f
       0.79689765 0.85334224 0.86277574 0.9096308
000310 3a fc 56 3f c8 b2 50 3f bf 68 4a 3f 8a da 60 3f
       0.8397862 0.815228 0.7906608 0.87833464
000320 a3 be 5a 3f 28 84 5a 3f 6f a6 5d 3f c5 6d 52 3f
       0.8544714 0.85357904 0.8658208 0.82198745
000330 9f d9 52 3f 14 9b 55 3f 51 81 60 3f 9f b4 32 3f
       0.82363313 0.83439755 0.8769732 0.69806856
000340 0c 53 4d 3f e4 27 38 3f e7 e4 5b 3f df f7 5d 3f
       0.80204844 0.7193587 0.8589615 0.86706346
000350 ec 4e 5e 3f ae 4a 56 3f 14 1a 56 3f d9 3b 52 3f
       0.86839175 0.837077 0.8363354 0.8212257
000360 62 fa 57 3f 01 c4 54 3f cc 77 5a 3f 55 40 3f 3f
       0.8436643 0.8311158 0.85339046 0.7470754
000370 8a 5c 49 3f df 78 31 3f 99 b1 55 3f 73 7a 57 3f
       0.7865683 0.6932506 0.8347412 0.8417122
000380 73 8c 59 3f 7e 48 4a 3f 65 ae 4c 3f 3b b7 51 3f
       0.84979934 0.79016864 0.79953605 0.8192021
000390 e2 06 61 3f 90 f4 5e 3f 8b 28 5b 3f cc 7d 65 3f
       0.8790113 0.8709192 0.8560874 0.89645076
0003a0 4e 90 64 3f 02 c9 5e 3f f0 18 57 3f 09 6a 53 3f
       0.8928269 0.87025464 0.84022427 0.8258367
0003b0 66 f6 4b 3f 14 da 4c 3f 7b 9d 4d 3f 07 e6 25 3f
       0.7967285 0.8002026 0.8031842 0.6480412
0003c0 56 b8 69 3f 85 fe 5d 3f 26 3b 4b 3f 11 c8 45 3f
       0.912969 0.8671649 0.7938713 0.772584
0003d0 ad b8 63 3f d5 98 56 3f 76 c2 49 3f 18 69 3d 3f
       0.8895367 0.83826953 0.7881235 0.73988485
0003e0 97 bb 4f 3f 74 ae 2b 3f 3e 45 43 3f b3 82 3f 3f
       0.81145614 0.6706307 0.7627753 0.74808806
0003f0 3d 64 53 3f ba 20 3c 3f 92 9e 45 3f 19 5d 4b 3f
       0.82574826 0.73487437 0.77195084 0.7943893

fc.weight_v f4 [345, 256]
000000 80 a9 74 bb 9d 0e 90 bc 10 ac b9 bc ce 40 84 bb
       -0.0037332475 -0.017585093 -0.022665054 -0.0040360456
000010 42 84 2e 3c cd 22 a0 bc 6a bd 68 3c 68 f3 8e 3b
       0.01065165 -0.019547844 0.014205316 0.0043625124
000020 4b d4 da bb ac a8 62 bb 0e 3e 32 3c c5 de 98 bc
       -0.0066781393 -0.00345854 0.010879053 -0.018660912
000030 7a ed 5b 3b 5a 2e 53 bb e5 15 db bb c1 a7 c9 3b
       0.0033558295 -0.0032223673 -0.0066859596 0.006154031
000040 20 c9 67 3b e2 74 0b bc f3 24 1d bb 3e 58 f9 3b
       0.0035367683 -0.008511754 -0.0023978322 0.0076093962
000050 ee 67 1b 3c aa d0 ff 3b 40 9c 45 3c 95 aa ac 3b
       0.009485228 0.007806857 0.012061179 0.0052693584
000060 32 44 d3 bb b5 b7 6f bb 56 e8 8b bc 61 42 06 3c
       -0.0064473385 -0.0036578004 -0.01707856 0.008194537
000070 66 05 92 3b cc 9c 11 3c 6e 71 93 3a 30 7a df bb
       0.00445621 0.008887481 0.0011249015 -0.006819986
000080 cd 96 75 3c 41 40 e5 3b 52 46 2c bc d6 fa 6f ba
       0.014989567 0.006996185 -0.010514813 -0.0009154504
000090 09 18 c9 bb 6d bf 55 bc 81 fe 88 3c 72 f4 84 3c
       -0.0061368984 -0.013046128 0.01672292 0.016229842
0000a0 cd 34 1e b9 53 b8 02 3b de df 8e 3c 8f a9 93 bb
       -0.00015087724 0.0019946292 0.017440733 -0.004506297
0000b0 98 bc fd ba 8d fc 22 3b a5 98 ad 3b c8 82 a0 bc
       -0.0019358573 0.002486977 0.0052977377 -0.019593611
0000c0 03 78 85 bc 01 94 e8 3a 1f e0 45 3c 2c 86 0e 3c
       -0.016292578 0.0017744304 0.01207736 0.008698981
0000d0 7e f8 c9 ba 58 6b cf 3b aa 7c 16 3c cf fa 57 bc
       -0.001540914 0.006329935 0.009184996 -0.013182356
0000e0 2e f0 e9 3b 23 11 e5 3a 80 ae 30 3b 0a 4a 82 ba
       0.0071392274 0.0017476421 0.002695948 -0.0009940278
0000f0 14 78 a8 3b 60 06 48 3b a7 f0 14 bb f7 92 57 3c
       0.0051412676 0.0030521378 -0.0022726448 0.013157598
000100 2c fd 5a bc a5 a5 74 3c a0 b5 f7 bb a5 98 77 bb
       -0.013366025 0.014932071 -0.007559493 -0.0037780192
000110 6d 6d 18 3c 5c 02 54 3c 76 4e 3f bc 9d 3e 61 bc
       0.009303433 0.012940016 -0.011676421 -0.013747838
000120 65 eb 47 bc b8 5b f5 bb 37 ab 9c bc 03 d2 a5 3c
       -0.0122021185 -0.0074877404 -0.01912461 0.020241743
000130 b4 61 0c ba 82 55 26 bb 9a 58 35 3c 78 b7 00 bc
       -0.0005355135 -0.0025380556 0.011068488 -0.007856242
000140 c4 6c 47 ba 5b d1 c8 ba c2 0a af ba b6 92 52 bc
       -0.0007607455 -0.0015321182 -0.0013354647 -0.012852361
000150 36 6d 5f bb fd f8 45 3b 9e d4 eb 3b 8c 96 98 bb
       -0.0034092194 0.0030208223 0.007196977 -0.0046566185
000160 fe 96 1d 3c 82 86 e4 37 7e 04 b5 bb e3 4e 71 bc
       0.009618519 2.7242353e-05 -0.005524217 -0.014728281
000170 29 38 e5 bb 99 f7 f6 3b 19 4d aa 3a 5e 1e 65 3c
       -0.00699522 0.00753684 0.0012992948 0.013984291
000180 b3 26 16 bc 32 cf 15 3c e2 b6 16 bc ac e5 36 3c
       -0.0091645 0.0091436375 -0.009198876 0.0111631565
000190 c2 c4 5b bc cb 43 55 b9 a4 3c 40 3b 87 8c 54 3c
       -0.01341361 -0.00020338518 0.002933302 0.012972957
0001a0 44 66 b3 bb a1 37 91 3c 53 59 6b bc ea a9 eb 3b
       -0.0054748375 0.017726721 -0.014364558 0.007191886
0001b0 1f eb 04 bb 68 6f 05 bb 96 92 1f 3b 5d 6d 87 3c
       -0.0020281745 -0.0020360593 0.0024348847 0.01653164
0001c0 a5 f7 51 bb 0d ae eb 3a ec 88 8f 3c d4 e5 3b bb
       -0.0032038477 0.0017980948 0.017521344 -0.0028670924
0001d0 7a 10 54 3c 7f d6 82 3c 5c 74 a6 3b a3 f5 bd 3b
       0.012943381 0.01597142 0.005079789 0.0057971044
0001e0 f2 be dd 3b d0 7e 36 bb 7b 7f 93 bc 6b 27 76 bc
       0.006767147 -0.0027846582 -0.018005123 -0.015024046
0001f0 81 c7 df 3b 17 dd c3 bb 6f 21 8a 39 0d 64 68 3c
       0.0068292026 -0.0059772837 0.0002634632 0.01418401
000200 6a a7 ad bb 5e 17 9a bc 4d 74 22 bc 0b e9 3f bc
       -0.0052994983 -0.01880997 -0.009915424 -0.011713277
000210 0c 9c 7b bc 9a 23 5f bc 33 26 88 bc e4 15 13 bc
       -0.015357029 -0.013619328 -0.016619777 -0.008977387
000220 e3 dc a2 3b f7 f1 ba bb 81 8b c9 bb b7 c6 33 3c
       0.0049701794 -0.005705114 -0.0061506634 0.01097267
000230 6e 1e e5 bb 05 e9 fd bb 86 ea 23 3c 2a 74 7a 3c
       -0.006992153 -0.0077487254 0.010004645 0.015286485
000240 5c 3a 94 b9 8f c0 cf ba bc 96 0b 3b 37 cc 9f ba
       -0.0002827224 -0.0015850234 0.0021299561 -0.0012191598
000250 d0 33 31 bb 33 e3 43 3c 2f 9e a6 ba 8a 7c 19 3c
       -0.002703894 0.011956024 -0.0012711937 0.009368071
000260 37 2a f9 3b bf 12 93 ba 79 aa ee 3b 88 b0 fd ba
       0.0076039094 -0.0011220797 0.0072835055 -0.0019354979
000270 df a4 ee bb d6 05 50 3b 98 2b f2 3a 34 47 1b bb
       -0.0072828378 0.003174176 0.0018476127 -0.0023693563
000280 66 d3 53 bb 0e 7a 52 3c 7c 71 a1 3b c5 5e 77 3b
       -0.0032322048 0.012846483 0.0049268585 0.0037745696
000290 5f 2b 3a bc 5f ff 98 bc db 05 87 3c b5 34 e4 bb
       -0.01136288 -0.018676458 0.016482284 -0.006964291
0002a0 fb ae 47 bc 58 87 53 3c 19 10 35 3b 16 2a 34 3c
       -0.012187715 0.012910686 0.0027628003 0.010996362
0002b0 7e d5 2d 3c d5 7f 7b 3b 5e 64 49 bc 0f 6d 68 3b
       0.010609983 0.0038375754 -0.012291996 0.0035465395
0002c0 05 b1 aa 3c 6f b5 3f bc 7c 44 5e bb 28 f0 59 bc
       0.020836363 -0.011700972 -0.0033915332 -0.013301887
0002d0 66 29 b4 ba 72 9c af ba 94 49 91 3b 5d 19 81 3b
       -0.0013745248 -0.0013398065 0.00443382 0.003939791
0002e0 9b 9c cb 3a 31 75 08 bb 4d 20 0d bb b0 37 92 bc
       0.0015534343 -0.0020821805 -0.0021534145 -0.01784882
0002f0 8b 66 10 bc 9a 87 53 3c 16 56 ed bb 69 c5 d9 bb
       -0.008813511 0.012910748 -0.0072429283 -0.0066458476
000300 a5 92 22 bc c6 84 d5 3b cd c1 76 bc 7e 7c 9e 3c
       -0.009922658 0.006516072 -0.015060854 0.019346472
000310 02 8e b7 39 75 33 c4 bb a6 c6 7a 3c d9 8b 10 bc
       0.00035010284 -0.0059875795 0.015306151 -0.008822405
000320 33 92 9f 3c 7b 1a 44 3c 64 97 6f 3b de 52 87 bc
       0.019478893 0.011969204 0.0036558742 -0.016519006
000330 4a 6e 0e 3b bc 04 60 3b 59 c1 a1 3b d0 66 db 3b
       0.0021733218 0.003418251 0.004936379 0.006695606
000340 a6 2c b3 3b 9d 22 48 3c 50 48 ce bb 3d c6 60 3b
       0.005467969 0.012215284 -0.0062952414 0.0034297847
000350 4f a2 0b bc e0 ac 0a 3c 30 54 80 bc 7a 96 1e bc
       -0.008522584 0.008464068 -0.015665144 -0.009679431
000360 a5 77 6e 3c 64 72 09 bc da 63 4f b9 f7 65 8c 3c
       0.014554893 -0.008389089 -0.00019778256 0.017138464
000370 a7 a1 11 bc 8b a4 22 bc 09 d7 22 3c b0 27 a6 3a
       -0.008888639 -0.009926925 0.009938964 0.0012676623
000380 03 29 77 3b 89 5b 28 bc 56 e5 a5 3a 99 04 1d bc
       0.0037713654 -0.01027573 0.0012656848 -0.009583616
000390 40 f4 11 bc b6 63 29 bb 50 c4 02 3c 5d 03 5d 3c
       -0.008908331 -0.0025846786 0.007981375 0.013489571
0003a0 0d 69 0d 3c 14 70 b1 bb dd 92 7a 3c 3d 8f 15 bc
       0.008631003 -0.005414972 0.015293804 -0.009128389
0003b0 9c f1 05 3c b8 c6 24 3c 4f 76 ca 3b e0 3d 85 3a
       0.00817528 0.010057144 0.0061786543 0.0010165535
0003c0 94 d0 8b bc 46 81 c1 bb ad 4d c2 39 8f c7 e6 b9
       -0.017067231 -0.005905303 0.00037060436 -0.000440177
0003d0 f8 10 33 bc 30 e2 83 3c 5d 6d 76 3c 9d 49 6f 3c
       -0.010929339 0.016099066 0.015040723 0.014604953
0003e0 3d bb 26 bc 56 3b 89 3b 1b ac a0 bb 31 b7 59 bb
       -0.010176477 0.0041879816 -0.004903329 -0.0033220763
0003f0 14 a2 bc 3a be 9b 59 bc 95 95 5a 3b 91 49 44 3c
       0.0014391565 -0.013281761 0.0033353318 0.01198043
