ckps/source/uda/office-caltech/webcam_1/source_C.pt (torch, 5290 bytes, 3 tensors)

fc.bias f4 [3]
-0.07585195 0.00516631 0.07068576
00000000: 4458 9bbd 264a a93b b2c3 903d

fc.weight_g f4 [3, 1]
0.41229415 0.52612114 0.45851097
00000000: 3818 d33e e0af 063f f3c1 ea3e

fc.weight_v f4 [3, 256]
-0.108626254 0.021296786 -0.01754659 -0.03520116 0.032386594 -0.06479729 0.0023763124 -0.016844746
0.017827787 0.033259302 -0.096219875 -0.021238128 -0.07282761 -0.04388852 -0.0031642776 -0.013351086
-0.0668213 0.056912236 -0.06678408 0.049344957 0.016321221 0.09313451 -0.0029887815 0.019130645
-0.013132837 0.08215609 -0.049866494 0.013198696 -0.006773569 -0.06021856 -0.010587493 0.0028816662
-0.022051482 0.03251143 0.011157872 0.02932094 -0.045870144 -0.051851496 -0.052356873 -0.08552355
-0.003789673 0.0023289314 -0.035752147 0.04854368 0.02232543 -0.019897392 -0.032530162 0.020371944
0.087526895 -0.008133194 -0.0580734 0.053432234 -0.007675101 -0.015025708 -0.006599679 0.03840206
-0.029050656 0.010249687 0.021774136 0.014615098 0.0075904895 0.014460637 0.05307826 0.029318405
0.004935131 0.019369114 -0.019027391 -0.0387147 0.017047605 0.026361791 -0.022778632 -0.017809197
0.01940507 0.0037431167 -0.05433465 0.046365768 0.034362484 -0.09590554 -0.018288886 0.0033405991
-0.017107999 0.056686573 -0.07740517 0.033885248 0.0042036627 0.0051551214 -0.0053986046 0.019425416
-0.031586036 0.0035708793 0.0078112236 0.060724676 0.057815704 -0.06947444 -0.009521114 0.036842752
0.04096538 0.0037508116 -0.01182547 -0.01937903 -0.02306678 -0.027510753 0.015483188 -0.027733961
0.0042203455 0.012197295 -0.035919596 0.016911544 0.047414623 0.05620009 0.03624477 -0.00017042467
-0.06389272 -0.0056008385 0.012318822 -0.07136181 0.05803727 0.011216499 0.08586164 -0.0338454
-0.09679524 -0.01994594 -0.09072014 0.056194972 -0.024236325 -0.06286556 0.046039637 -0.014632957
-0.0042137043 -0.026888896 -0.008380368 -0.009374907 0.031451486 0.040296428 0.043871406 0.032787472
0.06496244 -0.03732293 -0.007608888 -0.041479807 0.002737726 -0.045255993 0.04410282 0.007720499
-0.087657504 0.043804757 0.057917245 -0.065513164 -0.045877483 -0.072170295 0.0037164215 0.062288567
0.051292256 -0.043078028 0.022604339 0.0077839084 0.03933959 -0.05292875 0.033712417 0.019243635
0.013119938 0.06254493 0.0034655968 -0.04097242 -0.11036396 0.0072853854 0.047540817 0.06550361
-0.036976144 0.008571359 -0.03638807 0.023803033 -0.005697744 -0.041214738 -0.01570021 -0.09263812
-0.035693128 0.079414494 -0.0038841376 -0.006059333 0.03433521 0.0063058226 -0.024521964 -0.010583256
0.042201288 0.06374331 -0.02445033 -0.03246929 -0.026818488 -0.014326922 -0.0014268421 -0.023440503
0.07874795 0.000803192 0.08672337 -0.065656126 -0.04831484 -0.022418661 0.008276025 -0.030002309
0.043327417 0.062883385 0.06401155 -0.042337116 -0.044264205 0.07862284 0.030269539 -0.02418952
-0.041482337 0.018249638 0.03003747 0.017758839 0.031576566 0.06487718 0.04832654 -0.017265532
0.04354025 0.0048495415 0.052868485 -0.034181252 -0.037754893 -0.077151075 0.004886663 0.0019021264
-0.02138453 -0.016832547 0.025651075 -0.034284085 0.07166602 0.044311088 -0.06572811 0.036590863
0.04013786 -0.037724197 -0.029057655 -0.0064210417 -0.07279649 -0.0714882 0.026953084 -0.015560958
0.0010457437 0.012336937 -0.0047723395 -0.1096666 0.043795705 0.014566546 0.05184476 0.06246063
-0.07589862 0.0025651485 0.004159618 -0.11845977 0.023310564 0.035951875 0.07440275 -0.02773534
00000000: 7177 debd 9976 ae3c debd 8fbc 172f 10bd
00000010: cea7 043d 71b4 84bd e8bb 1b3b fefd 89bc
00000020: 940b 923c e83a 083d ed0e c5bd 95fb adbc
00000030: a426 95bd 73c4 33bd c55f 4fbb 83be 5abc
00000040: 9bd9 88bd ce1c 693d 17c6 88bd f01d 4a3d
00000050: 15b4 853c 4ebd be3d 6fdf 43bb dfb7 9c3c
00000060: 1c2b 57bc 7441 a83d cf40 4cbd 583f 583c
00000070: d1f4 ddbb bda7 76bd 2a77 2dbc 56da 3c3b
00000080: 4fa5 b4bc b52a 053d 82cf 363c 7832 f03c
00000090: 55e2 3bbd 3c62 54bd 2974 56bd f926 afbd
000000a0: 2a5c 78bb fca0 183b d870 12bd bdd5 463d
000000b0: d2e3 b63c dbff a2bc 593e 05bd 10e3 a63c
000000c0: 4d41 b33d 1741 05bc 60de 6dbd c2db 5a3d
000000d0: 6a7f fbbb 632e 76bc 1f42 d8bb 7a4b 1d3d
000000e0: a4fb edbc 4eee 273c ac5f b23c 2a74 6f3c
000000f0: a4b9 f83b 4fec 6c3c 9768 593d 272d f03c
00000100: e1b6 a13b faab 9e3c 55df 9bbc 4e93 1ebd
00000110: 6ba7 8b3c aff4 d73c 419a babc 98e4 91bc
00000120: 62f7 9e3c 144f 753b 038e 5ebd 08ea 3d3d
00000130: adbf 0c3d 206a c4bd 93d2 95bc f4ed 5a3b
00000140: 1326 8cbc 2e30 683d 9a86 9ebd 42cb 0a3d
00000150: e1be 893b 4bec a83b c7e6 b0bb 0d22 9f3c
00000160: 5c60 01bd 6a05 6a3b 4bf5 ff3b 70ba 783d
00000170: 29d0 6c3d 9d48 8ebd 72fe 1bbc 6de8 163d
00000180: 50cb 273d 2dd0 753b 9ebf 41bc c6c0 9ebc
00000190: 8bf6 bcbc 3b5e e1bc 33ad 7d3c 5532 e3bc
000001a0: d34a 8a3b 2ad7 473c 6d20 13bd 148a 8a3c
000001b0: d635 423d 1132 663d 6575 143d 06b4 32b9
000001c0: 30da 82bd 3d87 b7bb e2d4 493c 2426 92bd
000001d0: 7db8 6d3d 68c5 373c 3ad8 af3d 79a1 0abd
000001e0: 953c c6bd ab65 a3bc 7bcb b9bd b32c 663d
000001f0: 428b c6bc a9bf 80bd 0f94 3c3d 12bf 6fbc
00000200: 1d13 8abb 1a46 dcbc d04d 09bc 3699 19bc
00000210: 46d3 003d de0d 253d 81b2 333d 284c 063d
00000220: 070b 853d eedf 18bd fb53 f9bb bbe6 29bd
00000230: 6c6b 333b 595e 39bd 29a5 343d 3dfc fc3b
00000240: c785 b3bd 9e6c 333d a23a 6d3d c42b 86bd
00000250: 07ea 3bbd 05ce 93bd 358f 733b 4c22 7f3d
00000260: d417 523d 9672 30bd bc2c b93c 2810 ff3b
00000270: 8d22 213d d1cb 58bd 0816 0a3d d4a4 9d3c
00000280: 02f5 563c 8e17 803d 111f 633b b2d2 27bd
00000290: 8006 e2bd 3eba ee3b 29ba 423d c226 863d
000002a0: 4c74 17bd e36e 0c3c a80b 15bd 94fe c23c
000002b0: 24b4 babb c9d0 28bd ba9d 80bc 0eb9 bdbd
000002c0: f532 12bd 11a4 a23d 048d 7ebb 5f8d c6bb
000002d0: 14a3 0c3d 13a1 ce3b 49e2 c8bc 6565 2dbc
000002e0: 42db 2c3d da8b 823d 0f4c c8bc 85fe 04bd
000002f0: 72b2 dbbc 77bb 6abc e004 bbba 4c06 c0bc
00000300: 9b46 a13d 4d8d 523a 069c b13d b876 86bd
00000310: c8e5 45bd 57a7 b7bc 2a98 073c 67c7 f5bc
00000320: 1778 313d 01c9 803d 7d18 833d af69 2dbd
00000330: 624e 35bd 0305 a13d d3f7 f73c 1a29 c6bc
00000340: 62e9 29bd 4480 953c 2411 f63c fc7a 913c
00000350: 6e56 013d 54de 843d 0df2 453d 7270 8dbc
00000360: 4357 323d e7e8 9e3b a08c 583d a401 0cbd
00000370: e0a4 1abd 6201 9ebd 4d20 a03b c550 f93a
00000380: 9c2e afbc 69e4 89bc 3422 d23c 786d 0cbd
00000390: a2c5 923d 8b7f 353d 769c 86bd 4de0 153d
000003a0: 9967 243d b084 1abd 520a eebc 9a67 d2bb
000003b0: 5316 95bd 6868 92bd b7cc dc3c 63f3 7ebc
000003c0: 5611 893a dd20 4a3c 4961 9cbb e298 e0bd
000003d0: 2063 333d 86a8 6e3c 2c5b 543d b8d6 7f3d
000003e0: bc70 9bbd 0d1c 283b 684d 883b 099b f2bd
000003f0: ccf5 be3c 4642 133d 7860 983d 3935 e3bc
