ckps/source/uda/office-caltech/webcam_1/source_B.pt (torch, 532830 bytes, 6 tensors)

bn.weight f4 [256]
00000000: 4c6c 7d3f 6896 7d3f 63b8 7d3f da31 7d3f
00000010: 01e8 7c3f 7975 7d3f 2fa2 7d3f 6b25 7d3f
00000020: a777 7d3f 0f94 7d3f b728 7e3f b533 7d3f
00000030: 9bc3 7d3f 7399 7d3f f98c 7d3f e8aa 7d3f
00000040: 5c2e 7d3f 15b5 7d3f 3fa2 7d3f adbc 7d3f
00000050: 3f2b 7d3f 56c6 7d3f e144 7d3f d7ba 7d3f
00000060: f40e 7d3f cfae 7d3f ed35 7d3f 08e8 7c3f
00000070: 449b 7d3f a59f 7d3f d1b6 7d3f 96a3 7d3f
00000080: 8e7d 7d3f 6344 7d3f 9460 7d3f e1a0 7d3f
00000090: 86a5 7d3f 67d2 7d3f a70b 7e3f 485d 7d3f
000000a0: 90b6 7d3f 5aab 7d3f 648f 7d3f 23ae 7d3f
000000b0: 0fa9 7d3f 9b44 7d3f 6183 7d3f e2e8 7d3f
000000c0: 1e90 7d3f 9d7f 7d3f 713b 7e3f 9920 7e3f
000000d0: 0c84 7d3f 235f 7d3f 7d6e 7d3f 4b94 7d3f
000000e0: 7195 7d3f 6353 7d3f 6d72 7d3f 8c50 7c3f
000000f0: 1f94 7d3f 74a7 7d3f 909a 7d3f 27e9 7d3f
00000100: 7177 7d3f 88b1 7d3f 1208 7e3f 5f87 7d3f
00000110: 9e52 7d3f c4c9 7d3f 8bee 7d3f de82 7d3f
00000120: f81b 7d3f e050 7d3f f6ae 7d3f 2173 7d3f
00000130: 1c31 7d3f 4ff9 7d3f 332b 7d3f 854e 7d3f
00000140: e470 7d3f 1544 7d3f 9c47 7d3f 1fa4 7d3f
00000150: 772d 7d3f 33a8 7d3f 48c8 7d3f b805 7d3f
00000160: e68c 7d3f 167d 7d3f 500f 7d3f 84d7 7d3f
00000170: 4e73 7d3f bb32 7e3f b3a3 7d3f 5186 7d3f
00000180: 54d3 7c3f 6453 7d3f 4446 7d3f 1b93 7d3f
00000190: 708e 7d3f 3a60 7d3f c18c 7d3f b7a2 7c3f
000001a0: dde3 7d3f ff98 7d3f db59 7d3f c821 7d3f
000001b0: a3c2 7d3f 3a76 7d3f f854 7d3f 796d 7d3f
000001c0: 7f64 7d3f 6c39 7d3f c549 7d3f e589 7d3f
000001d0: 50cb 7d3f f795 7d3f 93a9 7d3f 51bb 7d3f
000001e0: 12b2 7d3f f484 7d3f dfb3 7d3f 44dc 7d3f
000001f0: 62f8 7c3f 531d 7d3f 7d9e 7d3f 736a 7d3f
00000200: 0c8f 7c3f d393 7d3f e873 7d3f 28b4 7d3f
00000210: 36de 7d3f bd50 7d3f 9fcf 7d3f 0dc7 7c3f
00000220: ea21 7d3f 888b 7d3f ac32 7d3f e894 7d3f
00000230: ee70 7d3f b3b5 7d3f f037 7d3f 839a 7d3f
00000240: b581 7d3f 410f 7d3f d147 7d3f fe87 7d3f
00000250: 8439 7e3f 298d 7d3f 8338 7d3f 027c 7d3f
00000260: f994 7d3f 5b63 7d3f 5fc2 7d3f d8b1 7d3f
00000270: 23b8 7d3f 82b2 7d3f 061a 7d3f e9a3 7c3f
00000280: e391 7d3f 9b3c 7d3f 9808 7e3f 8e1c 7d3f
00000290: ff8b 7d3f ad47 7d3f e880 7d3f 83ca 7d3f
000002a0: 2986 7d3f c5dc 7c3f a331 7d3f 3088 7d3f
000002b0: 50b1 7d3f 428c 7d3f 985b 7d3f 4794 7d3f
000002c0: c18e 7d3f 9c82 7d3f 975b 7c3f 8800 7d3f
000002d0: 8e78 7d3f fc78 7d3f b164 7d3f 2cc4 7d3f
000002e0: 32f3 7d3f c586 7d3f 843d 7d3f 458e 7d3f
000002f0: 3fa9 7d3f 90c7 7d3f 4f03 7d3f f154 7d3f
00000300: 69f5 7d3f f733 7d3f 5391 7d3f c89d 7d3f
00000310: 39b0 7d3f 0141 7d3f 38f3 7c3f 2691 7d3f
00000320: 3ba9 7d3f e4c1 7d3f aeb0 7d3f 0a91 7d3f
00000330: fb85 7d3f 48c5 7d3f 4c8c 7d3f 4d47 7d3f
00000340: 7e8b 7d3f 41fb 7d3f e8d4 7d3f 46b5 7d3f
00000350: acab 7d3f 7adc 7d3f bcae 7d3f f45f 7d3f
00000360: 73af 7d3f ebb3 7d3f a8bb 7d3f 8352 7d3f
00000370: b31f 7d3f 7e9f 7d3f 0d1a 7d3f e4a4 7d3f
00000380: 8dde 7c3f c27e 7d3f 1f9e 7d3f c877 7d3f
00000390: 1dbf 7d3f e11d 7e3f c349 7d3f 6271 7d3f
000003a0: 88f0 7c3f 9126 7d3f 4b77 7d3f e927 7d3f
000003b0: 1d87 7d3f c3af 7d3f 5a9c 7d3f 36eb 7c3f
000003c0: e789 7d3f 84af 7d3f 9197 7d3f 80b6 7d3f
000003d0: 533d 7d3f 855e 7d3f d0ca 7d3f 5f97 7d3f
000003e0: 268d 7d3f 2ea5 7d3f e763 7d3f 8a3e 7e3f
000003f0: d987 7d3f 4881 7d3f bc95 7d3f 77ae 7d3f
0.9899337 0.99057627 0.99109477 0.9890419 0.9879151 0.99007374 0.990756 0.9888522
0.990107 0.99054044 0.99280876 0.98907024 0.99126595 0.9906227 0.9904323 0.9908891
0.98898864 0.99104434 0.9907569 0.9911602 0.98894113 0.9913076 0.98933226 0.9911322
0.9885094 0.9909486 0.9891041 0.9879155 0.9906504 0.99071723 0.9910708 0.9907774
0.99019706 0.98932475 0.9897549 0.99073607 0.99080694 0.99149173 0.9923653 0.9897046
0.99106693 0.99089587 0.9904692 0.99093837 0.9908609 0.9893281 0.99028593 0.99183476
0.9904803 0.9902285 0.9930945 0.9926849 0.9902961 0.9897329 0.98996717 0.990544
0.99056154 0.98955363 0.99002725 0.98560405 0.9905414 0.9908364 0.9906397 0.9918389
0.9901038 0.99099016 0.99231064 0.99034685 0.9895419 0.99135995 0.9919211 0.9902781
0.988708 0.9895153 0.99095094 0.990038 0.9890306 0.9920854 0.9889404 0.98947936
0.9900038 0.9893201 0.9893739 0.99078554 0.988975 0.99084777 0.9913373 0.9883685
0.9904312 0.9901899 0.9885149 0.99156976 0.99004066 0.9929616 0.9907791 0.99033076
0.9875996 0.9895537 0.9893534 0.9905259 0.9904547 0.98974955 0.990429 0.98685783
0.99175817 0.9906158 0.98965234 0.9887967 0.9912512 0.99008524 0.9895778 0.98995167
0.9898147 0.98915744 0.9894069 0.99038535 0.99138355 0.99056953 0.99086875 0.9911395
0.9909984 0.99030995 0.99102587 0.99164224 0.988165 0.9887287 0.9906996 0.98990554
0.9865577 0.99053687 0.99004984 0.9910302 0.9916719 0.9895132 0.9914493 0.9874123
0.98879874 0.9904103 0.98905444 0.9905534 0.9900044 0.99105376 0.9891348 0.9906389
0.9902604 0.988514 0.9893771 0.9903563 0.9930651 0.9904352 0.98914355 0.99017346
0.9905544 0.9897973 0.9912471 0.99099493 0.99109095 0.99100506 0.98867834 0.9868761
0.9905073 0.989206 0.99231863 0.98871696 0.9904174 0.98937494 0.9902482 0.99137133
0.9903284 0.9877437 0.98903865 0.9903593 0.9909868 0.9904214 0.98967886 0.9905438
0.9904595 0.9902742 0.98577255 0.98828936 0.99012077 0.9901273 0.9898177 0.9912746
0.9919921 0.99033767 0.9892199 0.9904521 0.99086374 0.99132633 0.98833174 0.98957735
0.9920259 0.9890742 0.9904987 0.9906888 0.9909702 0.98927313 0.9880862 0.99049604
0.9908635 0.9912398 0.99097717 0.9904944 0.9903256 0.9912915 0.990422 0.9893692
0.99040973 0.9921151 0.99152994 0.99104726 0.99090075 0.99164546 0.9909475 0.9897454
0.9909584 0.9910266 0.99114466 0.9895403 0.98876494 0.9907149 0.98867875 0.9907973
0.98777086 0.9902154 0.990694 0.99010897 0.9911974 0.9926434 0.98940676 0.99001133
0.9880452 0.9888697 0.9901015 0.98889023 0.9903429 0.99096316 0.990667 0.98796403
0.9903855 0.9909594 0.99059397 0.991066 0.989217 0.9897235 0.9913759 0.990591
0.990435 0.9908017 0.98980564 0.9931418 0.9903541 0.9902539 0.990566 0.9909434

bn.bias f4 [256]
00000000: 5a8b 353b 0f29 47ba 1b48 9b39 8b90 853b
00000010: 7659 edba 0d2c 2c3b 068b 9aba f1cc 153b
00000020: 480b 4cbb 3f2d 3a38 2c83 083c 4cd6 d239
00000030: a356 1a3a 9472 a8b9 5849 303b 9f3a 8a3b
00000040: 31b2 ae3a 46b1 73b7 6ac9 d73a 4987 9dbb
00000050: 72bb db3a 46fc 92bb 7a6f 08bb f6af 17bb
00000060: 7c83 023b 67e8 5bbb 7040 1b3b aa54 8fb9
00000070: d51d 77bb 4ce9 413b 9360 21bb dbf3 353b
00000080: b099 0aba 6e80 c1ba 9f8f e8ba 70c1 b2bb
00000090: f251 773a 3cae 4c3b 0cf0 ba3b e969 a23b
000000a0: 3292 3a3a 46db 1bba ae3f 5d3b b145 9abb
000000b0: fbf7 49bb fc0b 043a f792 89ba 53da a2ba
000000c0: c6c8 79bb 5c38 253a d769 a23b c743 a4b9
000000d0: e3c2 1cbb bdf9 5abb cd3b 2db9 688b 36bb
000000e0: 3f38 30ba d08a 1b3b 45fe 133a a982 20bb
000000f0: f829 b93a 8d50 933a 8855 a1bb f83b 99bb
00000100: ace7 33bb 08cc 8cbb c5b5 04bb 053f 463b
00000110: ccc7 82ba 4aaf 6fbb 41d4 5539 b682 3ebb
00000120: faae 403b 6cb3 abba 1944 c13b 00d1 9abb
00000130: 5cf4 0cbb cf23 c23b f91a b83a 1bc1 4b3a
00000140: cd92 9a39 e48f 24bb fdfa ba3b bdfd 89bb
00000150: 1246 113a 6ec1 d5ba 8c7b 8bbb a459 54b9
00000160: 5e3d a03a 522d cab9 fbc0 ab3a b32c d5bb
00000170: 7f23 86bb 63b7 263b dba0 c1b8 976f 81bb
00000180: b8bc 9cbb e5ff 323b 9900 27bb a838 f5ba
00000190: fafd de3a 8ae9 1a3b 18d5 e03a 577c 3d3b
000001a0: 669d 8abb 8e6b caba 3d71 8c3b ece9 2cbb
000001b0: 9f6a 0cbb d635 96bb 8d4f ddba 8310 90bb
000001c0: 5e51 923a 5aab 17bb f814 043b d7f5 d53b
000001d0: 81ba f1ba d18e 78bb bf20 20bb d6bd 7f3b
000001e0: dfb9 2f3b 9629 0f3b d3b8 643b 2c40 6cbb
000001f0: cac6 083b 81e8 fb39 6128 e33a cef4 9dba
00000200: ae71 e53a f3e7 97ba c888 02bb d8d7 863b
00000210: d6bd c4bb 58cc 2738 6706 46bb 94df 3f39
00000220: a258 79ba dd3f 6c3a 9ba0 7d3a e48b 903b
00000230: a999 e43a 4eb7 823b e8e1 92bb 3105 163b
00000240: 9dd8 863b 00be 54bb d693 38bb f26f 393b
00000250: dd04 27bb 0ac2 773b ff39 40bb 698e 94bb
00000260: b920 1b3a 46a3 173a 8c65 e13a f48b 42bb
00000270: 0c84 53bb 0ee2 99ba 2134 9039 42b8 e53a
00000280: afdd 493a 252f 9fbb 2f6f 513a 1048 253a
00000290: 28c6 a13b 9b42 2a3b 10cc 6dbb 0c5c 67bb
000002a0: 4086 a93b e7f2 073a 255d 9b3b 957f e4ba
000002b0: 9cb7 213b 0b29 3fbb c3fb eab8 72ba bd3b
000002c0: 2fe6 7239 6bfe 39bb 9d2f 053b 85c7 b33a
000002d0: fdb5 37bb 2c1a 523b 9991 a03a 4461 953a
000002e0: 8c71 f2ba d6a3 c5bb bfeb c63a d1f5 963b
000002f0: 36e7 6d3b e180 29ba d053 cc3a f8c7 033b
00000300: 4f24 b8bb aa7d c83a d0ce 30bb bbaf 473b
00000310: f2ec 393b cc2d 063b f505 caba 290c b4b9
00000320: d9bc a23a be02 2dba 7f90 ceba 2982 593b
00000330: 028d 843b c08b f7bb 4bd8 173a aca3 873a
00000340: 5b6d 97ba 5791 163b d43e adbb f5a9 203b
00000350: 948a 27bb 5d90 efbb fce5 a2bb 645a 7f3b
00000360: 6dbf 3cbb a0fe 58ba b8ea cebb 1dc4 2f39
00000370: 7ec7 303b 6770 743b cc58 feba bdee b23a
00000380: 1a29 683b 316c 1c3a 8daa 92bb 2c96 8f3b
00000390: f7f7 ccbb 66cb bdb9 b75e 593b 7741 2bba
000003a0: 0952 5cbb fc70 7336 4329 623a a721 76ba
000003b0: 34e2 4e3b 2091 aa3b 2b18 c9b7 23e9 013b
000003c0: bc5c f2ba d0e8 96bb 7e96 04bb 7a49 573b
000003d0: 5861 bbb8 90b6 d1b9 7081 a1bb 35db 8dba
000003e0: b3a7 043b 3533 32bb 3885 acba db54 f03b
000003f0: 21cb 2ebb 7a9a 11bb 426d 5fbb 30dd 8c3a
0.0027701468 -0.0007597366 0.00029617627 0.0040760688 -0.0018108326 0.0026271373 -0.00117907 0.002285775
-0.0031134654 4.4387994e-05 0.008332055 0.00040213985 0.00058875437 -0.00032128824 0.0026899185 0.004218414
0.0013328252 -1.4525203e-05 0.0016463224 -0.004807387 0.0016764237 -0.0044856397 -0.0020818398 -0.0023145652
0.0019914797 -0.003355527 0.002368953 -0.00027338165 -0.003770699 0.0029588519 -0.0024624213 0.0027763757
-0.00052871834 -0.0014763006 -0.0017742998 -0.0054551885 0.0009434513 0.0031231781 0.0057048853 0.004956473
0.0007117122 -0.0005945455 0.003375988 -0.004708015 -0.0030817974 0.0005037186 -0.001049607 -0.0012424685
-0.0038114055 0.00063026487 0.0049564647 -0.00031331016 -0.0023919872 -0.0033413016 -0.00016520843 -0.0027854089
-0.00067222485 0.0023733862 0.0005645494 -0.0024491942 0.0014126888 0.0011239216 -0.004923526 -0.0046763383
-0.002745132 -0.0042967834 -0.0020249945 0.0030249965 -0.0009977757 -0.0036572986 0.00020392334 -0.002906961
0.002940117 -0.0013099737 0.0058980105 -0.004724622 -0.0021507954 0.005924679 0.0014046124 0.00077726104
0.00029482544 -0.002511018 0.0057061897 -0.004211156 0.00055417523 -0.0016308257 -0.0042566713 -0.00020251289
0.001222532 -0.0003856221 0.0013103777 -0.0065055727 -0.004093587 0.0025438897 -9.232919e-05 -0.00395007
-0.004783239 0.002731317 -0.0025482534 -0.0018708901 0.0017012947 0.0023637735 0.0017153351 0.0028913224
-0.004230189 -0.0015443431 0.00428596 -0.0026384545 -0.0021425856 -0.0045840545 -0.001688467 -0.0043964996
0.0011163165 -0.0023142905 0.00201541 0.0065295505 -0.0018442423 -0.0037926922 -0.002443358 0.0039023063
0.0026813669 0.0021844856 0.0034900203 -0.0036048992 0.002087044 0.0004804768 0.001733076 -0.0012051107
0.0017505193 -0.0011589512 -0.0019917954 0.004115086 -0.0060040755 4.0006213e-05 -0.0030216218 0.00018298469
-0.00095118035 0.0009012202 0.0009675116 0.0044112075 0.0017440814 0.003989137 -0.0044824965 0.0022891278
0.004115178 -0.0032461882 -0.002816429 0.0028295484 -0.0025485076 0.0037804865 -0.0029331443 -0.004533578
0.0005917657 0.00057845225 0.0017196401 -0.002968547 -0.003227475 -0.0011740343 0.0002750466 0.0017526227
0.0007700575 -0.004857915 0.0007989285 0.00063049886 0.004936952 0.0025979641 -0.003628496 -0.0035302667
0.0051734746 0.00051860366 0.0047413283 -0.0017433042 0.002467609 -0.002916875 -0.00011204884 0.0057900483
0.00023164669 -0.0028380405 0.002032257 0.0013716078 -0.0028032057 0.0032059057 0.0012250423 0.0011396785
-0.0018496974 -0.0060314937 0.0015176459 0.0046069403 0.0036301143 -0.0006466043 0.0015588943 0.0020108204
-0.0056195627 0.001529624 -0.0026978739 0.0030469734 0.002836999 0.0020474074 -0.0015413152 -0.00034341335
0.00124159 -0.0006599835 -0.0015759616 0.0033189154 0.0040451298 -0.0075545013 0.0005792423 0.0010348461
-0.0011552976 0.0022974813 -0.0052870307 0.0024515365 -0.0025564777 -0.0073109106 -0.004971264 0.003896379
-0.0028800622 -0.0008277688 -0.0063146017 0.00016762358 0.0026974375 0.0037298442 -0.0019405126 0.0013651472
0.003542489 0.00059670495 -0.0044758976 0.0043819156 -0.0062551457 -0.00036200433 0.0033168027 -0.00065328873
-0.0033618233 3.6275587e-06 0.00086273643 -0.000938917 0.0031567933 0.0052052885 -2.3972321e-05 0.0019822798
-0.0018490772 -0.00460539 -0.0020231302 0.0032850192 -8.9349865e-05 -0.00039999606 -0.00492876 -0.0010822775
0.0020241558 -0.0027191166 -0.0013162261 0.0073343343 -0.0026671367 -0.002221732 -0.0034092222 0.0010747071

bn.running_mean f4 [256]
00000000: 0e20 fdbf 08c5 87be 4fd9 66bf a54e 5c3f
00000010: f1c7 1b3b 8f62 b2bd b9b2 35bf 1610 a73d
00000020: a391 b83f 37e1 c43d 9b0d 6fba 681a a43f
00000030: b039 61bf 0101 acbf c700 4cbe d3ce 4cbe
00000040: 22af b5bf d79c 76bf 324c cd3f 39ae 97be
00000050: 00b3 0240 c3ec 91bf 1490 f0be cf01 fe3f
00000060: a195 d73f c2ac 9abe edcb 893f 4b6e 6e3e
00000070: a249 16c0 b411 8fbf 6614 4f3f dcc4 583f
00000080: a9da 8d3f 60b9 a6bf f7b2 0f3f e102 35bf
00000090: d9e4 013f 3ed6 b73e 4ec2 95be 3915 b83f
000000a0: 2e87 f03f 22ae 413f f064 fbbe e273 7f3f
000000b0: dc56 b33f 25d9 223f 3fe2 323e a9db 44bf
000000c0: 547b 0a3f 1442 9cbd 393a 1a3f e51f abbe
000000d0: f2bf 94bf 4241 01c0 d17a 10c0 e907 84bf
000000e0: adce a73f af38 0dc0 7a25 70bf f7c9 dd3d
000000f0: 6348 0a3f 8d57 2a3f bc8b 983f f895 bdbf
00000100: 22cb e33e b8cd 7d3f 73e3 3abf 6652 663f
00000110: 7472 6bbe 6766 a2be a969 633f c64c a43f
00000120: 8cb3 52bd 55dd f8bf bd5a ce3f 2b2a 6ebf
00000130: 97ef 50bf d13b 5dbd fc45 0ac0 c464 e63e
00000140: 4827 383f 6513 0240 6acc 6ebe d9d5 cfbf
00000150: d727 963f 73b4 443f 912c 17c0 a69a 61bf
00000160: 05cd 3abd 8051 403f 2260 b3bf fa23 2abe
00000170: 081b 11bf 79e3 d63d 6b2e 9ebf 522d fcbd
00000180: d585 003f 366f aabf 632e 0bbf 4f2d 04c0
00000190: e201 89bf 6ee9 c6bf 4957 953f 28ca db3f
000001a0: 5b85 e3bd fb96 bd3f f98a a53f 78ee 2e3f
000001b0: 1056 64bc a386 77be 85f5 d4be e954 e13f
000001c0: 080f 6d3f 4b1c be3d 18ac ab3e 833c 62be
000001d0: 6ed6 3c3f 5327 7c3e 00c9 d63f f0a0 05be
000001e0: d6c2 883e 8bb6 b33f 6a48 e93f d020 2fbf
000001f0: 9e32 fc3f adec c73d 71b2 5ebf c0a8 1abf
00000200: 07ab dc3f 52ce c7bf 2553 15bf 7ff4 e1bf
00000210: 9619 14bf 5b1d b8bf 65d3 39bf 58ca 10c0
00000220: dbf5 e0bf ac5d c0be 0463 d03e 2e2b 79be
00000230: 2aa4 5c3c ab80 053f 4b62 1cc0 721f 523e
00000240: e9ee 76bf fc06 ee3f f8f2 883f 15e4 5f39
00000250: a8b8 2cc0 e969 32bf 8d62 1d40 8920 84be
00000260: 0e29 35bf 8512 5abf 2600 e3bc 3431 a8bf
00000270: 9488 a0be bc77 48bd 3e0b 5e3e c729 5b3d
00000280: ccb2 9bbf f102 323f aec1 a83f 6b20 603f
00000290: 9047 273c 4ba9 e7bf 81e6 8bbf a7dd 483f
000002a0: c337 c73f fe7f 8d3f 03e9 17be 8716 c6be
000002b0: d880 ddbf 028a 743f 52b6 4e3d 7a42 1c3f
000002c0: db48 1e3f 65dd 98bd 2bf7 bcbf e1dd 7d3f
000002d0: dc3a a8bf d856 0e3f 02fb c73d 84c8 843f
000002e0: d0ce c6bf 9c3b a03f 6166 54bf 7fd9 773e
000002f0: dec6 90be 61f7 713e 67e2 e93c d830 e2bd
00000300: 6f58 2840 f840 6dbe f26e febe 372f 00c0
00000310: 129b b43e 57a6 ce3c 4598 eabf 3fb0 85bf
00000320: 213d a03f 99c0 183f 4e29 17bf e1e3 79bf
00000330: 5fe7 55bf 6206 613f 0c6b a0bf 72dd 2fbf
00000340: c850 a6bd fc74 a0be 9f57 9ebf bf00 34be
00000350: 0a0f f6bd 3990 633f e88f b73e e5dd 65bf
00000360: a046 68bf 528f 16bf 3ed4 b33e dbda ecbe
00000370: 0e87 f23f 6fc6 dc3d daf6 57bf 6f18 5cbf
00000380: de90 43be 39c7 283e 1c27 8dbe 4a7e 843f
00000390: 8789 683d 3705 9abf 9672 df3f cb8b 953e
000003a0: 4bc8 25bf 20ae 703f fcd7 8fbf 7fb2 e4be
000003b0: 2643 843f ffe9 0cbf 040d ebbe 8a53 60c0
000003c0: 70bb 83bf b206 093f d5e7 523f a56f 65bd
000003d0: f66b e03f e147 023e 1e5d f13f 67f6 ce3f
000003e0: a3bc 493f 6193 473f 3b33 8fbf 17e5 7f3f
000003f0: bc3f c9be 7751 c5bf 1640 0fbf 2d20 c5be
-1.9775407 -0.2651751 -0.90175337 0.860575 0.0023770297 -0.08710205 -0.70975834 0.08157365
1.4419445 0.09613269 -0.0009119154 1.2820559 -0.8797865 -1.3437806 -0.19922172 -0.20000772
-1.4194071 -0.9633307 1.6038878 -0.2962511 2.0421753 -1.1400379 -0.46984923 1.9844302
1.6842538 -0.3020993 1.0765358 0.23284261 -2.3482442 -1.1177278 0.808905 0.84675384
1.1082355 -1.3025322 0.56132454 -0.7070752 0.5073982 0.3590564 -0.29249805 1.4381477
1.8791254 0.7565633 -0.49100447 0.997862 1.4010882 0.63612586 0.17469119 -0.76897675
0.54094434 -0.07629791 0.6024509 -0.3342277 -1.1621077 -2.019608 -2.257496 -1.0314914
1.3109947 -2.2065847 -0.93807185 0.10829537 0.54016703 0.6653984 1.1917644 -1.4811392
0.44490916 0.99142027 -0.7300331 0.8996948 -0.22992879 -0.31718752 0.888331 1.2835929
-0.05144076 -1.9442545 1.6121441 -0.93033093 -0.81615585 -0.054012123 -2.1605215 0.44998753
0.7193494 2.0324337 -0.23320165 -1.6237136 1.1730908 0.76837844 -2.362095 -0.881266
-0.045605678 0.7512436 -1.4013712 -0.16615286 -0.5668187 0.10492606 -1.2357916 -0.12313332
0.5020421 -1.3315189 -0.54367656 -2.0652654 -1.07037 -1.5539987 1.1667262 1.7171068
-0.1110942 1.48117 1.2933036 0.68332624 -0.0139365345 -0.24172454 -0.41593567 1.7604038
0.9260106 0.0928274 0.33529735 -0.22093396 0.73764694 0.24624376 1.678009 -0.13049674
0.26711148 1.4040083 1.8225224 -0.6840944 1.9702947 0.09761939 -0.8699103 -0.6041374
1.7239693 -1.5609839 -0.58329993 -1.7652739 -0.5785154 -1.4383959 -0.7258819 -2.26235
-1.7575029 -0.37571466 0.40700543 -0.24332878 0.013466874 0.52149457 -2.4434993 0.20519808
-0.964583 1.8595881 1.0699148 0.00021351904 -2.6987705 -0.69692856 2.45914 -0.25806072
-0.7076577 -0.8518451 -0.027710032 -1.3140016 -0.313542 -0.048942313 0.21683976 0.05350664
-1.216394 0.6953574 1.3184106 0.87549466 0.010209933 -1.8098539 -1.0929719 0.78463215
1.5563892 1.1054685 -0.1483498 -0.38689062 -1.7304945 0.95523083 0.050466843 0.61038935
0.6182992 -0.07464103 -1.476293 0.99166685 -1.3142962 0.55601263 0.09764673 1.0373693
-1.5531864 1.2518191 -0.8296872 0.24204062 -0.28276724 0.23629524 0.02855034 -0.110444725
2.6303976 -0.23169315 -0.4969402 -2.0028818 0.3527456 0.025225801 -1.8327719 -1.0444411
1.2518655 0.5966888 -0.590474 -0.9761334 -0.8355617 0.87900364 -1.2532668 -0.68697274
-0.081208766 -0.31339252 -1.237049 -0.1757841 -0.12014587 0.8889194 0.3585198 -0.8979171
-0.90732765 -0.5881244 0.35122865 -0.46260723 1.8947465 0.10780036 -0.8436104 -0.8597478
-0.19098231 0.16482247 -0.275689 1.035104 0.05677178 -1.2032841 1.7456844 0.29208216
-0.6475875 0.94015694 -1.1237788 -0.44667432 1.0332992 -0.5504455 -0.45908368 -3.5050988
-1.0291576 0.5352584 0.82385 -0.056014676 1.7532947 0.12722732 1.8856542 1.6168946
0.7880346 0.7795926 -1.1187509 0.9995894 -0.39306438 -1.5415486 -0.5595716 -0.3850111

bn.running_var f4 [256]
00000000: 879a 263f 3cfd 063f cfe3 513f c869 593f
00000010: a4da 003f e63e 163f 1fef 273f f9d5 4d3f
00000020: e1e0 c53e 7c8b 043f d020 993f cf80 043f
00000030: c589 233f 595d fd3e 1cc6 463f 8c38 623f
00000040: 5620 663f ed16 b33e 125c 733f f583 0a3f
00000050: 1594 0e3f 3f14 3b3f f9cd 033f 14ee 743f
00000060: f10a 483f 81c0 233f 2db5 2b3f e9a4 313f
00000070: e843 5a3f 18f5 083f d2a6 463f 845e 383f
00000080: eceb d93e 2ca0 1f3f 1967 153f face 263f
00000090: b348 3c3f 4f71 4b3f 9a42 f93e 74a4 923f
000000a0: e243 093f 374f 2d3f fcbd 813f c11b db3e
000000b0: 1bed 0b3f 99a9 7c3f 4254 863f 8330 ab3e
000000c0: a333 803f 0dee c93e dbab 873f f1a7 243f
000000d0: 7bc7 2f3f 0805 663f 36ad 1c3f 3b63 843f
000000e0: f51c 183f 6820 223f de39 fa3e 6e02 143f
000000f0: 2a69 df3e 49b6 323f d6cf 753f bdfc 9b3f
00000100: 5c01 273f 00b2 463f 57ed f03e fb49 df3e
00000110: 26f7 193f 3301 273f 3983 dd3e 1748 593f
00000120: cb75 2e3f 766d 053f 14a7 6e3f 161b 273f
00000130: 9218 053f 7a1d 2d3f 38df df3e 6ca6 e43e
00000140: 248d 183f e7f5 0e3f 2c82 8e3f 1d48 333f
00000150: ed4d 0e3f 9cc2 dd3e 0dfb 3c3f 42fd 163f
00000160: 0240 af3e 8607 1c3f afe4 863f 83ba fb3e
00000170: 2729 2c3f d809 9b3f 2a02 ee3e f1a3 2c3f
00000180: 17c8 0c3f 01fb e33f 4088 f93e 1dc8 1a3f
00000190: de58 193f 97f4 0b3f 776b 063f 91be 4a3f
000001a0: dbe5 523f 0d9d 363f 44d6 f43e b1c8 2a3f
000001b0: 204c 613f 36e2 1e3f f7e3 503f 67b5 433f
000001c0: 92de 583f 7ea8 653f ed2e 2a3f 7bee e23e
000001d0: 9f5f 1e3f 941e 223f 3e5e 343f 78de 513f
000001e0: dc22 433f 2728 1a3f 3c1d 5c3f 2ef1 853f
000001f0: 7376 413f 0945 1a3f 5125 1c3f dc8f d83e
00000200: a221 053f 9c5e 513f 3d50 573f 3081 3f3f
00000210: 791f 7a3f 645b 4a3f de4a f03e 1967 1b3f
00000220: 9cf7 383f cc06 f23e 5f1f 263f 3ebb 293f
00000230: f36a 413f c5eb 1b3f 6696 8b3f 2296 0f3f
00000240: b493 483f cbdc 503f f9b8 e13e 53b0 063f
00000250: c04d 5a3f 405e bd3f ca16 833f d574 3a3f
00000260: e42e 113f 7c37 273f 9616 4a3f 940c be3e
00000270: ed95 553f dd74 0c3f c84e 4e3f 79ee 283f
00000280: 403c 223f 2545 703f 721c 2a3f ec2a 213f
00000290: e8c0 163f 26b7 153f 8151 433f 5ad3 223f
000002a0: cb9c 663f c30b 083f a195 3f3f 4fbb d83e
000002b0: 210e 693f 807d 203f 1fce 393f d77d 7e3f
000002c0: 00b7 1d3f 05e7 1d3f 34d1 013f 5b52 d93e
000002d0: 3292 573f 7e55 273f 4f7a 053f aac1 453f
000002e0: c7ce f33e 666d 9f3f 9b16 5a3f 5d04 063f
000002f0: beaf f83e 674c 933f 791c 243f cab2 0d3f
00000300: c4de 443f 0644 2b3f bfe2 483f 8cb3 173f
00000310: d929 d73e c898 da3e ee62 103f 019c 183f
00000320: 471b 013f bbd7 273f 974b 353f ad03 1d3f
00000330: 6c6c d93e 897d 363f 7e06 033f fe80 363f
00000340: fb6d 3b3f ab74 223f b942 323f bdaf 1d3f
00000350: 4e1c dd3e 0f1f 2b3f ebcc 2c3f d0ed fa3e
00000360: d67c fc3e 14cb 273f d21d 153f 2132 073f
00000370: 118c 163f 262a b13f 762b 423f 7124 1d3f
00000380: 1933 193f 8797 783f 746a 0c3f d0f9 113f
00000390: a79e 5e3f d6cb 443f 48ff 093f 4e00 343f
000003a0: 7ea8 0c3f a890 193f fe57 5d3f 52c9 4b3f
000003b0: fbf0 643f 097a 3a3f a590 223f 01c0 0e3f
000003c0: 666e dc3e 861c 373f 7288 653f af55 b53e
000003d0: 33b1 313f 6609 fa3e 4e73 283f 52e0 833f
000003e0: 5bde 5b3f 688c 1c3f e98e 143f 8657 0f3f
000003f0: 9865 f33e 16c1 083f 8b7f 383f acd9 c73e
0.6507954 0.52730155 0.81988233 0.84927034 0.5033362 0.58689725 0.65599245 0.8040462
0.3864813 0.51775336 1.1963139 0.51759046 0.63882095 0.4948528 0.7764604 0.88367534
0.8989309 0.34978428 0.95062363 0.541076 0.55694705 0.7307777 0.51486164 0.9567578
0.78141695 0.6396561 0.6707333 0.6939226 0.85259867 0.53498983 0.775983 0.7201922
0.42562807 0.6235378 0.5836044 0.6515957 0.7354843 0.7946977 0.48683625 1.1456437
0.53619206 0.67699 1.0136104 0.42794612 0.5465867 0.98696285 1.0494463 0.3343545
1.0015758 0.3943943 1.0599321 0.6431876 0.6866376 0.8985143 0.612018 1.0342783
0.59419185 0.633307 0.48872274 0.5781621 0.4363492 0.69809395 0.9602026 1.2186505
0.6523645 0.77615356 0.47056076 0.4361113 0.60142744 0.65236205 0.43264177 0.84875625
0.6814849 0.5212015 0.9322369 0.65275705 0.51990616 0.676231 0.4372499 0.4465822
0.59590364 0.5584397 1.1133475 0.7003191 0.55587655 0.43312538 0.73820573 0.5898019
0.34228522 0.6094898 1.0538539 0.49165735 0.67250293 1.2112379 0.46486026 0.67437655
0.5499281 1.7810975 0.48736763 0.604616 0.59901226 0.5467009 0.5250773 0.7919703
0.8238198 0.7133339 0.47819722 0.6671248 0.8800678 0.6206392 0.81597847 0.76448673
0.84714615 0.89710224 0.66477853 0.4432257 0.61864656 0.6332791 0.704563 0.81980085
0.76225066 0.6021752 0.8598211 1.0464227 0.75571364 0.6026159 0.6099444 0.42297256
0.52004445 0.8178499 0.8410681 0.748065 0.97704273 0.790457 0.4693212 0.6070419
0.7225282 0.4727081 0.6489162 0.66301334 0.75553817 0.6090663 1.0905273 0.5608846
0.7835038 0.81586903 0.44086435 0.526128 0.8527489 1.4794388 1.024133 0.7283452
0.56712174 0.6531904 0.78940713 0.3711897 0.83431894 0.5486582 0.8058896 0.6598888
0.63373184 0.93855506 0.66449654 0.6295612 0.588881 0.5848259 0.7629624 0.63603747
0.90083 0.53142947 0.7483769 0.42330405 0.91037184 0.626915 0.7258014 0.99410766
0.6160736 0.6168063 0.50709844 0.42445645 0.8420745 0.65364826 0.52139753 0.7724863
0.47618696 1.2455261 0.85190743 0.5235041 0.4857158 1.1507691 0.64105946 0.55350935
0.76902413 0.6690067 0.7847099 0.5925834 0.42024115 0.42694688 0.56400955 0.59613043
0.50432247 0.65563554 0.70818466 0.61333734 0.42465532 0.712853 0.5118178 0.71290576
0.7321469 0.6345927 0.6963306 0.6159628 0.43185657 0.66844267 0.6750018 0.49009562
0.49313992 0.6554425 0.5824863 0.52810866 0.58807474 1.3840988 0.75847566 0.6138373
0.59843594 0.9710621 0.54849935 0.5702181 0.86960834 0.7687353 0.53905153 0.70312965
0.549446 0.5998635 0.8646239 0.79604065 0.89430207 0.7284246 0.6350196 0.55761725
0.43052977 0.715279 0.89661324 0.35416934 0.6941101 0.48835295 0.6580094 1.0302832
0.8588616 0.6115174 0.58030564 0.55992925 0.47538447 0.53419626 0.72069615 0.39033258

bottleneck.weight f4 [256, 512]
00000000: 1e4d 87bd 4aad 853d bf0c 9c3d 66b0 913d
00000010: f4c3 debc 0a7c 4dbc 522e 9a3c b4f6 7b3d
00000020: 35c4 5bbd 310f 703c 9f06 983d 4d24 173d
00000030: a6f5 d93d 8749 1cbd 3c5f 02bc bf4c d53c
00000040: f028 cb3d 6af7 e03c 537b b2bd 5493 753d
00000050: 9c9a 70bd b275 a13d 8705 07bc ea37 23bb
00000060: 0129 acbd 21c9 af3b 48d0 89bd 94b5 233d
00000070: 84e1 4cbc 17e9 df3b 74b9 10bc c56a 8fbd
00000080: 5f7a 93ba 5ef7 3c3d 7c9d a7bc 619d 34bc
00000090: bb4a a4bd 2b72 cfbd 0497 34bd 2dba 203d
000000a0: cb51 003d 1707 8dbd 810c eebc a760 f2bc
000000b0: ab0a d43c b603 92bd 6c10 3abb 5a87 22bc
000000c0: af93 19bd ce9e 0e3d 5a91 123d 1b91 16bc
000000d0: db0c 09bd a73d 7bbd 3157 70bc a2e8 96bd
000000e0: 7866 66bd cdd3 02bd 52d4 b53c 4c10 a6bd
000000f0: 0b11 ecbd 005d 803b 06c1 c8bc 3b9e d93c
00000100: 896b 063c 6b4c 8dbd a21a 28bb f6fd 17bd
00000110: 64f3 98bd 6089 0fbd dc19 da3c c910 0a3c
00000120: ef12 e6bb 18b4 5f3d 281b e73c 2d53 c53d
00000130: 53e4 80bd 1556 87bd f3e9 b83d cf34 d8bd
00000140: b45e 92bd 3a76 69bd c49c 0fbd c7d5 b5bd
00000150: 768e 753c 8f80 cf3c 58ee bfbd 9707 72bd
00000160: 51e1 abbc 4e44 653c 991e d43c 331c 2a3d
00000170: 1972 edbc 5cb0 d43c a275 0d3d 290f 03bd
00000180: b9e3 ffbb 8242 9f3c d719 a4bb f633 533d
00000190: da6e 073c d3b0 2a3d 687d b3bc 9ebc a8bc
000001a0: 1190 043e a2f9 ecbc 0d7e 12bd 593f 7abd
000001b0: 73a9 43bd 109f 03bd 96fb 74bd ce3e e8bc
000001c0: 4041 3f3d adc4 27bc 29f3 0b3d 8056 933c
000001d0: 8f9e f53d e601 803a 87f2 b4bd 0b38 133d
000001e0: 870f f03c 6d78 8bbc 6799 e23c 3d44 e33c
000001f0: ae7a a1bd e671 20bd a974 50bc ebcb 043c
00000200: 8592 02bd 0752 fb3c 92c1 5ebd 4b6a 06bd
00000210: fc05 db3a 408b 193d dbcc 84bb 0d1b 3bbd
00000220: e946 70bc ad8e 863b 205e 9cbd f597 363c
00000230: e3eb 1a3d 1c48 d3bc 4cd5 3cbc e92e 27bd
00000240: ef70 63bc 7a27 48bb 648c 8a3b 0158 91bd
00000250: 45a8 62bd 421b 173d 9490 963b 37ab 44bd
00000260: 678a 1d3b 1bc7 cd3d 002f 9dbd 8ae5 483d
00000270: 5478 57bd d18a 4bbd cf7a e5ba ccc1 243d
00000280: 6cba 9abd fce3 a23c 5109 68bd ea89 80bd
00000290: 4c6d bf3d 2a04 8bbd 4904 8dbc e14e 14bd
000002a0: 03bd 3ebc 5a39 4abd 2548 eabc 7699 c7bc
000002b0: caee 1a3d 01e3 d13c ed22 bfbc 6712 6fbd
000002c0: 8380 c43c 2595 a0bd a197 033c 2ede 10be
000002d0: 1ead d039 e3e8 713c 8c7b 303c 9e7e b33d
000002e0: c9b1 753c 5b75 093c 7675 89bc 846d 5fbc
000002f0: 01e9 ab3d bd6d 6bbc de8f b4bd fabb cbbd
00000300: 817e bc3c 8c33 083d bd9f eabb e221 013d
00000310: 3efe 063d 7060 903d 4714 8ebd a813 5e3d
00000320: a37e 053c 774d b03c 8f16 9c3c 66f9 26bd
00000330: 5c1b eb3b 8394 a8bc 9c80 04bc 2263 22be
00000340: bab3 b5bd cdff b43c b287 88bd e5bd a23c
00000350: d57c 00bd e909 a23c 50ac 8e3d cb07 133e
00000360: 38ba 2b3d 6081 a53c 750f 823d c5fc 0dbd
00000370: 0b27 a6bc 0101 50bd c9bd 5a3c 65fd c8bb
00000380: bcff 1b3d 15c2 22bc 848c b13c 46ee 24bb
00000390: 02ee 6cbc f814 553c 4c3f fbbc eb62 a9bd
000003a0: 40ee 19bd 3c23 24bd a178 c6bc c408 0abe
000003b0: e5a4 efbc 70e0 833d eef6 06bd 9218 f03d
000003c0: f894 a4bb d94c 47ba 698d fe3b df9b 45bd
000003d0: 6d56 283d bc3f 9fbd 5a6a e8bd 268a 033d
000003e0: f5f3 8b3d 8705 fe3c f033 b4bc 9eba dfbc
000003f0: e02a 143c 2365 493d c849 acbd 920e d93c
-0.06606506 0.06527193 0.076196186 0.071137235 -0.027193047 -0.01254178 0.018820915 0.06151457
-0.053653914 0.014652059 0.07423138 0.036899853 0.10642557 -0.03815606 -0.007957276 0.026037572
0.099199176 0.027461726 -0.087149285 0.059954956 -0.058741197 0.07883777 -0.008241064 -0.0024905154
-0.084062584 0.0053645526 -0.067291796 0.03996809 -0.012504939 0.0068332064 -0.008833278 -0.070027865
-0.0011251679 0.046134345 -0.020460837 -0.01102385 -0.08022066 -0.10129198 -0.044089332 0.03924005
0.031328004 -0.06886118 -0.029058697 -0.029587103 0.025883993 -0.07129614 -0.0028391136 -0.009919966
-0.037494358 0.034819417 0.03578315 -0.009189869 -0.033459526 -0.061338093 -0.014669226 -0.0736859
-0.056250066 -0.03194027 0.022195969 -0.08108577 -0.11526688 0.0039173365 -0.024506103 0.026564708
0.008204349 -0.06899341 -0.002565064 -0.03710743 -0.07468298 -0.03504312 0.026623659 0.008426853
-0.0070213 0.05461511 0.028211191 0.09635005 -0.062935494 -0.06608216 0.09028997 -0.105569474
-0.071469694 -0.056997515 -0.035061613 -0.088786654 0.014987579 0.025329856 -0.09371632 -0.05908927
-0.020981463 0.013993336 0.025893496 0.0415308 -0.02898507 0.025963001 0.03453601 -0.03199688
-0.007809129 0.019440893 -0.005007963 0.051563226 0.008266175 0.04167254 -0.021910384 -0.020597752
0.12945582 -0.028927628 -0.035764743 -0.06109557 -0.04776902 -0.032134116 -0.059810244 -0.02835026
0.046693087 -0.010239762 0.034167442 0.017985582 0.11993133 0.0009766191 -0.08835321 0.03594212
0.029304279 -0.017025197 0.027661039 0.0277425 -0.078847274 -0.039171122 -0.012723126 0.008105258
-0.031878013 0.030678762 -0.05438382 -0.032816213 0.0016710158 0.037486315 -0.004052741 -0.045680095
-0.014665344 0.0041063637 -0.076351404 0.011144628 0.037822615 -0.02579122 -0.011525463 -0.04081622
-0.013881906 -0.0030541108 0.0042281616 -0.070968635 -0.055336256 0.03689123 0.004594872 -0.048014846
0.0024038793 0.10047742 -0.0767498 0.04904703 -0.05260499 -0.049692933 -0.0017507913 0.04022388
-0.075550884 0.019884102 -0.05664951 -0.06276305 0.093470186 -0.067879036 -0.017213957 -0.036208037
-0.011641744 -0.0493711 -0.028598854 -0.024365168 0.037825383 0.02562094 -0.023332084 -0.05836716
0.02398706 -0.07840947 0.008031757 -0.14147255 0.00039801834 0.014764997 0.010771643 0.08764385
0.014996001 0.008389796 -0.016779643 -0.01363695 0.08394051 -0.014369425 -0.08816503 -0.09947963
0.02300954 0.033252284 -0.0071601556 0.031526454 0.032957308 0.07049644 -0.06937461 0.054217964
0.008147868 0.021521313 0.019053726 -0.04076519 0.0071748924 -0.020578628 -0.0080873035 -0.15858129
-0.08872171 0.022094632 -0.06666507 0.01986594 -0.03136905 0.019780116 0.0696646 0.14358442
0.04192564 0.020203292 0.063506044 -0.034664888 -0.020282289 -0.050782207 0.013350912 -0.0061337226
0.038085684 -0.009933968 0.021673448 -0.0025166436 -0.014461042 0.013005488 -0.03066983 -0.0827082
-0.03758073 -0.040072665 -0.024227442 -0.13479906 -0.029253433 0.064392924 -0.032950334 0.117234364
-0.0050226413 -0.0007602699 0.0077683222 -0.048244353 0.041098047 -0.07775828 -0.1134841 0.03211417
0.068336405 0.031008495 -0.021997422 -0.027310666 0.009043425 0.049168717 -0.0841251 0.026496205

bottleneck.bias f4 [256]
00000000: 37e5 85ae 5c12 dc2e 6034 01ae f629 bbaf
00000010: df54 53af d498 c1ad 7544 85ac 64f9 e1ae
00000020: 0b00 5a2f 4aa2 13af ee0b 802e 78f2 0330
00000030: 8c88 b22e 7d83 d82e 9fae 1d2e 2edc 00af
00000040: 988b b72e af10 3cae 7748 9c2e 2988 ad2e
00000050: 2114 daaf 5749 11af 2211 6bae 1c8d 062f
00000060: 339a 8eae 5575 f72e 0d68 a1af 787e 26af
00000070: 8aa4 762f c90b 052f e31d 392f 5ce8 ef2d
00000080: 46dc 0aaf 2a40 942e 119d caae fdfd 892f
00000090: 53b0 c02f c3d7 422f 3334 77ae 22f8 52af
000000a0: 6d54 a02f e7a7 062e 8911 8fad d9c5 382f
000000b0: 8eb0 172f 59d7 df2e 45e5 06ae 44fb 93ae
000000c0: cc8a 22ad c5ac e2ad f61b 3f2f e7fb a5ad
000000d0: 7029 a0ae d21f 4b2f b883 32ae 3312 f32e
000000e0: c94b c9ad f89d 4eb0 5457 8d2e 09f5 65af
000000f0: 2a9f af2d 9242 d6ae 4d5c 41af d81e 63ae
00000100: 558d 4bad bdc6 c22e ffc6 a3af f778 69af
00000110: af6a cd2e dec3 ae2e 40e8 cf2f 50a2 8daf
00000120: 0015 1daf 25ef 06ae 450b bfaf db94 8a2e
00000130: 079f cb2f d8ca 90af fef8 2030 8c73 4f2e
00000140: ee03 ef2e 242d 31b0 6b2a 6aad 1bb1 252c
00000150: f2d0 342f ff90 132e ef8a d02f b257 a72d
00000160: 70e7 0daf 2e74 22ae df04 76ad 2e5d 122e
00000170: 1595 7e2f 0e65 93ae d64b 79ab f749 742f
00000180: a7d7 b8ad 99fa 2dae 9cb2 802f 9da0 2430
00000190: 2cdf 72ae a182 832f 4021 fead 4dc4 55ae
000001a0: 8cfb 2f30 1bef bead 7d32 af2f 986d 952d
000001b0: 2783 79ae 96d8 c0ad 57de 782e f425 5b2f
000001c0: fe3c 26ae 4f64 77ae a9cf 5a2d d812 212f
000001d0: 9a92 352f 46a1 8a2f 4619 4c2e 619e 64ad
000001e0: efa0 a42e ee94 41af 7994 86ae 2624 1c2f
000001f0: ac50 41af d36f cb2c 15e3 5bad 5e67 492f
00000200: 5218 97af 1efd 062f 9bc5 242d c782 b8af
00000210: e36d 222e 63ff f7ae 83ff c52e fc81 ae2f
00000220: a3e1 d32f a226 37ae 5c9e 01b0 9c53 caae
00000230: b73d faae cc9b 8e2f 4a00 0230 3675 b8ae
00000240: 5a06 62af 328f 722f 9769 1dad 5042 d4ae
00000250: 4ffa d12f 4f0a 07af 4d2c 272f 4688 fbac
00000260: 5155 162c 864b 9029 5f48 0a2f b8c1 a02e
00000270: 8045 9c2e 584c 032f 9d49 33ae a40a baaf
00000280: 9659 9b2e 4c17 3a2e ad9c 6ead 7e2d 8faf
00000290: 5bfd a92e c296 992e 249b d32f 3a9f 382f
000002a0: 0c08 d8af 162c 672f fabb 882f 9bc7 312f
000002b0: a736 80af 503b 292e 9872 aa2d 104b 90af
000002c0: d1e3 c32d 4e92 0c2d f20a 3a2f de2b 4aaf
000002d0: d878 772f 7916 d3ae 6407 04ae 33bf 86af
000002e0: f419 492f 4c5e a12e 35c5 f72d 55b7 38ae
000002f0: 5662 2c2d 844e 462d 4b89 cc2e 5cbd 522d
00000300: 613c 1730 e478 51af 0c4e 802e 21ed 5d2f
00000310: b23b 9d2e e1ba 02af fd50 83af 7b9a 022e
00000320: ea5b e7ae 0ec4 49ae 3551 e1ae 70d2 542f
00000330: a079 8fac 4c93 f22e b842 8b2d ba67 63af
00000340: 8d0a 722e 355f b4ae b524 37af 7694 9fad
00000350: c3bd 9d2e baa5 a82f 3d40 e5ae d018 d9af
00000360: 8855 802f b99a f1ae b447 2a2f 6e2d 76ad
00000370: 3abf c9af 4689 c0ae 1500 7c2f d012 60ae
00000380: a486 a5af bce5 172f db62 f4ae 25e6 35af
00000390: 7c86 2a2f 3f33 14af 7943 12af 4d89 11af
000003a0: 3df7 3b2f 01c6 bd2e d39b b3ae 5d68 adab
000003b0: 0a27 cdae 11f6 4b2c 7299 d8ad dc37 2c30
000003c0: 0f24 d62e 3a4b 332e ac38 9cad 2490 6faf
000003d0: f611 85af 3f51 1e2f f2ab d92f f1a0 792e
000003e0: 0b2e 192b 0d69 952e 5fa0 952f d51d 292f
000003f0: a544 0730 8b1b 92ad 7eb6 10ae 4afd acad
-6.0888565e-11 1.0007703e-10 -2.9377722e-11 -3.4044917e-10 -1.922049e-10 -2.2009429e-11 -3.7876876e-12 -1.0276116e-10
1.9827e-10 -1.3427229e-10 5.822885e-11 4.800209e-10 8.1187584e-11 9.8459e-11 3.585276e-11 -1.1719756e-10
8.3466734e-11 -4.276107e-11 7.106931e-11 7.891316e-11 -3.9668271e-10 -1.3213729e-10 -5.344803e-11 1.2237361e-10
-6.484804e-11 1.1253102e-10 -2.9359662e-10 -1.5142543e-10 2.2432026e-10 1.2100466e-10 1.683627e-10 2.7274343e-11
-1.2629284e-10 6.7416586e-11 -9.213797e-11 2.5100624e-10 3.5049882e-10 1.7720851e-10 -5.620766e-11 -1.9187543e-10
2.9163819e-10 3.06172e-11 -1.6265005e-11 1.6804992e-10 1.3796095e-10 1.01791194e-10 -3.0671705e-11 -6.72942e-11
-9.239453e-12 -2.576995e-11 1.7381283e-10 -1.8870195e-11 -7.2833184e-11 1.8474047e-10 -4.0589504e-11 1.10535935e-10
-2.288471e-11 -7.516685e-10 6.42745e-11 -2.0914483e-10 1.996588e-11 -9.7434186e-11 -1.758604e-10 -5.164122e-11
-1.1570596e-11 8.8574016e-11 -2.9790923e-10 -2.1234202e-10 9.3412715e-11 7.947397e-11 3.7818104e-10 -2.576308e-10
-1.4286528e-10 -3.0680476e-11 -3.4750705e-10 6.3019555e-11 3.703848e-10 -2.6337577e-10 5.85615e-10 4.7168977e-11
1.086916e-10 -6.4456374e-10 -1.3310779e-11 2.3546224e-12 1.6445137e-10 3.3552713e-11 3.7933698e-10 1.9024646e-11
-1.2906098e-10 -3.6937724e-11 -1.3984563e-11 3.3279317e-11 2.315413e-10 -6.702737e-11 -8.8567814e-13 2.2217948e-10
-2.1014147e-11 -3.955822e-11 2.3409974e-10 5.98911e-10 -5.5222646e-11 2.3921579e-10 -2.8891223e-11 -4.8604943e-11
6.40221e-10 -2.1706683e-11 3.186819e-10 1.6988008e-11 -5.6732532e-11 -2.1924056e-11 5.658615e-11 1.9931418e-10
-3.7798202e-11 -5.625039e-11 1.2437975e-11 1.464956e-10 1.6513937e-10 2.5216645e-10 4.6406677e-11 -1.2995467e-11
7.486444e-11 -1.7606158e-10 -6.1199885e-11 1.420096e-10 -1.7581908e-10 5.782022e-12 -1.2499131e-11 1.8317567e-10
-2.748402e-10 1.2277154e-10 9.366198e-12 -3.3562328e-10 3.6932134e-11 -1.12776254e-10 9.003911e-11 3.1742775e-10
3.8541e-10 -4.1643695e-11 -4.715497e-10 -9.2007485e-11 -1.13796465e-10 2.594035e-10 4.7294135e-10 -8.388172e-11
-2.0556837e-10 2.2060645e-10 -8.947862e-12 -9.652423e-11 3.8194733e-10 -1.2281841e-10 1.52043e-10 -7.1489785e-12
2.1363642e-12 6.407986e-14 1.2576738e-10 7.310369e-11 7.1064044e-11 1.1941503e-10 -4.076527e-11 -3.3840764e-10
7.0644976e-11 4.2312195e-11 -1.3563523e-11 -2.6043873e-10 7.730235e-11 6.9844144e-11 3.849091e-10 1.6791271e-10
-3.929589e-10 2.102499e-10 2.487182e-10 1.616897e-10 -2.3321897e-10 3.847883e-11 1.9377652e-11 -2.6246783e-10
2.2270104e-11 7.990565e-12 1.692049e-10 -1.8387378e-10 2.2507451e-10 -9.599161e-11 -3.001989e-11 -2.4510313e-10
1.8290064e-10 7.338183e-11 2.8168226e-11 -4.1999588e-11 9.798903e-12 1.1272431e-11 9.301234e-11 1.1979164e-11
5.5019284e-10 -1.9051388e-10 5.83463e-11 2.0184078e-10 7.1501374e-11 -1.1889824e-10 -2.3886307e-10 2.9695784e-11
-1.0520991e-10 -4.587624e-11 -1.0246241e-10 1.935605e-10 -4.0778075e-12 1.1031051e-10 1.58321e-11 -2.0682381e-10
5.50338e-11 -8.2023645e-11 -1.6656794e-10 -1.8142137e-11 7.173242e-11 3.0676778e-10 -1.0425125e-10 -3.94897e-10
2.3343838e-10 -1.09868954e-10 1.5486884e-10 -1.39935685e-11 -3.6697562e-10 -8.755534e-11 2.2919296e-10 -5.0948412e-11
-3.0108993e-10 1.3814988e-10 -1.11133956e-10 -1.6543618e-10 1.5509188e-10 -1.3478728e-10 -1.3302594e-10 -1.3236452e-10
1.7095388e-10 8.6298975e-11 -8.1676575e-11 -1.2321356e-12 -9.3292554e-11 2.898463e-12 -2.46245e-11 6.2652616e-10
9.7379986e-11 4.0766703e-11 -1.7760314e-11 -2.1788132e-10 -2.420532e-10 1.4398881e-10 3.9594245e-10 5.675899e-11
5.4420417e-13 6.794396e-11 2.7216893e-10 1.5381059e-10 4.9210264e-10 -1.661051e-11 -3.2903895e-11 -1.9666619e-11
