ckps/source/uda/office-caltech/amazon_0/source_B.pt (torch, 532830 bytes, 6 tensors)

bn.weight f4 [256]
0	0x3f79684d	0.97424775
1	0x3f78e86c	0.9722965
2	0x3f793e76	0.9736093
3	0x3f78c6bd	0.9717825
4	0x3f792670	0.97324276
5	0x3f78e51d	0.972246
6	0x3f79a531	0.9751769
7	0x3f79582c	0.97400165
8	0x3f79b463	0.97540873
9	0x3f794b89	0.9738088
10	0x3f791195	0.97292453
11	0x3f798b50	0.974782
12	0x3f79d9ad	0.9759777
13	0x3f79158b	0.97298497
14	0x3f79588c	0.97400737
15	0x3f797cc7	0.9745602
16	0x3f79df5d	0.9760645
17	0x3f797af8	0.9745326
18	0x3f799920	0.97499275
19	0x3f796548	0.9742017
20	0x3f794db1	0.9738417
21	0x3f790814	0.9727795
22	0x3f7909ce	0.97280586
23	0x3f798daa	0.9748179
24	0x3f7974ad	0.9744366
25	0x3f794423	0.97369593
26	0x3f797d3e	0.9745673
27	0x3f797049	0.9743696
28	0x3f792f71	0.97338015
29	0x3f78ef48	0.97240114
30	0x3f796357	0.97417206
31	0x3f79be59	0.9755607
32	0x3f79f989	0.97646385
33	0x3f798433	0.97467345
34	0x3f78d195	0.97194797
35	0x3f79360d	0.973481
36	0x3f78a17e	0.9712142
37	0x3f798a00	0.97476196
38	0x3f78dd98	0.97213125
39	0x3f799d70	0.97505856
40	0x3f7883df	0.9707622
41	0x3f78f005	0.9724124
42	0x3f794d90	0.97383976
43	0x3f79459b	0.97371835
44	0x3f799d48	0.9750562
45	0x3f79d88d	0.97596055
46	0x3f79d623	0.9759237
47	0x3f799357	0.9749045
48	0x3f78fb73	0.9725868
49	0x3f797b4f	0.9745378
50	0x3f7972ed	0.9744099
51	0x3f79aa89	0.9752584
52	0x3f7932ab	0.9734294
53	0x3f790480	0.9727249
54	0x3f7922b4	0.9731858
55	0x3f793542	0.9734689
56	0x3f792831	0.9732695
57	0x3f78b499	0.9715057
58	0x3f7990ed	0.97486764
59	0x3f794fcc	0.97387385
60	0x3f7931ea	0.9734179
61	0x3f790a95	0.9728177
62	0x3f794534	0.9737122
63	0x3f796fe3	0.9743635
64	0x3f793019	0.97339016
65	0x3f7975bc	0.97445273
66	0x3f79e4ed	0.9761494
67	0x3f79627a	0.9741589
68	0x3f79dd87	0.9760365
69	0x3f7983eb	0.97466916
70	0x3f797acb	0.9745299
71	0x3f79433f	0.97368234
72	0x3f7921f1	0.97317415
73	0x3f78cc66	0.9718689
74	0x3f7957ab	0.97399396
75	0x3f79021e	0.97268856
76	0x3f7a2501	0.97712713
77	0x3f795bbc	0.974056
78	0x3f78c37d	0.9717329
79	0x3f796c41	0.9743081
80	0x3f793034	0.9733918
81	0x3f7938b7	0.97352165
82	0x3f790ef4	0.9728844
83	0x3f792ecd	0.9733704
84	0x3f78b4a0	0.9715061
85	0x3f78e21e	0.9722003
86	0x3f79981a	0.97497714
87	0x3f790985	0.9728015
88	0x3f79d177	0.97585243
89	0x3f792a2c	0.97329974
90	0x3f78f64f	0.9725084
91	0x3f7912d2	0.9729434
92	0x3f791181	0.97292334
93	0x3f793617	0.9734816
94	0x3f79135c	0.97295165
95	0x3f798adb	0.974775
96	0x3f795d76	0.97408235
97	0x3f798b4c	0.97478175
98	0x3f791abc	0.9730642
99	0x3f797baf	0.9745435
100	0x3f79a4fa	0.9751736
101	0x3f796e69	0.974341
102	0x3f7952b5	0.97391826
103	0x3f78b92d	0.97157556
104	0x3f78e6e0	0.9722729
105	0x3f78f528	0.9724908
106	0x3f792704	0.9732516
107	0x3f7945ac	0.97371936
108	0x3f78c0fc	0.9716947
109	0x3f7a1bc9	0.97698647
110	0x3f7844ad	0.9697979
111	0x3f78ecae	0.97236145
112	0x3f797c30	0.9745512
113	0x3f79daae	0.97599304
114	0x3f7a30d2	0.97730744
115	0x3f796eb6	0.97434556
116	0x3f79c829	0.97571045
117	0x3f791bcc	0.9730804
118	0x3f797915	0.9745038
119	0x3f794beb	0.97381467
120	0x3f79404c	0.97363734
121	0x3f79455d	0.97371465
122	0x3f794173	0.9736549
123	0x3f79521c	0.97390914
124	0x3f791dfb	0.9731137
125	0x3f7ab6c0	0.97935104
126	0x3f7903c3	0.97271365
127	0x3f7954be	0.9739493
128	0x3f795190	0.9739008
129	0x3f79e17c	0.97609687
130	0x3f78f91c	0.9725511
131	0x3f7a36df	0.97739977
132	0x3f78caa8	0.9718423
133	0x3f79768a	0.974465
134	0x3f794fc8	0.9738736
135	0x3f786f84	0.9704516
136	0x3f79862d	0.9747036
137	0x3f78858b	0.9707877
138	0x3f7992bc	0.97489524
139	0x3f79b29c	0.9753816
140	0x3f79457b	0.97371644
141	0x3f78e0b8	0.97217894
142	0x3f797c89	0.9745565
143	0x3f794df5	0.9738458
144	0x3f78de21	0.9721394
145	0x3f7952f8	0.97392225
146	0x3f794949	0.9737745
147	0x3f79427a	0.9736706
148	0x3f791c20	0.9730854
149	0x3f79467b	0.9737317
150	0x3f7a12f6	0.9768518
151	0x3f79c765	0.97569877
152	0x3f796a27	0.974276
153	0x3f795072	0.97388375
154	0x3f790263	0.97269267
155	0x3f794969	0.9737764
156	0x3f7967fe	0.97424304
157	0x3f794968	0.97377634
158	0x3f793a85	0.9735492
159	0x3f7907ff	0.97277826
160	0x3f795a40	0.97403336
161	0x3f799d73	0.97505873
162	0x3f798620	0.97470284
163	0x3f79f95b	0.9764611
164	0x3f793e94	0.9736111
165	0x3f78f9bc	0.97256064
166	0x3f79775d	0.9744776
167	0x3f798389	0.9746633
168	0x3f7970c8	0.97437716
169	0x3f793ae5	0.9735549
170	0x3f79659d	0.97420675
171	0x3f791aef	0.9730672
172	0x3f792b57	0.97331756
173	0x3f796c84	0.97431207
174	0x3f78e5de	0.9722575
175	0x3f78e310	0.9722147
176	0x3f788984	0.9708483
177	0x3f7996e2	0.97495854
178	0x3f794fa1	0.9738713
179	0x3f7978b9	0.97449833
180	0x3f7989c1	0.9747582
181	0x3f7955d9	0.9739662
182	0x3f792f40	0.9733772
183	0x3f798efa	0.9748379
184	0x3f790811	0.97277933
185	0x3f784208	0.96975756
186	0x3f791acd	0.9730652
187	0x3f79186e	0.973029
188	0x3f78856c	0.97078586
189	0x3f799a27	0.9750084
190	0x3f78c572	0.9717628
191	0x3f78fd6f	0.9726171
192	0x3f78c2c6	0.971722
193	0x3f794957	0.9737753
194	0x3f79d81d	0.9759539
195	0x3f78fc03	0.9725954
196	0x3f79b8e1	0.9754773
197	0x3f7a5255	0.9778188
198	0x3f7921bd	0.97317106
199	0x3f795219	0.97390896
200	0x3f794b2a	0.97380316
201	0x3f794d8f	0.9738397
202	0x3f793737	0.97349876
203	0x3f798443	0.9746744
204	0x3f792111	0.9731608
205	0x3f7958e1	0.97401243
206	0x3f797a6a	0.97452414
207	0x3f787476	0.97052705
208	0x3f787b32	0.9706298
209	0x3f794f27	0.973864
210	0x3f78e2e0	0.97221184
211	0x3f7992b6	0.9748949
212	0x3f791f18	0.9731307
213	0x3f78d9d6	0.9720739
214	0x3f796952	0.9742633
215	0x3f78ebf1	0.9723502
216	0x3f794811	0.9737559
217	0x3f78e8c8	0.97230196
218	0x3f79183c	0.97302604
219	0x3f795d01	0.9740754
220	0x3f78b8cb	0.9715697
221	0x3f792dfd	0.973358
222	0x3f78baf0	0.97160244
223	0x3f78ef24	0.972399
224	0x3f792be0	0.9733257
225	0x3f7978d4	0.97449994
226	0x3f79a2d4	0.9751408
227	0x3f79d3d8	0.9758887
228	0x3f796653	0.9742176
229	0x3f791423	0.9729635
230	0x3f79e401	0.9761353
231	0x3f78c3e0	0.9717388
232	0x3f792e84	0.973366
233	0x3f796f97	0.974359
234	0x3f79ce29	0.975802
235	0x3f7900ed	0.9726704
236	0x3f796993	0.9742672
237	0x3f796579	0.9742046
238	0x3f792487	0.9732136
239	0x3f79834e	0.9746598
240	0x3f79d372	0.97588265
241	0x3f79fc71	0.9765082
242	0x3f79038b	0.9727103
243	0x3f79a429	0.97516114
244	0x3f794342	0.9736825
245	0x3f79b8de	0.9754771
246	0x3f78ebf6	0.9723505
247	0x3f79776e	0.9744786
248	0x3f79550b	0.9739539
249	0x3f79848e	0.9746789
250	0x3f790834	0.9727814
251	0x3f79a6b0	0.9751997
252	0x3f79cab4	0.97574925
253	0x3f796732	0.9742309
254	0x3f7901e7	0.9726853
255	0x3f78cfbd	0.97191983

bn.bias f4 [256]
0	0xbb24669b	-0.0025085572
1	0x3aa3f53a	0.0012508996
2	0x3aba5298	0.0014215289
3	0x3a4c830b	0.00078015093
4	0xba9f90d2	-0.0012173897
5	0xba1ab845	-0.0005902092
6	0x3b535063	0.003224396
7	0xbb2ef485	-0.0026696038
8	0x39a7497e	0.00031907478
9	0xbaba965a	-0.0014235482
10	0x3a8f1bee	0.0010918358
11	0xba9c1139	-0.0011906988
12	0xbb883b57	-0.0041574645
13	0x3a1d8073	0.0006008215
14	0xbb32c7b6	-0.0027279682
15	0x3aa55fef	0.0012617091
16	0x3b4af87a	0.0030970857
17	0x3b4810c4	0.0030527571
18	0x3a93d9bf	0.0011280103
19	0x3aea1953	0.001786033
20	0xbad6522b	-0.0016351392
21	0x3a0c9060	0.000536209
22	0x3af3738c	0.0018573864
23	0x3aa71be3	0.00127494
24	0xb9a75446	-0.0003191551
25	0x3ae3aa00	0.001736939
26	0x3acd9372	0.0015684201
27	0x3b513608	0.0031923074
28	0x3ad9c8c9	0.0016615625
29	0x3b15949b	0.0022824171
30	0x3a7c73c4	0.00096302875
31	0xbb4e51a3	-0.0031481765
32	0xbb760c25	-0.003754386
33	0xbb726611	-0.0036987106
34	0xb9ff9b0f	-0.00048752918
35	0x3a7cc8d5	0.00096429634
36	0x3a1d7fd8	0.0006008125
37	0xbb3079ea	-0.0026928135
38	0xba84e890	-0.001014011
39	0x3b01f0d0	0.0019827373
40	0x3a2913d6	0.0006449794
41	0x3b12d3d5	0.0022404094
42	0x395efb2a	0.00021265136
43	0x39dad35a	0.0004173767
44	0x3b64aa82	0.003489167
45	0x3b8e0c32	0.00433495
46	0x3afda3b7	0.0019351159
47	0x3b0b57df	0.0021262092
48	0x3b4b62b0	0.0031034164
49	0xbb122400	-0.002229929
50	0x38493011	4.79669e-05
51	0x3b77c7d8	0.0037808325
52	0xbb18341f	-0.0023224426
53	0xba8a43ea	-0.0010548804
54	0x3ab0ad10	0.0013479311
55	0xbb28f5d5	-0.0025781293
56	0x37b198c5	2.1171183e-05
57	0xbb1e0cdd	-0.0024116554
58	0xbb10961c	-0.0022062128
59	0xbb2284c9	-0.0024798384
60	0xbabfe33a	-0.0014639862
61	0x3b2d4b63	0.002644264
62	0xbb7fcf61	-0.003903352
63	0x3aa3e1ac	0.0012503169
64	0xba20f48f	-0.00061399577
65	0xbb3026e3	-0.0026878647
66	0x3ab41cfc	0.0013741548
67	0xbba1efa5	-0.004941898
68	0xbaa00537	-0.0012208585
69	0x3b42d76f	0.002973046
70	0x397f0291	0.00024319651
71	0xb9ffff82	-0.00048827758
72	0x39da0b2a	0.00041588518
73	0x3ae2e644	0.0017311056
74	0x3a8a303b	0.0010542938
75	0xba577119	-0.0008218452
76	0xbb469b0a	-0.0030304813
77	0x3aab3da1	0.0013064631
78	0x3b3fa244	0.0029241005
79	0x3a1e2b1d	0.0006033646
80	0x3a0d76ce	0.00053964264
81	0xb95f8dac	-0.00021319714
82	0xbb5c26be	-0.0033592428
83	0xbb61fe63	-0.0034483902
84	0xba477cb7	-0.00076098315
85	0x3a473bc1	0.00076001516
86	0xbb4f3ff3	-0.003162381
87	0xb692f045	-4.37911e-06
88	0x3b91e38c	0.0044521745
89	0xbaf25ca0	-0.0018490739
90	0x3b117c26	0.0022199242
91	0xb7ab93f2	-2.0453681e-05
92	0x3a61b2c4	0.0008609707
93	0x39b81ea9	0.00035118058
94	0x3a4a1ded	0.0007710148
95	0xba7f0484	-0.0009728151
96	0xba8aefe9	-0.0010600063
97	0x3aa16bf9	0.0012315504
98	0xbb0e18a8	-0.0021682177
99	0xbaf52d9c	-0.0018705609
100	0x3b47245e	0.0030386667
101	0x3a849f36	0.0010118249
102	0x3b97b945	0.00463024
103	0xbb45b407	-0.003016712
104	0xbb1553c7	-0.002278553
105	0x3b0b748f	0.002127919
106	0xba9e7b70	-0.0012091231
107	0x3a3b55ba	0.0007146258
108	0x3aca32f9	0.0015426568
109	0xba9b693e	-0.0011856926
110	0xba0eafbb	-0.0005443056
111	0x398000ec	0.0002441475
112	0x3aca427f	0.0015431194
113	0xbabb06b9	-0.0014268971
114	0xbb32fd0d	-0.0027311475
115	0xbae38816	-0.0017359282
116	0xbb0a6ba4	-0.0021121288
117	0x3a736aaf	0.00092856114
118	0x3a53f5bd	0.0008085629
119	0xbb00043d	-0.0019533776
120	0x3a5307fb	0.00080502004
121	0xb9fa8f9a	-0.00047790707
122	0xbb190e3a	-0.0023354427
123	0xbb1f38b6	-0.0024295277
124	0xba45e2ae	-0.00075487315
125	0x3b0f8414	0.0021898793
126	0x39fc1ab0	0.0004808507
127	0xbad48294	-0.0016213232
128	0xbac2bcd7	-0.0014857304
129	0xbb832887	-0.004002634
130	0x3af110ba	0.0018391826
131	0x3bccdc1f	0.0062518264
132	0x3adb2cb2	0.0016721694
133	0xbaa7410d	-0.0012760476
134	0x3a41d908	0.0007394706
135	0x3ae35d9c	0.0017346623
136	0x3ad828db	0.0016491668
137	0xbad64ed2	-0.0016350395
138	0x3b2864bd	0.002569481
139	0xb9aba902	-0.00032741582
140	0xb9ca4b71	-0.0003858465
141	0x3ad80df2	0.0016483648
142	0x3b55c01f	0.0032615734
143	0x3b34a085	0.0027561497
144	0xbb5ffd3c	-0.003417804
145	0x3b5740d7	0.0032845044
146	0xba95118f	-0.0011373031
147	0x3a131316	0.0005610449
148	0x3b16da51	0.002301831
149	0x39ae7e88	0.0003328214
150	0x3b38b742	0.0028185402
151	0x3b399cb4	0.0028322162
152	0x3abec47d	0.0014554408
153	0xb95195cc	-0.00019987597
154	0x39fbb74a	0.00048011012
155	0x3b087651	0.0020822475
156	0x3a7ba37a	0.000959925
157	0x39546070	0.00020253821
158	0x39d900c5	0.0004139004
159	0xbaf6bcaf	-0.0018824543
160	0xbb0b2bac	-0.0021235747
161	0x3b08fa0e	0.0020900997
162	0x3b326d82	0.0027225916
163	0xba96b634	-0.0011498393
164	0xb8e55ecb	-0.000109372275
165	0xba02f3de	-0.00049954455
166	0x39d6fcef	0.0004100571
167	0x38598fa6	5.1870615e-05
168	0xbac0c742	-0.0014707821
169	0x3980d233	0.00024570673
170	0x39d189f1	0.0003996636
171	0xba9c4602	-0.001192272
172	0xbaed587b	-0.0018108034
173	0xb95b32b6	-0.00020904359
174	0xba65937b	-0.0008757633
175	0xbb709893	-0.0036712035
176	0x3a5d76ad	0.0008448165
177	0xbab2bb78	-0.0013636192
178	0xb7911f09	-1.7299799e-05
179	0xba641038	-0.00086999265
180	0x3ae56b37	0.0017503266
181	0x3acab9f7	0.0015466799
182	0xbb58b5e7	-0.0033067407
183	0x3b87f807	0.00414944
184	0xbaa21e4f	-0.0012368652
185	0x3a5fd5e6	0.0008538648
186	0xbb1a3ec3	-0.0023535944
187	0xbb8b96e6	-0.004259932
188	0x39ef536e	0.00045647792
189	0x3b09ff14	0.002105658
190	0x3914f437	0.00014205357
191	0x38d7aa42	0.00010283712
192	0x3a748d50	0.00093289185
193	0xbb0ba06c	-0.0021305336
194	0xba46b5c5	-0.00075801864
195	0x388e3c30	6.7822984e-05
196	0x3913866e	0.00014069091
197	0x3bb876d3	0.0056293993
198	0x3a18bcd4	0.00058264774
199	0x3b0b31cf	0.0021239405
200	0x3ab62c66	0.001389873
201	0xba75dee4	-0.00093792216
202	0xb92dc243	-0.00016570934
203	0xbb812f4d	-0.0039424063
204	0x39d6c0de	0.00040960958
205	0xbb2bbcee	-0.002620514
206	0x38d2ea7b	0.00010057256
207	0xbac1a4ae	-0.001477381
208	0xba84c223	-0.0010128658
209	0x3afc3448	0.0019241655
210	0xba98352c	-0.0011612526
211	0xbb009218	-0.0019618329
212	0xbb26ebfb	-0.0025470245
213	0xba41af90	-0.00073885266
214	0xba834718	-0.0010015694
215	0x3a0c7d8c	0.0005359284
216	0x3b16a278	0.0022985023
217	0xba0aeecc	-0.0005299866
218	0x3aa483f5	0.0012551533
219	0x39cd9b93	0.0003921656
220	0x3a2fa4bf	0.00067002693
221	0x39091158	0.00013071799
222	0x3aa5f96c	0.0012662834
223	0xbb60e8b4	-0.003431839
224	0xbb0989f5	-0.002098677
225	0x3b752548	0.0037406255
226	0xbba4b4d5	-0.0050264397
227	0x3b5bc948	0.003353672
228	0x39107d56	0.00013779601
229	0x3b2ed7bc	0.002667888
230	0xbad29ed9	-0.0016069069
231	0xba4f9ed4	-0.00079200906
232	0xbb1cf795	-0.0023951281
233	0xbad274e4	-0.0016056565
234	0xba55c6ce	-0.00081549294
235	0x3981d93b	0.00024766647
236	0x3ac95b05	0.0015362209
237	0x39e668d0	0.0004394711
238	0x3a7a1cbe	0.0009541026
239	0x3a3017e4	0.0006717427
240	0xbb58c94a	-0.0033078962
241	0xbb27ca49	-0.002560275
242	0xba944cac	-0.0011314354
243	0xbb51d593	-0.003201817
244	0xba2f344c	-0.0006683513
245	0x3a694447	0.0008898419
246	0x3a721e2c	0.00092360633
247	0xbaa0ab6c	-0.0012258119
248	0xbafd4574	-0.0019323067
249	0x3a87f69d	0.0010373179
250	0xbb462c08	-0.0030238647
251	0x3b2b1c19	0.0026109277
252	0x3b27d045	0.0025606316
253	0xbb460276	-0.003021387
254	0xbac34cc0	-0.0014900193
255	0xb9ef1a5d	-0.00045605274

bn.running_mean f4 [256]
0	0x3f857361	1.0425836
1	0xbf49e5d9	-0.78866345
2	0xc021fc16	-2.531011
3	0x3f258f2c	0.6467159
4	0x3ef00dd9	0.46885565
5	0xbf9f0448	-1.2423182
6	0xbfc0e138	-1.5068731
7	0x3ea473b9	0.3211954
8	0x3fa26072	1.2685683
9	0xbee5918a	-0.448376
10	0x3d4077e5	0.04698934
11	0x3df5edb6	0.120082304
12	0xbffa8cdb	-1.9574236
13	0x3f8807ad	1.0627342
14	0xbd0192da	-0.03163419
15	0x3f9ff0e9	1.2495395
16	0x3e97bc12	0.29635674
17	0x3dabe4ae	0.083932266
18	0xbec0da06	-0.3766634
19	0x3e0e15cc	0.13875502
20	0xbfba3a38	-1.4549017
21	0x3e0a2728	0.134915
22	0xbed1d934	-0.40986025
23	0xbe07cae7	-0.13260995
24	0x3fb7dca0	1.4364204
25	0xbe84bee3	-0.25926885
26	0x3f4f1f23	0.80906886
27	0x3e5e56bd	0.21712776
28	0x3f346162	0.70461094
29	0xbeda8c73	-0.4268528
30	0xbef2ee24	-0.47447312
31	0xc0012545	-2.0178998
32	0x3e3fb2f6	0.18720612
33	0x3f3002de	0.68754375
34	0x3f7c0ad5	0.9845403
35	0xbeef4288	-0.46730447
36	0x3f6a9fd6	0.9165014
37	0xc01b3ef3	-2.425717
38	0x3eef2f8e	0.4671597
39	0x3f0ad46f	0.542304
40	0xbf89b8bb	-1.07595
41	0xbf4e3ab5	-0.8055833
42	0xbe0668c8	-0.13125908
43	0xbf24e824	-0.6441672
44	0xbf77570d	-0.96617204
45	0xbfe5ac8a	-1.794328
46	0x3f95ce76	1.1703632
47	0x3f4aeff6	0.792724
48	0x3f9782c2	1.1836779
49	0xbe879f0d	-0.26488534
50	0x3e67e17f	0.22644614
51	0x3e484504	0.19557577
52	0x3e97db7e	0.29659647
53	0x3ec6beea	0.3881753
54	0x3f915ac7	1.1355828
55	0x3e2755f5	0.16341384
56	0xbd09c802	-0.033638008
57	0xbe263dda	-0.16234532
58	0x3f25a079	0.64697987
59	0x3ee46ba3	0.4461337
60	0xbfa95b98	-1.3231077
61	0xbd4f3598	-0.05058822
62	0xbeb1f188	-0.34754586
63	0xbfcd9e47	-1.6063927
64	0x3c8886bd	0.01666581
65	0xc0022986	-2.0337844
66	0xbfa67702	-1.3005068
67	0xbfc06378	-1.5030355
68	0xbf4fa62a	-0.8111292
69	0xbfeefb73	-1.8670486
70	0x3e877c65	0.26462093
71	0xbfbdaf79	-1.4819175
72	0x3f0f9c64	0.5609801
73	0xbe96077d	-0.29302588
74	0x3f0cf393	0.55059165
75	0xbf9c6f8b	-1.222154
76	0xbc4d4a53	-0.012529927
77	0xbdd0c396	-0.10193555
78	0xbf6ca3c8	-0.9243741
79	0xbe74b64d	-0.23897667
80	0xbdde3a1a	-0.10850926
81	0x3e53b34f	0.2067387
82	0xbf720e5a	-0.9455315
83	0x3f599773	0.8499672
84	0xbd7b8976	-0.06141039
85	0x3f7e0c3a	0.99237406
86	0xbeae6e1e	-0.34068388
87	0x3f316d6d	0.69307595
88	0xc007636d	-2.1154435
89	0x3ef1ccc7	0.47226545
90	0xbe13af5c	-0.14422363
91	0xbe98df15	-0.29857698
92	0x3f6a7499	0.91584164
93	0x3f0f3455	0.5593923
94	0xbecbe1d7	-0.3982074
95	0x3ed0fe05	0.40818802
96	0xbd45c89c	-0.04828702
97	0x3f5b5453	0.85675544
98	0xbef0d7a7	-0.4703953
99	0xbf4c81d9	-0.7988563
100	0xbfbd3beb	-1.478391
101	0x3d896f16	0.06710641
102	0xbf2551ba	-0.6457783
103	0xbe232856	-0.15933356
104	0x40023488	2.0344563
105	0x3e7824ae	0.24232742
106	0x3f4385a3	0.7637579
107	0x3e842379	0.25808313
108	0xbf9795a5	-1.1842543
109	0x40144017	2.3164117
110	0xbf1734e4	-0.5906508
111	0x3ebdc745	0.37066093
112	0xc02b1519	-2.6731627
113	0xbf4447ec	-0.76672244
114	0x3f709d4d	0.9399002
115	0xbf95bfcf	-1.169916
116	0x3f6eef72	0.93334115
117	0x3e020c0f	0.12699912
118	0x3f7ffb0e	0.99992454
119	0x3e4a364c	0.19747275
120	0xbe97e303	-0.29665384
121	0xc006300b	-2.0966823
122	0xbfef6321	-1.8702127
123	0x3e9b63a5	0.3034946
124	0x3d719205	0.058977146
125	0x3fdf82db	1.7461809
126	0xbdc30200	-0.09521866
127	0xbf5bf595	-0.85921603
128	0x3fc3bf75	1.5292803
129	0x3f637736	0.88853776
130	0xbf7b267f	-0.98105615
131	0x3fa1b270	1.263258
132	0xbf5a874b	-0.8536269
133	0x3ca49f7f	0.020095585
134	0xbfd3d321	-1.6548806
135	0x3e1975af	0.14986299
136	0x3f764432	0.9619781
137	0x3ee1efaa	0.44128162
138	0x3ec31cda	0.3810795
139	0x3f2d20c3	0.67628115
140	0x3f379934	0.71718144
141	0x3f944eca	1.1586545
142	0x3fabd944	1.3425679
143	0x3e4069b8	0.18790329
144	0x3f56ac51	0.83856684
145	0xbf7cf73d	-0.98814756
146	0x3e443809	0.19162
147	0xbe3c9174	-0.18414861
148	0xbb4d04fc	-0.0031283488
149	0xc02121d2	-2.5176892
150	0xc03ab626	-2.9173675
151	0xbf4c9635	-0.799167
152	0xbe6f72c9	-0.23383631
153	0xbe75c05d	-0.23999162
154	0xbf31dd05	-0.69477874
155	0xbf4f704d	-0.8103073
156	0x4023da17	2.5601861
157	0x3f93e6bb	1.1554788
158	0xbf37f74e	-0.7186173
159	0x3f822d02	1.0169985
160	0xbf33bdf1	-0.702117
161	0xc00b5987	-2.1773393
162	0xc00b29f0	-2.1744347
163	0xbd3eedc8	-0.046613485
164	0x3e1e6517	0.1546825
165	0xbf1c1043	-0.60962313
166	0x3f73b1e7	0.9519333
167	0xc01a7b73	-2.4137847
168	0x3f618916	0.880998
169	0x3ec3cfa9	0.3824437
170	0x3f481067	0.7815003
171	0x3fc64c8f	1.5492114
172	0x3f13458a	0.57527983
173	0xbf03dc76	-0.5150827
174	0x3f32f050	0.6989794
175	0x3ee0a108	0.43872857
176	0x3e8b05f7	0.27152988
177	0x3fc01075	1.5005022
178	0xc0367aa2	-2.851235
179	0xbfa165d5	-1.2609202
180	0xbf89e3a1	-1.0772592
181	0x3de9212f	0.113832824
182	0xbded68eb	-0.11592277
183	0x3fef6b2d	1.8704582
184	0x3eb50d8b	0.35361895
185	0x3f1b3c96	0.6063932
186	0x3ef4a056	0.47778577
187	0x3fa9f292	1.3277152
188	0xbf715d66	-0.9428314
189	0x40018dfc	2.024291
190	0xbeb62d50	-0.35581446
191	0xbee08b37	-0.43856212
192	0xbf772334	-0.9653809
193	0xbe3aeb67	-0.18253861
194	0x3e40d0ee	0.188297
195	0x3f17c4c9	0.59284645
196	0xc011430e	-2.2697177
197	0xbe576ff0	-0.21038795
198	0xbf51a157	-0.8188681
199	0xbd938ba7	-0.07204371
200	0x3fad21fb	1.3525995
201	0xbfe544d2	-1.7911627
202	0x3f67f0db	0.9060189
203	0xbf6a297a	-0.9146954
204	0x3fbd7e21	1.4804116
205	0x3facdeb3	1.3505462
206	0x3fc39f2e	1.5282953
207	0xbf5dc5d8	-0.8663001
208	0x3e9daa5e	0.30794042
209	0x3f830339	1.0235358
210	0xbd5f423c	-0.054506525
211	0x3e746b1a	0.23868981
212	0xbfb6ce6e	-1.4281747
213	0x3e46e8bb	0.19424717
214	0xbee6caba	-0.45076543
215	0xbe4a91a4	-0.1978212
216	0x3f997ee5	1.199185
217	0xbfb3f637	-1.4059514
218	0x3f2dd0a9	0.67896515
219	0xbeb1bd9d	-0.34714976
220	0x3d893a97	0.06700628
221	0x3f3b3e51	0.7314196
222	0x3f861502	1.0475161
223	0x3f89d82e	1.0769098
224	0x3f987d75	1.1913286
225	0xbfbd803b	-1.4804758
226	0x3ee0ee67	0.43931887
227	0x3f1f485b	0.6221978
228	0xbf120105	-0.57032806
229	0x3fa09a06	1.2547004
230	0x3f4a3b04	0.789963
231	0x39f0bc2f	0.00045916575
232	0x3fa8e613	1.3195213
233	0x3f348c9a	0.7052704
234	0xbddcfb9d	-0.10790179
235	0xbd73ea23	-0.059549462
236	0xbe7767e0	-0.24160719
237	0xbf8e1842	-1.1101153
238	0x3f5089d8	0.8146033
239	0x3f142ddf	0.57882494
240	0xbf9cc4a5	-1.2247511
241	0xbf0bba41	-0.54581076
242	0xbf6638e6	-0.8993057
243	0x3f9773a7	1.1832169
244	0x3ef15b21	0.47139838
245	0xbfe46c35	-1.7845522
246	0xbf19439a	-0.59868777
247	0xbefe9202	-0.4972077
248	0xbf5172d7	-0.81815857
249	0xbf01f90c	-0.5077064
250	0x3fcbbc28	1.5916796
251	0xbeec9ac9	-0.46211842
252	0xbe92b481	-0.2865334
253	0xbe938f2d	-0.28820172
254	0xbe4f4d6f	-0.20244382
255	0x3e370f29	0.17876877

bn.running_var f4 [256]
0	0x3f64603a	0.8920933
1	0x3f029804	0.5101321
2	0x3f18898b	0.59584874
3	0x3f41e57d	0.75740796
4	0x3ee25475	0.4420506
5	0x3f97bb8e	1.1854112
6	0x3f2c760c	0.67367625
7	0x3f291c9d	0.66059285
8	0x3f303000	0.6882324
9	0x3ed02b61	0.40658095
10	0x3f3e58ea	0.7435442
11	0x3f0aa2be	0.54154575
12	0x3f9146ec	1.1349769
13	0x3f280f90	0.65648746
14	0x3f11567c	0.5677259
15	0x3f0c1366	0.547171
16	0x3ef3665d	0.47539034
17	0x3f37ab00	0.717453
18	0x3f06d02d	0.526614
19	0x3f92af5e	1.1459768
20	0x3f65e160	0.8979702
21	0x3ed6daed	0.41963902
22	0x3f3b2c72	0.73114693
23	0x3f137a6a	0.57608664
24	0x3f0c82d7	0.54887146
25	0x3f3ec265	0.7451537
26	0x3f8a9808	1.0827646
27	0x3f4aad44	0.7917063
28	0x3f36c81e	0.71399105
29	0x3f5f4551	0.87215143
30	0x3f462dce	0.7741364
31	0x3f1f390d	0.6219643
32	0x3f87655c	1.0577807
33	0x3f402d30	0.7506895
34	0x3f4e8bfe	0.8068236
35	0x3f31eb3b	0.6949956
36	0x3f3858fa	0.7201077
37	0x3f12e25f	0.57376665
38	0x3f45c1c6	0.772488
39	0x3ee6cc7a	0.45077878
40	0x3f25513e	0.6457709
41	0x3f599830	0.84997845
42	0x3eecbe21	0.46238807
43	0x3f9875b4	1.191092
44	0x3f4894eb	0.7835223
45	0x3f293ae2	0.66105473
46	0x3f33dbc5	0.70257217
47	0x3f69b943	0.9129831
48	0x3f682550	0.90681934
49	0x3f1364e4	0.5757582
50	0x3f031df2	0.5121757
51	0x3fbadbdc	1.4598346
52	0x3f3ae685	0.73007995
53	0x3f376d4a	0.71651137
54	0x3f4ea486	0.8071979
55	0x3f40fdad	0.7538708
56	0x3f5f64e9	0.8726335
57	0x3f059ff2	0.5219718
58	0x3f109985	0.5648425
59	0x3f1d7033	0.6149933
60	0x3f2a27bd	0.66466886
61	0x3f79acbb	0.9752919
62	0x3f8a4faa	1.0805562
63	0x3f352d5b	0.7077233
64	0x3f30f0ff	0.6911773
65	0x3f57423d	0.84085447
66	0x3f306b80	0.6891403
67	0x3f342846	0.7037395
68	0x3f5ac4e4	0.8545668
69	0x3f09ac4d	0.53778535
70	0x3f0134ac	0.50470996
71	0x3f617af2	0.88078225
72	0x3f0caf17	0.54954666
73	0x3f012871	0.50452334
74	0x3f314917	0.6925215
75	0x3f2072a8	0.6267495
76	0x3f06eade	0.5270213
77	0x3f037d81	0.5136338
78	0x3f580526	0.84382856
79	0x3f0681c4	0.52541757
80	0x3ef080a2	0.4697314
81	0x3f33af02	0.70188916
82	0x3f4d607e	0.8022536
83	0x3f466627	0.7749962
84	0x3fa78f81	1.3090669
85	0x3f26f96c	0.6522434
86	0x3fa16b51	1.2610875
87	0x3f1c9df8	0.6117854
88	0x3fa02040	1.2509842
89	0x3f986fad	1.1909081
90	0x3f42c400	0.7608032
91	0x3f1d4206	0.6142887
92	0x3f441426	0.76593244
93	0x3f516d48	0.81807375
94	0x3f1b0f08	0.6056981
95	0x3edb624f	0.4284844
96	0x3f959162	1.1684992
97	0x3f3f9a9d	0.74845296
98	0x3f26d61f	0.6517047
99	0x3f16da12	0.589265
100	0x3f07df08	0.53074694
101	0x3eeac814	0.45855772
102	0x3f844bf0	1.0335674
103	0x3f89f9af	1.0779322
104	0x3f6dd1d2	0.92898285
105	0x3f3ab0ef	0.7292623
106	0x3edf64e7	0.4363167
107	0x3f08704d	0.5329636
108	0x3f2ee462	0.68317235
109	0x3f49fe10	0.78903294
110	0x3f832afc	1.0247493
111	0x3f1977a4	0.5994818
112	0x3f29ef12	0.6638042
113	0x3f0957d7	0.5364966
114	0x3fb7ff3d	1.4374768
115	0x3eedd5c5	0.46452156
116	0x3f1286f5	0.5723718
117	0x3f1b4d2c	0.6066463
118	0x3ef7f563	0.48429403
119	0x3f35b630	0.7098112
120	0x3f0c2793	0.54747885
121	0x3f311b24	0.6918204
122	0x3f35b9cc	0.7098663
123	0x3f8bb3e0	1.0914268
124	0x3f1ba5ed	0.6080006
125	0x3f066511	0.52497965
126	0x3f275eb4	0.6537888
127	0x3ee5e2f8	0.44899726
128	0x3f6c12e9	0.92216355
129	0x3f3f44fe	0.7471465
130	0x3f3f7d42	0.74800503
131	0x3f730558	0.9493003
132	0x3f2c7117	0.6736006
133	0x3f2d4db6	0.676967
134	0x3f31cc1e	0.69452083
135	0x3f0c7116	0.54860055
136	0x3f72a41c	0.9478166
137	0x3f468b18	0.7755599
138	0x3f06b215	0.5261548
139	0x3f3478eb	0.70497006
140	0x3f9a3411	1.204714
141	0x3ee29edc	0.44261825
142	0x3f30cbbe	0.69060886
143	0x3f7aa4f6	0.9790796
144	0x3f2e323e	0.68045413
145	0x3f5af288	0.85526323
146	0x3f2d9ccc	0.6781738
147	0x3f2aa2fe	0.66654956
148	0x3f3926b4	0.7232468
149	0x3f514c28	0.8175683
150	0x3f8b5b10	1.0887165
151	0x3f13bc81	0.5770951
152	0x3f08094e	0.531392
153	0x3f13da74	0.5775521
154	0x3ee51547	0.44742796
155	0x3f0cdd78	0.55025434
156	0x3f13bda8	0.5771127
157	0x3f55d2b3	0.83524626
158	0x3f793bec	0.9735706
159	0x3f069912	0.52577317
160	0x3f60d5b4	0.87826085
161	0x3f256381	0.64604956
162	0x3f886509	1.0655833
163	0x3edd771c	0.43254936
164	0x3f6947b7	0.91125053
165	0x3ee1a120	0.4406824
166	0x3f2b4777	0.6690592
167	0x3f198a4b	0.59976643
168	0x3edc99a7	0.43085977
169	0x3f1322ea	0.5747515
170	0x3ef78120	0.48340702
171	0x3f2323d5	0.6372655
172	0x3f13e070	0.5776434
173	0x3f357eb0	0.70896435
174	0x3f477135	0.77907115
175	0x3f441698	0.76596975
176	0x3f46d27f	0.7766494
177	0x3f3cb6dd	0.7371653
178	0x3f0c0fbb	0.547115
179	0x3f13f1bf	0.5779075
180	0x3f211050	0.62915516
181	0x3f368628	0.71298456
182	0x3f2d710f	0.6775064
183	0x3f237a57	0.6385855
184	0x3f702a7c	0.93814826
185	0x3f486b50	0.78288746
186	0x3f5a794a	0.8534132
187	0x3fd4a081	1.6611482
188	0x3f55792a	0.83388007
189	0x3f238f99	0.6389099
190	0x3f5645b4	0.8370011
191	0x3f269204	0.6506655
192	0x3f2cc7d0	0.6749239
193	0x3f2406c3	0.6407282
194	0x3f022718	0.508409
195	0x3f4f61d7	0.81008667
196	0x3f30d19e	0.6906985
197	0x3f5922b0	0.84818554
198	0x3f220289	0.6328512
199	0x3f1b591a	0.60682833
200	0x3f139cc0	0.57661057
201	0x3f723821	0.94616896
202	0x3fbab4eb	1.4586462
203	0x3f3efeac	0.7460735
204	0x3efccb39	0.49373797
205	0x3ef4b802	0.47796637
206	0x3f304399	0.68853146
207	0x3ee67303	0.45009622
208	0x3eff3d24	0.49851334
209	0x3f2a7de5	0.6659835
210	0x3f3f5184	0.7473376
211	0x3f13cdbc	0.577358
212	0x3f48e2eb	0.7847125
213	0x3f1a1d78	0.60201216
214	0x3ef6667f	0.48125073
215	0x3f4835cb	0.7820708
216	0x3f078ff9	0.5295406
217	0x3f8c79af	1.0974635
218	0x3f30c7e4	0.6905501
219	0x3f574eaa	0.84104407
220	0x3efe60d4	0.4968325
221	0x3ef06de8	0.46958852
222	0x3f812eeb	1.0092443
223	0x3f3e7264	0.74393296
224	0x3f3f3aaf	0.7469892
225	0x3f916492	1.1358817
226	0x3f8b5bae	1.0887353
227	0x3f45dad7	0.7728705
228	0x3f3fd5f8	0.74935865
229	0x3f7a90be	0.9787711
230	0x3f3ad078	0.7297435
231	0x3f121be7	0.57073826
232	0x3f9687d3	1.17602
233	0x3f7af68d	0.98032457
234	0x3f4868dc	0.78285
235	0x3edf2495	0.43582597
236	0x3f5ce155	0.8628133
237	0x3f1e9af6	0.619552
238	0x3eece996	0.46271962
239	0x3f3632d6	0.7117132
240	0x3f11e65a	0.56992114
241	0x3f86dc92	1.0536063
242	0x3f0ee40f	0.5581674
243	0x3f08e067	0.5346741
244	0x3fa08008	1.2539072
245	0x3f30f54b	0.6912429
246	0x3f254700	0.6456146
247	0x3f12742b	0.5720851
248	0x3eeb3146	0.4593603
249	0x3f022585	0.508385
250	0x3f16ef68	0.58959055
251	0x3f20452a	0.62605536
252	0x3f0e2c6b	0.55536526
253	0x3f4b0cb0	0.79316235
254	0x3f787c53	0.97064704
255	0x3f73694a	0.95082533

bottleneck.weight f4 [256, 512]
0	0x3c90d31c	0.01767879
1	0xbc2a0dcb	-0.010379265
2	0x3dac40e8	0.084108174
3	0xbd4f37cb	-0.050590318
4	0x3c1e7b65	0.009672974
5	0xbd770d4c	-0.060315415
6	0xbd832db9	-0.06405205
7	0x3dcf6f30	0.10128629
8	0x3c66c212	0.014084356
9	0x3d68922d	0.05678003
10	0x3d1b036e	0.037845068
11	0x3d0b5eb4	0.034025863
12	0x3d158e0f	0.03651243
13	0xbda54f8d	-0.08071814
14	0xbd61b7d9	-0.05510697
15	0xbb42c161	-0.0029717314
16	0x3c05df2e	0.008170886
17	0x3c44b85f	0.012006848
18	0x3c7e4908	0.015520342
19	0xbc2708dd	-0.010194984
20	0x3a90b256	0.0011039476
21	0xbdeac63f	-0.11463594
22	0xbd2745ac	-0.04083793
23	0x3db88617	0.090099506
24	0xbc483d0b	-0.012221585
25	0x3ca42c2f	0.0200406
26	0xbd1f55e2	-0.038900264
27	0x3dc5b66d	0.096539356
28	0x3c51d9bb	0.012808259
29	0x3d49c516	0.04926022
30	0xbd3af371	-0.04564232
31	0xbc33ba59	-0.010969722
32	0xbd413bba	-0.0471761
33	0xbba8a082	-0.005146087
34	0x3ca874d9	0.02056353
35	0x3dbc8886	0.09205727
36	0x3ce12e6c	0.027487956
37	0xbda89e70	-0.082333446
38	0xbbc076eb	-0.005873551
39	0x3e1e9e49	0.15490068
40	0x3cc32f8d	0.023826385
41	0x3cbd1481	0.023081066
42	0x3d36c5f2	0.04462237
43	0xbc966bd4	-0.018361963
44	0x3d73fcaa	0.05956713
45	0xbd1a9881	-0.037743095
46	0x3c3b821c	0.011444595
47	0xbc958a41	-0.018254401
48	0xbda92523	-0.082590364
49	0x3d1d55bf	0.038411852
50	0x3d9c7417	0.0763933
51	0xbd9dc2fd	-0.07703207
52	0xbc8bfc98	-0.01708822
53	0x3c4d1ab3	0.012518573
54	0x3d89bdc3	0.06725647
55	0xbc03ad35	-0.008036901
56	0xbd70fa34	-0.058832362
57	0x3d8ecc89	0.06972606
58	0x3d7e0b53	0.06202252
59	0x3cb4174d	0.021983767
60	0x3d958355	0.0730044
61	0xbd0a2bcd	-0.033733178
62	0xbc157671	-0.009122477
63	0x3d36eab6	0.04465743
64	0x3d0f5a54	0.034998253
65	0x3c9061f9	0.017624842
66	0xbd93de1e	-0.072201
67	0xbd839195	-0.06424252
68	0xbc34b3b3	-0.011029172
69	0xbbce7b7c	-0.0063013416
70	0xbd429304	-0.047503486
71	0xbccb1fad	-0.024795378
72	0x3c8a4cad	0.016882265
73	0x3d0ac9be	0.033883803
74	0x3d5df106	0.054184936
75	0x3b00f4ca	0.0019677156
76	0xbc1431c5	-0.009045069
77	0x3d526027	0.05136123
78	0xbd3dd008	-0.046340972
79	0x3b91a4e8	0.004444707
80	0xbc7cf1c0	-0.015438497
81	0xbd56af40	-0.052413225
82	0xbc896751	-0.016772898
83	0xbdacba7d	-0.08434007
84	0x3cdde61d	0.027087266
85	0x3d891978	0.06694311
86	0xb91aba33	-0.00014755949
87	0xbd87eae9	-0.066366024
88	0xbccbd9d6	-0.024884146
89	0xbc9b649b	-0.01896887
90	0xbcb0c9d8	-0.021580622
91	0x3d3a32eb	0.045458715
92	0xbb6cb01d	-0.0036115714
93	0x3d799d92	0.060941286
94	0xbd574c24	-0.052562848
95	0x3daf8381	0.08570004
96	0xbc02897d	-0.00796735
97	0x3c924965	0.017857263
98	0x3ce3014c	0.02771058
99	0xbd89c7dc	-0.06727573
100	0x3c48ac8d	0.012248171
101	0xbd97c483	-0.074105285
102	0x3bee6aec	0.0072759297
103	0xbdb5a349	-0.08869035
104	0xbac0c19f	-0.0014706141
105	0x3b8e56c5	0.00434384
106	0x3d1addef	0.03780931
107	0x3b8dffcb	0.0043334714
108	0xbce0591e	-0.027386244
109	0xbcd89903	-0.02644015
110	0xbd8f42a0	-0.069951296
111	0x3d8b00a8	0.067872345
112	0x3c9662f2	0.018357728
113	0xbb2217a4	-0.002473333
114	0x3df32cf5	0.11873809
115	0xbd975ac7	-0.07390361
116	0x3cf3de38	0.029769048
117	0xbd657826	-0.056022786
118	0xbc9f4f92	-0.019447122
119	0x3dc0e838	0.09419292
120	0x3c9f6174	0.019455649
121	0x3d37da45	0.044885892
122	0xbd19aa0b	-0.03751568
123	0x3c896349	0.016770976
124	0xbd68f081	-0.056869987
125	0xbd40df72	-0.047088094
126	0xbd0ff140	-0.035142183
127	0xbd21ee4e	-0.039533906
128	0xba3b99d6	-0.0007156407
129	0xbd0a5b4d	-0.033778477
130	0xbd87c8ad	-0.06630073
131	0x3cd1a0f5	0.025589446
132	0xbcfeb97d	-0.031094307
133	0xbd2dbbe1	-0.042415503
134	0x3d9da365	0.07697181
135	0xbd75fd01	-0.060055736
136	0x3c270718	0.010194562
137	0xbb9aed4d	-0.0047279955
138	0xbbafd7bb	-0.0053662932
139	0x3d21c1ee	0.039491586
140	0xbd08a065	-0.03335609
141	0xbce1a8cc	-0.027546309
142	0xbd433222	-0.047655232
143	0x3d9c6030	0.07635534
144	0xbc9284bb	-0.017885556
145	0x3cbcb1c5	0.023033986
146	0xbd6076dc	-0.054800853
147	0xbd510ad2	-0.05103571
148	0x3d718948	0.058968812
149	0xbd6bf456	-0.057606064
150	0x3ce831c8	0.02834405
151	0x3d339c27	0.04385009
152	0x3c136dc3	0.008998337
153	0xbd40dca7	-0.04708543
154	0xbca97c3e	-0.020689126
155	0xbce6d7a8	-0.028179005
156	0xbcef054f	-0.029177336
157	0x3ad3e8b8	0.0016167378
158	0xbbe84026	-0.007087725
159	0x3d2f6bd3	0.04282744
160	0xbd2176ee	-0.03942006
161	0xbb667585	-0.0035165262
162	0x3b1fb1a1	0.002436735
163	0xbcc1a96b	-0.023640355
164	0x3d915177	0.07095616
165	0xbd3046c6	-0.043036245
166	0xbbc78016	-0.006088267
167	0xbc8e2333	-0.017350769
168	0xbd16d805	-0.036827106
169	0x3d24fdac	0.040280983
170	0x3d4493d8	0.047992557
171	0x3daf1b08	0.08550078
172	0xbd4c4c80	-0.049877644
173	0x3d064a11	0.03278548
174	0x3dde33d3	0.108497284
175	0xbbb41869	-0.005496074
176	0x3cba616e	0.022751536
177	0x3d6cff74	0.057860807
178	0x3d9cdae7	0.0765894
179	0x3b97c785	0.004631939
180	0x3cc8ef19	0.024528073
181	0xbd2b2a7c	-0.041788563
182	0x3d7ac690	0.06122452
183	0xbc4ba784	-0.012430076
184	0xbd337035	-0.04380818
185	0x3c9391cc	0.018013857
186	0x3d8f595e	0.06999467
187	0xbd07158c	-0.032979533
188	0x3bf85b33	0.007579231
189	0x3cef5920	0.029217303
190	0x3c8eb353	0.017419493
191	0x3cd8f525	0.026484082
192	0xbcc970a8	-0.024589851
193	0xbd820bdd	-0.06349919
194	0xbd248ba6	-0.04017224
195	0xbd185c62	-0.037197478
196	0xbdd7f25e	-0.10544275
197	0xbd9dae8c	-0.07699308
198	0x3c91c2a7	0.017793013
199	0x3dcda209	0.100406714
200	0xbd8274e7	-0.063699536
201	0x3d39c691	0.045355383
202	0xbd2edf87	-0.04269364
203	0xbcbb5a06	-0.022870075
204	0xbd49608d	-0.049164344
205	0xbd3e0060	-0.046387076
206	0x3d57fba5	0.05273022
207	0x3da71208	0.08157736
208	0xbb8c06a6	-0.0042732535
209	0x3ce5c822	0.028049532
210	0xbd5a5085	-0.053299446
211	0xbd6f4782	-0.058417805
212	0xbd130d03	-0.03590108
213	0xbccc1489	-0.024912136
214	0x3d6036de	0.054739825
215	0x3c40c418	0.011765502
216	0xbcae92fb	-0.02131032
217	0xbd61c404	-0.055118576
218	0x3d64627e	0.055757992
219	0x3d505b88	0.05086854
220	0x3d0852cd	0.03328209
221	0x3cde4f12	0.027137313
222	0xbd49fed2	-0.04931528
223	0x3db0a78f	0.08625709
224	0xbd3fa680	-0.046789646
225	0xbcdfc37c	-0.027314894
226	0xbd360e7a	-0.0444474
227	0x3d2dee33	0.042463493
228	0xbcf3b289	-0.029748218
229	0xbd7c0274	-0.061525777
230	0xbcceace9	-0.025228934
231	0x3b15eb8a	0.0022875988
232	0x3dc16602	0.094432846
233	0xbb254c84	-0.0025222609
234	0xbc7af0e7	-0.015316225
235	0x3ca11c61	0.019666852
236	0x3d93115b	0.07181045
237	0x3bbc6dc7	0.005750391
238	0xbd08594b	-0.03328828
239	0x3c1eb71e	0.009687213
240	0xbc85fa5b	-0.01635473
241	0xbce8f964	-0.028439231
242	0xbd00a76e	-0.031409673
243	0x3d15f02b	0.036605995
244	0xbcf40522	-0.029787604
245	0x3d6d2a72	0.057901807
246	0xbd6a2974	-0.05716844
247	0xbcc0ef4c	-0.023551606
248	0x3c162602	0.009164335
249	0xbc0cff8c	-0.008605849
250	0xbcebedff	-0.028800009
251	0x3c1b33e9	0.009472826
252	0x3d2add68	0.041715056
253	0x3d47a4a6	0.048741005
254	0x3d18aaab	0.037272137
255	0xbce63e40	-0.028105855

bottleneck.bias f4 [256]
0	0xaf35fe94	-1.6552298e-10
1	0xaf4e558e	-1.8765986e-10
2	0x2f734e18	2.2128466e-10
3	0xaeb269c6	-8.113292e-11
4	0x2ca31994	4.6355784e-12
5	0x2ed897dd	9.849519e-11
6	0xae671a4d	-5.254668e-11
7	0xaf851d9c	-2.4213598e-10
8	0x2f9a3b81	2.8054717e-10
9	0xac54bd79	-3.023219e-12
10	0x2d9a02b7	1.7508979e-11
11	0xae293512	-3.8473287e-11
12	0x2f341983	1.6379968e-10
13	0xae27b645	-3.813329e-11
14	0xaf09091e	-1.2463316e-10
15	0x2d57068e	1.22227905e-11
16	0x2ec54dc9	8.97234e-11
17	0xaf0294df	-1.1876321e-10
18	0xa99c21a9	-6.933631e-14
19	0xadf1c57c	-2.7486229e-11
20	0x2faec29f	3.1788702e-10
21	0xaec36ec1	-8.887247e-11
22	0x2e3ebfac	4.3371237e-11
23	0x2f25a287	1.5064404e-10
24	0xae88e89b	-6.225883e-11
25	0xadd92696	-2.468718e-11
26	0xae1cbb60	-3.5636716e-11
27	0x2e6ef6e9	5.4334235e-11
28	0xae8c038f	-6.367095e-11
29	0xae75df4e	-5.5904885e-11
30	0xae28adb4	-3.8353057e-11
31	0xb0b071e2	-1.2838053e-09
32	0x2ea993e8	7.711504e-11
33	0xada78d02	-1.9048322e-11
34	0x2f48edb2	1.827434e-10
35	0x2d61e395	1.2840303e-11
36	0xae3a0b34	-4.2301454e-11
37	0xafbf74c7	-3.4825673e-10
38	0xaf864e9f	-2.4430322e-10
39	0xae587bc8	-4.9222654e-11
40	0x2db59492	2.0643296e-11
41	0x2e02a80f	2.9707844e-11
42	0x2e867db2	6.1159425e-11
43	0x2e9cff2e	7.139388e-11
44	0x2ed92572	9.874669e-11
45	0xae236428	-3.7150866e-11
46	0xae3e8ac5	-4.332425e-11
47	0xae4477af	-4.467154e-11
48	0xb005d09c	-4.868157e-10
49	0xaf2c9613	-1.5696626e-10
50	0xae2b1082	-3.889556e-11
51	0xaeb410af	-8.188416e-11
52	0x2ef2807c	1.1027709e-10
53	0xadfa02d1	-2.842296e-11
54	0x2ef063e6	1.0931682e-10
55	0x2e0d3bb2	3.211271e-11
56	0x2ef718af	1.1236644e-10
57	0xaee57cfa	-1.04359146e-10
58	0x2e85ce7d	6.0848195e-11
59	0x2f1555b1	1.3581915e-10
60	0xae5d06da	-5.0255668e-11
61	0x2e81e9e4	5.907788e-11
62	0xae95b0d4	-6.8071465e-11
63	0x2e06cc29	3.0649403e-11
64	0x2e8f822c	6.52601e-11
65	0xaf750607	-2.2284762e-10
66	0x2d39a783	1.05532276e-11
67	0x2fdff890	4.0740078e-10
68	0x2f17071b	1.3735894e-10
69	0x2ec2fb13	8.8666983e-11
70	0x2e85bc69	6.081608e-11
71	0x2e3a43ad	4.2351612e-11
72	0xadb684b5	-2.0749938e-11
73	0xaec55e9d	-8.9753295e-11
74	0x2c8468a2	3.7632822e-12
75	0x2f4dcfac	1.8718421e-10
76	0xaedf2b82	-1.01485945e-10
77	0xaf25d0cb	-1.5080841e-10
78	0x2faf4f0f	3.188849e-10
79	0x2d707bd5	1.3669917e-11
80	0xad8924d8	-1.5591459e-11
81	0xaf56e353	-1.9543948e-10
82	0x2f5d7e44	2.0144691e-10
83	0xaee66064	-1.04763115e-10
84	0x2d4b2201	1.1546764e-11
85	0x2ebd06ac	8.59591e-11
86	0xae42cbe6	-4.429159e-11
87	0x2e04a51f	3.0159982e-11
88	0x2ec8aed9	9.126006e-11
89	0xadeaaa85	-2.6678446e-11
90	0xaf487d1b	-1.823434e-10
91	0xaeadb5df	-7.899436e-11
92	0x2ee905db	1.05966534e-10
93	0xaf32893d	-1.6237763e-10
94	0x2f205ca7	1.4584832e-10
95	0x2e6eac5c	5.426802e-11
96	0x2eeff775	1.0912419e-10
97	0xae55b73a	-4.859333e-11
98	0x2e94bf98	6.764295e-11
99	0x2f323b06	1.6209975e-10
100	0xaefd89e3	-1.15296016e-10
101	0x2eb93b18	8.423323e-11
102	0x2e6566aa	5.2159756e-11
103	0xaee5b13d	-1.0445198e-10
104	0xaf76198e	-2.2382649e-10
105	0x2d22bf79	9.251149e-12
106	0x2f00f108	1.1727164e-10
107	0x2e228dc0	3.6960435e-11
108	0x2cc2e307	5.5390167e-12
109	0x2fd68bf9	3.902583e-10
110	0xaf01f46b	-1.1819316e-10
111	0x2dc7e726	2.2726331e-11
112	0xaef40c31	-1.1098001e-10
113	0xae1c6df1	-3.556794e-11
114	0x2f653b37	2.0848466e-10
115	0xae6029bf	-5.096878e-11
116	0x2e7bd3f1	5.7259034e-11
117	0xaf04768e	-1.2047449e-10
118	0x2dd542bc	2.4244932e-11
119	0xad3a70a3	-1.0597886e-11
120	0xadaae664	-1.9429076e-11
121	0x2f021e37	1.1834166e-10
122	0x2eb0e148	8.0435714e-11
123	0xaf16699e	-1.3679943e-10
124	0x2ed8a6ca	9.8521705e-11
125	0x2f8f2e4e	2.604445e-10
126	0x2e0d5633	3.213625e-11
127	0x2bdd848e	1.5739786e-12
128	0xaea8962d	-7.666432e-11
129	0x2ee23306	1.0286354e-10
130	0xacf17443	-6.8625396e-12
131	0x300f6646	5.2168436e-10
132	0x2e7a5878	5.6921995e-11
133	0xade0cfcb	-2.555813e-11
134	0xae70455e	-5.4631293e-11
135	0x2f473209	1.811672e-10
136	0xae7afae6	-5.706626e-11
137	0xaee0afd4	-1.0217574e-10
138	0x2de43ba8	2.5947092e-11
139	0x2ee74521	1.05169436e-10
140	0xaf104f8b	-1.3124983e-10
141	0x2eb43ee1	8.196622e-11
142	0x2fa2482c	2.951891e-10
143	0xaf5539f1	-1.9392822e-10
144	0xafa09872	-2.921215e-10
145	0x2d239474	9.2984405e-12
146	0xac4107ee	-2.7431351e-12
147	0x2ef94f12	1.1337255e-10
148	0x2f638d59	2.0695747e-10
149	0xabb498b7	-1.2832156e-12
150	0x2f378081	1.6689407e-10
151	0xadcee70f	-2.35221e-11
152	0x2da5d9f2	1.8855115e-11
153	0x2e2e4986	3.962832e-11
154	0x2e9e341b	7.194264e-11
155	0x2ed99a90	9.895473e-11
156	0xae8e02f5	-6.457938e-11
157	0xae5aa461	-4.971346e-11
158	0x2eff98d7	1.1623207e-10
159	0x2e96ea83	6.862868e-11
160	0xaf2104b4	-1.4644536e-10
161	0x2f684ec0	2.1128255e-10
162	0x2e564135	4.8715882e-11
163	0xae22f68b	-3.705351e-11
164	0x2ed23b79	9.560259e-11
165	0x2fe4ae01	4.1596596e-10
166	0x2e12dd49	3.3393097e-11
167	0xad8fda47	-1.6354152e-11
168	0x2d1253b0	8.3177215e-12
169	0xaeabe9b5	-7.8176944e-11
170	0xae520b25	-4.775837e-11
171	0xaf65aebf	-2.0889511e-10
172	0xaf1f140d	-1.4468089e-10
173	0x2e7b6603	5.7161397e-11
174	0xafba0294	-3.3835035e-10
175	0x2f60a48d	2.0431142e-10
176	0xae98cd47	-6.948624e-11
177	0x2e1bf3e3	3.5459535e-11
178	0xaea405ea	-7.458907e-11
179	0x2ef842e8	1.1289619e-10
180	0xaefff392	-1.1639324e-10
181	0xaf258c3b	-1.5056482e-10
182	0xaebbecd5	-8.545845e-11
183	0xafdef2f3	-4.055419e-10
184	0xab45422e	-7.00803e-13
185	0xaf474126	-1.812209e-10
186	0xaeb1bcbd	-8.082555e-11
187	0x2d92d7a9	1.669405e-11
188	0x2f17a74a	1.3792803e-10
189	0x2fc7069b	3.6202583e-10
190	0xae6769ac	-5.2617175e-11
191	0x2d8c0fdf	1.5923205e-11
192	0x2f065275	1.2216524e-10
193	0xae076b53	-3.079077e-11
194	0x2f0ec313	1.2984129e-10
195	0xaf18259b	-1.383768e-10
196	0x2eb5b841	8.263657e-11
197	0xaf4edb44	-1.881349e-10
198	0x2f9ea121	2.8854522e-10
199	0x2f46e310	1.8088664e-10
200	0xae3cad78	-4.2900322e-11
201	0x2e4d27d5	4.664698e-11
202	0x2d62b0ae	1.28858434e-11
203	0xafcee26f	-3.7632072e-10
204	0x2eff18eb	1.1600484e-10
205	0x2ef8e497	1.131834e-10
206	0x2e2d8a4d	3.945848e-11
207	0xb0298665	-6.167283e-10
208	0xaf1c04f9	-1.4189884e-10
209	0x2daabf7b	1.9411797e-11
210	0x2e1ce9f6	3.5678092e-11
211	0x2ecaea66	9.227534e-11
212	0x2faf4fe3	3.1889077e-10
213	0xac87f62b	-3.864261e-12
214	0x2effbbd7	1.16294245e-10
215	0xae71f331	-5.5013053e-11
216	0xaf95a0de	-2.7217245e-10
217	0xab698663	-8.296473e-13
218	0xaf51eec5	-1.9093267e-10
219	0x2e54c48c	4.8377788e-11
220	0x2f87172f	2.457283e-10
221	0xaec739bc	-9.059728e-11
222	0x2d56ac9d	1.22028195e-11
223	0xad641f32	-1.2967226e-11
224	0x2f055330	1.2125834e-10
225	0xae955964	-6.7916145e-11
226	0x2e894c83	6.24363e-11
227	0x2dfa421b	2.8451066e-11
228	0x2efd93c3	1.1531356e-10
229	0xaf78f3e0	-2.264211e-10
230	0x2f9ccf2c	2.852344e-10
231	0x2df4d25f	2.7833012e-11
232	0xae788080	-5.6502802e-11
233	0xae0f5fe3	-3.25996e-11
234	0xaef38158	-1.1073337e-10
235	0xaf1512b9	-1.3558123e-10
236	0xae91ba31	-6.626911e-11
237	0x2f43758b	1.7776906e-10
238	0x2f4e0e28	1.874062e-10
239	0x2d9c8bd4	1.7797243e-11
240	0x2f3ade3b	1.6995554e-10
241	0x2cc7972b	5.672703e-12
242	0x2f892bcd	2.4951277e-10
243	0x2b78b40a	8.8357154e-13
244	0xaebce21c	-8.589415e-11
245	0x2fb87d2d	3.3558348e-10
246	0xaea2d512	-7.404756e-11
247	0x2e2b0321	3.8883678e-11
248	0x2eba3764	8.46814e-11
249	0xadf93fb8	-2.833632e-11
250	0xafd4ef88	-3.8732773e-10
251	0x2d9cce75	1.7826832e-11
252	0x2f1352b2	1.3398951e-10
253	0x2efbfc41	1.1458968e-10
254	0x2eb866e6	8.38563e-11
255	0xad467ea0	-1.1283113e-11
