ckps/source/uda/domainnet/real_2/source_C.pt (torch, 358186 bytes, 3 tensors)

fc.bias f4 [345]
000000 c4 bd 30 3c 16 19 cc bb 74 b5 e5 3a c4 29 81 3c
       0.010787431 -0.0062285764 0.0017525391 0.015766986
000010 fe b6 97 3b b5 d3 b5 3c 1f 12 f8 ba 9f c3 37 3c
       0.0046299687 0.022195676 -0.0018926299 0.011216073
000020 6b 77 d3 3b a1 95 6a bc 4f fc ad 39 46 7f 38 bc
       0.0064534447 -0.014317901 0.00033185116 -0.011260813
000030 aa 60 83 bb 87 fb 27 3c 49 68 03 3c cb 2c 33 3b
       -0.004009326 0.01025284 0.008020469 0.002733993
000040 29 27 07 3c 6b 05 a5 bb bc 26 94 bb 05 5d 8a b8
       0.008249083 -0.0050360463 -0.004521219 -6.597679e-05
000050 df 33 58 bc fc 5d df bb e0 69 5a bb 4c b4 cb 39
       -0.013195961 -0.0068166237 -0.0033327267 0.0003885351
000060 03 c0 2a 3c 1a 84 74 3b 26 d7 c0 bb d6 af 11 bd
       0.010421756 0.0037310184 -0.0058850227 -0.03556808
000070 d6 ba 75 bc 23 4f ea 3c 99 cf 3d 3b 33 bc 75 bc
       -0.014998158 0.028602188 0.002896285 -0.0149984835
000080 50 dd 5a bc 77 82 74 bc 3a 8f 7d bb 72 29 0b bd
       -0.013358429 -0.014923683 -0.0038690106 -0.033975072
000090 c8 57 f1 bc 0e e0 df bc dc 40 90 3c 24 60 f6 bb
       -0.029460803 -0.027328517 0.017609052 -0.007518785
0000a0 e8 cc be bb 98 4e a4 ba 53 97 c1 bb 62 39 e2 3c
       -0.0058227666 -0.001253563 -0.005907932 0.027615253
0000b0 99 1a eb bb c8 f4 b5 3b 60 36 61 3c 2f 0d bb 3b
       -0.0071748015 0.005552862 0.013745874 0.0057083587
0000c0 6b b0 05 3c 90 ce 27 3d 90 8b ff bb 94 9f 30 3b
       0.008159737 0.040968478 -0.0077986196 0.0026950585
0000d0 de b4 83 3b c1 30 07 3b d4 db f2 bb cb c2 b9 3b
       0.004019364 0.0020628425 -0.0074114595 0.005668973
0000e0 d5 47 94 ba 80 21 54 3c 63 62 22 39 a1 c2 83 bc
       -0.0011312912 0.01294744 0.00015486176 -0.016084017
0000f0 73 b2 9a 3c 52 f9 b3 3a c4 d9 86 bb c4 25 c9 3c
       0.01888392 0.001373092 -0.004115315 0.02455414
000100 04 56 e5 3c ae b9 3b 3a 5a ac 12 3c 9a 67 cc bc
       0.027995117 0.00071611523 0.008952225 -0.024951745
000110 73 f1 b1 3b 11 bf e8 bb 96 9f 97 3b dd e2 a5 3a
       0.0054303943 -0.007102855 0.0046271784 0.0012656112
000120 06 eb 11 3b f4 95 a5 3b 7c 14 a8 bb 55 42 26 bc
       0.002226533 0.005053276 -0.005129395 -0.010147651
000130 b2 f4 7b 3a 03 1a 94 bb 80 41 19 bc 57 83 92 bc
       0.00096113526 -0.0045197024 -0.009353995 -0.017884893
000140 35 0b fb 3b 8e b6 84 3c ba 99 ce 3b aa eb 23 bc
       0.007661248 0.01620033 0.0063049467 -0.010004917
000150 bc 90 71 3c c9 23 02 3b 1b cf b9 3c 63 bd 8d bc
       0.01474398 0.0019857755 0.022681763 -0.01730222
000160 83 fc 8f ba 45 5a 99 bb c1 c3 01 bd ff 6b 21 3c
       -0.0010985289 -0.0046799504 -0.031680826 0.009852408
000170 f7 4d ec bb c3 81 6e 3c 24 c1 b9 3b 3a 62 60 bb
       -0.0072114426 0.014557305 0.005668776 -0.0034238235
000180 17 fb 6e 3c cc 1a a0 bc c5 6d ee 3c 77 8e 09 bc
       0.014586232 -0.019544028 0.029105077 -0.008395783
000190 7f 82 da ba 46 83 78 bc 36 65 e1 bc 1a 7c fb 3c
       -0.0016670971 -0.015168017 -0.027514081 0.030698825
0001a0 3c a9 d4 3a ae 34 ad bc 8d 13 cd b9 5c 55 ce 3c
       0.0016224752 -0.021143284 -0.00039115213 0.025187187
0001b0 ff 1e 8e bb 9e 05 6c bc 6b ff 12 38 56 01 8b 3c
       -0.004337191 -0.014405636 3.504699e-05 0.01696841
0001c0 ca 41 b5 bc a9 07 c7 3a e4 88 bb 3c 27 2e 52 3b
       -0.022126097 0.0015184778 0.022892423 0.0032070966
0001d0 22 05 6d bc d9 0f 61 3c 1a ee ee bb 82 e2 a1 bb
       -0.014466556 0.0137366885 -0.0072915675 -0.004940332
0001e0 9b 9f fb bb ec 44 d5 3b 8a f5 82 bc 58 a4 5e bc
       -0.0076789386 0.0065084603 -0.015986223 -0.013588987
0001f0 c4 15 92 bb 83 f0 75 3c ba ed a1 3b 16 5a 40 bc
       -0.004458161 0.015010956 0.0049416693 -0.011740228
000200 81 76 85 bc dc b3 2d 3b 4a d7 be 3a 31 41 46 3c
       -0.016291859 0.002650491 0.0014560011 0.012100504
000210 cf cd 75 3a 3b 0c e6 3b 13 de 17 3d 78 e0 6e 3c
       0.0009376676 0.007020501 0.03707702 0.014579885
000220 47 68 7c bc 00 e0 91 ba d9 f7 12 3d d8 22 cd bb
       -0.015405721 -0.0011129379 0.035880897 -0.006260257
000230 b6 0b 66 bc 91 91 05 3d 82 64 23 3c c2 88 74 3a
       -0.014040878 0.032609526 0.009972693 0.000932824
000240 81 10 67 bb 44 ba ef ba 1d 86 a6 3a df 7b 76 38
       -0.003525764 -0.0018289764 0.0012704764 5.8766334e-05
000250 00 f6 7c bc 91 2e 9a 3c f5 d4 4e 3c 3a bf 36 3b
       -0.01543951 0.018821033 0.012624015 0.0027884976
000260 34 22 66 3c 03 68 ad bb 5b 29 7b bc e2 22 b6 bb
       0.014046241 -0.00529194 -0.015329684 -0.0055583576
000270 83 ad c0 bb 7d 1c 16 3c bd 36 67 bc 5b 2d 9f bb
       -0.005880059 0.009162066 -0.014112172 -0.0048577017
000280 df 49 b5 37 b5 b1 af 3c 9e 46 ce bc 56 49 52 bc
       2.161128e-05 0.021447042 -0.025180157 -0.012834867
000290 63 25 0e 3b ef b8 d7 bc 50 63 0b 3c e0 cf 53 bc
       0.0021689765 -0.0263333 0.008507565 -0.012927979
0002a0 a4 89 11 bd e4 5b 12 3b 3b 56 9d bc c9 8b fb 3b
       -0.035531655 0.0022332603 -0.019206157 0.007676576
0002b0 b8 15 a4 3c 55 ee 2d ba 99 32 e4 39 f3 1f 7f 3c
       0.020029888 -0.00066349405 0.00043525247 0.015571582
0002c0 08 6e a6 3b 34 8d 87 bc 47 01 b1 3b a6 59 1e 3c
       0.0050790347 -0.016546823 0.0054017636 0.009664929
0002d0 e1 43 f1 bb f9 e5 a3 bc 88 bd 75 3b 15 a0 e5 bb
       -0.007362828 -0.02000712 0.0037497003 -0.0070076087
0002e0 f6 8b b8 3b 85 7d 5c bc 7d ff ab 3c f9 ee 37 3a
       0.005631919 -0.013457661 0.02099585 0.00070165057
0002f0 a3 e3 ac 3b 94 5f 8c 3c d5 7a 8e bc 83 f0 65 3b
       0.00527616 0.017135419 -0.017392555 0.0035085983
000300 23 14 85 bc 3c 0e fb bc e2 ea 31 bc 5c b2 fe b9
       -0.016244953 -0.030646436 -0.010859223 -0.00048579543
000310 67 16 b1 3b 37 db 3b 3c 29 c1 85 bb 84 d6 a0 bc
       0.005404282 0.011465839 -0.0040818644 -0.019633539
000320 50 69 e5 bc 1f e4 aa b9 26 5b 8f bc 26 d8 97 bc
       -0.028004318 -0.0003259489 -0.017499518 -0.018535685
000330 e0 8b bb bb f4 3a 81 bc 83 58 93 ba 9b de c2 3b
       -0.0057234615 -0.015775181 -0.0011241589 0.005946947
000340 d9 61 86 3c 35 5f 8e 3c 41 b5 54 3b 4f c7 04 bb
       0.01640408 0.017379383 0.0032456669 -0.0020260399
000350 ce 39 4a 3c e3 76 2e 3c 71 9e 88 bc 17 f9 cc 3a
       0.012342883 0.010648462 -0.016677113 0.0015638199
000360 da f8 64 bc b7 60 ba bc a5 91 ca 3b a9 cf 2c 3d
       -0.013975346 -0.022751195 0.006181913 0.042190228
000370 de f9 1d 3b 51 0e 4f 3b 72 e1 46 ba 6b 13 4a bc
       0.0024105231 0.0031594227 -0.00075866946 -0.012333731
000380 4b 85 de 3b 7f 2b 8f 3c 1f 7e 26 b9 0f 5f 52 3c
       0.006790792 0.017476795 -0.00015877977 0.012840047
000390 99 d1 b2 38 5d b0 4f bc c7 a1 b7 3a 5c bf eb bc
       8.526742e-05 -0.012676326 0.0014010005 -0.02877777
0003a0 58 fe e6 bc b9 dc 8e bb e1 cb 7d bc f3 c7 76 3c
       -0.028197452 -0.0043598083 -0.015490503 0.01506232
0003b0 20 1d 6e 3c c7 89 8c bc 67 f9 bd bb 7d 04 f3 3b
       0.014533311 -0.017155541 -0.0057975533 0.0074163065
0003c0 85 7a 38 bd 0f b2 ae bc 3a 75 74 3b 09 0e 58 3c
       -0.04503872 -0.02132514 0.0037301318 0.01318694
0003d0 3e 63 f3 bc 09 fa 2c bc e6 10 ba 3b e6 e4 99 3b
       -0.029710408 -0.01055766 0.005678284 0.0046964763
0003e0 5b 7e 22 3c 40 48 d3 bb c3 89 6f 3c e8 ca 7a 3c
       0.009917821 -0.006447822 0.014620247 0.015307166
0003f0 6c da 36 3b 5c 6f c6 3c 4c 98 29 bc bc b3 1c 3c
       0.0027901186 0.024223022 -0.010351252 0.009564336

fc.weight_g f4 [345, 1]
000000 12 be 38 3f 16 c9 30 3f 97 21 46 3f 88 ac 45 3f
       0.72165024 0.6905683 0.77395004 0.77216387
000010 e6 f8 fb 3e 06 52 41 3f c1 6b 3e 3f 4f 38 3b 3f
       0.49213332 0.7551578 0.7438317 0.73132795
000020 bd ec 01 3f 43 6f 40 3f 2b 11 52 3f c1 b0 49 3f
       0.5075186 0.7516977 0.82057446 0.7878533
000030 f9 ef 44 3f c7 da 31 3f 08 0f 46 3f 32 47 36 3f
       0.7692867 0.6947445 0.77366686 0.71202385
000040 b5 07 09 3f 7a 66 22 3f 32 8d 45 3f a3 8d 32 3f
       0.53527385 0.63437617 0.7716857 0.6974737
000050 9b 75 42 3f f4 27 4e 3f c3 c1 54 3f 96 dd 4d 3f
       0.759607 0.80529714 0.83108157 0.8041624
000060 aa db 4e 3f 5e d3 56 3f 2a 40 4a 3f 18 76 73 3f
       0.8080393 0.8391627 0.79004157 0.9510207
000070 11 4a 64 3f 3e 0e 54 3f 12 97 40 3f ee 8e 6c 3f
       0.89175516 0.8283423 0.75230515 0.92405593
000080 1c fc 3f 3f 2c fa 5a 3f 95 87 68 3f c1 4f 78 3f
       0.74994063 0.8553798 0.9083188 0.96996695
000090 37 ce 71 3f 6f c9 6d 3f c8 ab 42 3f 80 57 65 3f
       0.94455284 0.9288549 0.7604337 0.8958664
0000a0 15 05 67 3f ed 41 60 3f 3a 2c 6c 3f 41 71 50 3f
       0.9024213 0.87600595 0.92254984 0.8142281
0000b0 a0 eb 5a 3f 27 27 3e 3f 9d 40 4f 3f d2 f3 54 3f
       0.85515785 0.7427849 0.8095797 0.8318454
0000c0 ec 59 f5 3e fe 2c 47 3f 14 8e 5c 3f a4 87 67 3f
       0.47920167 0.7780303 0.86154294 0.90441346
0000d0 69 bc 3c 3f c2 52 1e 3f a1 a0 4c 3f 52 f1 49 3f
       0.7372499 0.6184503 0.799326 0.7888385
0000e0 ae 1b 23 3f 29 71 48 3f 55 90 54 3f 2b cd 3f 3f
       0.6371411 0.7829767 0.83032733 0.74922436
0000f0 90 f3 53 3f 76 7e 4e 3f 02 76 54 3f d9 3a 51 3f
       0.8279352 0.80661714 0.82992566 0.8173042
000100 37 ca 52 3f 84 51 2d 3f 81 d8 46 3f 54 f6 59 3f
       0.82339805 0.6770251 0.7767411 0.8514149
000110 92 e3 36 3f 56 7d 48 3f e9 f3 55 3f 4c a0 34 3f
       0.71440995 0.7831625 0.835753 0.70557094
000120 ef 17 43 3f 78 9d 52 3f e2 a9 38 3f 61 8f 5c 3f
       0.76208395 0.8227153 0.7213422 0.8615628
000130 b9 52 3a 3f f8 12 42 3f 5c c4 59 3f 1d 42 5b 3f
       0.72782475 0.75810194 0.85065246 0.85647756
000140 2d 1a 55 3f 1e d8 48 3f dc b2 59 3f b6 21 55 3f
       0.83243066 0.7845477 0.8503854 0.83254564
000150 85 23 53 3f d5 f0 26 3f df df 4a 3f 81 37 4f 3f
       0.82476074 0.6521123 0.7924785 0.8094407
000160 91 62 58 3f c9 45 4f 3f af c6 67 3f 2d 4f 59 3f
       0.845254 0.8096586 0.9053754 0.8488644
000170 c5 e1 4f 3f 04 52 54 3f 33 bf 3f 3f 86 23 51 3f
       0.8120387 0.82937646 0.7490112 0.8169483
000180 2c 69 21 3f 03 60 62 3f 9d 06 55 3f c5 08 43 3f
       0.63051105 0.8842775 0.83213216 0.76185256
000190 ad b7 50 3f c4 4d 4b 3f 99 b5 5a 3f 2b 34 50 3f
       0.81530267 0.79415536 0.85433346 0.813296
0001a0 ed 1c 58 3f 7c ae 54 3f 56 8b 60 3f 33 34 4b 3f
       0.8441914 0.8307874 0.8771261 0.79376525
0001b0 46 7c 59 3f 23 5b 4f 3f 05 2c 4f 3f f7 cd 59 3f
       0.8495525 0.8099844 0.80926543 0.850799
0001c0 a0 f8 6b 3f ca 1f 53 3f 55 c2 4e 3f 88 2b 4d 3f
       0.92176247 0.8247038 0.8076528 0.8014455
0001d0 21 b7 52 3f 07 41 4d 3f f2 4b 4d 3f cd 78 56 3f
       0.8231068 0.8017735 0.8019401 0.8377808
0001e0 71 76 37 3f d6 df 38 3f 54 df 4c 3f 11 60 60 3f
       0.716651 0.72216547 0.8002827 0.87646586
0001f0 5d 62 45 3f 60 93 56 3f c5 57 3e 3f 49 dc 62 3f
       0.77103215 0.83818626 0.74352676 0.8861738
000200 ae d8 60 3f a4 38 4c 3f e0 57 4b 3f 57 d2 48 3f
       0.87830627 0.79773927 0.7943096 0.78445953
000210 bb 86 5b 3f 32 08 38 3f 21 d1 47 3f 40 a0 48 3f
       0.8575246 0.71887505 0.7805348 0.7836952
000220 20 0b 4b 3f 69 e5 5d 3f 57 0d 51 3f 74 2d 58 3f
       0.7931385 0.8667818 0.8166098 0.84444356
000230 4a 14 5a 3f 02 37 4b 3f 5e 8e 5c 3f 08 1f 55 3f
       0.8518721 0.7938081 0.86154735 0.83250475
000240 12 df 57 3f 9d ec 4a 3f ea 14 47 3f 66 81 4f 3f
       0.84324753 0.79267293 0.7776629 0.8105682
000250 de 15 5f 3f 05 78 56 3f cd ad 50 3f 8f 70 5c 3f
       0.8714274 0.83776885 0.815152 0.8610925
000260 ce e9 2d 3f 74 ac 3e 3f 4b 3b 4c 3f 0e f6 4d 3f
       0.6793488 0.7448189 0.79777974 0.80453575
000270 83 3e 5f 3f 55 67 3c 3f d1 ca 5d 3f bf 9b 57 3f
       0.8720476 0.7359517 0.866376 0.84222025
000280 e3 d5 3e 3f 71 17 3e 3f da 8b 5e 3f 21 5e 56 3f
       0.74545115 0.7425452 0.86932147 0.8373738
000290 3b 8d 41 3f 24 71 56 3f ee 0c 42 3f 6c 34 4a 3f
       0.75606126 0.8376639 0.7580098 0.7898624
0002a0 18 ac 65 3f 09 26 33 3f a1 c3 61 3f 1e e3 57 3f
       0.8971572 0.6997991 0.8818913 0.8433093
0002b0 ac 74 46 3f 2b e5 17 3f 84 71 44 3f 4b 5b 47 3f
       0.7752178 0.5933406 0.7673571 0.77873677
0002c0 ab 9d 57 3f 3c 8c 5d 3f 59 f6 5c 3f 1b f9 4b 3f
       0.8422496 0.86542106 0.86313397 0.7967698
0002d0 ad a4 41 3f 9f 73 4b 3f 9c 3a 59 3f c6 7a 4e 3f
       0.756419 0.794733 0.84855056 0.8065609
0002e0 9a 4b 5a 3f 16 7b 3e 3f f6 6e 50 3f 70 44 4b 3f
       0.8527161 0.74406564 0.8141931 0.794013
0002f0 0a 0f 4c 3f b7 dd 57 3f 76 da 64 3f 5c f3 2a 3f
       0.7971045 0.84322685 0.89395845 0.66777587
000300 6a bc 48 3f 5c 92 5b 3f 22 2c 5a 3f 95 13 6a 3f
       0.784125 0.857702 0.8522359 0.9143613
000310 80 bc 56 3f 2d 27 52 3f eb 18 46 3f 2d 35 61 3f
       0.8388138 0.8209103 0.7738177 0.87971765
000320 b7 35 58 3f b6 db 5d 3f 9b 17 67 3f 79 d4 52 3f
       0.8445696 0.8666338 0.90270394 0.8235546
000330 bb 9d 5c 3f c2 80 5b 3f 25 23 5b 3f 0c 1f 37 3f
       0.8617818 0.85743344 0.856005 0.7153175
000340 f6 e6 4f 3f f5 88 38 3f 12 95 5f 3f 83 de 5c 3f
       0.81211793 0.7208398 0.8733684 0.86277026
000350 4e f3 59 3f de 88 51 3f 20 96 52 3f 2b 9f 4c 3f
       0.8513688 0.8184947 0.8226032 0.7993037
000360 02 a4 5c 3f b0 16 51 3f b5 31 5b 3f 67 a7 41 3f
       0.86187756 0.81675243 0.8562272 0.7564606
000370 cb e2 4a 3f f5 0f 31 3f 62 3e 55 3f 61 d8 5b 3f
       0.7925231 0.69164973 0.83298314 0.85877043
000380 be 64 58 3f d8 c0 4d 3f 18 b4 46 3f 27 1c 55 3f
       0.8452872 0.8037238 0.7761855 0.8324608
000390 99 0c 61 3f 34 19 5c 3f 4f d8 5e 3f 15 f9 68 3f
       0.8790985 0.85975957 0.8704881 0.9100507
0003a0 ba 34 61 3f e0 a1 60 3f 4e bb 58 3f 68 2e 5a 3f
       0.8797108 0.87747 0.84660804 0.8522706
0003b0 7d 2a 4a 3f 3f 66 49 3f 45 11 3f 3f c6 69 2b 3f
       0.7897108 0.7867164 0.74635726 0.6695827
0003c0 c4 8c 69 3f 67 8d 5f 3f cd 9a 4f 3f 3b 1a 45 3f
       0.91230416 0.8732514 0.8109558 0.7699315
0003d0 cc 8f 68 3f f4 8b 56 3f c7 70 4c 3f 01 93 3c 3f
       0.90844417 0.838073 0.79859585 0.7366181
0003e0 df dc 4e 3f 1e 4f 2a 3f 27 98 3e 3f 3c ae 3e 3f
       0.8080577 0.66526973 0.74450916 0.7448461
0003f0 a8 4f 50 3f 1e b3 3a 3f 17 49 49 3f 2e 87 4b 3f
       0.81371546 0.7292956 0.7862715 0.7950314

fc.weight_v f4 [345, 256]
000000 d6 3b c7 bb 3d fd 40 bc 21 de 8c 3b f3 ca f5 3a
       -0.006080131 -0.011779127 0.0042989408 0.00187525
000010 37 b6 9d b9 a8 54 60 3a c1 ef 96 bc 0a 45 35 bc
       -0.00030081134 0.00085575366 -0.01842487 -0.0110638235
000020 4c f5 bf 3b f4 a2 61 bc c4 5e 2b 3a 8b b2 e3 bb
       0.005858099 -0.013771761 0.00065372535 -0.006948774
000030 95 fb 92 bb b2 4c 8f 3b 85 82 83 3c 72 30 59 bc
       -0.0044855573 0.0043731565 0.016053447 -0.013256179
000040 78 17 86 3c a9 64 ee 3b 6f c1 62 3c 61 a2 ac 3b
       0.016368613 0.007275183 0.0138400635 0.0052683805
000050 90 ba 01 bc 58 87 1d bc 24 8b 81 3b d6 b0 99 bb
       -0.007918015 -0.009614788 0.0039533544 -0.00469027
000060 a6 ec 19 bc af 38 58 3b b1 e8 37 3c 3b 35 38 bc
       -0.0093948 0.003299277 0.011224912 -0.01124316
000070 58 6e 76 bc d9 9a 05 3c 1f f4 1a 3c d0 c0 03 3c
       -0.015040956 0.008154594 0.009457617 0.008041576
000080 16 96 b4 bb 97 8a c7 bb a1 f2 09 3c d7 78 1c bc
       -0.0055110557 -0.0060895192 0.008419664 -0.009550295
000090 4f 0f f9 bb 18 7d 05 bc 9c f9 42 3c b4 05 fe 3b
       -0.007600702 -0.0081475 0.011900332 0.0077521447
0000a0 bc 72 52 3c e7 63 fb ba b2 40 67 3b ab 79 f6 3b
       0.012844738 -0.0019179553 0.0035286364 0.007521828
0000b0 b3 36 54 bc c1 f3 79 3b 23 dd 2a bb 1e c9 7c 3c
       -0.012952494 0.0038139673 -0.002607175 0.015428809
0000c0 fc 37 b4 bc af 9d 57 bc e0 8f a0 3b 5e 30 cc 3b
       -0.021999352 -0.013160153 0.0048999637 0.0062313518
0000d0 52 2f c1 3c 59 ce 30 bc 40 32 2a bb b7 7a d3 3b
       0.023582134 -0.010791385 -0.0025969893 0.0064538377
0000e0 38 46 be ba 33 88 5f 3c 10 49 d8 bb f1 49 90 bc
       -0.0014516776 0.013643312 -0.0066005066 -0.017613383
0000f0 f5 98 55 3c 1a 0f c8 3a ea dd 69 3c d0 22 26 3c
       0.013036956 0.001526329 0.0142741 0.010140136
000100 a0 d5 0f bc 8f 29 aa bb c1 b5 6a 3c d0 2f 0f bc
       -0.0087789595 -0.0051929425 0.01432556 -0.008739427
000110 0e fc a9 3a c2 5d de 3b af 0a 67 bc 2b c9 98 ba
       0.0012968795 0.006786079 -0.014101668 -0.0011656632
000120 6c 89 16 3c 90 92 73 bc 40 e5 52 bc 14 63 ed bb
       0.009188037 -0.014866486 -0.01287204 -0.007244477
000130 b5 91 ea 3b 0b 27 01 bc ba 29 f4 bb b7 dd 3a 3c
       0.007158483 -0.007882844 -0.0074512633 0.0114054
000140 a7 2d d3 3a 69 98 12 3a 93 bd 99 bb 48 a2 04 3c
       0.0016111628 0.0005592169 -0.0046917885 0.0080953315
000150 3b 50 07 bb 14 be 44 3b ac c1 58 bc 68 b5 c7 3b
       -0.0020647186 0.0030020522 -0.013229769 0.0060946234
000160 a1 1b 6f bc b3 e8 7c bb 12 13 a3 3a 8d 2c 23 bc
       -0.01459399 -0.0038590848 0.0012441596 -0.009959352
000170 74 ed 8b bb 9f 5a 25 bc 4c 7f b1 bc f8 17 d2 38
       -0.00427025 -0.0100924065 -0.021667145 0.00010018045
000180 e5 1c 84 bc 39 c5 be 3b 30 bb c2 ba e1 ca 10 3c
       -0.01612706 0.0058218506 -0.0014856812 0.008837433
000190 a6 aa 4e 3c c6 41 12 3c 3a 92 b4 b7 b1 4e d5 b9
       0.012613928 0.008926814 -2.1525764e-05 -0.00040685156
0001a0 35 d5 3d 3b a3 6f 54 3a 6e 29 88 3a 7e 2e 51 bc
       0.0028966193 0.00081037934 0.0010388324 -0.012767432
0001b0 92 a1 28 3c a2 65 36 bc 01 bc a6 bb 08 4b e7 bb
       0.010292428 -0.01113263 -0.00508833 -0.007058505
0001c0 8e c1 25 3c d6 35 d0 bb a4 3d 7c bc 52 cc 93 3c
       0.010116948 -0.006354074 -0.015395556 0.018041763
0001d0 f5 73 d2 3b eb 54 a9 3b 5c 2a 22 bc 9f 0d 54 bb
       0.0064225146 0.0051675937 -0.009897795 -0.0032356752
0001e0 c6 a5 17 3c 6a 8d dd 3b 3f 8c 6b bb 7a a2 ea bb
       0.009255832 0.0067612426 -0.0035941747 -0.007160482
0001f0 58 02 99 3b 84 85 34 bc c9 0a 99 bc db 88 92 bc
       0.004669469 -0.011018161 -0.0186819 -0.017887523
000200 e6 13 bc ba ef eb 36 b8 61 a4 8f ba bf 39 03 3c
       -0.0014349192 -4.361191e-05 -0.0010959023 0.008009373
000210 b5 ba a4 3b 99 60 fb 39 ca 32 1f 3c 2c 2e 07 bc
       0.00502714 0.00047946422 0.009716699 -0.008250754
000220 74 ad 0f bc 5d 92 12 3b 93 b8 10 3c 11 ea 7f 3b
       -0.008769382 0.0022365071 0.008833068 0.0039049427
000230 95 ee 98 3c 0b 84 bf 3b 2d dc a0 3c 14 53 0e 3b
       0.018668452 0.005844598 0.019636238 0.0021717
000240 5e 9f 5f ba 33 6d 51 3c 0d c1 44 bc 62 78 43 3c
       -0.00085305225 0.012782383 -0.0120089175 0.011930557
000250 4a 3c db ba 1f b0 50 bc a7 dc 46 3b f9 32 b9 bb
       -0.0016726342 -0.012737303 0.0030343921 -0.0056518284
000260 50 2e fe bb 44 90 91 3c e9 2c 1f 3c f4 81 8b bc
       -0.0077569857 0.017768987 0.009715297 -0.01702974
000270 64 ec 06 bc c5 6a 3f 3c 40 e5 94 bc a2 36 0f 3b
       -0.008235071 0.011683171 -0.018175721 0.0021852632
000280 9a 0b 1f bc 80 24 b8 3b 35 fd 72 3c ac 4a 23 bc
       -0.009707356 0.0056195855 0.014830877 -0.009966534
000290 81 7b 15 3c dc 6f 0b 3c 81 8f 13 bb 54 24 5c 3c
       0.009123684 0.008510556 -0.0022515955 0.013436396
0002a0 02 cb 08 bc 00 50 83 bb b2 c0 3f 3c 3d 43 40 bc
       -0.008349182 -0.0040073395 0.011703657 -0.011734781
0002b0 6b 47 74 bc 19 e7 89 3b 62 b9 ef bb 75 64 63 bb
       -0.0149096055 0.004208457 -0.0073158005 -0.0034697328
0002c0 ef 3e a6 3c c0 e6 40 3c 2e 43 27 38 62 5e b0 bb
       0.020293681 0.011773765 3.987847e-05 -0.005382345
0002d0 08 b1 3a 3c 21 92 60 bc 8c 27 9a bb ae c7 ab bb
       0.011394747 -0.013706715 -0.0047044214 -0.0052423095
0002e0 f3 90 03 bc a7 ad 80 3b a5 d1 29 3a aa 3b 0d 3c
       -0.008030164 0.003926951 0.0006478078 0.008620182
0002f0 e6 8e 80 bc cb ce fb ba ee 4e 56 3c a8 41 b1 3b
       -0.01569314 -0.0019211409 0.013080342 0.005409438
000300 d6 e3 65 bc fb e9 38 ba 2f 81 ad bc 79 40 17 3c
       -0.014031371 -0.0007053909 -0.021179764 0.00923168
000310 09 66 e7 3b 13 2a 6d bb f3 88 0a 3b 26 06 78 bc
       0.007061724 -0.0036188408 0.0021138757 -0.015138185
000320 ef 0a 48 3c d7 2e 29 3c e3 68 f2 bb 3c 3e 2d bc
       0.012209638 0.010326109 -0.0073977574 -0.01057392
000330 93 e2 a2 b8 01 81 73 bc b5 17 9d ba 8f 76 df bb
       -7.766965e-05 -0.0148623 -0.0011985215 -0.006819553
000340 82 ea 10 bc bb a8 0e 3c 85 db 7d bc ac a4 97 3c
       -0.0088449735 0.008707221 -0.015494232 0.018511139
000350 19 a6 26 3c 9b 8a f2 3a d4 fc 8c 38 32 71 10 3c
       0.010171437 0.0018504442 6.722813e-05 0.00881605
000360 49 c5 4f bc ca 70 2a 3c a1 8c 34 3c 53 55 37 3c
       -0.012681314 0.010402868 0.011019857 0.0111897765
000370 30 4b bf ba 08 72 d4 3b 18 89 aa bc c6 2a 14 3b
       -0.0014594551 0.00648332 -0.020817325 0.0022608503
000380 a8 84 1d 3c d8 47 74 3c 9b 81 e6 bb bb dd 84 3c
       0.009614147 0.014909707 -0.007034493 0.01621901
000390 0c 81 1d 3c 0d a9 c8 bb 5a 37 a2 3c d2 49 26 3c
       0.009613287 -0.006123668 0.019801784 0.010149436
0003a0 51 b9 7b 3a c5 be e2 3a f8 95 43 3c 7c 68 09 3a
       0.00096025044 0.0017299285 0.011937611 0.00052417046
0003b0 77 a6 96 ba 4a 07 60 ba 85 cd cd 3b 56 89 7a bb
       -0.0011493702 -0.0008546008 0.0062806034 -0.0038228831
0003c0 42 8f 99 3c 15 c0 00 bc f9 5f b7 3b 30 74 20 3c
       0.018745068 -0.007858296 0.0055961576 0.009793326
0003d0 ce e2 df bb d2 e1 bc 3b de 74 28 bc 7b 76 16 3c
       -0.006832457 0.0057642246 -0.01028177 0.009183521
0003e0 cb f7 67 3b 45 0f 06 bb 65 51 8d 3a 8d 5d 86 3b
       0.00353955 -0.0020455879 0.0010781704 0.0041005076
0003f0 66 26 44 3c 38 31 ba 3b 85 12 87 bb a1 fa 45 3c
       0.0119720455 0.005682137 -0.0041220807 0.01208368
