ckps/source/uda/domainnet/real_2/source_B.pt (torch, 532830 bytes, 6 tensors)

bn.weight f4 [256]
0	0x3f69ae83	0.9128191
1	0x3f64d14f	0.8938188
2	0x3f6783da	0.90435565
3	0x3f6cdabf	0.9252128
4	0x3f613712	0.87974656
5	0x3f64e881	0.8941727
6	0x3f6aae8c	0.9167259
7	0x3f600bc6	0.87517965
8	0x3f69bd87	0.9130482
9	0x3f6b440e	0.9190072
10	0x3f7196cb	0.94370717
11	0x3f6f8078	0.935554
12	0x3f6f4fbc	0.9348104
13	0x3f78eefa	0.9723965
14	0x3f68bfa9	0.9091745
15	0x3f5fe7fb	0.8746335
16	0x3f650029	0.8945337
17	0x3f66846e	0.9004582
18	0x3f69eeb0	0.91379833
19	0x3f659d1c	0.89692855
20	0x3f6c1c96	0.9223112
21	0x3f69d83d	0.9134558
22	0x3f75372a	0.957873
23	0x3f72b024	0.9480002
24	0x3f6fec7d	0.9372023
25	0x3f6b039b	0.91802377
26	0x3f66cd94	0.9015744
27	0x3f7106e0	0.94151115
28	0x3f70836d	0.9395054
29	0x3f71610f	0.94288725
30	0x3f7ca781	0.9869309
31	0x3f66f989	0.9022451
32	0x3f68df8f	0.90966123
33	0x3f644cdb	0.8917977
34	0x3f6ec07f	0.93262476
35	0x3f70d2ee	0.94071853
36	0x3f76802d	0.9628933
37	0x3f6888b8	0.90833616
38	0x3f6d27c3	0.92638797
39	0x3f72495b	0.9464318
40	0x3f726be3	0.9469587
41	0x3f6fea15	0.93716556
42	0x3f6b599c	0.9193361
43	0x3f637401	0.8884888
44	0x3f73ed58	0.9528403
45	0x3f662d7e	0.89913166
46	0x3f6e7f84	0.93163323
47	0x3f73df34	0.95262456
48	0x3f722397	0.94585556
49	0x3f6ddcec	0.92915225
50	0x3f76d557	0.9641928
51	0x3f68f78a	0.91002715
52	0x3f73b9bf	0.952053
53	0x3f682ba1	0.9069157
54	0x3f746be9	0.9547716
55	0x3f6e4ed8	0.93089056
56	0x3f5c5f02	0.8608247
57	0x3f77e2d2	0.96830475
58	0x3f6b543a	0.91925395
59	0x3f6f5eb0	0.93503857
60	0x3f747d6a	0.95503867
61	0x3f6ade00	0.91744995
62	0x3f731453	0.9495289
63	0x3f733d4a	0.95015395
64	0x3f6b66d2	0.91953766
65	0x3f7389b0	0.9513197
66	0x3f632d26	0.88740766
67	0x3f76d673	0.96420974
68	0x3f78db20	0.9720936
69	0x3f6d9b40	0.9281502
70	0x3f680f57	0.90648407
71	0x3f76d29f	0.9641513
72	0x3f6a9a80	0.91642
73	0x3f668b83	0.9005663
74	0x3f74e965	0.9566863
75	0x3f7639e2	0.9618207
76	0x3f62b758	0.8856101
77	0x3f7497f7	0.9554438
78	0x3f693b28	0.9110589
79	0x3f6933f3	0.91094893
80	0x3f631739	0.8870731
81	0x3f6ef43b	0.93341416
82	0x3f68a1b1	0.9087172
83	0x3f651e59	0.8949943
84	0x3f75c30c	0.9600074
85	0x3f6be30e	0.9214333
86	0x3f78c542	0.9717599
87	0x3f721a41	0.9457131
88	0x3f6e851d	0.93171865
89	0x3f700652	0.93759644
90	0x3f5cb698	0.86216116
91	0x3f6561d2	0.89602387
92	0x3f70b94f	0.9403276
93	0x3f762f2a	0.96165717
94	0x3f68abc7	0.9088711
95	0x3f7d15c9	0.98861367
96	0x3f687237	0.9079928
97	0x3f6d2587	0.9263539
98	0x3f68fb24	0.9100821
99	0x3f60e54d	0.87849885
100	0x3f6f27b7	0.93419975
101	0x3f6d772b	0.9275996
102	0x3f81fe34	1.0155702
103	0x3f69234f	0.910695
104	0x3f63ab70	0.8893347
105	0x3f7162d6	0.94291437
106	0x3f68125d	0.9065302
107	0x3f792dcb	0.973355
108	0x3f6a123a	0.9143406
109	0x3f6f81c0	0.9355736
110	0x3f6abd46	0.9169506
111	0x3f64a542	0.89314663
112	0x3f6e5be2	0.9310895
113	0x3f74d7b7	0.95641655
114	0x3f70f23e	0.9411963
115	0x3f7c784d	0.98621064
116	0x3f74862a	0.9551722
117	0x3f675736	0.9036745
118	0x3f6489d9	0.8927284
119	0x3f6c2070	0.92236996
120	0x3f730652	0.9493152
121	0x3f685cf5	0.9076684
122	0x3f75909e	0.95923793
123	0x3f703302	0.9382783
124	0x3f5e7421	0.8689595
125	0x3f6ddae8	0.9291215
126	0x3f75a879	0.95960194
127	0x3f779260	0.96707726
128	0x3f5e5668	0.86850595
129	0x3f6339e2	0.887602
130	0x3f775d38	0.96626616
131	0x3f6b14d7	0.91828674
132	0x3f66e932	0.9019958
133	0x3f7167c8	0.9429898
134	0x3f699c94	0.91254544
135	0x3f756bb2	0.95867455
136	0x3f63c3de	0.88970745
137	0x3f744f68	0.95433664
138	0x3f75acb5	0.95966655
139	0x3f6c3c8d	0.92279893
140	0x3f68aa98	0.90885305
141	0x3f620680	0.8829117
142	0x3f70aa26	0.94009626
143	0x3f6669c2	0.90005124
144	0x3f60c403	0.8779909
145	0x3f79ad72	0.9753028
146	0x3f6816d9	0.9065986
147	0x3f6f7c28	0.9354882
148	0x3f70260b	0.9380805
149	0x3f65f522	0.8982717
150	0x3f6cf2c9	0.9255796
151	0x3f73bd32	0.95210564
152	0x3f6f21dd	0.93411046
153	0x3f75bcaf	0.95991033
154	0x3f6823a8	0.9067941
155	0x3f6e5a9d	0.93107015
156	0x3f6ab2a4	0.91678834
157	0x3f729b4c	0.94768214
158	0x3f69253d	0.91072446
159	0x3f61cab4	0.88199925
160	0x3f6bb47e	0.92072284
161	0x3f609fa1	0.87743574
162	0x3f68580c	0.9075935
163	0x3f6cf6ab	0.92563885
164	0x3f6cf19c	0.92556167
165	0x3f724018	0.9462905
166	0x3f690fce	0.9103974
167	0x3f5b83fb	0.8574826
168	0x3f72fefd	0.9492033
169	0x3f647c7c	0.8925245
170	0x3f6cbeeb	0.9247882
171	0x3f6bc0a0	0.920908
172	0x3f6f1273	0.93387526
173	0x3f6f2f5b	0.93431634
174	0x3f723522	0.94612324
175	0x3f631939	0.8871036
176	0x3f68d7ec	0.9095447
177	0x3f783eb7	0.96970695
178	0x3f720c2e	0.94549835
179	0x3f6d21f2	0.9262992
180	0x3f7574c0	0.9588127
181	0x3f6de36a	0.9292513
182	0x3f6552f2	0.8957969
183	0x3f6806a6	0.90635145
184	0x3f82bc5f	1.0213736
185	0x3f6673b2	0.9002029
186	0x3f6ebccd	0.9325684
187	0x3f6aca7c	0.91715217
188	0x3f702207	0.9380192
189	0x3f6abf6c	0.91698337
190	0x3f6b58f1	0.9193259
191	0x3f63da48	0.89004946
192	0x3f77cc41	0.9679604
193	0x3f6e16f8	0.930038
194	0x3f6b9abf	0.92033
195	0x3f74368e	0.95395744
196	0x3f6f193c	0.9339788
197	0x3f7a593a	0.977924
198	0x3f75e9c2	0.9605981
199	0x3f6ce9ed	0.9254444
200	0x3f65ed4d	0.8981522
201	0x3f6ae60d	0.9175728
202	0x3f6626f6	0.899032
203	0x3f704cc9	0.93867165
204	0x3f7971f7	0.9743952
205	0x3f71cc46	0.9445232
206	0x3f6dbacf	0.9286317
207	0x3f78f2d5	0.9724553
208	0x3f62b451	0.8855639
209	0x3f66b3cd	0.90118104
210	0x3f798327	0.9746575
211	0x3f6def32	0.9294311
212	0x3f679535	0.90462047
213	0x3f70daaa	0.94083655
214	0x3f73784a	0.9510542
215	0x3f79606e	0.97412765
216	0x3f717492	0.943185
217	0x3f6743f3	0.9033806
218	0x3f73cd1d	0.95234853
219	0x3f66349b	0.8992402
220	0x3f708ba2	0.9396306
221	0x3f6a0aaf	0.9142255
222	0x3f6077d3	0.8768284
223	0x3f6c8cd8	0.9240241
224	0x3f7053d0	0.9387789
225	0x3f742525	0.9536918
226	0x3f68b28e	0.9089745
227	0x3f6feb78	0.9371867
228	0x3f70fd3a	0.94136393
229	0x3f6a0f93	0.91430014
230	0x3f6bc757	0.92101043
231	0x3f69578a	0.911492
232	0x3f680fb2	0.9064895
233	0x3f63a860	0.88928795
234	0x3f77df86	0.96825445
235	0x3f6e91c5	0.93191177
236	0x3f679185	0.9045642
237	0x3f7082a4	0.9394934
238	0x3f68f360	0.9099636
239	0x3f6d9c12	0.9281627
240	0x3f662c6d	0.8991154
241	0x3f70a138	0.93996
242	0x3f6bb55b	0.920736
243	0x3f663192	0.8991939
244	0x3f68c064	0.90918565
245	0x3f61b263	0.8816282
246	0x3f62515d	0.884054
247	0x3f700bdb	0.9376809
248	0x3f69e13d	0.9135931
249	0x3f744339	0.95415074
250	0x3f687df2	0.9081718
251	0x3f7178a2	0.94324696
252	0x3f7239a4	0.946192
253	0x3f6a9ce4	0.91645646
254	0x3f6b89b0	0.9200697
255	0x3f65ba42	0.8973733

bn.bias f4 [256]
0	0xbab23f4b	-0.0013599185
1	0x3c722b34	0.014780808
2	0xbc364d97	-0.011126897
3	0xbca704da	-0.020388056
4	0xbc8dda37	-0.017315967
5	0xbc237b36	-0.009978106
6	0xba1577a2	-0.00057017256
7	0x3c3fe419	0.011712098
8	0xbc1e2ae3	-0.00965378
9	0xbc20d4ab	-0.009816329
10	0x3b838a18	0.004014265
11	0xbc9007ad	-0.017581785
12	0xbcc29325	-0.023751805
13	0xbc094064	-0.008377168
14	0x3c47e6f5	0.012201061
15	0xbce86926	-0.028370451
16	0xbb9f9696	-0.004870246
17	0xbc872310	-0.016496211
18	0x3cc33a09	0.023831384
19	0xbcfdf33b	-0.03099977
20	0x3b1d8f24	0.0024041617
21	0x3ba2f197	0.0049726474
22	0xbcac8afb	-0.021062365
23	0x3ca15d77	0.019697888
24	0x3ba18715	0.004929433
25	0xbc78e5db	-0.015191521
26	0x3b8239c3	0.003974171
27	0xbc64e310	-0.013970152
28	0xbcbf604a	-0.023361344
29	0xbc6b88ef	-0.014375909
30	0x3ca03d16	0.019560378
31	0x3c989383	0.018625027
32	0x3c942384	0.018083341
33	0x3c819ab8	0.015820846
34	0x3c473fc8	0.012161203
35	0xbbe3f18b	-0.0069562844
36	0x3c2abdac	0.010421198
37	0xbc930c6d	-0.017950261
38	0xbc8e7d96	-0.017393868
39	0xbc478e11	-0.012179867
40	0x3b56a69e	0.003275312
41	0x3ca4a41c	0.020097785
42	0xbc2433b7	-0.010022095
43	0x3d292d2b	0.04130284
44	0x3c175311	0.009236113
45	0xba8fdc9e	-0.0010975783
46	0x3cf32984	0.029682882
47	0x3be470d1	0.0069714566
48	0xbcab3dce	-0.020903494
49	0x3bfd4e3e	0.0077302745
50	0xbc715742	-0.014730277
51	0x3b0bd273	0.0021335154
52	0xbc851584	-0.016245611
53	0xbbedb4d7	-0.007254224
54	0xbb607d2a	-0.003425429
55	0xbc3023d4	-0.01075073
56	0xbbe92006	-0.007114413
57	0xbc488161	-0.012237878
58	0x3c748286	0.014923697
59	0xbc52229a	-0.0128256325
60	0x3c5d3814	0.01350214
61	0x3caac37c	0.020845167
62	0xbcf03808	-0.029323593
63	0xbc437f07	-0.011932141
64	0x3c0483ee	0.008088095
65	0x3b814615	0.003945122
66	0xbc443aec	-0.011976939
67	0xbb4948e6	-0.0030713617
68	0x3cef4e3d	0.029212112
69	0xbc0ee5d1	-0.008721785
70	0x3af028c1	0.0018322692
71	0xbc2a23ff	-0.010384559
72	0x3d034f9d	0.032058347
73	0xbb4ad19b	-0.0030947689
74	0xbc22a7ba	-0.009927684
75	0x3c7eaf23	0.015544686
76	0xbc36f452	-0.011166649
77	0x3cb28625	0.02179248
78	0xba4f76a8	-0.00079141045
79	0xba1b8776	-0.0005932966
80	0xbc8d51ab	-0.017250856
81	0x3bbe9eec	0.005817285
82	0xbb8c79d8	-0.004286986
83	0xbb619878	-0.0034423154
84	0xbc4c0c66	-0.012454128
85	0xbb1b18b0	-0.0023665838
86	0xbc4cf60d	-0.012509835
87	0xbc1ff9bc	-0.009764131
88	0xbc33fa84	-0.010985021
89	0x3cd3b251	0.025841864
90	0xbd0cf4a9	-0.034413014
91	0xbab00db7	-0.0013431822
92	0xbc47ad0c	-0.012187254
93	0x3ac5d44c	0.0015093177
94	0x3b17ff2b	0.0023192863
95	0xbc3af446	-0.011410778
96	0x3caf4895	0.021396914
97	0x3bbcd8a8	0.005763132
98	0xbb65ce4f	-0.0035065596
99	0x3c11dbb8	0.008902483
100	0x3b3c20d3	0.0028706088
101	0xbbf9c70a	-0.0076226043
102	0xbb8b4adf	-0.0042508687
103	0x3c4c6574	0.01247536
104	0xbbbedbdd	-0.0058245496
105	0x399c7170	0.00029839156
106	0xbb4a7fbf	-0.0030898897
107	0xbc9ab10e	-0.018883254
108	0x3c4e3662	0.012586208
109	0xbc509fce	-0.012733413
110	0x3c6fab5f	0.01462826
111	0xbc7b44f4	-0.015336264
112	0x3be81664	0.0070827473
113	0xbc49e5ad	-0.012322825
114	0x3b1cea68	0.0023943428
115	0xbb062e94	-0.002047454
116	0xbc080275	-0.008301367
117	0xbcc27ea7	-0.023742033
118	0xba8191c7	-0.0009885364
119	0x3c80d2e2	0.015725557
120	0xbcdc047e	-0.02685761
121	0x3b947e2c	0.0045316424
122	0x3cd725f4	0.026263215
123	0x3ba32563	0.004978822
124	0xbc6a02a3	-0.014282855
125	0xba3ac93d	-0.0007125324
126	0x3bbf099e	0.005830004
127	0x3a1d4f27	0.00060008693
128	0x3baac97b	0.0052120066
129	0xbcabd56d	-0.020975793
130	0x3c862096	0.01637296
131	0xba2a1ad7	-0.0006488985
132	0xbcd56267	-0.026047898
133	0x3c084997	0.008318326
134	0x3a76310a	0.00093914627
135	0xbb974956	-0.0046168966
136	0xbc45c054	-0.01206978
137	0x3c18b464	0.009320352
138	0xbb8864d0	-0.0041624084
139	0xbc976e9d	-0.018485362
140	0x3c04d5ed	0.0081076445
141	0xbc7de8a2	-0.0154973585
142	0xbc89e6f3	-0.016833758
143	0xbbbb4a52	-0.005715647
144	0xbc71a617	-0.014749072
145	0xbb9a4b07	-0.004708651
146	0x3bb5e798	0.0055512898
147	0x3b259d2c	0.0025270684
148	0xbc16e3da	-0.0092095975
149	0xbc0053b0	-0.007832453
150	0x3c9e038c	0.0192888
151	0x3c1b72f8	0.00948786
152	0x3b8d0517	0.0043035853
153	0x3c2e4a12	0.010637777
154	0x3b2f3afe	0.0026738043
155	0xbc9b13a6	-0.018930268
156	0x39a49366	0.00031390338
157	0x3b850b45	0.0040601813
158	0x3b4a30f8	0.0030851942
159	0xbc9bda3f	-0.019024966
160	0x3d0552e1	0.032549743
161	0xbc22d3cf	-0.009938194
162	0xbb921abb	-0.004458753
163	0x3b8508e9	0.0040599
164	0x3c6e7caf	0.014556094
165	0x3be5f1a5	0.0070173317
166	0x3ada9daf	0.0016679073
167	0xbc21a6a7	-0.009866393
168	0x3ae80af9	0.0017703465
169	0x3b9303c2	0.004486532
170	0x3d195c4f	0.037441548
171	0xbc37c9fb	-0.0112175895
172	0x3b6b967e	0.0035947855
173	0x3c1cd6e4	0.009572718
174	0x3b6bf3fd	0.0036003583
175	0x3bde5dd3	0.006786087
176	0xbc3233e1	-0.010876627
177	0x3cbd6743	0.023120528
178	0xbcc197fd	-0.023632044
179	0x3c57b0ff	0.013164758
180	0xbad022ec	-0.0015879548
181	0xbbf0897e	-0.007340609
182	0x3cb36b38	0.021901712
183	0xbc642817	-0.013925574
184	0xbc05bfd1	-0.008163408
185	0xbc625a44	-0.013815466
186	0x3cf52290	0.029923707
187	0x3c1e646b	0.009667496
188	0xbd227b7e	-0.039668553
189	0x3bbb5512	0.0057169283
190	0xb951ab52	-0.00019995615
191	0xbba2d581	-0.0049692993
192	0xbbdd9f55	-0.0067633786
193	0x3befb355	0.007315079
194	0xbcaef5a1	-0.02135736
195	0xbbb94f18	-0.0056551807
196	0xbccbb757	-0.024867697
197	0xba90e459	-0.0011054381
198	0xbc3c2dda	-0.011485541
199	0xbb9aacac	-0.004720291
200	0xbc4e063e	-0.01257473
201	0xbc584510	-0.0132000595
202	0x3b332d88	0.002734037
203	0xbc8e789c	-0.017391495
204	0xbc88e113	-0.016708886
205	0xbc127d29	-0.008940973
206	0xbbea13ce	-0.007143474
207	0x3c28a432	0.010293053
208	0x3bb5123e	0.0055258563
209	0xbc71725f	-0.014736741
210	0xbc49ea6a	-0.012323955
211	0x3be794a5	0.0070672804
212	0xb9a31b6a	-0.00031110208
213	0xbc60bd99	-0.013717079
214	0xbd06c1f5	-0.032899816
215	0xbaf41b09	-0.001862378
216	0x392aa036	0.00016272147
217	0x3bfd4d83	0.0077301874
218	0x3c393b76	0.0113056805
219	0x3b820107	0.0039674076
220	0xbcadfd8b	-0.021239063
221	0x3bd9e1b6	0.0066492213
222	0xbc5bfc99	-0.013426923
223	0xbbe94a94	-0.007119486
224	0x3c38bda8	0.011275686
225	0x3c2d2aa8	0.010569252
226	0x3c087ea9	0.008330979
227	0x3bcab739	0.0061863926
228	0xbca3732c	-0.01995238
229	0xbcd06ea1	-0.025443377
230	0xbcafd3fb	-0.021463385
231	0x3bca98ab	0.00618275
232	0xbc61bb15	-0.013777514
233	0x3b8c6ad6	0.004285197
234	0xbbcc67c8	-0.0062379576
235	0x3cd6d91e	0.026226576
236	0xbc3f7799	-0.011686229
237	0x3b23db7c	0.002500265
238	0x3c80ec1e	0.01573759
239	0x397c6b3a	0.00024072538
240	0xbb7c3fca	-0.003849017
241	0xbd05e616	-0.03269013
242	0x3c9e7fb9	0.019348012
243	0x3c38eebb	0.0112873865
244	0xbcc07428	-0.023492888
245	0x3ad54ca5	0.0016273452
246	0xbaf712b2	-0.0018850176
247	0xbc49877c	-0.012300368
248	0x3b90b527	0.0044161263
249	0x3b178308	0.0023118872
250	0x3c1e325e	0.009655563
251	0x3cac8f5d	0.021064455
252	0xba4f9223	-0.00079181994
253	0x3ba685f1	0.005081885
254	0xbbb6abb7	-0.005574669
255	0xbc91fe1f	-0.01782137

bn.running_mean f4 [256]
0	0xbcc2e431	-0.02379045
1	0x3d065b04	0.032801643
2	0xbcb19a3e	-0.021679994
3	0xbc27350d	-0.010205519
4	0xbd6a9cba	-0.057278372
5	0xbca795e7	-0.020457221
6	0xbc3b4bcc	-0.011431646
7	0xbd347093	-0.04405267
8	0xbd8e8513	-0.06958976
9	0x3c340f58	0.010989986
10	0x3c77bf6f	0.015121325
11	0xbba52b7d	-0.0050405846
12	0xbd8bfbc6	-0.06835131
13	0xbd39566e	-0.04524844
14	0xbbdadcf4	-0.0066791717
15	0xbdcd1a0d	-0.100147344
16	0xbce72344	-0.028215058
17	0xbe03332f	-0.12812494
18	0x3d0cba6b	0.03435747
19	0xbe068f5e	-0.13140628
20	0x3e1e6884	0.15469557
21	0xbc1c2d13	-0.009532231
22	0xbc6c9c42	-0.014441552
23	0x3e373aa1	0.17893459
24	0x3da970d9	0.08273477
25	0xbe02fa9a	-0.1279091
26	0xbde5d529	-0.11222298
27	0xbcd77843	-0.026302462
28	0x3d1f5040	0.03889489
29	0xbd6c8181	-0.057740692
30	0x3dd9e9e3	0.106403135
31	0xbd9308f6	-0.071794435
32	0xbd12a672	-0.035803266
33	0x3db40c76	0.08791439
34	0x3d125640	0.035726786
35	0xbd0563af	-0.03256577
36	0xbe2d62df	-0.16932248
37	0xbca000c8	-0.019531623
38	0x3d969ee9	0.073545285
39	0x3ddb480b	0.107071005
40	0xbc22a4ec	-0.009927016
41	0xbd1489d3	-0.036264252
42	0xbe213233	-0.15741806
43	0x3d289a47	0.041162755
44	0xbd73e4d6	-0.059544407
45	0x3d197574	0.037465528
46	0x3b8fd4b9	0.004389372
47	0xbc54eb24	-0.012995515
48	0x3d49df6f	0.04928535
49	0x3cfbd8c1	0.030743005
50	0x3d9afb10	0.075674176
51	0xbd87b83e	-0.06626938
52	0xbcdfcdfe	-0.027319904
53	0xbcf8f100	-0.030388355
54	0x3d48cb81	0.0490222
55	0xbdcb5d1b	-0.09929868
56	0x3d7634b2	0.060108848
57	0x3b464288	0.0030252058
58	0x3dcd62b4	0.10028592
59	0xbdbb3fce	-0.09143029
60	0x3c9ecf2f	0.019385902
61	0xbdaba52b	-0.08381113
62	0x3b21c52c	0.0024684174
63	0xbcf53a98	-0.029935166
64	0x3dce5fcd	0.10076866
65	0xbd0d58d4	-0.03450854
66	0xbd89ac99	-0.067223735
67	0xbdc640c9	-0.096803255
68	0x3dcd16fd	0.1001415
69	0x3bdae767	0.0066804173
70	0xbdad5a56	-0.08464496
71	0x3d98fece	0.07470475
72	0x3c6550e3	0.013996336
73	0xbd50c5e8	-0.050969988
74	0xbd214e32	-0.039381213
75	0xbc241e8e	-0.01001705
76	0x3c81a0d2	0.015823755
77	0x3d896773	0.067091845
78	0xbd4893d0	-0.04896909
79	0x3d8cce44	0.068752795
80	0x3d5b140b	0.05348591
81	0xbc8d138f	-0.01722124
82	0xbe1444c3	-0.14479356
83	0x3c47f741	0.012204946
84	0xbd7d8c2b	-0.061901253
85	0x3d61b09b	0.055100065
86	0xbdb42585	-0.08796219
87	0xbd99b72f	-0.075056426
88	0x3c6840b7	0.0141755855
89	0x3d318dd6	0.043348156
90	0xbbb89f04	-0.0056341905
91	0x3e05d29c	0.13068622
92	0xbddcde10	-0.107845426
93	0x3d5f8b0e	0.054575972
94	0x3d2f5616	0.042806707
95	0xbdc9bbf1	-0.098503
96	0x3d3fe622	0.04685033
97	0x3d882074	0.06646815
98	0x3c7fea50	0.015619829
99	0xbca4d312	-0.020120177
100	0xbd684b1e	-0.056712262
101	0xbdcdc9f5	-0.10048286
102	0x3db91fb0	0.09039247
103	0xbc5445f8	-0.012956135
104	0x3b8042c9	0.0039142114
105	0xbd4c559a	-0.049886324
106	0xbcc03ab6	-0.023465496
107	0xbd7010d8	-0.058609813
108	0xbce5d34a	-0.028054852
109	0xbd80ae3e	-0.06283234
110	0xbdcb5e2d	-0.09930072
111	0x3cf0cc1d	0.029394204
112	0xbd839749	-0.0642534
113	0x3d8a984a	0.06767328
114	0x3c8beca3	0.01708061
115	0xbd424df6	-0.04743763
116	0x3beced69	0.00723045
117	0x3c199bd7	0.009375534
118	0x3c5c1e1f	0.013434916
119	0xbd535003	-0.051589977
120	0x3cf2594a	0.029583592
121	0xbda711d8	-0.081577
122	0x3db2dd57	0.087336235
123	0x3d0a0209	0.033693347
124	0xbd8cae61	-0.06869198
125	0xb9ed3146	-0.00045240874
126	0x3d1189fc	0.035531983
127	0xbd1f7b5a	-0.038935997
128	0x3d85eca3	0.065392755
129	0x3da0449c	0.07825586
130	0xbc80ef53	-0.015739119
131	0xbd1725d0	-0.036901295
132	0xbd0ac416	-0.03387841
133	0x3ba32018	0.004978191
134	0xbd09552a	-0.033528484
135	0x3da23321	0.07919908
136	0xbd5e9942	-0.054345377
137	0x3da85eb7	0.082211904
138	0xbd596b68	-0.053080946
139	0x3da6d6ff	0.08146476
140	0x3e071579	0.13191785
141	0xbd1638e6	-0.036675356
142	0xbd1e192c	-0.038598225
143	0xbdf4d196	-0.11954038
144	0xbd222b16	-0.03959187
145	0xbcd77d72	-0.026304934
146	0xbd7e37db	-0.062064987
147	0xbd9506d1	-0.07276691
148	0x3ca237fd	0.019802088
149	0xbd9bfceb	-0.076166
150	0xbcdac61f	-0.0267058
151	0xbb8e215f	-0.0043374742
152	0x3c4cc745	0.012498681
153	0xbdaad9e7	-0.08342343
154	0xbdf9a21b	-0.12189122
155	0xbd1a4fa7	-0.03767362
156	0xbe2864e6	-0.1644474
157	0x3d24c3b6	0.040225707
158	0xbc3c007e	-0.011474727
159	0xbdc30f80	-0.09524441
160	0x3cac767d	0.021052593
161	0x3cb975df	0.022639213
162	0x3c0e7b32	0.008696364
163	0x3d074e5f	0.033033725
164	0x3d4235f0	0.04741472
165	0xbdbf9b53	-0.093557976
166	0x3d0b340f	0.033985194
167	0x3deba8e6	0.11506824
168	0x3ca0a233	0.019608593
169	0x3c92cf4e	0.017921116
170	0xbd52d936	-0.05147668
171	0xbd0cc043	-0.034363043
172	0xbdce1c2d	-0.10063968
173	0x3da95003	0.08267214
174	0x3daa4833	0.08314552
175	0xbd07b3dc	-0.03313051
176	0xbdd63bdf	-0.10460638
177	0x3d50f88e	0.05101829
178	0xbc68a169	-0.014198639
179	0xbd865f35	-0.06561128
180	0x3cec932c	0.02887877
181	0xbd831d69	-0.06402094
182	0x3da43575	0.080180086
183	0x3c1c9185	0.009556179
184	0x3d65eddb	0.05613504
185	0xbd9bd53d	-0.07609031
186	0x3da75413	0.08170333
187	0xbd7ee095	-0.062225897
188	0xbc897b9d	-0.016782576
189	0x3c8213df	0.015878616
190	0xbd33ad72	-0.043866582
191	0x3db1040f	0.08643352
192	0x3dabb9ee	0.08385073
193	0x3cdd3e0a	0.027007122
194	0xbd85854c	-0.06519565
195	0x3cc9dc68	0.02464123
196	0xbd83d9c7	-0.06438022
197	0xbcf0513a	-0.029335607
198	0xbd18969b	-0.037253004
199	0x3c4efaca	0.012633035
200	0xbd804522	-0.06263186
201	0x3d244491	0.040104453
202	0xbe0224a9	-0.12709297
203	0xbdc50b25	-0.09621266
204	0x3cfc16a7	0.03077252
205	0xbe11f8aa	-0.14255014
206	0x3d93acb2	0.072106734
207	0x3cbc5ab9	0.022992479
208	0x3ce7c3d7	0.028291626
209	0xbe13dbc7	-0.14439307
210	0xbda221a9	-0.079165764
211	0xbc0a1686	-0.008428222
212	0xbc1a7513	-0.009427327
213	0xbd52f796	-0.051505648
214	0xbdb28e1b	-0.08718511
215	0x3c7b9569	0.015355446
216	0x3d48d72c	0.04903333
217	0x3dec1405	0.11527256
218	0x3d3c2e94	0.045942858
219	0x3e20fd60	0.15721655
220	0xbd95d64b	-0.07316264
221	0xbc195019	-0.009357476
222	0xbd84f1ef	-0.06491458
223	0xbd80f637	-0.06296962
224	0xbdd85b07	-0.10564237
225	0x3d265e31	0.04061717
226	0x39bbe024	0.00035834417
227	0x3d821457	0.06351536
228	0x3d78d782	0.0607524
229	0x3d867c9f	0.06566738
230	0xbd50b61e	-0.05095493
231	0x3d8a51cf	0.06753885
232	0x3e23f12b	0.16009967
233	0x3d0fc136	0.03509637
234	0xbd137869	-0.036003504
235	0x3dab9ad7	0.08379143
236	0xbd27756a	-0.04088346
237	0x3dd84cc6	0.10561518
238	0xbd08949f	-0.03334486
239	0x3d469833	0.048484992
240	0x3d81c859	0.063370414
241	0x3d9fdb17	0.0780546
242	0xbd70b560	-0.058766723
243	0xbd969898	-0.07353324
244	0x3d9d3a05	0.07677082
245	0x3b87ecbe	0.004148095
246	0xbd41b513	-0.047291826
247	0x3ce92930	0.028462023
248	0x3c0be445	0.00853831
249	0xbd365f44	-0.044524446
250	0x3e0e6b4b	0.13908117
251	0xbdb419e4	-0.08794001
252	0x3dfe1471	0.12406243
253	0x3d63a6ca	0.055578984
254	0x3a009443	0.0004904905
255	0xbdc4f437	-0.09616893

bn.running_var f4 [256]
0	0x3c6cd08f	0.014454021
1	0x3c551acc	0.013006877
2	0x3c6e93f3	0.014561641
3	0x3c685081	0.01417935
4	0x3c4bcea2	0.012439402
5	0x3c5d587c	0.013509866
6	0x3c5ff549	0.01366932
7	0x3c42ad1e	0.011882095
8	0x3c6b7b6a	0.014372686
9	0x3c4d5434	0.012532283
10	0x3c534451	0.012894706
11	0x3c79b385	0.015240555
12	0x3c94e88e	0.018177297
13	0x3c8c6fe2	0.017143194
14	0x3c71cb41	0.014757932
15	0x3c6f8871	0.0146199325
16	0x3c581a3a	0.013189847
17	0x3c558b26	0.013033664
18	0x3c690791	0.014222995
19	0x3c5c5947	0.01344902
20	0x3c6fda40	0.014639437
21	0x3c7d1106	0.015445953
22	0x3c80c13e	0.015717145
23	0x3c81ba9f	0.015836058
24	0x3c73e9dc	0.014887299
25	0x3c642c4c	0.013926577
26	0x3c7a1059	0.015262687
27	0x3c8280ad	0.015930498
28	0x3c65d053	0.014026719
29	0x3c71844b	0.014741014
30	0x3c8211d5	0.015877644
31	0x3c75cb60	0.015002102
32	0x3c4d8fac	0.012546461
33	0x3c4cf23c	0.012508925
34	0x3c700017	0.014648459
35	0x3c60b1a8	0.013714232
36	0x3c79b30b	0.015240441
37	0x3c729d64	0.014808033
38	0x3c658dde	0.014010875
39	0x3c7ddd23	0.015494618
40	0x3c6e6fdd	0.0145530375
41	0x3c79714d	0.015224767
42	0x3c6d2f4c	0.0144766085
43	0x3c6ba451	0.014382438
44	0x3c8c1580	0.017100096
45	0x3c76de89	0.015067705
46	0x3c6e9e25	0.014564072
47	0x3c717024	0.014736209
48	0x3c568d97	0.013095281
49	0x3c6c32a5	0.0144163715
50	0x3c84288c	0.016132616
51	0x3c694d8c	0.01423968
52	0x3c7b133d	0.015324411
53	0x3c624d3e	0.013812361
54	0x3c5da252	0.01352747
55	0x3c4a2c7c	0.012339707
56	0x3c3b5efb	0.011436219
57	0x3c886030	0.016647428
58	0x3c736fda	0.01485821
59	0x3c6edc61	0.01457891
60	0x3c82d80c	0.01597216
61	0x3c66309a	0.014049673
62	0x3c7a0609	0.015260228
63	0x3c7717ce	0.015081359
64	0x3c7756dc	0.0150963925
65	0x3c7f4239	0.015579754
66	0x3c6058ea	0.013693074
67	0x3c863547	0.016382826
68	0x3c966090	0.018356591
69	0x3c743589	0.014905342
70	0x3c597ff0	0.013275132
71	0x3c7d6eb2	0.015468286
72	0x3c64bf6e	0.013961656
73	0x3c6b3fef	0.014358505
74	0x3c8425e7	0.016131354
75	0x3c811d76	0.015761118
76	0x3c5524fc	0.013009306
77	0x3c79301b	0.015209223
78	0x3c5d7255	0.013516028
79	0x3c51d368	0.012806751
80	0x3c5decdb	0.01354524
81	0x3c56394d	0.013075185
82	0x3c684a1e	0.014177827
83	0x3c811318	0.015756175
84	0x3c855dea	0.016280133
85	0x3c8b356c	0.016993247
86	0x3c89ba88	0.016812578
87	0x3c864b4a	0.016393322
88	0x3c6ea42d	0.01456551
89	0x3c740985	0.014894848
90	0x3c5e0f0a	0.01355339
91	0x3c72a194	0.014809031
92	0x3c7b4290	0.015335694
93	0x3c8f888d	0.017521167
94	0x3c64151b	0.013921048
95	0x3c5eb443	0.013592782
96	0x3c64f9d3	0.013975578
97	0x3c6addb1	0.014335082
98	0x3c6093d4	0.01370712
99	0x3c447ec4	0.011993114
100	0x3c6ae49e	0.014336733
101	0x3c72282b	0.014780085
102	0x3c908e3d	0.01764595
103	0x3c4f4b76	0.012652269
104	0x3c6914d3	0.014226156
105	0x3c6b9835	0.014379551
106	0x3c805800	0.015666962
107	0x3c8276a1	0.015925707
108	0x3c6be8d0	0.014398769
109	0x3c623d51	0.013808564
110	0x3c7289f4	0.014803398
111	0x3c671467	0.014103985
112	0x3c77dbd3	0.015128094
113	0x3c87d894	0.016582765
114	0x3c8b73a8	0.017022923
115	0x3c76f556	0.015073141
116	0x3c863054	0.016380467
117	0x3c5576be	0.013028799
118	0x3c67fee3	0.014159891
119	0x3c6821a9	0.014168181
120	0x3c76edf7	0.015071384
121	0x3c6de9c8	0.01452107
122	0x3c63dc61	0.013907523
123	0x3c838d5a	0.016058613
124	0x3c572eaf	0.013133689
125	0x3c8ed5dd	0.017435962
126	0x3c8d11ed	0.017220462
127	0x3c884e2b	0.016638836
128	0x3c544c12	0.01295759
129	0x3c6076cd	0.013700199
130	0x3c855a35	0.016278366
131	0x3c80779a	0.01568203
132	0x3c7fcf7a	0.015613431
133	0x3c7fe62c	0.015618842
134	0x3c7d2980	0.015451789
135	0x3c7d1ed5	0.015449245
136	0x3c4facaa	0.012675444
137	0x3c83202a	0.016006548
138	0x3c6f9b2e	0.0146244
139	0x3c6e7556	0.014554342
140	0x3c6a0684	0.01428378
141	0x3c62c788	0.013841517
142	0x3c671a4c	0.014105391
143	0x3c75c654	0.015000898
144	0x3c5c7bc2	0.013457241
145	0x3c828c88	0.015936151
146	0x3c575793	0.013143438
147	0x3c693927	0.014234818
148	0x3c65b889	0.014021047
149	0x3c7f5cc6	0.015586084
150	0x3c8948c3	0.016758328
151	0x3c68cb27	0.014208592
152	0x3c7eb0d7	0.015545092
153	0x3c7004e1	0.014649601
154	0x3c8b7e04	0.017027862
155	0x3c7401c9	0.014893004
156	0x3c5a6df4	0.013331879
157	0x3c734e50	0.014850214
158	0x3c777f6a	0.0151060615
159	0x3c6fcb2a	0.01463584
160	0x3c5b5316	0.013386508
161	0x3c7800ff	0.015136956
162	0x3c636914	0.013880033
163	0x3c7e22da	0.015511239
164	0x3c60476a	0.013688901
165	0x3c6fe609	0.014642247
166	0x3c6a27e3	0.014291736
167	0x3c3c1428	0.011479415
168	0x3c896310	0.01677087
169	0x3c49536c	0.012287956
170	0x3c6f78b4	0.01461618
171	0x3c59e9a4	0.013300333
172	0x3c72d2bf	0.014820754
173	0x3c8047d2	0.015659247
174	0x3c83c65e	0.0160858
175	0x3c556d7b	0.01302659
176	0x3c5c74e2	0.013455601
177	0x3c910164	0.017700858
178	0x3c7dff03	0.015502694
179	0x3c5eb578	0.01359307
180	0x3c801373	0.015634274
181	0x3c638efe	0.013889072
182	0x3c4a57c5	0.012350027
183	0x3c64534c	0.013935875
184	0x3c96c1d8	0.018402979
185	0x3c679626	0.014134919
186	0x3c754472	0.014969932
187	0x3c669c28	0.0140753165
188	0x3c76fa08	0.0150742605
189	0x3c5e2ab3	0.013559985
190	0x3c7fa5dc	0.015603509
191	0x3c70423a	0.014664227
192	0x3c85349b	0.016260436
193	0x3c84dd3f	0.01621878
194	0x3c6961b0	0.014244482
195	0x3c818905	0.015812406
196	0x3c56c683	0.013108852
197	0x3c948a1d	0.018132264
198	0x3c8703dc	0.016481332
199	0x3c4c3930	0.012464806
200	0x3c712a74	0.014719594
201	0x3c6ba1dc	0.014381852
202	0x3c6b70d4	0.014370162
203	0x3c68b17c	0.014202472
204	0x3c60af74	0.013713706
205	0x3c612449	0.013741561
206	0x3c58834f	0.0132149
207	0x3c8890d1	0.016670616
208	0x3c5fffaa	0.013671795
209	0x3c715ff1	0.014732347
210	0x3c8f891c	0.017521434
211	0x3c7457bf	0.014913498
212	0x3c65af1c	0.0140188
213	0x3c80ecf0	0.01573798
214	0x3c7182a7	0.014740623
215	0x3c8c69f3	0.017140364
216	0x3c8b18c5	0.016979584
217	0x3c603aad	0.013685864
218	0x3c8601f4	0.016358353
219	0x3c665279	0.014057749
220	0x3c73df9c	0.014884856
221	0x3c74b7bf	0.014936387
222	0x3c5ce8e6	0.013483262
223	0x3c8a73b5	0.016900877
224	0x3c80c8e4	0.015720792
225	0x3c6428c8	0.013925739
226	0x3c4b6e07	0.012416369
227	0x3c81fda1	0.01586801
228	0x3c6e5553	0.01454671
229	0x3c8dfcb0	0.017332405
230	0x3c5f7f60	0.013641208
231	0x3c546826	0.012964284
232	0x3c62d592	0.013844864
233	0x3c4e5a08	0.012594707
234	0x3c815574	0.015787818
235	0x3c734691	0.014848367
236	0x3c5c0070	0.013427839
237	0x3c63a74f	0.01389487
238	0x3c6e293a	0.014536196
239	0x3c750229	0.014954128
240	0x3c5fe7d9	0.013666117
241	0x3c7a98aa	0.015295187
242	0x3c755e75	0.014976134
243	0x3c5d663e	0.013513146
244	0x3c4a5108	0.012348421
245	0x3c6b6422	0.014367135
246	0x3c54e219	0.012993359
247	0x3c661dcd	0.014045191
248	0x3c722e9f	0.014781623
249	0x3c5d9f15	0.013526698
250	0x3c591562	0.013249727
251	0x3c8ba77c	0.017047636
252	0x3c6416b9	0.013921433
253	0x3c74c165	0.014938687
254	0x3c5b04ca	0.013367841
255	0x3c64de35	0.013968994

bottleneck.weight f4 [256, 512]
0	0xbac529ec	-0.0015042401
1	0xbcb87b6a	-0.022519786
2	0x3b931a49	0.0044892174
3	0x3b462d23	0.0030239306
4	0xbc05e0ad	-0.008171243
5	0xbc21b66b	-0.009870152
6	0x39955f11	0.00028490325
7	0xbcb07fd9	-0.021545338
8	0xba3f5613	-0.0007298898
9	0x3c842277	0.016129715
10	0x3bc555b2	0.0060221786
11	0x3cae63c6	0.02128781
12	0xbc36b09f	-0.011150508
13	0x3c55bb88	0.013045199
14	0x3b81a124	0.003955977
15	0x3c2c92b0	0.01053302
16	0xbc8ef0c4	-0.01744879
17	0x3ca0de13	0.019637143
18	0xbbbde7b9	-0.0057954458
19	0x3bd335b0	0.006445609
20	0xbbb467b9	-0.0055055288
21	0xba966d2a	-0.0011476625
22	0x3ca711ac	0.020394169
23	0xbbd373cb	-0.0064530126
24	0x3b8406ba	0.004029122
25	0x3c2fa7bd	0.010721144
26	0xbc5a1e8d	-0.013312948
27	0xbb1936e8	-0.0023378674
28	0xbceca417	-0.028886838
29	0x3c0c2b9f	0.008555322
30	0xbc4a147a	-0.012333984
31	0xbbd538b2	-0.0065070027
32	0x3b8d03f9	0.004303452
33	0xbd135b89	-0.035975967
34	0x3c476bc9	0.012171694
35	0x3b5a94e5	0.0033352908
36	0xbc825e94	-0.015914239
37	0xbb70adae	-0.0036724615
38	0xbb9fa85e	-0.004872366
39	0x3b9e6c06	0.0048346547
40	0x3c69cf2e	0.014270587
41	0xb9ec1d76	-0.00045035378
42	0x3ac3a5c3	0.001492672
43	0x3b1be411	0.0023787061
44	0x3b80470c	0.0039147194
45	0x3c5c4473	0.013444054
46	0xbb91a664	-0.004444884
47	0x3c90bf79	0.017669426
48	0xbb8c3d0f	-0.0042797397
49	0xbd014d02	-0.03156758
50	0x3c83a31f	0.016068993
51	0x3c8fe92d	0.017567242
52	0xbb6b429b	-0.0035897854
53	0x3ba2d8bc	0.0049696844
54	0xbb9351d3	-0.004495838
55	0x3b88f0d9	0.004179102
56	0x3bda5fdf	0.0066642608
57	0xbbb8b615	-0.0056369402
58	0xbc558479	-0.013032072
59	0x3ab4dc3a	0.0013798543
60	0x3c42ed9a	0.011897469
61	0x3b58382b	0.0032992463
62	0x3affc3c4	0.0019513299
63	0x3d00ae4d	0.031416226
64	0xba908e7c	-0.0011028792
65	0x3c60a101	0.013710261
66	0xbc40b67c	-0.011762258
67	0xbaa9fcbb	-0.0012968996
68	0x3b8b43dd	0.0042500333
69	0x3c0e3e98	0.008681916
70	0x3c2c4dd4	0.010516603
71	0xbb745fc1	-0.003728852
72	0x3b66bcee	0.0035207826
73	0x3b02d10e	0.0019961032
74	0xbcab92f3	-0.020944094
75	0x3c0e6be3	0.008692714
76	0x3a2f9255	0.00066975254
77	0x3ccc6eb5	0.024955133
78	0x3c1c4a65	0.009539221
79	0xbc3fdfcc	-0.011711072
80	0x3bed92ae	0.0072501516
81	0xbc8a5643	-0.016886836
82	0x3ade5b06	0.0016964383
83	0xbaebfa59	-0.0018003687
84	0xbc566d82	-0.013087632
85	0xbc57ce02	-0.013171675
86	0x3c0392b5	0.008030583
87	0xbc2e2ca2	-0.0106307585
88	0xbcaf45b1	-0.021395536
89	0xbb243e06	-0.0025061383
90	0x3ace86ab	0.0015756687
91	0xbc0363fd	-0.0080194445
92	0x3c57aa4b	0.01316316
93	0x3c2c11ba	0.010502273
94	0x3c607f58	0.013702236
95	0xbb4734fb	-0.003039657
96	0x3cb892a3	0.02253086
97	0x3b1ce357	0.0023939216
98	0x3c51aae8	0.012797095
99	0xbc0aef5c	-0.008479919
100	0x3c5be643	0.013421598
101	0x3c5625ef	0.0130705675
102	0x3a5241ce	0.000802067
103	0x3c6282c4	0.013825122
104	0x39e34668	0.0004334927
105	0x3c9aeb45	0.018911013
106	0xba3dd2a7	-0.00072411675
107	0x3c1ce57a	0.009576196
108	0xbbbd3a5c	-0.0057747792
109	0xb9ef3859	-0.00045627615
110	0xbbc21151	-0.0059224744
111	0xbbf8882e	-0.0075845933
112	0x3beee080	0.007289946
113	0xbbd6f389	-0.0065597934
114	0x3a8d1383	0.0010763261
115	0x3c70343f	0.014660894
116	0x3c044633	0.008073377
117	0x3c4d6dbd	0.012538371
118	0x3b101aeb	0.00219887
119	0xbc243443	-0.010022226
120	0x3b65c633	0.0035060763
121	0x3ce3591d	0.027752453
122	0xbc46c9b1	-0.012133048
123	0x3bbf1152	0.005830922
124	0xbc9ec637	-0.019381626
125	0xbb221c25	-0.0024736014
126	0xbbd168d4	-0.0063906703
127	0xbc734dbd	-0.014850077
128	0x3caea1e6	0.021317434
129	0x3af16e82	0.0018419775
130	0xbbc081fb	-0.00587487
131	0xbb72ffd6	-0.003707876
132	0x3c18537b	0.009297247
133	0xb9ee9e3c	-0.0004551279
134	0x3af91874	0.001900448
135	0xbb110ee0	-0.002213411
136	0x3bec75b3	0.0072161793
137	0xbd43f9ab	-0.047845524
138	0xbb262334	-0.0025350573
139	0x3ca03938	0.019558534
140	0xbba69d87	-0.0050846967
141	0xbcc174db	-0.023615291
142	0xbc112383	-0.008858564
143	0xbc8aafed	-0.016929591
144	0xb9a79b0f	-0.0003196825
145	0xbc556aa7	-0.013025916
146	0x3c56974e	0.013097597
147	0xbc2e6b2d	-0.01064567
148	0x3cb5d64c	0.022196911
149	0xbc8d1a79	-0.017224537
150	0x3ca31363	0.019906705
151	0x3c30190e	0.010748161
152	0xbc2124af	-0.009835406
153	0xbb1a3e65	-0.0023535725
154	0xbcc5a428	-0.024126127
155	0x3b76a91e	0.0037637423
156	0x3b6be03d	0.003599181
157	0xbc5b717d	-0.013393757
158	0x3c9c6dbe	0.019095298
159	0xbc3775ae	-0.011197491
160	0x3ab925ca	0.0014125642
161	0x3bde0a13	0.0067761033
162	0x3b4c3369	0.0031158573
163	0x3bd4d219	0.006494772
164	0xbca8a736	-0.020587545
165	0x3c09b9a3	0.008406076
166	0x3c189d24	0.009314809
167	0x3c135a2f	0.008993669
168	0x3cd3c826	0.025852274
169	0x3c1485ae	0.009065075
170	0xbc564db0	-0.013080046
171	0xbb95ed19	-0.0045753834
172	0xbb5f7de0	-0.0034102127
173	0x3a6e9f14	0.0009102684
174	0x3b91ab4a	0.004445468
175	0xbc323bd2	-0.01087852
176	0xba5ee989	-0.00085034274
177	0x3c2945a3	0.010331544
178	0x3c4808bb	0.012209113
179	0xbc3ae017	-0.011405966
180	0xbb901c7d	-0.0043979273
181	0x3af802fa	0.0018921786
182	0xbba89d07	-0.0051456722
183	0x3c185482	0.009297492
184	0xbb1207f5	-0.0022282575
185	0x3bbd8cf3	0.0057846247
186	0x3c30d874	0.010793794
187	0x3bd2b076	0.006429727
188	0x3cb69665	0.02228851
189	0x3c01750c	0.007901441
190	0x3ba5ab94	0.005055854
191	0x3cf00d36	0.029303174
192	0xbc39364a	-0.011304447
193	0xbc46e528	-0.012139596
194	0xbc7ff1fd	-0.015621659
195	0x3c2befb4	0.010494161
196	0x3c0385a5	0.008027469
197	0xbb5e8c26	-0.0033958047
198	0x3bfe5cd5	0.0077625313
199	0xbbd25a86	-0.0064194826
200	0xbc83272d	-0.016009891
201	0x3cda9c65	0.026685903
202	0xbbf2f64c	-0.007414615
203	0x3c2227f1	0.009897218
204	0xbc361985	-0.011114483
205	0x3b42d25a	0.002972743
206	0xbad2c164	-0.0016079363
207	0xbb6549a9	-0.0034986532
208	0xbbeee7f8	-0.0072908364
209	0x3c457793	0.0120524345
210	0x3c16a4a2	0.009194525
211	0x38a87f18	8.034537e-05
212	0xbbe72be0	-0.007054791
213	0xbb32d48a	-0.0027287328
214	0x3b7cf1bd	0.0038596236
215	0xbcf28031	-0.029602142
216	0x3c94d93d	0.018169994
217	0x3c869c48	0.016431943
218	0xbb11ba3e	-0.0022236253
219	0x3bb4d8e6	0.0055190204
220	0x3c64a84b	0.01395614
221	0x3c4c6197	0.012474439
222	0x3b133e50	0.002246756
223	0x3c110faf	0.008853837
224	0x3c6c3d9a	0.014418984
225	0xbb34c05a	-0.002758047
226	0xbb81af3e	-0.003957658
227	0x3b7b88e6	0.0038381158
228	0xbb700502	-0.0036624079
229	0xb88edf4b	-6.812679e-05
230	0x3b4a0e47	0.0030831264
231	0x398b0e82	0.00026522955
232	0xbd126bde	-0.0357474
233	0xbcb9ed0c	-0.02269604
234	0x3bad334b	0.0052856556
235	0x3c036aa0	0.008021027
236	0x3c007d1e	0.00784233
237	0xbc2c50af	-0.010517283
238	0xbc050eda	-0.008121217
239	0x3c5fe01c	0.013664272
240	0x3a86d8bf	0.0010287984
241	0xbc467ee1	-0.012115211
242	0x3bb93adf	0.00565277
243	0x3b49e43c	0.0030806204
244	0xbc1b7851	-0.009489135
245	0x3b89cd34	0.0042053703
246	0x3bf1386f	0.0073614637
247	0x3ba1df58	0.0049399547
248	0xb9a9d3f6	-0.00032392115
249	0xbc4f99a6	-0.01267091
250	0xbc1514e9	-0.009099224
251	0xbc2ae440	-0.010430396
252	0xbc580e36	-0.013186982
253	0x3c0e4d68	0.008685447
254	0xbbecc7ac	-0.007225951
255	0xbc728f88	-0.014804728

bottleneck.bias f4 [256]
0	0xb27f8305	-1.4872744e-08
1	0x3333be1b	4.1849585e-08
2	0x30981b25	1.106717e-09
3	0xb20ab1f0	-8.0731155e-09
4	0xb33666db	-4.2468724e-08
5	0xb15fe33a	-3.2579934e-09
6	0xb24e0a76	-1.1993157e-08
7	0xb32f86f9	-4.086812e-08
8	0xb307a1d0	-3.1579305e-08
9	0x328fcf71	1.6741724e-08
10	0x30eb169a	1.7104924e-09
11	0x312778c0	2.4370337e-09
12	0xb2fc93b8	-2.9403836e-08
13	0xb2cf5e2c	-2.4140796e-08
14	0xb1949cdd	-4.3252e-09
15	0xb30e0ce6	-3.3073682e-08
16	0xb2554dd6	-1.241593e-08
17	0xb360cf50	-5.2342614e-08
18	0x3336bf74	4.2549303e-08
19	0xb395e93e	-6.98078e-08
20	0x3384abee	6.178003e-08
21	0xb31386f7	-3.4348854e-08
22	0xb2809df0	-1.4972983e-08
23	0x3396c9d8	7.0216345e-08
24	0x32fb56f5	2.925979e-08
25	0xb37870be	-5.7844538e-08
26	0xb3308eec	-4.110818e-08
27	0x30c83dbd	1.4569462e-09
28	0x3312d7b5	3.418946e-08
29	0xb267ead5	-1.3499364e-08
30	0x338756c2	6.3022085e-08
31	0xb134a63c	-2.628794e-09
32	0xb266e524	-1.3439863e-08
33	0x33770715	5.751561e-08
34	0x32100315	8.382604e-09
35	0xb222d96c	-9.479077e-09
36	0xb3859d44	-6.2219016e-08
37	0x2ff0096e	4.3662446e-10
38	0x332c2fef	4.0090466e-08
39	0x3366fa18	5.3778507e-08
40	0xb294ca90	-1.7321582e-08
41	0xb32b19f4	-3.9837644e-08
42	0xb35639ab	-4.9878206e-08
43	0x32dc9af9	2.5681844e-08
44	0xb2900ca6	-1.6769558e-08
45	0xb2cd4309	-2.3895625e-08
46	0xb0517567	-7.6200596e-10
47	0xb2e34557	-2.645781e-08
48	0x32cd83fa	2.3925157e-08
49	0xb1f00bd6	-6.986265e-09
50	0x30aa5d0b	1.2395572e-09
51	0xb323eb27	-3.8165265e-08
52	0x322c36ba	1.0024161e-08
53	0xb2b8a772	-2.1496565e-08
54	0x326ac63f	1.3665669e-08
55	0xb3412e13	-4.497822e-08
56	0x32c490b9	2.2883215e-08
57	0xb26e97c9	-1.3887935e-08
58	0x33920ca3	6.8009534e-08
59	0xb34e6fca	-4.8064784e-08
60	0xb26cae1b	-1.3776595e-08
61	0xb2bf7b5c	-2.2291424e-08
62	0xb279b74e	-1.4535386e-08
63	0xb2a2e7d1	-1.89647e-08
64	0x3351c0b9	4.8836885e-08
65	0x3286c5db	1.5689627e-08
66	0xb34d2c7b	-4.7770737e-08
67	0xb353696f	-4.9223157e-08
68	0x33611b83	5.2411917e-08
69	0xb1d7f4ca	-6.285153e-09
70	0xb346a343	-4.6248953e-08
71	0x330350d8	3.057434e-08
72	0x3234ccab	1.0523915e-08
73	0x302f2a4c	6.3724737e-10
74	0xb322af2a	-3.7877875e-08
75	0xb071a3e9	-8.790822e-10
76	0x326bfb57	1.3735948e-08
77	0x331f8b1c	3.714659e-08
78	0xb2f4290e	-2.8424008e-08
79	0x3329ec4e	3.9563297e-08
80	0x32f2ec02	2.8279832e-08
81	0x335466f7	4.9453742e-08
82	0xb3bf06b1	-8.895348e-08
83	0x3202be8f	7.610324e-09
84	0xb34378d2	-4.551186e-08
85	0x32fa1503	2.9113385e-08
86	0xb31026e9	-3.3563e-08
87	0xb3855f71	-6.210656e-08
88	0x32790946	1.4495816e-08
89	0x32d59e7d	2.4868536e-08
90	0xb337ed9a	-4.2824105e-08
91	0x332607d9	3.8657024e-08
92	0xb3110ad8	-3.3770306e-08
93	0x33352b41	4.2181686e-08
94	0x327ead42	1.482414e-08
95	0xb366c60e	-5.3731178e-08
96	0x332d084e	4.0287254e-08
97	0x334f73c2	4.8301224e-08
98	0xb224f1ee	-9.601065e-09
99	0x3170e7a1	3.5056262e-09
100	0xb35815f8	-5.03114e-08
101	0xb3557e5a	-4.9707843e-08
102	0x3379b874	5.814259e-08
103	0x30a29073	1.1828106e-09
104	0xb2ac205b	-2.0038149e-08
105	0xb2e3f46d	-2.653743e-08
106	0x31b2e00d	5.2059534e-09
107	0xb3278bc0	-3.900982e-08
108	0xb2bc27b9	-2.1904144e-08
109	0xb28a4211	-1.6095358e-08
110	0xb2d8ef30	-2.525448e-08
111	0x320f11da	8.3277545e-09
112	0xb3406013	-4.4790863e-08
113	0x33084bbf	3.1733858e-08
114	0xb1a59d65	-4.8200257e-09
115	0xb32acbd9	-3.9766608e-08
116	0xb25f9ebf	-1.3016403e-08
117	0x31a4b715	4.793842e-09
118	0x327584f7	1.429111e-08
119	0xb26c0a9d	-1.3739421e-08
120	0xb1286054	-2.4501974e-09
121	0xb36a30ff	-5.4526932e-08
122	0x328e88b2	1.6593138e-08
123	0x31c721f5	5.7955227e-09
124	0xb351e9c6	-4.887422e-08
125	0x31cf5572	6.034207e-09
126	0x33133b1b	3.427986e-08
127	0xb240f1da	-1.1230862e-08
128	0x3320420f	3.7312983e-08
129	0x3328dc29	3.9315783e-08
130	0x32132839	8.565672e-09
131	0x318cecff	4.1014796e-09
132	0xb304c67f	-3.0914176e-08
133	0xb049686e	-7.327178e-10
134	0xb20aed0c	-8.086555e-09
135	0x336c252c	5.498184e-08
136	0xb05551ec	-7.7605367e-10
137	0x32b56d46	2.1120865e-08
138	0xb25218c1	-1.2229237e-08
139	0x335226b5	4.892964e-08
140	0x33ad46d2	8.0688224e-08
141	0xb29a4fc9	-1.7964242e-08
142	0xb20211d5	-7.5710505e-09
143	0xb36a062a	-5.4487977e-08
144	0xb2bcedcd	-2.199422e-08
145	0x320b562c	8.110458e-09
146	0xb28f3827	-1.6672926e-08
147	0xb28361a1	-1.5294804e-08
148	0x32b39250	2.0904878e-08
149	0xb36a00e1	-5.448317e-08
150	0xb26ecd12	-1.3900051e-08
151	0xb18f1624	-4.164365e-09
152	0xb01961c8	-5.580003e-10
153	0xb2e45cdf	-2.6584926e-08
154	0xb2f8bf10	-2.8957885e-08
155	0xb2ae5922	-2.0296799e-08
156	0xb3ee4305	-1.10949294e-07
157	0x327ed2b6	1.4832656e-08
158	0x310a8fa9	2.0163304e-09
159	0xb33e15b8	-4.4257575e-08
160	0x32575e27	1.2536055e-08
161	0x32d003d0	2.421612e-08
162	0x313e65d2	2.7706517e-09
163	0x332d1d75	4.0306492e-08
164	0x337bf6ae	5.8664845e-08
165	0xb34d527e	-4.7805308e-08
166	0x33359b44	4.228356e-08
167	0x33840064	6.1468e-08
168	0x324888f6	1.16726735e-08
169	0x33094dbd	3.19685e-08
170	0xb2cbd00f	-2.3726924e-08
171	0xb2ef148a	-2.7832602e-08
172	0xb318f636	-3.5614185e-08
173	0x336f3a6e	5.5699665e-08
174	0x33a374a4	7.611496e-08
175	0xb2491730	-1.1705012e-08
176	0xb356ad10	-4.9983157e-08
177	0x328c5f37	1.6341444e-08
178	0xb28aa5d5	-1.6140726e-08
179	0xb3372894	-4.2644913e-08
180	0x32ab6671	1.9953605e-08
181	0xb266f7d0	-1.3444108e-08
182	0x3304a827	3.088658e-08
183	0x31cb94dc	5.925001e-09
184	0x330ad5c8	3.232506e-08
185	0xb356281b	-4.9862233e-08
186	0x334cf038	4.771593e-08
187	0xb30fc12e	-3.3470478e-08
188	0xb2b77d5a	-2.1361007e-08
189	0xb2493525	-1.17118235e-08
190	0xb1d593fa	-6.215939e-09
191	0x33329d6e	4.1587036e-08
192	0x330e4f81	3.313426e-08
193	0xb279a3b3	-1.45309285e-08
194	0xb34d91a9	-4.786276e-08
195	0x3305f038	3.1184953e-08
196	0xb375c3a6	-5.722145e-08
197	0x31304b5f	2.5654214e-09
198	0xb313bad2	-3.4396017e-08
199	0x32818808	1.5079436e-08
200	0xb3009874	-2.9940978e-08
201	0x321ca22b	9.117268e-09
202	0xb3928e74	-6.824567e-08
203	0xb352b94b	-4.9062958e-08
204	0x32b66c74	2.1236907e-08
205	0xb351bb2f	-4.8831847e-08
206	0x334ecb08	4.814777e-08
207	0xb121f341	-2.3566857e-09
208	0x310575ee	1.9421083e-09
209	0xb37b7677	-5.8548235e-08
210	0xb2e9b687	-2.7207774e-08
211	0xaf659fb5	-2.0884168e-10
212	0xb296798e	-1.7517575e-08
213	0xb341ddf6	-4.5138187e-08
214	0xb34a13e3	-4.7049877e-08
215	0xb1b865c8	-5.366676e-09
216	0x32c8920f	2.3349484e-08
217	0x33380245	4.2842903e-08
218	0x32ae4a7f	2.0290143e-08
219	0x3391cf74	6.789824e-08
220	0xb32e9c72	-4.0654818e-08
221	0xb2996855	-1.7858989e-08
222	0xb358cc72	-5.047736e-08
223	0xb2215a52	-9.39197e-09
224	0xb348f325	-4.6787267e-08
225	0x33115110	3.383417e-08
226	0x32714748	1.4044254e-08
227	0x33026b0b	3.036534e-08
228	0x331a730a	3.5960547e-08
229	0x32345c11	1.0498312e-08
230	0xb277a427	-1.4414616e-08
231	0x330d06df	3.283537e-08
232	0x33cea849	9.6232334e-08
233	0x32e250d7	2.6346624e-08
234	0x3315363c	3.4741092e-08
235	0x333e8657	4.4360004e-08
236	0xb2a7c87d	-1.953253e-08
237	0x3343764b	4.5509562e-08
238	0xb1ab5810	-4.9867666e-09
239	0x3283da2f	1.5349626e-08
240	0x3337c9c7	4.2791523e-08
241	0x31bce174	5.497151e-09
242	0xb30a7834	-3.2239953e-08
243	0xb307d18a	-3.162271e-08
244	0x331fe881	3.7231533e-08
245	0xb207d901	-7.907375e-09
246	0xb2dc652a	-2.5657375e-08
247	0xb27710f9	-1.4381151e-08
248	0x321c38b5	9.093289e-09
249	0xb269a938	-1.3600861e-08
250	0x33a3c7d4	7.6266275e-08
251	0xb30229e7	-3.0306094e-08
252	0x338b9294	6.499354e-08
253	0x32f06b4d	2.7988472e-08
254	0x330ddc4f	3.302949e-08
255	0xb33207db	-4.1451e-08
