ckps/source/uda/domainnet/painting_2/source_C.pt (torch, 358186 bytes, 3 tensors)

fc.bias f4 [345]
-0.010958813 -0.0018049955 -0.008264804 -0.00869991 -0.005401559 0.020755483 -0.0071987608 -0.006748811
-0.0017044115 -0.016255945 -0.009765072 -0.010000609 -0.012863681 0.010553693 -0.021452323 0.009936981
-0.00518566 -0.022253286 -0.018444771 -0.0032032544 -0.017528366 0.0044510663 -0.009628272 -0.012588559
0.0017937076 0.014202881 0.0074615544 0.028589707 -0.019197904 0.008744407 0.0041465443 -0.009293923
-0.008334454 0.013313332 -0.0061161974 0.003207939 0.003892239 -0.0027848552 -0.008317333 5.1876003e-05
-0.012030877 -0.014982635 0.005525316 0.0035283412 0.00076297246 -0.0036336523 0.0056053903 -0.0058195638
0.01641778 0.01989963 -0.007215944 -0.013462489 0.008490634 0.01922953 -0.019987743 -0.0043689483
-0.0033963057 0.0030354434 -0.0126605695 0.008467424 0.00041666883 -0.00112302 -0.0072986563 0.005896898
0.012251404 0.0148254065 -0.0054347753 -0.007681173 0.0028109571 0.0032897813 -0.0042259735 -0.008050058
-0.013282091 -0.007984074 0.007462371 -0.016703915 -0.0022794295 0.020672366 -0.0035829693 0.008260158
0.014036183 -0.01108785 0.0015126138 0.023680253 0.0013851464 0.0046952968 0.0103507275 -0.009856343
0.016353855 0.0010845774 -0.012250756 0.013191492 -0.0075656706 0.009155695 -0.019972555 -0.01599411
0.015595295 0.025424156 0.0038731815 0.008073377 -0.0060414784 -0.0137733435 0.0015536267 0.044548273
-0.0008771042 0.021574289 0.0044981465 0.0020421196 0.016931513 0.020523697 0.0010703133 0.012922303
0.0021000681 0.013576653 0.005794209 0.01153368 -0.005094462 0.007224423 -0.006194965 -0.016583512
0.01612253 -0.012380975 -0.0075888503 0.01378121 -0.008845151 0.0057586604 0.0018020759 -0.008857076
-0.015243249 -0.005018309 -0.010353857 0.013910198 -0.012623645 -0.02201624 -0.0051784934 0.005629282
0.005546103 -0.026402596 -0.010242887 -0.0012542313 -0.0040911236 0.005863061 -0.008835967 0.020582648
-0.0031348846 -0.022594621 -0.016384833 0.003038105 0.0030607276 0.02612669 -0.0025455542 -0.006374476
0.022579364 0.0010392884 -0.0021810343 -0.010476826 -0.0042233192 -0.0090685 0.014164786 -0.004441615
-0.0011898103 0.009418128 -0.009974626 0.013914832 0.0053652 -0.006392398 -0.0004018408 -0.018094866
-0.031804252 -0.008615273 0.010720103 0.009084426 -0.0049102083 0.0038817332 0.006832672 0.0030010429
0.003195492 -0.022216978 0.0023682064 -0.006728557 -0.0024285605 0.002567115 -0.010665465 -0.007102749
-0.021702612 0.0072640893 0.0016893952 -0.016280884 0.0026643206 0.001952565 -0.007322114 -0.0041690283
-0.018566158 0.017331759 -0.015282881 0.007909017 0.0071554086 0.009982408 -0.019555239 -0.022149056
0.012281973 -0.013605768 -0.009852819 0.009509276 0.0069984067 -0.0058836197 -0.014432388 0.013377314
0.014259054 -0.00883559 -0.01052463 0.0015226366 0.014836651 0.0040850327 0.00421495 0.0077984994
-0.003602663 -0.007807028 0.013259579 0.0026430136 -0.0059431377 -0.008070885 0.00065953116 0.0034216861
0.014544067 -0.00041569097 -0.022025548 0.0012537524 -0.022187557 0.0054131686 -0.014814154 -0.0063249953
0.00086148846 0.0066845394 0.0061697788 -0.0023926587 0.009455754 0.0011538835 -0.0117702605 -0.0050467295
0.010638712 -0.00949825 -0.004104721 0.0021604472 -0.017940138 0.0044402187 -0.01131224 0.021291042
-0.007603875 -0.003035434 0.013725381 -0.0042039854 -0.006700419 0.00034230208 -0.009118091 0.011246508
00000000: 988c 33bc 9995 ecba 1a69 07bc 118a 0ebc
00000010: 90ff b0bb 6707 aa3c 95e3 ebbb 2125 ddbb
00000020: 8f66 dfba 302b 85bc aefd 1fbc 98d9 23bc
00000030: 30c2 52bc 66e9 2c3c c8bc afbc b8ce 223c
00000040: 78ec a9bb 864c b6bc 7d19 97bc b1ed 51bb
00000050: a697 8fbc 40da 913b e6bf 1dbc 3e40 4ebc
00000060: d71a eb3a 33b3 683c 0e80 f43b f634 ea3c
00000070: ec44 9dbc b444 0f3c bcdf 873b 8a45 18bc
00000080: 3c8d 08bc 2920 5a3c 626a c8bb 493c 523b
00000090: ef14 7f3b 1e82 36bb 6c45 08bc 6f95 5938
000000a0: 281d 45bc ba79 75bc b60d b53b be3b 673b
000000b0: 3702 483a 9222 6ebb 6cad b73b 0ab2 bebb
000000c0: 957e 863c 8d04 a33c ba73 ecbb c591 5cbc
000000d0: 4d1c 0b3c 3f87 9d3c 56bd a3bc 6529 8fbb
000000e0: 8e94 5ebb 4aee 463b 476e 4fbc f3ba 0a3c
000000f0: 5874 da39 4c32 93ba 9129 efbb c43a c13b
00000100: 1dba 483c 43e6 723c 3316 b2bb 59b2 fbbb
00000110: 0938 383b 5f99 573b 097a 8abb 64e4 03bc
00000120: 219d 59bc a2cf 02bc e886 f43b a6d6 88bc
00000130: 7b62 15bb 1859 a93c 40d0 6abb 9d55 073c
00000140: 05f8 653c d0a9 35bc e642 c63a 17fd c13c
00000150: cd8d b53a 01db 993b 1996 293c 807c 21bc
00000160: 85f8 853c 6128 8e3a 65b7 48bc 2121 583c
00000170: 72e9 f7bb c501 163c 7c9d a3bc 1406 83bc
00000180: 6883 7f3c 5246 d03c 34d5 7d3b 3346 043c
00000190: 98f7 c5bb 97a9 61bc 10a3 cb3a 4078 363d
000001a0: 77ed 65ba 90bc b03c 3065 933b 15d5 053b
000001b0: f5b3 8a3c 5021 a83c c149 8c3a 11b8 533c
000001c0: 4ca1 093b 9c70 5e3c 59dd bd3b c3f7 3c3c
000001d0: 72ef a6bb daba ec3b 22ff cabb 25da 87bc
000001e0: 6513 843c 93d9 4abc e4ab f8bb 96ca 613c
000001f0: 41eb 10bc 25b3 bc3b a233 ec3a 451d 11bc
00000200: d2be 79bc a170 a4bb 39a3 29bc 99e7 633c
00000210: 68d3 4ebc 675b b4bc 5ab0 a9bb d775 b83b
00000220: 16bc b53b 424a d8bc c8d1 27bc 0565 a4ba
00000230: d50e 86bb ec1e c03b bbc4 10bc f19c a83c
00000240: a372 4dbb 5b18 b9bc 7c39 86bc f21a 473b
00000250: 7d96 483b a407 d63c 50d3 26bb fbe0 d0bb
00000260: 5cf8 b83c bb38 883a afef 0ebb fea6 2bbc
00000270: c563 8abb 0c94 14bc 6b13 683c f88a 91bb
00000280: 69f3 9bba 7e4e 1a3c 9d6c 23bc 09fb 633c
00000290: 8fce af3b 5277 d1bb 29ae d2b9 af3b 94bc
000002a0: 2d45 02bd 1327 0dbc 5fa3 2f3c d8d6 143c
000002b0: d0e5 a0bb ad64 7e3b 9be4 df3b 25ad 443b
000002c0: 766b 513b 6100 b6bc e933 1b3b 3a7b dcbb
000002d0: 7c28 1fbb 0b3d 283b 34be 2ebc 2dbe e8bb
000002e0: adc9 b1bc 9907 ee3b b26e dd3a 7d5f 85bc
000002f0: e29b 2e3b 36ed ff3a 58ee efbb 589c 88bb
00000300: 0e18 98bc 55fb 8d3c 0d65 7abc d294 013c
00000310: eb77 ea3b 418d 233c 4f32 a0bc f071 b5bc
00000320: 543a 493c baea 5ebc b86d 21bc cbcc 1b3c
00000330: e452 e53b 61cb c0bb d375 6cbc 862c 5b3c
00000340: cf9e 693c 27c3 10bc 7f6f 2cbc 3593 c73a
00000350: 6d15 733c bddb 853b 901d 8a3b 8e8a ff3b
00000360: a81a 6cbb 19d2 ffbb b53e 593c 6936 2d3b
00000370: a7be c2bb bf3b 04bc 63e4 2c3a 5e3e 603b
00000380: 3d4a 6e3c 19f1 d9b9 ec6e b4bc f354 a43a
00000390: aec2 b5bc f360 b13b 11b7 72bc e841 cfbb
000003a0: 83d5 613a fb09 db3b db2b ca3b 27ce 1cbb
000003b0: 4fec 1a3c e83d 973a 0dd8 40bc 095f a5bb
000003c0: fe4d 2e3c 8c9e 1bbc e580 86bb 4a96 0d3b
000003d0: 32f7 92bc 417f 913b f956 39bc 8d6a ae3c
000003e0: ed29 f9bb 22ee 46bb 6ce0 603c 96c1 89bb
000003f0: 308f dbbb 0277 b339 0c64 15bc 4643 383c

fc.weight_g f4 [345, 1]
0.77477837 0.81168514 0.72302175 0.7311047 1.0394279 0.98188496 0.9064619 0.87343657
1.0136367 0.9921231 0.98108625 0.9653952 0.8927915 0.9711064 0.9381921 0.93791026
0.7939916 0.8363011 0.9956949 0.9218094 0.9903048 0.63842446 1.0203519 0.9417488
0.90638393 0.64807945 0.92901015 0.53379315 0.8600663 0.7960915 0.9063009 0.88076556
0.8024737 0.61661416 0.83764696 0.74497545 0.6650245 1.0552331 0.9450668 0.9413274
0.8976696 0.9558866 0.9624289 0.7354618 0.81300724 0.7131616 0.6802061 0.71934754
0.78464854 0.9515293 0.8138529 0.8411008 0.5879337 0.6483788 0.9430412 0.79759353
0.74225116 0.920669 0.8947415 0.687207 0.9397535 0.6385863 0.91182303 0.79807115
0.89183295 0.5735744 0.8095855 0.83896667 0.6927219 0.6641054 0.7881506 0.9605159
0.7922653 0.9242548 0.85903645 0.8407196 0.69205606 0.52534884 0.71327674 0.56483746
0.59044117 0.78540796 0.7811149 0.5736496 0.79614836 0.7630026 0.81648207 1.0259117
0.5463625 0.70807314 0.80326366 1.0329587 0.96869755 0.9528904 0.9284772 0.8969182
0.71000063 0.58885473 0.877805 0.94445777 0.8145945 0.8764779 0.816666 0.8980283
0.95808375 0.46000388 0.857532 0.7922038 0.5471502 0.56113863 0.9330203 0.6841996
0.69184273 0.6285862 0.6088782 0.91524166 0.9866619 0.7929733 0.96976817 0.87408614
0.58670044 1.0208173 0.9461041 0.7994091 0.7857553 0.77127904 0.8010397 0.85821074
0.9044248 0.7442695 0.8071204 1.1028578 0.93832713 0.97639847 0.8416633 0.7740626
0.6680779 0.96198463 0.8428259 0.9696778 0.8911351 0.8322016 0.9013665 0.6403348
0.8085965 0.87862253 0.8151886 0.99766415 0.67929614 0.92632174 0.77626073 0.83066994
0.7839607 0.7296389 0.9573154 0.87227744 0.91658455 0.905286 0.6562985 0.85905886
0.76881593 0.8975472 0.84717065 0.61247844 0.9392578 0.9240275 0.77971077 1.0364555
0.882488 1.0340966 0.5967718 0.9402314 0.8438318 1.019045 1.0054425 0.8546518
0.8582582 0.9580178 0.7780371 1.0075268 0.85461867 0.75224996 0.8451965 0.7883407
0.8296862 0.586746 0.9896802 0.9705759 0.7244766 0.73030657 0.919973 0.98731536
0.9987233 0.68922246 0.9451951 0.9014434 1.0917403 0.93477225 1.0114541 1.0368056
0.5340047 0.95906776 0.9914307 0.59577215 0.9798053 0.9787887 0.8553373 1.0162449
0.8216566 0.96898955 0.79715335 0.75922555 0.8921592 0.60687697 0.798779 0.9629648
0.736834 0.85436076 0.952517 0.85968477 0.7462249 0.9936939 0.94979477 0.8625422
0.86613095 0.74787754 0.91364807 0.6696288 1.0702345 0.7555731 0.8087257 0.8236164
0.7089521 0.70678777 0.6942097 0.889365 0.85691 0.7556178 0.9873529 0.7718084
0.73253673 0.82686764 0.83791864 0.8806866 1.039222 0.71515507 0.9295886 0.87434846
0.7929154 0.8749175 0.94247496 0.6763764 0.7467544 0.7557209 0.74077886 0.90889287
00000000: e057 463f 99ca 4f3f f417 393f ad29 3b3f
00000010: f90b 853f d05c 7b3f e30d 683f 8a99 5f3f
00000020: d9be 813f c8fb 7d3f 7828 7b3f 2424 773f
00000030: fc8d 643f 6e9a 783f 5c2d 703f e31a 703f
00000040: 0943 4b3f d417 563f dce5 7e3f b3fb 6b3f
00000050: 9e84 7d3f c96f 233f e49a 823f 7316 713f
00000060: c708 683f 89e8 253f 9cd3 6d3f aba6 083f
00000070: 4e2d 5c3f a7cc 4b3f 5603 683f da79 613f
00000080: eb6e 4d3f 6dda 1d3f 0870 563f b6b6 3e3f
00000090: 0c3f 2a3f e111 873f e6ef 713f d5fa 703f
000000a0: adcd 653f fcb4 743f be61 763f 3947 3c3f
000000b0: 3e21 503f c291 363f fd21 2e3f 2927 383f
000000c0: bade 483f 6d97 733f aa58 503f 6252 573f
000000d0: d382 163f 27fc 253f 266b 713f 172f 4c3f
000000e0: 2c04 3e3f f7b0 6b3f c70d 653f ccec 2f3f
000000f0: af93 703f 647a 233f 3c6d 693f 644e 4c3f
00000100: 2a4f 643f c6d5 123f ff40 4f3f 85c6 563f
00000110: 3956 313f d002 2a3f 3dc4 493f 5fe4 753f
00000120: e6d1 4a3f f69b 6c3f d0e9 5b3f 6639 573f
00000130: 962a 313f 437d 063f 4e99 363f 3099 103f
00000140: 2727 173f 7f10 493f 25f7 473f b3da 123f
00000150: 61d0 4b3f 2354 433f f804 513f 1351 833f
00000160: 6ade 0b3f 4844 353f b0a2 4d3f fe37 843f
00000170: 90fc 773f a0f0 733f afb0 6d3f 6e9c 653f
00000180: 9ac2 353f 2fbf 163f d4b7 603f fcc7 713f
00000190: 4489 503f db60 603f 0611 513f 2fe5 653f
000001a0: fa44 753f a185 eb3e 3887 5b3f decd 4a3f
000001b0: 0912 0c3f c8a6 0f3f 6bda 6e3f b427 2f3f
000001c0: 9b1c 313f 06eb 203f 71df 1b3f 474d 6a3f
000001d0: e095 7c3f 4c00 4b3f ba42 783f 1cc4 5f3f
000001e0: 0032 163f 24aa 823f e133 723f 13a6 4c3f
000001f0: 4227 493f 8b72 453f f010 4d3f b3b3 5b3f
00000200: 6288 673f 7288 3e3f 719f 4e3f 722a 8d3f
00000210: 3536 703f 40f5 793f 3f77 573f f728 463f
00000220: 2707 2b3f a044 763f 70c3 573f ce3c 783f
00000230: 6e21 643f 2a0b 553f f4bf 663f fbec 233f
00000240: 2e00 4f3f 68ed 603f 33b0 503f eb66 7f3f
00000250: 5ae6 2d3f 6c23 6d3f 06b9 463f c9a6 543f
00000260: a6b1 483f 9dc9 3a3f 9f12 753f 934d 5f3f
00000270: 49a5 6a3f d3c0 673f 2e03 283f 48eb 5b3f
00000280: 1fd1 443f a7c5 653f 2de0 583f 63cb 1c3f
00000290: 3373 703f 118d 6c3f 209b 473f 93aa 843f
000002a0: bcea 613f 475d 843f 09c6 183f 01b3 703f
000002b0: 5c05 583f 1170 823f 57b2 803f 76ca 5a3f
000002c0: cfb6 5b3f a840 753f 702d 473f a3f6 803f
000002d0: 4ac8 5a3f 7493 403f cc5e 583f b2d0 493f
000002e0: 5166 543f fc34 163f ae5b 7d3f aa77 783f
000002f0: 4c77 393f 5ff5 3a3f 5a83 6b3f b3c0 7c3f
00000300: 55ac 7f3f e270 303f 4ef8 713f ffc4 663f
00000310: 25be 8b3f 3c4d 6f3f 5477 813f 0cb6 843f
00000320: 88b4 083f 7785 753f 67ce 7d3f 8684 183f
00000330: 85d4 7a3f e591 7a3f 63f7 5a3f 5014 823f
00000340: 1658 523f b30f 783f 3e12 4c3f 9b5c 423f
00000350: 8c64 643f 4a5c 1b3f c87c 4c3f dc84 763f
00000360: 27a1 3c3f 63b7 5a3f 27d8 733f 4d14 5c3f
00000370: 9808 3f3f b962 7e3f c025 733f 91cf 5c3f
00000380: c2ba 5d3f e774 3f3f d7e4 693f cb6c 2b3f
00000390: 72fd 883f 3d6d 413f a608 4f3f 86d8 523f
000003a0: e37d 353f 0bf0 343f bab7 313f 6dad 633f
000003b0: 745e 5b3f 2b70 413f 29c3 7c3f 3c95 453f
000003c0: 8787 3b3f 99ad 533f d681 563f ad74 613f
000003d0: 3a05 853f 6714 373f 85f9 6d3f 4dd5 5f3f
000003e0: 81fc 4a3f 98fa 5f3f 0a46 713f 0127 2d3f
000003f0: 4c2b 3f3f ed76 413f afa3 3d3f 34ad 683f

fc.weight_v f4 [345, 256]
-0.013463192 0.00759379 0.0037318897 -0.011960885 0.0164506 0.014803395 -0.004414285 -0.015000755
-0.0073985574 0.011065118 -0.0023580592 -0.018414887 0.022010133 0.006668665 -0.018942881 0.012758566
-0.011020017 -0.0074994345 0.0031535719 0.0042690034 -0.009867126 -0.013411363 0.012820586 0.025196547
0.013790847 -0.024012497 0.009364225 0.028570345 -0.015372154 -0.013135791 -0.027466442 -0.014918783
0.0008545516 0.018637927 -0.019408626 -0.00977221 0.005712347 -0.0076677892 0.013468234 -0.0020442398
-0.003628619 -0.01345752 -0.010361162 -0.00500601 0.01276369 0.009676722 0.026414273 0.02093933
-0.0006861274 -0.024327755 -0.010664826 -0.0019356302 -0.004853676 0.013721814 -0.0018355073 0.0184876
0.0041035167 -4.297738e-05 0.008126773 0.01272873 -0.008751992 -0.0060435226 0.009177705 -0.007842478
0.0022402562 0.01604365 -0.0008961108 0.013136051 0.018686164 0.013645496 -0.012703199 -0.014093659
0.0038674232 0.009649536 0.021842942 -0.025942562 0.008457377 0.0093235755 0.024982983 -0.0077785794
-0.01133994 -0.005253707 -0.029897587 0.013742776 0.016468205 -0.0191449 -0.0023651565 0.014246402
-0.011572255 -0.020445893 0.010427094 0.0026715035 -0.010965906 0.017719287 -0.023200927 -0.0032309492
-0.01410591 -0.022901943 0.016496865 0.017911812 -0.012786937 0.011002217 -0.019736018 -0.024276314
-0.019975375 -0.004644234 -0.012778136 0.020778937 0.009236982 0.026469648 -0.020233849 0.005592675
0.0093525965 -0.027738752 0.0028594893 0.00047535388 -0.0022933658 0.00831143 -0.024575133 0.03393109
-0.003487675 0.02125302 0.020010492 0.0067534964 -0.02853531 -0.011037668 0.0038528417 -0.00954588
0.021895446 0.015297199 0.010828371 -0.021217009 -0.007996545 -0.015223641 -0.008130883 -0.01052223
0.0051539293 0.000769706 -0.00644159 -0.010662348 0.0068837055 0.015968973 0.015253292 -0.013430136
0.010356942 -0.020463 -0.019468661 -0.019141557 0.03258963 0.01795491 0.015823312 0.0073347483
0.018004283 -0.022296088 -0.0005743878 0.0062244823 -0.0101935025 0.0141324755 0.0021826397 -0.015039583
0.017912544 0.007195061 0.0127563095 -0.027066398 0.0051843734 0.021089824 -0.000892538 0.026745023
0.015670208 -0.008750423 7.339118e-05 -0.0023378157 0.019239416 0.010524912 -0.022122322 -0.0036113735
0.011586996 -0.020323444 0.02283561 0.008837878 -0.0059780255 0.007233761 0.00818321 -0.005574725
0.024884077 -0.001520809 0.023428937 -0.00943709 0.007245501 0.0149978 0.017627716 0.019572536
0.002244548 -0.0126587115 -0.019714855 0.020543119 0.013605666 0.000882265 0.02351304 0.0028426053
0.019408913 0.0067643635 0.028711837 -0.016135203 0.012314565 0.025752325 -0.0004332465 -0.0054165055
-0.0071670464 -0.0045158644 -0.01811418 -0.026863307 0.0063216165 0.006150617 -0.003739717 0.022255685
-0.010821892 -0.0028738317 0.0020143825 0.014312738 -0.007612022 -0.015662119 0.014191504 0.02315266
0.0028817304 -0.004585015 -0.005926836 -0.00821629 -0.0013727586 -0.00015910994 0.019921353 -0.0013528693
0.0004385915 0.015358257 -0.016295291 -0.005429807 -0.0012843225 0.010501344 0.0003653393 -0.008105658
-0.023587726 0.00074239186 0.01607865 -0.0055651325 0.008542293 -0.019870542 -0.00036291496 0.022035105
-0.0035967864 0.010764998 0.01890612 -0.009620748 0.026833633 0.006168657 0.025722867 0.008690841
00000000: b894 5cbc 54d5 f83b b892 743b 96f7 43bc
00000010: 69c3 863c f089 723c b5a5 90bb bac5 75bc
00000020: 996f f2bb 784a 353c ab89 1abb d1da 96bc
00000030: 984e b43c d184 da3b 1a2e 9bbc 4e09 513c
00000040: 4d8d 34bc d1bd f5bb 28ac 4e3b ffe2 8b3b
00000050: baa9 21bc 55bb 5bbc 6f0d 523c fd68 ce3c
00000060: 01f3 613c dbb5 c4bc 686c 193c 5b0c ea3c
00000070: 7ddb 7bbc 8037 57bc 4e01 e1bc e96d 74bc
00000080: fd03 603a 91ae 983c d7fe 9ebc 9f1b 20bc
00000090: a42e bb3b 1442 fbbb dea9 5c3c a7f8 05bb
000000a0: 20ce 6dbb ee7c 5cbc ddc1 29bc 7509 a4bb
000000b0: cc1e 513c 1d8b 1e3c bf62 d83c f588 ab3c
000000c0: 3bdd 33ba 004b c7bc 86bb 2ebc f9b4 fdba
000000d0: 960b 9fbb 76d1 603c 6895 f0ba 4f73 973c
000000e0: cb76 863b 9c42 34b8 2826 053c 2a8c 503c
000000f0: 8464 0fbc be08 c6bb 165e 163c bd7d 00bc
00000100: 43d1 123b f96d 833c fae8 6aba 9738 573c
00000110: ba13 993c 5c91 5f3c 1421 50bc 17e9 66bc
00000120: 9874 7d3b 1619 1e3c f8ef b23c 7f85 d4bc
00000130: cf90 0a3c e9c1 183c 1da9 cc3c 74e3 febb
00000140: 28cb 39bc 4a27 acbb c9eb f4bc 6129 613c
00000150: 54e8 863c c4d5 9cbc be00 1bbb be69 693c
00000160: 8e99 3dbc 257e a7bc 67d6 2a3c 6414 2f3b
00000170: 58aa 33bc 0a28 913c df0f bebc 55be 53bb
00000180: 7a1c 67bc db9c bbbc 6f24 873c cbbb 923c
00000190: 4d80 51bc a542 343c 6ead a1bc 1fdf c6bc
000001a0: 66a3 a3bc a92e 98bb 635b 51bc 9738 aa3c
000001b0: b656 173c e0d6 d83c 75c1 a5bc c242 b73b
000001c0: a23b 193c 613c e3bc 4566 3b3b eb38 f939
000001d0: 4b4c 16bb aa2c 083c ca51 c9bc 54fb 0a3d
000001e0: 7a91 64bb d01a ae3c 0bed a33c 6f4c dd3b
000001f0: e2c2 e9bc 56d7 34bc f57f 7c3b 5366 1cbc
00000200: 145e b33c 1aa1 7a3c 7b69 313c 4bcf adbc
00000210: f103 03bc 946c 79bc 6537 05bc 6e65 2cbc
00000220: 4be2 a83b 18c6 493a f913 d3bb 21b1 2ebc
00000230: b590 e13b 5dd1 823c f2e8 793c 130a 5cbc
00000240: 2ab0 293c 05a2 a7bc be7c 9fbc c1ce 9cbc
00000250: b47c 053d 2d16 933c e49f 813c 5458 f03b
00000260: b87d 933c 49a6 b6bc 8392 16ba bef6 cb3b
00000270: a602 27bc e68b 673c 9e0a 0f3b 9568 76bc
00000280: 54bd 923c 8cc4 eb3b d7ff 503c 5aba ddbc
00000290: ade1 a93b 91c4 ac3c 36f9 69ba 6118 db3c
000002a0: cf5e 803c ef5d 0fbc 97e9 9938 0a36 19bb
000002b0: fb9b 9d3c ae70 2c3c df39 b5bc cbac 6cbb
000002c0: 62d7 3d3c 5a7d a6bc bf11 bb3c bfcc 103c
000002d0: 50e3 c3bb 2f09 ed3b df12 063c 2fac b6bb
000002e0: b1d9 cb3c e255 c7ba 0bee bf3c 069e 1abc
000002f0: ab6b ed3b 55b9 753c 0068 903c 9556 a03c
00000300: 4419 133b 7c66 4fbc 0c81 a1bc 0b4a a83c
00000310: 4dea 5e3c cd47 673a 6b9e c03c 014b 3a3b
00000320: 71ff 9e3c 98a7 dd3b 1635 eb3c f92d 84bc
00000330: 07c3 493c 8af6 d23c 5c25 e3b9 f17c b1bb
00000340: 8bd9 eabb d1f9 93bb 3064 94bc 7010 dcbc
00000350: 9025 cf3b 1d8b c93b 0a16 75bb 8e51 b63c
00000360: 4e4e 31bc e556 3cbb bb03 043b f97f 6a3c
00000370: 456e f9bb d84d 80bc 7b83 683c a6aa bd3c
00000380: 6adb 3c3b e53d 96bb e735 c2bb 9e9d 06bc
00000390: 23ee b3ba c0d6 26b9 1b32 a33c c352 b1ba
000003a0: c1f2 e539 33a1 7b3c b47d 85bc 86ec b1bb
000003b0: b656 a8ba d40d 2c3c 038b bf39 98cd 04bc
000003c0: 0c3b c1bc 139d 423a 5fb7 833c b75b b6bb
000003d0: f9f4 0b3c 8cc7 a2bc 9f45 beb9 f782 b43c
000003e0: 10b8 6bbb ad5f 303c 02e1 9a3c 58a0 1dbc
000003f0: 35d2 db3c 7222 ca3b c3b8 d23c 0764 0e3c
