ckps/source/uda/domainnet/clipart_2/source_B.pt (torch, 532830 bytes, 6 tensors)

bn.weight f4 [256]
000000 88 8a 73 3f a2 58 77 3f 40 e3 84 3f 4c 4b 70 3f
       0.95133257 0.9661962 1.0381851 0.93864894
000010 33 85 67 3f bb cf 81 3f cd b8 82 3f 90 c4 82 3f
       0.9043762 1.0141519 1.0212647 1.0216236
000020 88 e8 84 3f 51 61 84 3f 6f b5 82 3f 16 27 68 3f
       1.0383463 1.0342199 1.0211619 0.9068464
000030 d6 79 81 3f 25 24 86 3f 33 30 82 3f 93 0c 83 3f
       1.0115306 1.047978 1.0170959 1.0238212
000040 47 09 7e 3f 34 13 82 3f 6d 3e 79 3f e2 c2 80 3f
       0.99232906 1.016211 0.9736088 1.0059474
000050 c9 bb 80 3f 0c ae 80 3f c6 92 72 3f fa 34 83 3f
       1.0057307 1.0053115 0.9475521 1.0250542
000060 e3 f3 7a 3f 9f d3 80 3f e8 8e 80 3f d8 95 80 3f
       0.9802839 1.0064582 1.0043612 1.0045729
000070 2c 7f 85 3f 81 0a 80 3f 12 59 86 3f 16 41 7d 3f
       1.0429435 1.0003206 1.0495932 0.9892744
000080 bc 5c 84 3f 1c 37 83 3f 77 fd 75 3f 98 28 75 3f
       1.03408 1.0251193 0.9608988 0.95765066
000090 e0 2d 83 3f 38 e8 72 3f ef ac 82 3f b5 5e 84 3f
       1.0248375 0.9488559 1.0209025 1.0341402
0000a0 17 36 87 3f 6e c5 83 3f 55 f2 79 3f e2 84 81 3f
       1.0563382 1.0294626 0.97635394 1.0118678
0000b0 9b 89 76 3f 7b 27 85 3f e1 e6 79 3f 80 9d 81 3f
       0.9630372 1.0402673 0.9761792 1.012619
0000c0 b8 8f 7c 3f 76 e8 81 3f 84 f1 70 3f 4f 76 71 3f
       0.986568 1.0149066 0.94118524 0.9432115
0000d0 5d 8c 75 3f b3 f3 6e 3f 15 21 7f 3f da 64 75 3f
       0.959173 0.93340605 0.99659854 0.9585701
0000e0 9c 5a 7e 3f ea 2b 83 3f ea e3 85 3f 60 28 73 3f
       0.9935701 1.0247777 1.0460179 0.9498348
0000f0 b7 7f 78 3f d3 23 73 3f 25 5e 7f 3f de 33 79 3f
       0.9706988 0.9497654 0.9975303 0.9734477
000100 f2 45 72 3f f8 91 7b 3f 67 fd 7d 3f 2a 25 81 3f
       0.9463798 0.98269606 0.99214786 1.0089467
000110 53 24 81 3f ad c9 80 3f b8 8f 78 3f 0c a6 7b 3f
       1.008921 1.0061547 0.970943 0.9830024
000120 4c c0 83 3f 5b 76 7b 3f 1b 72 81 3f df 2d 76 3f
       1.0293059 0.9822747 1.0112947 0.96163744
000130 eb f6 7b 3f 4f 6d 7c 3f bd c2 76 3f a4 d5 7a 3f
       0.9842364 0.9860429 0.963909 0.9798224
000140 25 93 84 3f a7 0d 84 3f 8b 20 7f 3f 76 db 7b 3f
       1.0357405 1.0316666 0.9965903 0.98381746
000150 03 eb 80 3f b1 07 84 3f 78 3f 76 3f 9f cf 81 3f
       1.007172 1.0314847 0.96190596 1.0141486
000160 b2 d5 82 3f 5c 0b 84 3f 6c 4f 86 3f 2e e2 89 3f
       1.0221465 1.0315967 1.0492988 1.077215
000170 e1 65 73 3f ba 30 89 3f 8e 1c 79 3f 3e 32 7d 3f
       0.9507733 1.0717995 0.97309196 0.9890479
000180 29 eb 77 3f 95 ff 84 3f d5 57 6b 3f 47 5b 77 3f
       0.968432 1.0390497 0.91930896 0.96623653
000190 dc 76 7c 3f 61 c3 85 3f f9 c5 86 3f b3 ca 83 3f
       0.98618865 1.045025 1.0529166 1.0296234
0001a0 86 79 6d 3f 81 bc 87 3f ab 6f 7e 3f 2d 44 70 3f
       0.92763555 1.0604402 0.9938914 0.9385403
0001b0 29 02 7e 3f 9d de 82 3f 25 04 7d 3f 08 a2 83 3f
       0.99222046 1.0224186 0.9883445 1.0283823
0001c0 d0 8b 71 3f 18 46 7d 3f 11 af 7e 3f 19 80 73 3f
       0.9435396 0.9893508 0.9948588 0.95117337
0001d0 68 95 72 3f b8 03 69 3f e1 e5 80 3f 80 af 89 3f
       0.94759226 0.910213 1.0070153 1.0756683
0001e0 cf da 84 3f 84 fd 81 3f ef 88 80 3f ef b1 84 3f
       1.0379275 1.0155492 1.0041789 1.0366801
0001f0 fc 83 7c 3f 1b e7 84 3f 38 cf 82 3f 83 7b 80 3f
       0.9863889 1.0383028 1.0219488 1.0037693
000200 ae e7 7d 3f 70 15 78 3f eb 55 7c 3f f0 fc 75 3f
       0.9918164 0.9690771 0.985686 0.96089077
000210 88 f7 7f 3f e2 b3 7e 3f 77 a8 6d 3f c7 f6 80 3f
       0.9998708 0.9949323 0.9283518 1.007531
000220 02 33 82 3f 4f 9c 7e 3f fe 1b 81 3f ca 2b 86 3f
       1.0171816 0.9945726 1.0086668 1.0482113
000230 7c 2f 85 3f d5 28 78 3f bf bb 73 3f 78 57 79 3f
       1.0405116 0.96937305 0.9520835 0.9739909
000240 82 c3 80 3f 91 0d 76 3f e3 96 6d 3f 97 a0 87 3f
       1.0059664 0.9611445 0.9280836 1.0595883
000250 2b 0e 84 3f de 39 81 3f 0f 38 78 3f 11 4e 7d 3f
       1.0316824 1.0095785 0.9696054 0.98947245
000260 15 3c 82 3f c0 c7 7d 3f 12 e4 85 3f 7a 2d 7c 3f
       1.0174586 0.9913292 1.0460227 0.9850689
000270 fa 68 77 3f d5 54 82 3f 00 ee 72 3f fb ce 6e 3f
       0.96644557 1.0182139 0.9489441 0.9328458
000280 e0 7b 7a 3f 7a 2e 7d 3f ec 59 79 3f df ab 74 3f
       0.9784527 0.9889904 0.97402835 0.95574754
000290 a1 ac 81 3f a6 fb 7d 3f 89 f0 84 3f ac b7 79 3f
       1.0130807 0.9921211 1.0385906 0.97545886
0002a0 7f a9 88 3f ff ce 73 3f 04 32 83 3f e1 15 71 3f
       1.0676726 0.95237726 1.0249639 0.9417401
0002b0 15 c9 75 3f ed 2a 82 3f 85 f9 81 3f fb d2 87 3f
       0.9600995 1.016935 1.0154272 1.0611261
0002c0 82 23 82 3f ef 67 88 3f cc 0a 81 3f 89 5d 78 3f
       1.0167086 1.0656718 1.008142 0.97017723
0002d0 c2 ee 77 3f 7a 64 83 3f 1e b7 71 3f ba ed 89 3f
       0.9684869 1.0265038 0.9442004 1.0775673
0002e0 e9 89 78 3f c1 31 82 3f b9 a6 81 3f 6a 0b 87 3f
       0.97085434 1.0171434 1.0129005 1.0550358
0002f0 11 36 82 3f 88 7a 80 3f 4f cd 83 3f ca c5 74 3f
       1.017275 1.0037394 1.029703 0.956143
000300 94 20 81 3f 6d 91 82 3f e8 fa 7a 3f 8a 1a 81 3f
       1.0088067 1.020063 0.980391 1.0086224
000310 b5 e2 73 3f 38 3f 7f 3f b3 fa 7e 3f 6b 97 82 3f
       0.952678 0.9970584 0.99601287 1.0202459
000320 dc f4 78 3f 0d 34 86 3f 99 f5 84 3f 5d fe 7d 3f
       0.97248626 1.0484635 1.038745 0.9921625
000330 74 6c 75 3f 2a 66 84 3f ad 07 7b 3f 16 f5 7d 3f
       0.9586861 1.0343678 0.9805859 0.99202096
000340 6c 27 82 3f 4b 28 77 3f 71 7b 74 3f 73 26 79 3f
       1.0168281 0.9654586 0.95500857 0.97324294
000350 b4 50 79 3f 26 33 80 3f 9c d1 82 3f b2 c0 82 3f
       0.9738877 1.0015609 1.0220218 1.0215056
000360 29 68 80 3f ed 40 77 3f 25 2b 80 3f 3f 6d 82 3f
       1.0031787 0.96583444 1.0013167 1.0189589
000370 4d 07 86 3f 4a d2 76 3f 4a 8d 82 3f 3e bf 7d 3f
       1.0470978 0.96414626 1.0199368 0.9911994
000380 a0 fa 83 3f fa 8f 7c 3f 96 c2 7e 3f 9e 8f 86 3f
       1.031086 0.9865719 0.99515665 1.0512578
000390 09 8a 80 3f 86 a2 79 3f 76 4f 78 3f c4 10 83 3f
       1.0042125 0.97513616 0.9699625 1.0239491
0003a0 19 8d 7f 3f b1 5e 81 3f 0b 6e 7a 3f f4 4c 78 3f
       0.9982467 1.0107023 0.9782416 0.9699242
0003b0 dc d7 71 3f 28 d2 7e 3f 3f ca 81 3f f0 3a 83 3f
       0.9447 0.99539423 1.0139846 1.0252361
0003c0 61 67 82 3f a2 c9 7a 3f c8 2a 7f 3f fe 1d 7b 3f
       1.0187799 0.9796392 0.99674654 0.9809264
0003d0 59 52 7b 3f 04 41 78 3f b3 eb 7d 3f 81 6b 7c 3f
       0.9817253 0.96974206 0.99187773 0.9860154
0003e0 85 0b 82 3f 30 34 88 3f cb dd 81 3f b5 2a 81 3f
       1.0159765 1.0640926 1.0145811 1.0091158
0003f0 0c 53 74 3f 75 35 80 3f 30 d6 85 3f 59 c1 7e 3f
       0.9543922 1.0016314 1.045599 0.99513775

bn.bias f4 [256]
000000 b9 28 bc 3b 49 95 4e 3b 9e 39 42 3c a4 3e 82 3c
       0.005742159 0.0031522086 0.011854557 0.01589901
000010 78 fb 6a bb 00 77 c8 3b 44 82 b6 3b 04 75 10 3c
       -0.0035855453 0.0061177015 0.005569728 0.008816961
000020 1b 3c 52 3c 53 fc 82 3c c7 c1 f4 3b 75 be ff bc
       0.012831713 0.015989458 0.007469389 -0.031218747
000030 5b f1 7b 3b 2c 57 86 bb 21 1e 3c 3c 6a 3b 37 3b
       0.003844342 -0.004099747 0.011481793 0.0027958998
000040 ad 8f f1 bc a7 84 a5 3c 13 e1 25 bc 18 81 80 bc
       -0.029487455 0.020204855 -0.010124463 -0.015686557
000050 28 62 44 3c a7 a9 b7 38 7a 89 80 3c 5f c7 36 3c
       0.011986293 8.75772e-05 0.015690554 0.011155932
000060 bc c3 03 bc 82 bf bf 3b db 25 71 3b 99 73 e9 bb
       -0.008042272 0.005851687 0.0036796245 -0.007124376
000070 81 0b 56 3b 80 89 3e bc a7 38 a3 ba 15 69 80 3b
       0.0032660665 -0.011629462 -0.0012452797 0.0039187768
000080 36 8e f9 ba e6 e7 e4 ba fe de 2c 3c a2 d8 6e ba
       -0.0019039575 -0.0017464131 0.010551212 -0.00091112603
000090 1d 6c 5d bb 74 22 c2 bb 6f c5 2a 3c 90 d7 c6 3a
       -0.0033786364 -0.0059245173 0.010423048 0.0015170444
0000a0 2d d1 83 3c 73 37 95 3c 72 e4 e2 3a 22 bd e1 bb
       0.016090954 0.018214917 0.0017310514 -0.0068890015
0000b0 58 4c ee bc 0d e1 85 3c 3a e5 26 bb f7 21 8d bb
       -0.029089138 0.016342664 -0.002546622 -0.0043070274
0000c0 f1 1c b8 3c 37 0d 12 bc ec 81 96 3b 43 0b 44 3b
       0.022474738 -0.0089142835 0.0045931246 0.002991394
0000d0 89 32 e0 3c cc b7 24 bc 7b 16 11 bb 1d 37 21 3c
       0.027367847 -0.010053586 -0.0022138644 0.0098398
0000e0 43 e9 9e bc 51 64 e1 bc 1e 09 fc ba 32 b4 04 bc
       -0.019398337 -0.027513655 -0.0019228791 -0.008099603
0000f0 5e 46 d6 ba 39 70 83 bb 68 41 a9 bc db 09 64 3c
       -0.0016347875 -0.0040111807 -0.020661071 0.013918365
000100 77 f8 38 bc d9 5e c6 bb 3e ce ee 3b 7c 8a a2 3c
       -0.011289707 -0.006053787 0.0072877696 0.019841425
000110 79 d3 a2 bc 5a cb 0f 3a 5d 84 1b 3a da 60 b2 bb
       -0.019876229 0.0005485319 0.00059325044 -0.0054436745
000120 c5 d9 12 3c 6f 5d ee bb d3 ec 4e 3c e1 ca 35 3c
       0.008963053 -0.0072743217 0.0126297055 0.011095733
000130 9c d7 82 bb db 50 0d bb 4b 6a 09 bd 63 3c a9 bc
       -0.003992988 -0.0021563086 -0.033548634 -0.020658677
000140 2a b1 53 3b e5 17 46 bc 0d 65 ad 3c ce 77 7a 3c
       0.0032301643 -0.012090658 0.021166349 0.015287353
000150 03 ca 8a 3c e2 71 4a 3c 82 a1 4b 3c 06 4c aa 3b
       0.01694203 0.012356253 0.012428643 0.005197051
000160 86 4c e3 bb e4 de 82 3c 21 ad 8c bb b8 58 3b 3b
       -0.0069366125 0.015975423 -0.0042930995 0.0028586816
000170 87 8b 23 bc b1 3c 17 bb f9 f3 65 3b 19 ce f4 bb
       -0.009981996 -0.0023076946 0.0035088046 -0.007470858
000180 f2 ab a0 b9 2a 77 77 3c 15 56 f4 3b 19 a7 9e bc
       -0.00030645687 0.0151040945 0.007456551 -0.019366788
000190 c3 55 1a b9 ed 1c 08 3c d7 f1 91 3c 14 dd 73 bb
       -0.00014718533 0.008307678 0.017815514 -0.003721063
0001a0 e1 f8 02 bc bf a4 6a bb 58 5f 9c bc cf 43 15 bb
       -0.007993908 -0.0035803763 -0.019088432 -0.0022776013
0001b0 62 c7 b7 3c ad bb 13 bb ce 39 89 bb 14 44 82 bb
       0.02243394 -0.0022542283 -0.004187799 -0.0039754007
0001c0 53 29 92 bb b2 cf 42 bc cc 08 f9 bb 32 0f ef bb
       -0.0044604926 -0.011890339 -0.0075999256 -0.0072955126
0001d0 eb c0 9d bb 63 dc 71 3c f5 5d 3a 3c 56 0d 92 3b
       -0.0048142574 0.014762017 0.01137494 0.004457156
0001e0 5c d4 84 bc b1 91 05 3c e6 4d 69 bb 3f d3 91 bc
       -0.016214542 0.008152411 -0.003559941 -0.017800925
0001f0 8b d6 e2 ba 43 39 d8 3b 23 d9 01 3c 69 47 04 3a
       -0.001730637 0.006598623 0.007925305 0.00050460413
000200 d1 f0 44 bc ac 89 3c 3c b4 27 ac bc 79 4d a6 bc
       -0.012020306 0.011507433 -0.021015026 -0.020300614
000210 c1 cc a2 3c 69 5b 4f bc 7b fd 59 3c 4f e4 5e bc
       0.019873025 -0.012656071 0.013305063 -0.013604238
000220 a3 08 aa bb 2a 8a a4 3c 14 17 9f 3b fd 79 98 3c
       -0.005189018 0.020085413 0.004855046 0.018612856
000230 7d d3 45 3c 86 d9 a3 bb 77 22 1d 3c 71 25 9d bc
       0.0120743485 -0.005000296 0.009590737 -0.019182893
000240 d0 80 40 3b ec a7 88 3b a4 6b b4 bb f9 68 81 bb
       0.0029373653 0.0041704085 -0.005505996 -0.0039492813
000250 e6 83 7a bb f6 7d 1b b8 29 11 d0 bc e9 26 ad bc
       -0.003822559 -3.707219e-05 -0.025398808 -0.021136718
000260 a0 ac bb 3a 4d 5a 1f 3c c9 38 bb 3c 84 38 c3 bb
       0.0014318414 0.009726119 0.022854226 -0.005957665
000270 92 c4 6d bc 39 79 64 bb 8b 16 a4 3c 43 58 80 3c
       -0.014512198 -0.0034862293 0.02003028 0.015667086
000280 78 b5 25 bb 4d 80 b8 3b 5f f2 41 bd 4f 0b 1f bc
       -0.0025285166 0.005630529 -0.047350284 -0.009707286
000290 f2 9f 07 3c 10 b0 e8 ba fa d7 41 bc 57 b7 89 bb
       0.00827788 -0.0017752666 -0.011831278 -0.004202764
0002a0 89 d0 83 3c 8e 95 7b 3c ba 7c 6b ba 91 2e d9 3b
       0.016090648 0.015355481 -0.0008983124 0.0066278656
0002b0 e9 21 61 3c 87 c9 81 bb 95 82 a7 3c 72 41 d4 bb
       0.013740995 -0.0039607915 0.020448009 -0.0064775283
0002c0 f4 83 95 bc df c5 27 b8 ac 83 72 3a 64 4c 9e 3b
       -0.018251397 -4.0000185e-05 0.0009251188 0.004830884
0002d0 bc dc a8 3b 57 49 80 bb 3f dd 73 bc ce a7 37 bc
       0.0051532667 -0.003914993 -0.014884292 -0.011209441
0002e0 01 37 c0 3b db 55 b2 bb e0 1b ae 3b 7c 3e 48 3b
       0.005865932 -0.0054423637 0.0053133816 0.0030554822
0002f0 5f 33 40 bc 38 89 31 b9 8a 0c af b9 d1 fb cb 3b
       -0.011730998 -0.00016931153 -0.00033387943 0.006225087
000300 76 a4 4a bc 4d 45 94 3c ff 34 f0 bb ea 60 4b 3b
       -0.012368312 0.018099451 -0.0073305364 0.0031033107
000310 04 52 c6 bb c5 ed 04 3c 72 31 e2 3b 24 30 df bb
       -0.0060522575 0.008113329 0.006902867 -0.0068111587
000320 c7 45 6c 3b 9f 44 68 bc b0 d9 09 bc 64 83 0e 3c
       0.0036052333 -0.014176517 -0.008413717 0.008698318
000330 85 71 e6 3a e5 c9 c6 3b 9e 6f 25 ba 41 cd f0 3a
       0.0017581439 0.006066548 -0.0006310883 0.0018371717
000340 27 e7 86 3b b8 fa ed bb ba 27 3c bc 05 95 4c ba
       0.004116911 -0.007262554 -0.011484081 -0.0007804188
000350 4b f1 d8 bb a4 ff 68 bb c9 c2 b1 bb 84 b3 c1 bc
       -0.0066205612 -0.0035552764 -0.0054248315 -0.02364517
000360 43 e0 24 bd 07 c2 67 bc c1 ea e2 bb fd 28 4d bc
       -0.040252935 -0.014145381 -0.0069249575 -0.012521979
000370 f8 64 9f bb 1e 15 72 bb a9 4d ae 3c a4 61 8a bc
       -0.0048643313 -0.0036938856 0.021277266 -0.016892262
000380 98 84 4d bc e2 e8 54 3c 4e 9a 43 bc 0b c8 86 bc
       -0.01254382 0.012994977 -0.011938645 -0.01645281
000390 12 28 5c bc 34 19 35 3c 61 56 11 3b 44 32 8d bc
       -0.013437288 0.011053372 0.002217673 -0.017235883
0003a0 e7 3b 90 bb ea f7 9c 3c 93 ff 88 3c 2c fd 90 bb
       -0.004401672 0.019161183 0.01672343 -0.0044247117
0003b0 d4 4a b7 bb 94 4b 31 ba 8d eb 0f 3c ac 26 8e bb
       -0.005593637 -0.0006763276 0.008784187 -0.004338106
0003c0 08 91 ac bb 79 9e 1e bc d2 ed 2f 3c 11 44 d4 3b
       -0.0052663125 -0.0096813375 0.010737853 0.0064778407
0003d0 a7 b7 fd 3b 7f 3c 55 3b 39 47 6d 3b 72 5e 7d bc
       0.0077428403 0.003253728 0.0036205782 -0.015464412
0003e0 9c e7 ee bb ea 96 83 3c 63 cb 66 bc 9e e1 da bc
       -0.0072907936 0.016063172 -0.014086577 -0.02671891
0003f0 b8 1f c4 bb 80 23 21 3c 52 79 97 bb 00 8a 8b 3c
       -0.0059852265 0.009835124 -0.004622617 0.017033577

bn.running_mean f4 [256]
000000 45 01 b9 3e e2 7e be 3e c2 93 78 3e 77 21 85 3e
       0.3613378 0.3720618 0.24275115 0.26002094
000010 2e 26 8c 3e 18 dc 20 3e 51 ce ac be ec de 8d 3e
       0.2737288 0.15708959 -0.33751157 0.27709138
000020 42 22 a8 bd 76 df a8 3d 01 f9 a7 3e 62 26 92 be
       -0.08209659 0.08245747 0.32807162 -0.2854491
000030 67 24 2e 3d 7a eb 66 be 7e 97 c9 be 28 48 cc bd
       0.042515185 -0.22550765 -0.39373392 -0.099747
000040 42 0f 4d bd ef e5 a3 3c f4 a9 0b 3f c9 05 fa be
       -0.05006338 0.020007102 0.545562 -0.4883254
000050 3f 0e 1e 3e 7c 33 49 be be 17 0c 3e 6e 75 90 3e
       0.15435122 -0.19648546 0.13680932 0.28214592
000060 03 ae 12 bd af 53 7f 3e 2e ad 22 3e 52 ae eb 3d
       -0.03581048 0.24934267 0.15886375 0.11507858
000070 0a cb ca 3d d0 73 3e be 0d fb 74 be c4 12 6a 3d
       0.09902008 -0.18598866 -0.23923893 0.057146803
000080 c0 35 19 bf 32 36 a2 3d 3d 2e b3 3e 5a b5 b2 be
       -0.5984764 0.07920493 0.34996215 -0.34903985
000090 62 f0 31 3e da 6a b9 bc 63 2a 36 bd d2 3a 1f 3e
       0.17376855 -0.022633959 -0.044474017 0.15549782
0000a0 c1 ee 32 3e 27 4e f9 3e d6 3d 61 bd fa 49 da 3e
       0.1747389 0.48692438 -0.054990612 0.42634565
0000b0 ad 0e d9 3d 68 c5 8a 3e 75 78 5d 3c 22 c3 ea 3d
       0.10598502 0.27103734 0.013517489 0.11463
0000c0 38 f3 07 bc 39 a1 12 3d ce 66 cf bc 16 6c 94 be
       -0.008297734 0.035798285 -0.025317576 -0.28988713
0000d0 c0 46 9a 3e b7 85 ad 3e 0f 65 8e be 9d f5 43 3e
       0.30132103 0.3389108 -0.27811477 0.19136663
0000e0 a3 46 35 bd 91 ac ee be 32 be e6 3d b7 86 a1 3e
       -0.044256818 -0.46616033 0.112667456 0.31548092
0000f0 c6 5b c3 3e 33 07 81 be f9 00 7b bd 01 b4 c6 3d
       0.38155955 -0.25200805 -0.061280224 0.09702302
000100 11 a1 35 bd 4b bd 23 bf 9a 59 63 be 02 5e 59 3c
       -0.044343058 -0.63960713 -0.22202149 0.013267042
000110 0b e0 74 be 6c 49 63 bc 9e a5 9b be 96 d1 92 be
       -0.2391359 -0.013872486 -0.30399793 -0.28675526
000120 c9 99 e9 3d f1 56 87 bc 88 61 8d 3e d4 44 5d be
       0.11406285 -0.01652095 0.27613473 -0.21608287
000130 08 1b 8b 3d 5d 3f 3d be 3b d0 f4 ba b1 0a 8e 3d
       0.06792265 -0.18481202 -0.001867778 0.06935633
000140 bc f2 90 be 11 1e 52 be 3e 0a c6 3e 40 b0 13 bd
       -0.28310192 -0.20519282 0.3867969 -0.036056757
000150 d7 e1 9c 3e 77 4b 1a 3f a3 95 12 be 3b af 4b 3e
       0.30641052 0.602714 -0.14314894 0.19891064
000160 e5 aa 89 be 2f 6e 1b 3e 9f 29 3e be 70 c7 e7 bb
       -0.26888195 0.1517875 -0.18570565 -0.0070733353
000170 c6 94 35 be 06 0d 21 3e 9c cb 2c bd 3b a1 8d 3e
       -0.17732534 0.15727624 -0.042186365 0.27662072
000180 99 f8 76 3e c3 f4 da 3d 69 9b a4 3d 5a d7 33 3e
       0.2411827 0.10691216 0.08037455 0.17562619
000190 b5 72 9c 3e 32 9e 3e be e5 d8 d3 3c 02 86 0a 3c
       0.30556265 -0.18615034 0.02586026 0.0084548015
0001a0 69 45 11 be 70 e5 f6 be fb 88 5a be 7e 05 43 be
       -0.14186634 -0.48221922 -0.21341316 -0.19045064
0001b0 78 91 55 be 7c d9 06 be f5 03 51 3e 45 12 8a 3e
       -0.20856273 -0.13168901 0.20411666 0.26967064
0001c0 66 81 b4 bd b2 5a 88 be f6 df bb be cb bf 49 bd
       -0.08813743 -0.26631695 -0.36694306 -0.049255174
0001d0 91 8b ca 3d d8 db ca bd 51 c2 22 be e3 d2 33 3e
       0.098899014 -0.09905213 -0.15894438 0.17560916
0001e0 64 14 a4 bd 11 fc 1e bf 9b f9 18 3d d2 18 1a be
       -0.08011702 -0.6210337 0.037347417 -0.1504853
0001f0 9c 2d c9 be 23 60 19 bd 51 7b d0 be 16 f7 79 be
       -0.3929261 -0.0374452 -0.40719083 -0.24410662
000200 2a a1 0d bd 07 cf 07 3e 02 70 c3 bd ff 8e e3 3c
       -0.034577526 0.13262568 -0.09542848 0.027778147
000210 0c 38 a6 bc 8a 8a 92 bd 53 af 15 3e db 6d 23 3e
       -0.020290397 -0.071553305 0.14617662 0.15959875
000220 6c 58 9d be 02 4f b2 3e 79 68 13 bd 61 53 8a 3e
       -0.30731523 0.34825903 -0.035988305 0.27016738
000230 e7 0b 5d bd 23 d1 f4 3d e1 7b 97 3e 65 38 55 3e
       -0.05396643 0.11953952 0.295867 0.20822294
000240 d7 05 2f be f5 c7 02 be 0a 51 94 3e f3 53 d0 3e
       -0.17092071 -0.1277159 0.28968078 0.40689048
000250 ee d2 c5 3d 2f 60 57 be 59 e5 c7 3d 56 a7 22 3d
       0.09659372 -0.21032785 0.097605415 0.039710365
000260 dc 2a 14 3e d9 7e 3a bc 39 4c 53 39 c1 bb 56 bd
       0.14469475 -0.011382782 0.00020150923 -0.05242515
000270 c6 d1 ca be d1 1b 06 3d dd c4 34 3e a2 92 2b 3e
       -0.3961317 0.03274137 0.17653222 0.16755155
000280 a7 7a 25 3d 04 94 36 3b 2b 62 27 bf cc bd 28 3e
       0.040400174 0.002785922 -0.6538417 0.16478652
000290 65 79 83 bd bb 46 3f be 50 23 37 3e 3f ed bb 3d
       -0.064196385 -0.18679325 0.17884564 0.091761105
0002a0 ac f1 b8 3d 99 fc 23 3e 58 1d 73 3c 66 05 c4 bd
       0.0903047 0.16014327 0.014838539 -0.09571342
0002b0 5d 36 9a bc a4 9f 21 be da d4 1d be b8 24 69 bc
       -0.01882475 -0.15783554 -0.15413228 -0.014229946
0002c0 9e 85 b0 bc 9f cd 36 be 6b 76 aa be 25 ac 28 3d
       -0.021548089 -0.17851876 -0.3329347 0.041179795
0002d0 ae db 88 be 8b ab 58 bc 4e a0 fa be 09 83 f2 bc
       -0.26730102 -0.013224493 -0.48950428 -0.029603498
0002e0 f8 95 8c 3d c1 89 64 bc 32 5d 92 be 97 2e 2d 3d
       0.06864542 -0.013948859 -0.28586727 0.04228076
0002f0 95 cb 13 bf bc 70 10 3e 0a fd b0 3e 97 e8 09 3d
       -0.57732517 0.14105505 0.34568053 0.03366908
000300 70 20 1e be 45 cb f1 3e 64 33 b0 be c5 fd 73 3d
       -0.15442061 0.47225395 -0.34414208 0.059568185
000310 0d 70 79 be fd 23 ab bc bc b5 92 3e 46 34 6c 3e
       -0.2435915 -0.020891184 0.28654277 0.23066816
000320 5c 33 59 3e ef fb e8 bd e5 a7 16 be b5 04 07 3e
       0.21210998 -0.113761775 -0.14712484 0.1318539
000330 7d cd e8 3b a0 c9 80 3e dd 28 dd 3c ee 91 72 be
       0.0071045742 0.25153828 0.026997024 -0.2368848
000340 20 c0 ea bd a0 5c b9 3e 1b 21 c8 be 08 5b de bd
       -0.11462426 0.3620348 -0.39087757 -0.108572066
000350 18 1f 63 ba 9a ba 5c bd 57 6e 88 bd 7e 17 29 be
       -0.0008663996 -0.053888895 -0.06661671 -0.16512868
000360 e6 3e 86 be 62 f7 ab bd 5d dd df bc af ad f1 be
       -0.26219863 -0.08396794 -0.027327234 -0.47202823
000370 51 b0 9f bd 35 5d 4d 3e 79 68 15 3f e7 22 09 3c
       -0.077973016 0.20055087 0.5836254 0.008370138
000380 77 24 ac 3e de 6c 02 3f 98 36 36 bd 6b fa 9e bd
       0.3362157 0.5094737 -0.04448566 -0.07762607
000390 66 75 67 bd 74 ac ba 3e a7 b1 5e be 81 ff ea 3b
       -0.056508444 0.36459696 -0.21747456 0.0071715717
0003a0 9e 1d 4e be 97 2d 8b 3e ee c5 f0 bd 1b e3 bb 3e
       -0.20128486 0.2718322 -0.11756502 0.36696705
0003b0 9e d7 5b 3d 44 ac 8b be bf 94 22 3e 3f 56 5c 3d
       0.053672425 -0.27279866 0.15877055 0.05379319
0003c0 1c d6 bc 3e f8 32 24 be 6e ca 8e 3e e2 c1 af 3e
       0.36882102 -0.16035068 0.27888817 0.34327608
0003d0 0f 5a 42 3e 19 a5 3a 3d d1 6c 98 3e 7c 86 ab be
       0.18979667 0.045567606 0.2977052 -0.3350104
0003e0 c0 fd 80 3e 1a 1f 1b be be ef ae bd d6 13 bf 3d
       0.25193596 -0.15148583 -0.08541821 0.09329955
0003f0 3f 43 f8 3d 86 d3 cc 3e 53 f2 cd be f4 ad bd bc
       0.12122201 0.4000513 -0.4022394 -0.023154236

bn.running_var f4 [256]
000000 aa 6d a6 3d 0e 12 ca 3d b7 c7 ac 3d a0 1f ae 3d
       0.081263855 0.09866725 0.0843653 0.08502126
000010 65 a4 bd 3d 8e 2e 9c 3d 86 ac ac 3d c2 17 a9 3d
       0.092598714 0.07626067 0.08431344 0.082564846
000020 46 bf a6 3d bf 16 bf 3d bb 5d 98 3d 27 6c bd 3d
       0.08141951 0.0933051 0.07439753 0.09249144
000030 86 4f 93 3d 3f 84 b6 3d 9c 7f c4 3d 37 41 b2 3d
       0.07192902 0.08911943 0.09594652 0.08703845
000040 5a 54 9d 3d 00 ce a1 3d fa a0 ae 3d d2 ed 94 3d
       0.076821044 0.079006195 0.085267976 0.07271923
000050 41 af af 3d cc 1a e4 3d fd 38 d8 3d 84 c8 bc 3d
       0.08578349 0.111379236 0.10557745 0.09217933
000060 5e 12 a4 3d 61 bd 9e 3d be c0 93 3d 9b c7 a3 3d
       0.08011316 0.07750965 0.07214497 0.07997056
000070 7e df 9b 3d 4d 98 a8 3d 76 0b 9b 3d 5b 85 a5 3d
       0.07610987 0.08232174 0.075705454 0.08082076
000080 77 3c a8 3d d5 e0 95 3d da ee 8a 3d 37 ed b4 3d
       0.08214658 0.07318274 0.067838386 0.08834308
000090 57 40 8e 3d af 1e ab 3d fe d3 b4 3d f3 c7 af 3d
       0.069458656 0.08355462 0.08829497 0.08583059
0000a0 a7 16 b4 3d 2d ea b7 3d 0b 3b a1 3d ec 62 a9 3d
       0.08793383 0.08980212 0.0787259 0.08270821
0000b0 31 0d 79 3d 28 f8 ab 3d 74 58 9c 3d 12 af 97 3d
       0.060803596 0.083969414 0.076340586 0.07406439
0000c0 df 50 87 3d bf e5 86 3d 3a 42 b7 3d 32 3c 9d 3d
       0.06607222 0.06586789 0.089481786 0.07677497
0000d0 f4 82 a5 3d 85 57 84 3d de 60 9c 3d 7f 85 9e 3d
       0.08081618 0.064620055 0.076356634 0.07740306
0000e0 f4 32 b6 3d f3 67 a8 3d 4f 0e 8d 3d d4 1a 9f 3d
       0.08896437 0.08222952 0.06887495 0.07768789
0000f0 d8 11 b3 3d f4 f9 b2 3d f4 cd 8f 3d ef 89 cd 3d
       0.08743638 0.08739081 0.07021704 0.10036074
000100 d7 35 af 3d 2b 18 a3 3d f2 97 ac 3d 3e b1 b1 3d
       0.08555191 0.07963594 0.08427419 0.086763844
000110 02 f4 a2 3d f1 86 c9 3d 9d 0d 95 3d bb 5c ad 3d
       0.07956697 0.09840191 0.07277987 0.084649526
000120 52 ff 9f 3d 05 fd 9b 3d 7e 82 ad 3d 7b eb af 3d
       0.0781237 0.07616619 0.08472155 0.08589836
000130 ce 53 a8 3d 62 74 a2 3d dc 7e 81 3d 1d 20 c6 3d
       0.082191095 0.079323545 0.06323025 0.09674094
000140 e2 40 bc 3d 26 5f bd 3d 2d ae 95 3d 96 6c 9c 3d
       0.09192063 0.09246664 0.07308612 0.076378986
000150 e2 71 8e 3d 2e d6 af 3d c5 c8 a6 3d 14 91 a4 3d
       0.06955315 0.085857734 0.081437625 0.08035484
000160 be 12 b5 3d 67 6c 94 3d 65 b2 ab 3d 38 eb a0 3d
       0.088414654 0.072472386 0.083836354 0.078573644
000170 91 73 9d 3d bd 92 95 3d 25 c7 95 3d f7 1e bc 3d
       0.07688058 0.07303379 0.073133744 0.091855936
000180 50 f9 94 3d 8b 33 96 3d 02 fb 8b 3d 1f 17 99 3d
       0.07274115 0.0733405 0.06834985 0.07475113
000190 7b 34 bf 3d d2 d8 a3 3d b9 53 8c 3d de ef a9 3d
       0.09336182 0.080003396 0.06851906 0.08297704
0001a0 da 71 a2 3d aa 86 a2 3d e3 ca ad 3d 1b 2d a4 3d
       0.07931872 0.079358414 0.08485963 0.08016416
0001b0 c0 f0 9c 3d 44 4f 9e 3d cc e6 b4 3d c6 a1 9c 3d
       0.07663107 0.077299625 0.088330835 0.07648043
0001c0 aa f5 b1 3d c6 5d 9f 3d 79 9c b0 3d 20 11 b9 3d
       0.08689435 0.07781558 0.08623595 0.090364695
0001d0 3b 30 87 3d 81 34 87 3d 21 bd b7 3d f1 e5 ae 3d
       0.06600996 0.06601811 0.0897162 0.085399516
0001e0 97 f3 ae 3d 7b 8a bd 3d 07 c8 ac 3d 77 50 9b 3d
       0.08542555 0.09254929 0.0843659 0.07583707
0001f0 da a2 9c 3d 09 a8 a9 3d 45 e9 a4 3d 52 6e a7 3d
       0.07648249 0.08284003 0.08052305 0.08175339
000200 f7 b3 ba 3d df ea b1 3d ad 16 a6 3d 53 33 97 3d
       0.09116357 0.08687376 0.08109794 0.07382836
000210 0e 24 98 3d 67 b9 97 3d 1d bc 95 3d e8 39 97 3d
       0.07428752 0.074084096 0.073112704 0.073840916
000220 07 6c bb 3d c3 1d 99 3d 27 c6 99 3d 69 13 ae 3d
       0.09151464 0.0747638 0.07508498 0.08499796
000230 df eb ad 3d 29 4d a6 3d ed 8c 9d 3d b0 67 9a 3d
       0.084922545 0.08120186 0.07692895 0.07539308
000240 70 58 c0 3d b8 13 c1 3d 69 df b5 3d 50 fd a2 3d
       0.09391868 0.09427589 0.08880503 0.07958472
000250 d3 36 a9 3d 14 61 aa 3d 5d 9f ab 3d 87 97 7b 3d
       0.0826241 0.083192974 0.083800055 0.061423805
000260 e1 5e a4 3d 7c 69 c9 3d b3 28 90 3d 45 c2 91 3d
       0.08025909 0.09834573 0.07039013 0.07117132
000270 5b 69 a5 3d 7d 9d 9b 3d ea ee a5 3d 47 3f ba 3d
       0.080767356 0.07598398 0.0810221 0.090941004
000280 23 08 a1 3d 85 6c 9c 3d e9 ae bb 3d 9b 83 b6 3d
       0.0786288 0.07637886 0.09164221 0.089118205
000290 fc bf af 3d 29 f6 96 3d 29 f4 c5 3d d1 1a a3 3d
       0.0858154 0.0737117 0.096657105 0.07964099
0002a0 71 66 ac 3d fc f6 95 3d da bc ae 3d b3 bd cb 3d
       0.08417977 0.07322499 0.08532114 0.09948292
0002b0 78 0f a2 3d 56 88 9f 3d 37 b6 ce 3d b1 9f c2 3d
       0.07913107 0.07789676 0.100933485 0.09503115
0002c0 7d 56 a1 3d 9a 60 9e 3d 52 b0 9d 3d 11 b9 96 3d
       0.078778245 0.07733269 0.07699646 0.07359517
0002d0 56 c8 a9 3d 4b de a8 3d 0a 97 a4 3d b2 0a 8a 3d
       0.08290164 0.08245524 0.08036621 0.06740321
0002e0 00 5c 9e 3d 71 05 9b 3d 85 71 96 3d b9 16 bc 3d
       0.07732391 0.07569397 0.07345871 0.091840215
0002f0 8a 24 b1 3d f5 66 96 3d 9f f1 9e 3d ee b7 b6 3d
       0.086495474 0.07343856 0.07760929 0.089218006
000300 f0 11 a2 3d 82 c8 99 3d f0 d6 8f 3d e8 c9 a3 3d
       0.079135776 0.07508947 0.07023418 0.07997495
000310 f8 d2 92 3d c2 07 9a 3d 03 b5 92 3d 4c 7d b5 3d
       0.07169145 0.07521011 0.071634315 0.08861789
000320 65 23 98 3d a8 c5 a2 3d ab 0d ac 3d 40 6f a7 3d
       0.07428626 0.07947856 0.084010445 0.08175516
000330 dc 87 a4 3d 62 bb a1 3d 09 2b a6 3d 53 2a ac 3d
       0.080337256 0.078970686 0.08113677 0.0840651
000340 76 ce b2 3d d9 ba a0 3d d5 fe e2 3d 4f fd a0 3d
       0.087307855 0.07848138 0.110837616 0.07860815
000350 5f 3a b3 3d 0d 09 9f 3d f7 30 ae 3d ac 59 c5 3d
       0.08751368 0.07765398 0.08505433 0.09636244
000360 75 91 98 3d 15 cc c1 3d 56 7d a6 3d a6 9c b6 3d
       0.07449619 0.09462754 0.08129375 0.08916597
000370 6c f7 ad 3d 8d d8 bd 3d 54 f0 b4 3d a7 44 b0 3d
       0.084944576 0.092698194 0.088349015 0.086068444
000380 bf cc 99 3d 6f 68 b7 3d c4 f4 a9 3d b7 c3 b5 3d
       0.07509755 0.08955466 0.082986385 0.0887522
000390 fa 81 94 3d 24 9f 87 3d a9 53 ac 3d 1e f3 c9 3d
       0.072513536 0.066221505 0.084143944 0.09860824
0003a0 f8 9e ae 3d 20 1d 9b 3d 0f a6 a0 3d ae 4e ad 3d
       0.08526415 0.075739145 0.07844173 0.084622726
0003b0 21 bc a0 3d 4b d7 b7 3d bf 5b b0 3d b4 31 b1 3d
       0.07848383 0.08976611 0.08611249 0.08652058
0003c0 c0 fd 9f 3d da fa 96 3d ae ac a0 3d 41 51 9d 3d
       0.07812071 0.07372065 0.07845436 0.076815136
0003d0 d2 53 9d 3d d8 4d a9 3d 06 10 89 3d 54 f6 9d 3d
       0.07682003 0.08266801 0.06692509 0.07712999
0003e0 26 2e cf 3d 57 54 8e 3d 6d 23 9d 3d 8a 6f b2 3d
       0.10116224 0.0694968 0.076727726 0.08712681
0003f0 81 f4 b2 3d 90 17 d0 3d 4a 60 9d 3d d1 f9 a7 3d
       0.08738042 0.10160744 0.07684381 0.082019456

bottleneck.weight f4 [256, 512]
000000 06 37 a9 bc d0 4f 22 bc 28 c8 d5 3c c7 20 c2 ba
       -0.02065612 -0.009906724 0.026096418 -0.0014810794
000010 8f c1 58 3a ec b7 0f 3d 8a 9f b4 bc a3 66 22 bd
       0.00082685886 0.03508751 -0.02204873 -0.039648663
000020 a1 6a b1 bb d5 55 09 bd c9 97 31 bd 75 fe 68 3c
       -0.0054143225 -0.03352912 -0.043357644 0.0142208235
000030 d5 05 9e bc 15 b7 0b 3c d8 38 27 3c 89 c6 d3 bc
       -0.01928989 0.008527537 0.010206424 -0.025851505
000040 8f 58 11 bc 81 46 48 3b 92 c7 fd 3c f9 34 73 bc
       -0.008871212 0.0030559602 0.030978952 -0.014844173
000050 ce 47 52 3c ae 99 9c 3b 56 28 a8 bc 48 86 53 bc
       0.012834502 0.0047790622 -0.020527046 -0.012910433
000060 54 2f 81 bc 92 7d da 3c 39 4d 16 bd 46 24 17 bc
       -0.015769638 0.026671205 -0.03669474 -0.009224957
000070 ec b3 cd bc bb 93 4a bc 94 a4 24 3b 80 23 d4 bc
       -0.025110207 -0.012364323 0.002512251 -0.025895834
000080 ea d3 0f 3c 72 6d 32 bd c4 46 09 3c 86 63 24 3b
       0.008778552 -0.043561406 0.008378688 0.0025083735
000090 47 af a4 3b fa 32 9c 3c 40 7a de bc 62 59 7c bc
       0.0050257775 0.019067276 -0.027157903 -0.01540217
0000a0 81 16 ba 3c 17 43 2b 3c 73 7c 3a bc 5b 6c 59 bb
       0.022715809 0.010453007 -0.01138221 -0.0033176157
0000b0 a1 f9 28 3d 8b 60 23 3c c1 67 a4 3c f8 fa d0 bc
       0.04125369 0.009971748 0.020069005 -0.025510296
0000c0 00 7d 0a 3c dd 51 97 3b 9e 23 d8 3c dc 79 bc ba
       0.008452654 0.004617913 0.026384171 -0.0014379579
0000d0 5e a1 9e 3c ed 8e b1 bc 07 71 0f bb db 50 00 3d
       0.019364055 -0.021674598 -0.0021887438 0.03132711
0000e0 c8 8f de 3c 92 bc 3b 3c aa f2 36 3c 43 23 10 bc
       0.02716817 0.011458533 0.011166254 -0.00879747
0000f0 a6 be ab bc da b2 00 bd 0a 9f 01 bd b0 68 8c bc
       -0.020964932 -0.031420566 -0.031645812 -0.017139763
000100 d4 3f b5 3b 6c 96 03 3d b5 66 05 3d ce da fe 3b
       0.0055312905 0.032125875 0.032568652 0.0077775484
000110 c7 66 94 ba 54 35 5d 3c 52 b0 2d 3b 4f 99 3d 3b
       -0.0011322134 0.013501484 0.00265028 0.002893049
000120 c8 54 71 3c 23 2a 44 bc f0 aa cc 3c 13 61 9f b9
       0.014729686 -0.011972937 0.024983853 -0.0003039917
000130 ad 61 d4 3c 2d 10 d0 3b b8 22 7b 3c 4c 67 f4 3b
       0.025925482 0.0063495846 0.015328102 0.007458603
000140 70 e2 6f bc 2c 11 15 bb 33 0b 52 bc 14 9d c3 3c
       -0.014641389 -0.002274583 -0.012820053 0.023878612
000150 e5 05 af 3c 9c 68 00 bd 9f 50 4f ba fa d0 0a 3c
       0.021365115 -0.031349763 -0.0007908437 0.008472675
000160 aa e1 1c bc 70 be e4 bb 65 a2 2c 3d 59 a3 e0 3c
       -0.009575287 -0.0069807097 0.04214706 0.02742164
000170 6a 52 96 ba 70 5c f3 3b c3 32 e0 bc 44 32 51 bc
       -0.0011468653 0.007426791 -0.027367955 -0.012768332
000180 d6 49 2c 3c db 40 b2 bc b6 f3 fd 3c a0 d9 29 3b
       0.010515651 -0.021759441 0.031 0.0025917068
000190 a1 8b a8 3c 14 8f e1 ba f0 dc a5 39 49 8f 29 bd
       0.020574393 -0.0017208778 0.00031635864 -0.041396413
0001a0 00 05 62 bb b8 ea a1 bc b0 d5 fe 3b 88 86 84 3b
       -0.0034487844 -0.019765243 0.0077769384 0.0040443577
0001b0 e6 e1 11 bd 3f 8e be 3b db ef 07 3c 75 ce 11 bd
       -0.035615824 0.005815297 0.008296932 -0.035597283
0001c0 17 01 0c 3d 3d d8 1b 3c 87 2c 25 3c fe cf a1 bc
       0.034180727 0.009512004 0.010081417 -0.019752499
0001d0 2e 7f 0d 3d 5e 78 18 3d d9 fd 6e bb 62 71 69 bc
       0.034545116 0.037224166 -0.0036467223 -0.014248224
0001e0 49 9c 8f 3c 21 2a 85 bc 8f e9 89 3c 63 4a 09 bd
       0.017530577 -0.01625544 0.016835002 -0.033518206
0001f0 1e 3b d0 bb 36 ee b7 bc 14 ec 2f 3d 57 04 b7 3c
       -0.0063547036 -0.022452455 0.04294975 0.022340937
000200 4a 50 28 3d ee 9e b1 bc 3f e3 a2 3c 36 0b 33 bb
       0.041092195 -0.021682229 0.01988375 -0.0027319915
000210 fe db 83 bc 78 49 8e 3c 18 73 0d 3d f9 da 88 3a
       -0.016096111 0.017369017 0.03453359 0.0010441235
000220 78 a3 49 3d 75 85 42 bb 42 c9 f0 39 02 ea ff 3b
       0.04922816 -0.0029681597 0.00045926316 0.0078098783
000230 52 5f ba 3c 03 92 f4 bc 59 49 92 3c 07 7a 5b 3d
       0.02275053 -0.02985478 0.01785724 0.05358317
000240 24 b9 d0 39 b3 92 60 bb ed 21 1b 3c 35 0f e3 3c
       0.00039810792 -0.0034267127 0.009468538 0.027717212
000250 70 63 f5 bb 9b d9 07 bc 5e 90 b9 3c 05 ab b1 bc
       -0.0074886605 -0.008291627 0.022651847 -0.021687994
000260 cb 6d 45 bd 00 b1 b5 bb 2a 6a ed 3c c8 ae 73 3c
       -0.04820041 -0.0055447817 0.028981287 0.014873214
000270 81 40 ac 3c a7 99 51 3c 42 45 2c 3d 41 57 26 3c
       0.021026852 0.012792981 0.042058237 0.010152639
000280 46 39 ea bb d6 dc f6 bb 8a 5b 81 bc c2 e6 d9 bc
       -0.007147941 -0.00753365 -0.01579072 -0.026599292
000290 bb 83 0e 3c f8 67 ab 3a 5e e5 d2 bc ca 20 13 bc
       0.008698399 0.001307725 -0.025744136 -0.0089799855
0002a0 84 8d dd 3a 07 51 2e bc fb be 5e 3c 78 ac a9 3c
       0.0016903137 -0.010639436 0.013595338 0.020712122
0002b0 38 32 86 3b cb 30 14 3c 05 6c 74 3b 04 96 76 bc
       0.004095342 0.009044836 0.003729583 -0.015050415
0002c0 23 c0 cc 3b 5f 88 2e bd 6e 16 00 bd c7 f2 d3 bc
       0.0062484904 -0.042610522 -0.03127139 -0.025872601
0002d0 94 e8 47 3d d4 b9 18 bd 8f 94 72 bc 6a 3a 95 3c
       0.04880579 -0.037286595 -0.014805927 0.01821633
0002e0 d6 f1 92 bc f4 40 9f bc ba 7e c8 3c 42 e4 07 bc
       -0.017937582 -0.019440152 0.02447449 -0.008294167
0002f0 dd 71 30 bc 45 24 3f 3c f8 a9 25 3a 06 f7 97 bc
       -0.010769335 0.011666362 0.0006319578 -0.018550407
000300 3d a3 d3 bc e7 e9 96 3c 54 1f 5d bc bc 10 07 3b
       -0.025834674 0.01842208 -0.013496239 0.002060934
000310 9c 21 fd 3c 26 b7 93 3c f6 9e 25 3d 6c bb 96 3b
       0.030899815 0.018031668 0.0404348 0.004599979
000320 9b 9a 94 3c b9 72 ad 3c ef 1b 94 bc 9e f2 c0 3c
       0.018140128 0.021172868 -0.018079726 0.023553189
000330 ef df 81 3c 3f 05 93 bc d8 f5 80 3c 29 2f 4c bd
       0.01585385 -0.017946837 0.015742227 -0.049849663
000340 f9 31 52 3c 48 fc 27 3c 47 d8 e3 bb c5 5d d0 3c
       0.012829297 0.01025302 -0.0069532725 0.025435338
000350 84 ae 2b bd b9 cb ca 3c 12 a9 2d 3c 18 3c bb bc
       -0.041914478 0.024755346 0.010599392 -0.022855803
000360 19 be 7f bc 19 26 39 3c 6a cd c1 3c 17 01 c4 ba
       -0.015609288 0.011300587 0.02365752 -0.0014953938
000370 9e 95 3b bc b7 51 26 bc 24 4d 12 bc bc a5 80 bc
       -0.011449246 -0.010151318 -0.008929525 -0.015704028
000380 db de dd 3c 94 4c c8 3c 3e 65 27 bc ab 86 9c bc
       0.027083805 0.024450578 -0.010217009 -0.019107183
000390 96 95 bd bb a7 52 1c 3b fe a3 03 3c 44 05 9b bb
       -0.0057856543 0.0023852976 0.008034704 -0.0047308523
0003a0 c0 88 da bb fa c3 06 3d 8a 8a 37 3c c6 62 11 3c
       -0.006669134 0.03290174 0.011202464 0.008873647
0003b0 0b 44 6d bc 93 98 6d 3c 1b b3 14 3a d3 08 95 bc
       -0.014481555 0.014501709 0.0005672441 -0.018192684
0003c0 fa 66 cf bc 3c a7 cb 3b e5 77 21 bc 2f 9f 53 bc
       -0.025317658 0.0062150043 -0.009855245 -0.01291637
0003d0 0a 29 d8 3c 84 4f a6 bc c2 72 44 bc 41 e1 6e 3c
       0.026386756 -0.020301588 -0.011990251 0.014580072
0003e0 9d cb 3d bb f7 2f 38 3b e2 d0 f6 3b 59 6d d6 bb
       -0.0028960474 0.002810476 0.007532225 -0.006543797
0003f0 b7 70 e3 38 b8 6c ac bc be 90 30 3d 26 6b 9a 3c
       0.00010845198 -0.021047935 0.043106787 0.01884992

bottleneck.bias f4 [256]
000000 e9 10 e0 32 9b ea 8b 32 be c2 cc 32 4a 30 43 32
       2.6084722e-08 1.6288416e-08 2.3837284e-08 1.13614735e-08
000010 34 8b 8f 32 06 5f 54 32 46 f8 00 b3 b2 7c 61 32
       1.6710693e-08 1.236163e-08 -3.0028126e-08 1.3125076e-08
000020 25 63 c8 b1 25 2c 34 32 dc 47 b4 32 30 56 69 b2
       -5.8320375e-09 1.0487416e-08 2.0987436e-08 -1.3581982e-08
000030 bf 5f 98 31 f9 a3 ac b2 a6 33 9a b2 49 92 10 b2
       4.4346673e-09 -2.0098001e-08 -1.7951447e-08 -8.415165e-09
000040 03 8a 95 b1 05 3c 01 32 12 8e df 32 f8 95 0a b3
       -4.352161e-09 7.522435e-09 2.6025223e-08 -3.2267025e-08
000050 28 5b 69 32 a9 7e 02 b2 9b 48 1e 32 17 dc 9e 32
       1.35831115e-08 -7.595795e-09 9.213319e-09 1.8493706e-08
000060 35 88 d3 b1 7b 16 32 32 e9 be 36 32 7a 56 f8 31
       -6.156393e-09 1.0366075e-08 1.0637202e-08 7.227581e-09
000070 f3 65 07 32 90 4f 6e b2 29 9f 84 b2 45 de f4 b1
       7.881215e-09 -1.3871514e-08 -1.54392e-08 -7.1266038e-09
000080 c0 af 42 b3 cc 18 fa 30 6c 1c 81 32 b4 3f b0 b2
       -4.532899e-08 1.8196942e-09 1.5030501e-08 -2.0518065e-08
000090 05 63 0c 32 0c e0 32 b1 2c 9e ce 31 c7 8a 1f 32
       8.171587e-09 -2.6029765e-09 6.013371e-09 9.286572e-09
0000a0 c5 c4 22 32 1d 91 a9 32 43 f4 53 b0 51 36 8f 32
       9.474381e-09 1.974018e-08 -7.710847e-10 1.6672091e-08
0000b0 72 44 12 32 ae e9 a0 32 00 a9 66 b0 d8 c5 5e 32
       8.513881e-09 1.8732717e-08 -8.3913676e-10 1.2967085e-08
0000c0 7d cf 08 b1 6e c2 6f 32 25 fd 0c 30 31 f9 a5 b2
       -1.9908548e-09 1.3955839e-08 5.1291443e-10 -1.9321847e-08
0000d0 4e 27 a1 32 7c fa b8 32 a0 b5 95 b2 77 a4 70 32
       1.876074e-08 2.1534326e-08 -1.7428476e-08 1.4007234e-08
0000e0 ed 0f 91 b0 91 35 00 b3 90 19 58 32 1d 53 a0 32
       -1.0554665e-09 -2.985104e-08 1.2578667e-08 1.8664247e-08
0000f0 c7 ea c9 32 05 48 84 b2 bb 9c f8 b1 7b 6b 6a 32
       2.3506244e-08 -1.5399573e-08 -7.235568e-09 1.3645031e-08
000100 95 14 f6 af 1c 13 16 b3 ed 28 0c b2 bc d9 68 b1
       -4.4761764e-10 -3.4941976e-08 -8.158378e-09 -3.388421e-09
000110 ee 0c bc b2 94 6c 88 b1 47 6e 8c b2 7e 68 92 b2
       -2.189196e-08 -3.970465e-09 -1.6348293e-08 -1.7044155e-08
000120 c9 1d a0 30 22 56 a1 b1 20 00 79 32 9f 2f 61 b2
       1.1649998e-09 -4.695509e-09 1.4493736e-08 -1.31075515e-08
000130 a2 40 f3 31 37 3f 85 b2 6c ac 8a b1 54 0c 03 31
       7.0795787e-09 -1.5511985e-08 -4.0359307e-09 1.9070017e-09
000140 a0 93 8f b2 da d6 3c b2 91 8e bc 32 40 b7 87 b1
       -1.6714523e-08 -1.0991892e-08 2.1950912e-08 -3.9498502e-09
000150 ab 80 b2 32 03 6b 27 33 96 2a f8 b1 54 fc 35 32
       2.0780439e-08 3.8980044e-08 -7.2225914e-09 1.0592959e-08
000160 61 81 87 b2 0c 57 80 32 10 19 99 b2 6f e1 93 31
       -1.5774903e-08 1.4940746e-08 -1.7822941e-08 4.303892e-09
000170 4a 51 0f b2 91 2d a0 32 19 c0 48 b1 63 22 83 32
       -8.3421785e-09 1.8647173e-08 -2.9213025e-09 1.5266044e-08
000180 08 14 91 32 26 44 a6 31 63 72 ba 31 5d 31 20 32
       1.688933e-08 4.8389834e-09 5.4263167e-09 9.32445e-09
000190 36 97 7e 32 4b 4c 01 b2 94 db b3 31 a0 ca e6 31
       1.4819127e-08 -7.526135e-09 5.234549e-09 6.716917e-09
0001a0 ec 34 55 b2 39 29 08 b3 ae f7 52 b2 fd 92 5b b2
       -1.2410265e-08 -3.170246e-08 -1.2279925e-08 -1.2780899e-08
0001b0 71 16 78 b2 25 c0 72 b2 84 99 5c 32 82 bd 69 32
       -1.44406025e-08 -1.41299425e-08 1.2840591e-08 1.3605474e-08
0001c0 fa c7 ed b1 bc cf aa b2 36 eb af b2 c8 48 ad b1
       -6.9203425e-09 -1.9885071e-08 -2.0479643e-08 -5.043237e-09
0001d0 17 9e a3 31 3a 1d 14 b2 20 0b 5a b2 06 7f ac 32
       4.761897e-09 -8.621379e-09 -1.26918e-08 2.0081199e-08
0001e0 1a 7c 08 b2 4d 20 0e b3 42 16 15 b1 0e 76 2c b2
       -7.944459e-09 -3.309133e-08 -2.1695006e-09 -1.003856e-08
0001f0 44 1c c3 b2 2a f4 70 b1 a7 aa cc b2 04 73 9d b2
       -2.2713841e-08 -3.5063388e-09 -2.382633e-08 -1.8329509e-08
000200 33 17 e2 30 90 81 38 32 fb fa 8f b1 79 4a 65 31
       1.6450258e-09 1.0739669e-08 -4.190381e-09 3.3366219e-09
000210 0e cf 20 b2 6c e7 a0 b1 21 c1 d1 31 78 69 13 32
       -9.3603045e-09 -4.6829225e-09 6.104657e-09 8.580507e-09
000220 e2 36 a1 b2 6b d9 a0 32 2a 74 01 b2 3a f5 96 32
       -1.8767825e-08 1.8725322e-08 -7.535201e-09 1.7573814e-08
000230 18 18 8f b1 04 23 17 32 9e 6e a4 32 98 83 1b 32
       -4.164587e-09 8.797318e-09 1.9142416e-08 9.052108e-09
000240 02 60 1e b2 bd 4e 10 b1 fc 5b 93 32 7b 08 0a 33
       -9.21864e-09 -2.0999515e-09 1.7154882e-08 3.213834e-08
000250 65 cc 10 32 e9 e9 88 b2 0d b2 16 b1 af bc 8b b0
       8.428377e-09 -1.5938854e-08 -2.1929083e-09 -1.0167208e-09
000260 b4 8c 17 32 94 ac fd af e3 d6 09 31 9c 53 48 31
       8.821349e-09 -4.6143056e-10 2.0058273e-09 2.9151357e-09
000270 4b 29 97 b2 a8 ff 4f 31 fc 12 51 31 c1 c0 51 32
       -1.7597491e-08 3.0267788e-09 3.0424294e-09 1.2209228e-08
000280 fd 98 24 32 3a a5 26 31 b8 4b 11 b3 81 d1 5e 32
       9.580842e-09 2.42501e-09 -3.382931e-08 1.2969736e-08
000290 b0 ce 97 b1 9a 10 b6 b2 57 d6 5c 32 b3 7e 89 30
       -4.418176e-09 -2.1195138e-08 1.2854421e-08 1.0004072e-09
0002a0 50 9c 83 31 b4 38 45 31 02 4b 9e 31 cf a3 a7 b1
       3.8303725e-09 2.8699505e-09 4.6069326e-09 -4.8789626e-09
0002b0 0f 01 94 b0 43 b9 4e b2 8d 0c 82 b2 9d ec ea 30
       -1.0768718e-09 -1.2032902e-08 -1.51397e-08 1.709299e-09
0002c0 f1 80 ff b1 ea 18 bd b2 af 2a 94 b2 e2 46 40 32
       -7.4361357e-09 -2.2013825e-08 -1.7248878e-08 1.1191988e-08
0002d0 db d4 78 b2 ac 36 4c b0 60 e4 0b b3 93 e3 18 af
       -1.4483898e-08 -7.429246e-10 -3.2571165e-08 -1.390517e-10
0002e0 80 74 10 31 8f cf 29 b2 64 db 4d b2 f3 88 a9 31
       2.102098e-09 -9.884288e-09 -1.1982454e-08 4.9341167e-09
0002f0 01 40 12 b3 15 3d 4b 32 1d d3 8f 32 8f bf 87 31
       -3.4051485e-08 1.1830044e-08 1.6743394e-08 3.950795e-09
000300 c7 b4 7c b2 16 74 fa 32 17 63 a2 b2 5c cc 80 30
       -1.4709435e-08 2.915662e-08 -1.8904343e-08 9.371308e-10
000310 4b 7b 7a b2 42 fc 1c b0 ce ca ba 32 8e e9 9a 32
       -1.4579949e-08 -5.711095e-10 2.1745475e-08 1.8034168e-08
000320 0f 36 4d 32 8d df 06 b2 f5 05 ca b1 f3 01 bc 31
       1.1944862e-08 -7.850656e-09 -5.879651e-09 5.4717417e-09
000330 df c5 84 b0 36 c1 9c 32 c2 77 d4 2f 6e 99 84 b2
       -9.660502e-10 1.8248652e-08 3.8647668e-10 -1.5436594e-08
000340 b2 1b 31 b1 d4 5a 8c 32 76 89 92 b2 d4 46 53 b1
       -2.5772633e-09 1.6339449e-08 -1.7059147e-08 -3.0744802e-09
000350 93 87 78 b1 c6 2b a5 b1 f4 2a 84 b1 45 fb ce b1
       -3.6165815e-09 -4.8071085e-09 -3.846589e-09 -6.023955e-09
000360 6d 76 3a b2 cf e7 34 b2 8f 15 d7 b1 81 db e3 b2
       -1.0853552e-08 -1.0530086e-08 -6.2597745e-09 -2.6526097e-08
000370 a4 7c b2 b1 ed 2e 7c 32 1c e5 0a 33 29 c5 83 31
       -5.194652e-09 1.4679e-08 3.2339003e-08 3.8350163e-09
000380 78 32 ce 32 d5 38 f8 32 89 ed eb 31 36 7a de b0
       2.4004507e-08 2.8896844e-08 6.866405e-09 -1.618736e-09
000390 ca b6 1f b1 f6 37 d0 32 08 6f 28 b2 7c b8 0c b0
       -2.3241449e-09 2.4239835e-08 -9.804133e-09 -5.119387e-10
0003a0 9f dc 68 b2 c6 02 a8 32 e6 6b 2b b2 f0 b3 b0 32
       -1.3554341e-08 1.9559035e-08 -9.978043e-09 2.0570923e-08
0003b0 bc 46 e4 af 8c 6b ae b2 ed e8 2c 32 2f fa 4e 31
       -4.1523218e-10 -2.0305173e-08 1.0064679e-08 3.0119158e-09
0003c0 52 9f aa 32 81 d2 7e b2 d4 5c 9a 32 d3 4c 6d 32
       1.9863055e-08 -1.4832609e-08 1.7970173e-08 1.3812683e-08
0003d0 8c e6 0c 32 20 05 97 31 49 64 d1 32 63 31 fc b2
       8.201493e-09 4.395261e-09 2.4376407e-08 -2.935912e-08
0003e0 bb 58 a5 32 ef 8c bf b1 01 2b df b1 83 4a 6c 31
       1.9248878e-08 -5.574854e-09 -6.495043e-09 3.4384875e-09
0003f0 93 79 31 32 42 9e c5 32 95 56 d8 b2 ef 00 cb b0
       1.0330399e-08 2.3005786e-08 -2.5185082e-08 -1.4770459e-09
