ckps/source/uda/domainnet/infograph_1/source_B.pt (torch, 532830 bytes, 6 tensors)

bn.weight f4 [256]
00000000: e5ff 893f 6a07 873f d4d8 8d3f 707d 903f
00000010: 8d2c 8d3f 08d8 903f 2eb4 8d3f 1a2c 893f
00000020: 5b4c 923f 64b4 973f 7b54 873f 3ea0 853f
00000030: d704 923f 09c6 8c3f 0965 8c3f c4a4 8d3f
00000040: 27a7 893f 10ce 823f e8e9 8f3f a8df 913f
00000050: fa7e 843f 59f8 893f 27a2 8a3f 1afd 8b3f
00000060: 2062 8b3f 432d 913f caea 8e3f 7929 8c3f
00000070: e665 8a3f dd13 8a3f 53dd 873f a4b9 8f3f
00000080: a5a6 843f 35cc 7e3f 1162 873f bc79 873f
00000090: f8b1 893f c194 8e3f 8d31 863f cb2e 8c3f
000000a0: 7bb4 873f be7f 8b3f 249c 893f 2034 873f
000000b0: a7e8 8c3f 3fca 883f 48f5 883f 0de0 873f
000000c0: 721d 883f 3236 913f e87f 863f 873c 8b3f
000000d0: 3e55 8d3f cdc2 883f ba5d 8a3f 8d2b 873f
000000e0: 51f8 863f c7bf 8b3f d4ac 823f 3f78 8a3f
000000f0: d180 8e3f 8c23 883f a556 883f 4774 7e3f
00000100: c216 8d3f 3f24 913f 8fd0 813f 2700 863f
00000110: d0e5 893f c927 8f3f 7377 853f 5c86 8c3f
00000120: 0a5a 7f3f 57dd 863f 3b91 903f fed2 7f3f
00000130: f6be 873f 5f45 883f 1150 8a3f db8c 8b3f
00000140: 6926 8a3f 7acb 8f3f ca33 843f 38b0 873f
00000150: 8745 8b3f 6931 8c3f cc82 8c3f 2038 873f
00000160: 0262 813f 9292 823f 2190 883f a03e 8a3f
00000170: 1e96 833f fd06 8a3f 4c92 8e3f cdb8 8a3f
00000180: 028e 833f a08c 8c3f 8d62 8b3f ced6 8e3f
00000190: 5938 833f a3da 8a3f c9d0 923f 002e 883f
000001a0: 7a5d 883f 0052 883f 200d 863f e957 883f
000001b0: 78a9 7c3f 60d0 873f 70df 893f 0326 903f
000001c0: 52ca 8c3f 59f7 823f a2ce 8c3f bf0d 8c3f
000001d0: 10ca 933f 56b4 933f 5769 8c3f 3e5c 8c3f
000001e0: 2fa1 8c3f fdf7 8c3f 943c 893f 7a17 873f
000001f0: c5fc 8c3f 96c3 8e3f dfd6 8f3f 735f 903f
00000200: 530d 903f 079d 853f 743e 803f fff3 923f
00000210: 4209 823f 801c 8f3f ff84 8d3f 10f5 883f
00000220: a8bb 853f 2d33 8e3f 1e85 883f 626a 8d3f
00000230: 88f2 8f3f 00a4 8f3f d3df 873f aea1 853f
00000240: c78e 893f 247d 813f 4cb7 873f d75d 853f
00000250: 3a37 833f 8336 893f 87b0 8d3f 8dae 8d3f
00000260: d44b 893f 254e 963f 5d3e 8d3f 889f 863f
00000270: 25f1 8a3f c5b2 903f 044e 893f 2fc7 923f
00000280: 9d0a 8b3f acdd 8c3f 2cd0 8a3f 03cb 883f
00000290: 8471 8d3f 4a0a 8d3f e7d5 813f 3e06 8a3f
000002a0: e6f8 853f 826a 873f a8d7 873f dba7 8a3f
000002b0: 8a74 873f 7468 883f 25e5 8b3f cef6 893f
000002c0: 0902 883f 8ad9 8c3f 6d1d 8a3f b19d 863f
000002d0: d0c2 873f 568d 8e3f 0432 873f 43dc 8c3f
000002e0: 492d 923f 3be8 8c3f 9889 8e3f 62d7 923f
000002f0: db05 823f 8870 873f 9841 8e3f a4dc 853f
00000300: 72c4 923f 9970 923f c6ab 893f 9848 833f
00000310: 8732 883f 1946 833f 9d70 893f 48bf 8a3f
00000320: ad27 8a3f 39ee 8b3f cb59 8d3f 753f 8b3f
00000330: f06c 8f3f e871 8b3f 6bcf 7f3f 31ca 823f
00000340: cc4c 873f 19ba 893f 8ef8 8d3f c226 913f
00000350: f2a0 8a3f 34fc 833f 878c 863f 5a2b 883f
00000360: 20be 8f3f 00c8 823f 75c7 8c3f f06c 8e3f
00000370: 8e42 8a3f 78b1 8c3f 54f6 873f 86f9 863f
00000380: 5cee 883f 9637 8b3f c71f 8d3f 2f1b 873f
00000390: e385 913f 31c9 893f 5c15 8b3f c4a9 8a3f
000003a0: 7c3c 893f e249 8a3f 526e 803f 8708 843f
000003b0: 7a1a 883f 869d 8a3f f0a1 8a3f 8468 853f
000003c0: 620e 833f a9f9 8f3f be20 8d3f 354b 883f
000003d0: 5310 8b3f a9ef 853f 4286 8b3f 5d92 8f3f
000003e0: 55a7 813f 25d1 883f be89 8b3f b1c5 843f
000003f0: 34c6 893f 9f77 8e3f 1ecb 8c3f ee87 863f
1.0781218 1.0549138 1.1081796 1.128828 1.1029221 1.1315928 1.1070611 1.0716584
1.1429552 1.1851926 1.0572656 1.0439527 1.1407727 1.0997936 1.0968333 1.1065907
1.0754136 1.0219135 1.1243258 1.139638 1.035125 1.0778915 1.0830735 1.0936615
1.088932 1.1341938 1.1165402 1.0950156 1.0812347 1.0787312 1.0614418 1.1228528
1.0363356 0.99530345 1.0576802 1.0584025 1.0757437 1.1139146 1.0483872 1.095178
1.0601953 1.0898359 1.0750775 1.0562782 1.10085 1.0686721 1.0699854 1.061525
1.0633986 1.1344664 1.0507784 1.0877846 1.1041639 1.0684448 1.0809853 1.0560166
1.054453 1.0917901 1.0208993 1.0817946 1.1133062 1.0635848 1.0651442 0.99396175
1.102257 1.1339186 1.0141772 1.0468796 1.0773258 1.1184016 1.0427078 1.0978503
0.99746764 1.0536298 1.1294321 0.99931324 1.0605152 1.064617 1.0805684 1.0902361
1.0792972 1.1233971 1.0328305 1.0600653 1.0880593 1.0952579 1.0977416 1.0564003
1.0108035 1.020098 1.0668985 1.0800362 1.0280187 1.0783383 1.1138396 1.0837647
1.0277712 1.0980415 1.088945 1.1159303 1.0251571 1.0847973 1.1469966 1.0639038
1.0653527 1.0650024 1.0472755 1.0651828 0.9869609 1.0610466 1.0771313 1.12616
1.0999243 1.0231735 1.1000559 1.0941695 1.154604 1.1539409 1.0969647 1.096565
1.0986689 1.101318 1.0721612 1.055404 1.1014639 1.1153438 1.1237448 1.1279129
1.1254066 1.0438546 1.0019059 1.1480712 1.0159075 1.1180573 1.1056212 1.0699787
1.0447893 1.1109368 1.0665624 1.104809 1.124589 1.1221924 1.0615181 1.0439966
1.0746697 1.0116315 1.0602813 1.0419263 1.0251229 1.0719761 1.1069497 1.1068894
1.0726266 1.1742598 1.1034657 1.0517435 1.0854841 1.1304556 1.0726933 1.1467036
1.0862614 1.1005149 1.0844779 1.0686954 1.1050267 1.1018765 1.0143403 1.0783155
1.0466583 1.0579379 1.0612688 1.0832475 1.058244 1.0656877 1.0929304 1.0778444
1.0625621 1.1003888 1.079023 1.0516874 1.0606327 1.1136882 1.0562139 1.1004719
1.142007 1.1008371 1.113574 1.147198 1.0158037 1.0581217 1.1113768 1.0457959
1.14662 1.1440612 1.0755546 1.0256529 1.064042 1.0255767 1.0737492 1.0839624
1.0793358 1.0932075 1.1043028 1.087874 1.120512 1.0894136 0.9992587 1.0217954
1.0570312 1.0759917 1.1091478 1.1339953 1.0830367 1.0311341 1.0511636 1.063823
1.1229897 1.0217285 1.099837 1.1126995 1.0801561 1.0991659 1.0622048 1.0544899
1.0697742 1.0876338 1.1025323 1.0555171 1.1368984 1.0764524 1.0865893 1.0833058
1.0721583 1.0803797 1.0033667 1.0315102 1.063308 1.0829322 1.0830669 1.0422521
1.0238764 1.1248065 1.1025617 1.0647951 1.0864357 1.0463763 1.0900347 1.1216542
1.0129191 1.0688826 1.090141 1.0372831 1.0763612 1.1130255 1.0999486 1.0510232

bn.bias f4 [256]
00000000: faae 8d39 5580 5abd 0dbc ba3b f0bb c0bb
00000010: 843e ca3b e715 a5bc 6c20 54bc 75f8 a63b
00000020: e9f7 b43b e39a 1d3c f374 5a39 d89d a1bb
00000030: e83c fab9 3a6e babc 192a 0c3d 5947 a3bc
00000040: 17d3 973c 7b7b 9ebc 32a8 97bc 8bbf 81bc
00000050: 0995 46bc 5198 13bb 7783 2d3d 7f60 2dba
00000060: aa0c c4bb d956 5c3c 41cd 323c 265f 893c
00000070: 5427 9d3c 001b b0bc 44ef dd3c cdf8 87bb
00000080: 23d7 8ebc 93e1 b1ba a470 4bbd 73a8 0bbc
00000090: a878 143c 0540 97bc bbbc 3d3c ea84 263c
000000a0: 0e26 09bd 4a43 57bd 2380 693c 4a8a 37bc
000000b0: c431 fdbb 89f8 96bc 2cd8 113d f64b f6bb
000000c0: 0c8e 2a3c 2697 7d38 eda1 cd3c a5d6 d0bc
000000d0: 4c90 313b 1333 6ebc 556e 203b 0eef a23c
000000e0: adb7 d53b f9be 753c 24ad f2b9 435b 8abc
000000f0: fddb c538 f9ca e13a eb92 413c 9241 fabb
00000100: 17de db3c ae1e aebc 6df7 04bc 5edb bfbc
00000110: 42d0 84bc 0a6f 183c 0057 133c a1b9 923c
00000120: ce96 a2bb bd2a aebb f61c 36bb e0e0 173c
00000130: f371 0abc 99f5 bdbc 258f 423c 660e 67bc
00000140: 4dcb a6bb df63 9dbb 5b78 5f3c 56e5 f43b
00000150: 7da3 6dbc f0a0 c3bb fe30 41bc 5a62 683c
00000160: 1c96 1abc 36e9 b6bc 634f cdbb 2853 d1bc
00000170: cbed 273c fd07 8b3c 7177 6d3c abda 88bc
00000180: a252 8d3b 2c47 11bc d23d a0bc 4e87 c6bc
00000190: 2d01 97bc 8f78 2bbb 959c 96bc 46ce 24bd
000001a0: 3e4a 403c 0a56 d7bc 706e 373b 231b c6bc
000001b0: 625b 5f3c 8cb3 56bc 617f 7ebb a33f 8e3b
000001c0: 0405 88bc 5531 0ebd 14dd 043d 3b86 94bc
000001d0: 1104 863b bbe0 1fbc 4a41 2e3c 9cf2 1d3c
000001e0: ca27 63bc 4cca 053c 47cd 16bd 6a07 d439
000001f0: 5d96 c7bb 544f a3bb 4e2e 59bc b16d d63c
00000200: 651a 93bb a087 3abc 694d 6a3c b430 90bb
00000210: 8163 a6bb 6b1b 7dbc 8ac1 10ba 126d e1bc
00000220: eb77 f13c 6a73 02bd c50f 0bbd d050 183c
00000230: b5e9 1cbc 095d 95bb 8253 c93b bb97 cd3c
00000240: a36f 9cbc 2c14 d0bb 3b66 b43c 6299 99bc
00000250: 4127 11bc f45c 173c 872c 95bc e5a2 f1bc
00000260: 0725 a03c c4d0 0d3b 17ae 9e3b 8936 3a3a
00000270: 2b71 183c 5d43 99bc 318b cb3c 92b9 d3bb
00000280: 1080 803c ce56 a13c 152b 26bc d6c4 c13c
00000290: cccb e1bc 7993 223c abeb 48bc 2303 33bc
000002a0: a693 bebb 01b9 6bbc cd45 c83c 75fc 0fbc
000002b0: 2a0c ab3b 29e5 a53c 6b15 bcbc ea12 1e3c
000002c0: 1d24 81bb c649 d63b 2ae7 6c3c 40f5 623c
000002d0: 91f7 1abd fbba 093d 9e00 353c 3f54 a1b9
000002e0: 7faf 1e3c 55e4 88ba 268e 8bbc 95f8 1c3c
000002f0: e8d0 e93b 583a 0bbc d813 333b e093 8fbc
00000300: 1a0e d1bb b032 8fb8 4d3a 1f3c 8d4f 1d3b
00000310: 9102 2dbd 1265 283c f259 16bc e2da a5bb
00000320: 43bd 68bc 55e1 8dbc 1737 19bb 2d76 15bc
00000330: 64c6 70ba f230 9f3c 9b9a b53c d596 a23b
00000340: 3b9f 5abc 04d8 dcbb 7499 843c 415d 013c
00000350: 4eda 18bb 2aa7 a03c aa8c 79bc 14b5 f63a
00000360: 11e7 1cbd bd34 cf3c e8ff 9aba 5360 99bc
00000370: 5cf6 343c b7d0 a6bc 0e8b 5b3c 3896 e3bc
00000380: 30d5 193d bcd9 943c 0374 4d3b b856 363c
00000390: 72b4 72bb 3251 0bbc c818 1b3c d0b0 74bc
000003a0: a364 143c 98ac 2fbc 1538 e63c 107d e3bb
000003b0: 7b5f 603c 1081 6d3c 6998 e83b f864 5fba
000003c0: f2a7 dc3c 3b84 953c 982d da3c 1abc 04bb
000003d0: 9fbc 853c 44ce b53b b244 9fbc e7fb b73c
000003e0: fe87 01bc 0064 b73c 068c 8bbc 1bd7 4fbc
000003f0: aac6 1e3b 1ab7 01bc 9626 013c a053 80bc
0.00027023983 -0.053345043 0.005698687 -0.005881779 0.006172003 -0.020152045 -0.012947183 0.0050955364
0.0055227173 0.009619447 0.00020833667 -0.0049321465 -0.00047729095 -0.022757638 0.034219835 -0.019931482
0.018533273 -0.01934599 -0.018512819 -0.015838405 -0.012120494 -0.0022521208 0.042361703 -0.00066138053
-0.005982955 0.0134484405 0.010913194 0.016769003 0.019183792 -0.02149725 0.02709163 -0.0041495324
-0.01743657 -0.0013571255 -0.04966797 -0.008524048 0.00906197 -0.018463144 0.011580641 0.010163525
-0.033483557 -0.052554406 0.014251742 -0.011202404 -0.00772688 -0.018429058 0.03560655 -0.0075163795
0.010409843 6.046067e-05 0.025101626 -0.025492975 0.0027094064 -0.014538544 0.0024479826 0.01988938
0.00652214 0.014999145 -0.00046286837 -0.01688922 9.434668e-05 0.0017226628 0.011814813 -0.007637211
0.0268393 -0.021254864 -0.0081156315 -0.023420032 -0.016212586 0.0093038175 0.00899291 0.01791078
-0.004961825 -0.0053151534 -0.0027788258 0.009269923 -0.008450019 -0.0231884 0.011874949 -0.014102554
-0.0050901533 -0.0048031653 0.013639535 0.007473628 -0.014504311 -0.005970113 -0.011791466 0.014183605
-0.009435203 -0.022328 -0.006265567 -0.025552347 0.010249565 0.016971583 0.014493809 -0.016705832
0.004312829 -0.008867066 -0.019560728 -0.02423444 -0.018433178 -0.0026164388 -0.018385211 -0.04023578
0.011736451 -0.026286144 0.002798941 -0.024182862 0.013632627 -0.013104331 -0.0038833248 0.004341082
-0.016603954 -0.034715015 0.0324374 -0.018130412 0.00408984 -0.00975817 0.010635683 0.009640362
-0.013864467 0.008165907 -0.03681686 0.00040441315 -0.0060909227 -0.004983822 -0.013255669 0.026175352
-0.0044892305 -0.011384875 0.014300683 -0.004400337 -0.0050777798 -0.0154484315 -0.00055220036 -0.02751783
0.029476127 -0.03184835 -0.033950586 0.009296611 -0.0095772045 -0.00455821 0.006143988 0.025096765
-0.019096201 -0.006350061 0.022021404 -0.018749896 -0.0088594565 0.00923847 -0.018209709 -0.02949662
0.019548906 0.0021639327 0.0048425305 0.0007103463 0.009304325 -0.01870888 0.024846645 -0.0064613307
0.015686065 0.019694712 -0.0101421075 0.023653429 -0.027562998 0.0099228555 -0.012263219 -0.010926041
-0.005815941 -0.01438737 0.024447346 -0.008788218 0.005219956 0.020250874 -0.022959432 0.009648064
-0.0039410726 0.006539556 0.014459411 0.0138524175 -0.037833754 0.033625584 0.01104751 -0.0003077108
0.009685396 -0.0010444025 -0.017035555 0.009580751 0.0071354993 -0.008497797 0.002732506 -0.017526567
-0.006379855 -6.828213e-05 0.00971849 0.0024003715 -0.042238776 0.010278003 -0.009176718 -0.0050614933
-0.01420528 -0.01731936 -0.0023378783 -0.009122414 -0.0009184836 0.019432519 0.022168448 0.0049618282
-0.013343628 -0.0067396183 0.016186453 0.007895769 -0.002332348 0.01961096 -0.015231291 0.0018822276
-0.0383063 0.025293702 -0.0011825534 -0.018722689 0.011045065 -0.020363195 0.013399852 -0.02778159
0.037556827 0.01817023 0.0031349666 0.011129074 -0.0037033823 -0.008503245 0.0094663575 -0.0149347335
0.009057197 -0.010722302 0.028102914 -0.006942399 0.013694639 0.014496103 0.007098247 -0.00085218204
0.026935551 0.018251529 0.026633069 -0.0020253719 0.016325293 0.0055482704 -0.019441936 0.022458984
-0.007905958 0.02238655 -0.017034542 -0.0126855625 0.00242273 -0.00791719 0.007882735 -0.015664876

bn.running_mean f4 [256]
00000000: ebb4 683e 7896 e43c 0c1b b63e 6e68 8cbe
00000010: 4f6d 853e bc2d fb3e e1e7 a3bd 4d9a a33e
00000020: 99a7 17bf 1f3f c0ba d9b2 a73e 86c3 a8be
00000030: 1e75 e1be 7ca4 86bf 9af0 8bbe 05c8 bebd
00000040: 23f2 e63e 7ac2 75bf fab8 d43e d2af bfbe
00000050: 23b4 a0bd efce d8be 08c9 6dba ac99 f73e
00000060: 2cb8 ff3d 92dc 423e a792 753e 997c c1be
00000070: 0219 50bc b062 23bf 4b77 c63f adba 8bbe
00000080: b9b6 283e 3d0d 903e 4fa7 c8bd ee13 78bd
00000090: 21f7 023f 1ae9 35bf 468f 903e 3bfe 083f
000000a0: c3bf 03be c961 b2be c021 953f f8c0 bb3d
000000b0: 6a00 abbd 4814 08bf 14e4 833e 256d c83d
000000c0: 40da 3c3f 42ad 003f 55ef 41bf aecf f3bd
000000d0: 46a6 143e e4da 3fba a2e2 74be c257 813e
000000e0: 9cb2 cebe 890c d1be 4ced d83d bd3d 403e
000000f0: 8a84 9c3d 0857 613e dc79 8abf 730c 52bf
00000100: 9b7d 05be d9ae acbe c25b d0be cbe1 22bf
00000110: 3568 2e3b e845 ff3e 2561 863e 5f36 233e
00000120: a16c 06bf bcde f23c 28df 733c 4bcf 693f
00000130: 5237 3cbe 200a 0dbf 632d 573f 9109 01bf
00000140: 1b17 34bf c33e 42be 43a3 16bf 9e56 07be
00000150: d34d 393f 3506 f6be 4d22 2cbf 418d b13d
00000160: 28bd 483f 3c0d 72bf 3a2e 02bf 9847 c0bd
00000170: 8ba9 6d3f 1fec 0dbf e4da 20be 675c eb3e
00000180: a0c6 ffbe d3c7 98bf 1f44 573c 7986 8abe
00000190: 22ce 95be 88e7 7b3f de8a 4c3f 007f 36bf
000001a0: 28c9 813e fde1 623e b4b2 a4bd 0197 693e
000001b0: 7dfb e53d 6ba0 3fbf 74d7 63be 45dc 4b3e
000001c0: deb0 99be df94 05bf e74b 88bf ce0f fbbe
000001d0: 0279 c13e 75bd 313e ae42 d8be 1913 f0be
000001e0: 0895 433e ca3d 0d3e 6da4 88bf b640 843e
000001f0: 9903 32be bf4c 38bf 01d2 ab3d 9b72 dbbd
00000200: 436f 4a3e 2a9f b03d 04c8 ddbd 749b adbd
00000210: 1d1d 6cbf 3b9a 5dbe 5447 99be 70ca 843f
00000220: 6d75 1f3f d08e 3abf 1714 6ebe 3310 65bf
00000230: 055f c5be 2045 b83d 3e0a 93bd 1050 ba3e
00000240: e4da 28bf 889d 1c3e 0d05 37bd 65d2 00bd
00000250: 529b 08be e444 e03e 65f9 443e 2908 603e
00000260: 0bed adbd c7fb b43e 0063 45be d946 3f3e
00000270: db07 80be 5fbf 82bf b4a1 203f b860 a1be
00000280: c825 dfbc c139 96be 7555 9b3c 24c2 063f
00000290: f428 7bbe e55b f13d c22c 303f 9205 433f
000002a0: e193 87bf b9ea 39bf 5ec3 13bf 8761 4c3e
000002b0: c153 833e ab33 673f 29e9 8ebe 2ca5 2f3f
000002c0: 0c46 653d fa43 0cbe c060 093e d756 87bf
000002d0: 3d64 35be c646 053f a29e 72be bfa3 86bd
000002e0: d00e b2be d4b5 5ebe 4860 243f 251f c63e
000002f0: 4ad4 c5bf 275f 8a3e 277e 5e3e 0570 c23e
00000300: 0b96 75bd a20a 74be bf19 1e3e 5cb3 b73e
00000310: c9d8 d6be fdf3 02be e787 463e 918c 943e
00000320: 3ba0 c4be 3f9c cfbe 16bc d03e 1504 1bbe
00000330: ff5d 123e cc4a 06bf b850 713f 3d31 153f
00000340: 2100 51be 6971 b93d 5174 303f 59f7 7d3f
00000350: 3ca2 043f 9cfc 933e 0379 ce3e f680 f33d
00000360: 6eb2 31be 86d0 843e bb83 0d3a 11ce dfbe
00000370: de96 c23e e38b 87be 856a 883e 7cbe 423f
00000380: 45ca 1a3f 9952 31bf 25cf db3e b1fd 48bb
00000390: 718c b5be ac4a 50bf 20a0 24be 52b9 34bf
000003a0: c595 453f e2a3 35bf 93c4 7b3f 9b32 04bf
000003b0: b4d8 b03f 1525 6a3f a63d a6bd 9710 05bf
000003c0: 10cd f43e 6fbe 1d3f 06d8 67be 4a6e a0bf
000003d0: 966e 27bd aa3d fdbe 3dfa 093f e2e9 07be
000003e0: 8345 f33d 676a f3be e9b6 79be 0dc7 0d3f
000003f0: 6acf 9e3e 6c08 abbe cca1 44be 722d aabe
0.22725265 0.02790378 0.3556751 -0.27423424 0.26059958 0.4905833 -0.08003212 0.3195366
-0.5924011 -0.0014667249 0.32753637 -0.32961673 -0.44034666 -1.0518947 -0.27332002 -0.093154944
0.4510661 -0.9599987 0.41547376 -0.37438828 -0.07846858 -0.42345378 -0.00090707885 0.4835943
0.124863 0.19029453 0.23981725 -0.37790373 -0.012701275 -0.6382246 1.5505155 -0.2729086
0.16475953 0.281351 -0.097975366 -0.06056588 0.5115834 -0.7105881 0.2823431 0.53512925
-0.1286612 -0.3484023 1.1650925 0.09167665 -0.08349688 -0.53155947 0.25759947 0.09786443
0.73770523 0.5026437 -0.75755817 -0.11904846 0.14516553 -0.0007318689 -0.23914579 0.25262266
-0.40370643 -0.40829876 0.10592136 0.18773551 0.07642467 0.22005856 -1.0818439 -0.82050246
-0.13036196 -0.33727148 -0.40695006 -0.6362578 0.0026612405 0.49858022 0.2624599 0.1593871
-0.52509505 0.029647224 0.014884748 0.9133193 -0.18380478 -0.55093575 0.8405363 -0.5040522
-0.70347756 -0.18969254 -0.5884287 -0.13216636 0.72384375 -0.4805161 -0.6723984 0.0866952
0.7841363 -0.94551444 -0.50851786 -0.093886554 0.9283683 -0.5543842 -0.157085 0.45968935
-0.49956226 -1.1935982 0.0131388 -0.2705572 -0.2925883 0.98400164 0.79899395 -0.71287537
0.25348783 0.2215652 -0.080418974 0.2281151 0.11229608 -0.74854153 -0.22250158 0.19908245
-0.3001775 -0.52180284 -1.0648164 -0.49035496 0.37787634 0.17357428 -0.42238373 -0.4688957
0.1909982 0.13793102 -1.0675179 0.2583062 -0.17384185 -0.71992105 0.083896644 -0.10715219
0.19769005 0.08624108 -0.108291656 -0.08476916 -0.92231923 -0.21640866 -0.29937232 1.0374279
0.6228855 -0.72874165 -0.23249851 -0.89477843 -0.38549057 0.089975595 -0.07179688 0.36389208
-0.65959 0.15294468 -0.04468255 -0.031450648 -0.133405 0.4380256 0.19235761 0.21878113
-0.08492478 0.3534834 -0.19276047 0.1867937 -0.25005993 -1.0214652 0.6274674 -0.31519103
-0.027239695 -0.29340938 0.018961648 0.52639985 -0.24527341 0.117851056 0.68818295 0.76180375
-1.0592004 -0.72623783 -0.5771998 0.19959079 0.25649837 0.90313214 -0.27912262 0.6861141
0.055975005 -0.13697806 0.13415813 -1.0573376 -0.17714019 0.52061117 -0.23693326 -0.06574201
-0.34776926 -0.2174905 0.64209414 0.38695636 -1.545541 0.2702572 0.21727811 0.3797609
-0.059957545 -0.23832181 0.15439509 0.35879028 -0.4196227 -0.12788387 0.1938778 0.29013494
-0.38403496 -0.40548894 0.40768498 -0.15138276 0.14293669 -0.5245788 0.9426379 0.58278257
-0.20410205 0.090548344 0.68927485 0.9920555 0.5181005 0.28903663 0.403267 0.11889832
-0.17353222 0.2594034 0.00053983525 -0.43711904 0.38005728 -0.26473913 0.26643768 0.76071906
0.6046489 -0.6926666 0.42931476 -0.003066879 -0.3545871 -0.8136394 -0.16076708 -0.70595276
0.77181655 -0.7095319 0.98346823 -0.5163972 1.3816133 0.9146283 -0.08117227 -0.5197844
0.478127 0.61618704 -0.22641 -1.2533658 -0.040876947 -0.49461108 0.5389746 -0.13272813
0.11878493 -0.47542116 -0.24386181 0.5538185 0.3101762 -0.33404863 -0.19202346 -0.33237797

bn.running_var f4 [256]
00000000: c44d 553e dded 873e 93bc 5e3e 236e 713e
00000010: 37bf 7b3e 99f1 7c3e 1a5b 593e e2ce 893e
00000020: 25b4 6d3e ac59 3d3e ef62 863e 313f 923e
00000030: 0d39 723e 43d8 833e 127b 883e dc6a 743e
00000040: 9037 893e 06be a03e 541c 4d3e c788 503e
00000050: c53f 6f3e b007 533e 2732 603e 2322 5e3e
00000060: a8cc 863e 2c87 8e3e 2022 5a3e b8e5 883e
00000070: 4f74 463e 8758 583e 27f0 513e e072 813e
00000080: 4929 673e 003e 673e 427a 693e f913 833e
00000090: b158 553e a87a 703e 36d0 603e 2105 613e
000000a0: 31e8 5a3e 55fb 7e3e c53b 6d3e 41de a53e
000000b0: 8f73 763e e98e 7e3e 5d8a 763e d29e 5e3e
000000c0: a5fa 6a3e ec0e 5f3e b23b 813e 9efc 653e
000000d0: ba26 5c3e 4518 903e 75bf 523e 0dc5 893e
000000e0: 474e 773e 3474 613e 2f6b 8b3e 8218 6c3e
000000f0: 8f14 6d3e 2ffd 6b3e 60e4 8a3e 726a 8e3e
00000100: 48fe 423e 7017 753e 397b 823e 8435 803e
00000110: 7963 463e 2045 8b3e 91e6 8d3e a62e 7b3e
00000120: f982 a63e 15bf 293e 47ea 473e 21fd 923e
00000130: 5507 773e 9a1c 593e a1fc 353e bcb7 573e
00000140: eda8 7b3e 57b0 703e 5cf6 713e 96c5 4e3e
00000150: a4c1 7e3e 82fc 623e 22ba 593e e1f0 5a3e
00000160: 047d 853e ea21 5e3e 70d6 8e3e 3769 4f3e
00000170: 43ea 8e3e c440 883e d6d8 723e 7731 4e3e
00000180: 8d0a 523e fa03 6d3e 9774 813e da0a 893e
00000190: c9c7 703e e6c7 6c3e ed6a 833e be31 963e
000001a0: e762 7d3e 9a73 803e 9a93 543e 7226 6d3e
000001b0: fe1d 4c3e e4b3 863e 50a4 5a3e 79a3 7b3e
000001c0: 7f73 743e 3099 5a3e 08b8 673e c293 513e
000001d0: b3b4 543e ff1f 613e 47cf 863e 29e0 973e
000001e0: 732c 653e 648d 763e ca0c 7f3e 10dd 713e
000001f0: 59db 973e 0787 4f3e edb1 6d3e 2769 663e
00000200: 66e3 553e f70f 813e c596 4c3e 91fc 323e
00000210: e3d2 673e c404 863e 707c 5b3e 4665 6f3e
00000220: fd55 7b3e 6940 813e 17ca 933e 53ae 773e
00000230: 94a9 6d3e 04d7 6c3e efc7 6c3e 34e6 693e
00000240: c074 6d3e 15c2 823e 3055 673e 26c0 8f3e
00000250: 475b 663e b36c 5d3e d78e 583e 17d0 7f3e
00000260: bc3f 613e 505b 313e b587 3c3e b349 8d3e
00000270: ef73 5a3e c813 693e 21f1 5b3e 3150 583e
00000280: e180 7f3e cbde 593e dd24 403e 6049 5f3e
00000290: 7fb1 553e b134 6d3e 6155 723e d180 5b3e
000002a0: 3a18 7e3e 0376 873e 1ccf 523e b898 593e
000002b0: ffc3 533e c03c 683e e161 7a3e a40c 893e
000002c0: 0786 6f3e 760c 873e 82ca 633e 1443 7d3e
000002d0: a215 733e eeb8 8b3e 2fa1 7b3e 9db6 5c3e
000002e0: 7b9f 823e abb8 5d3e 6121 6a3e 3c59 5c3e
000002f0: d08e 7b3e e69f 833e 92c1 7b3e bde2 5d3e
00000300: 9fc0 653e ae89 7f3e 9566 5f3e b9b3 6f3e
00000310: 606f 913e d99e 813e 493b 753e 826f 533e
00000320: e255 693e 2c0e 513e f36e 643e 4b42 623e
00000330: c76c 373e 59be 593e b845 833e 8fb3 6f3e
00000340: ee1f 473e 785f 763e 952c 683e b274 813e
00000350: 0301 683e 863a 313e 561e 8a3e 83c7 883e
00000360: 6d97 8c3e 528f 633e d045 893e eef1 803e
00000370: 6e3a 6b3e 20c7 613e f276 763e aaf1 833e
00000380: 8905 903e c827 883e 9113 773e b21d 503e
00000390: f75a 7a3e 498a 813e c0ad 6a3e 8a95 623e
000003a0: 205a 663e ae70 613e 9f59 5f3e 1b6c 8a3e
000003b0: 91e3 9c3e edb2 663e c690 653e b16c 583e
000003c0: 82e3 663e c11c 813e e37a 633e 0d19 773e
000003d0: 6916 943e 904c 953e 73a2 8d3e 94a3 413e
000003e0: 72d7 853e 941c 713e a8cb 723e 5a7e 903e
000003f0: b4c4 563e 6ffe 943e 4e50 853e 1f7c 663e
0.20830446 0.26548663 0.21751623 0.2357717 0.24584661 0.24701537 0.21226159 0.26915652
0.23213251 0.18491238 0.26247355 0.28563836 0.23654576 0.25750932 0.26656395 0.23868889
0.26800203 0.31394976 0.20030338 0.20364676 0.2336417 0.20608401 0.21894132 0.2169271
0.26328015 0.27837503 0.2130208 0.26737761 0.19380306 0.2112752 0.20501767 0.25282955
0.22574343 0.22582245 0.22800544 0.25601175 0.20834614 0.2348429 0.21954426 0.21974613
0.21377636 0.24900563 0.23167332 0.3239613 0.2406752 0.24859203 0.24076219 0.21740273
0.22947176 0.21783036 0.25240856 0.22459647 0.21499148 0.28143516 0.20580848 0.2690815
0.24150954 0.22016984 0.27230212 0.23056224 0.23152374 0.230458 0.2712736 0.27815586
0.19042313 0.23934722 0.25484636 0.2504083 0.19373883 0.27201176 0.2771497 0.24529514
0.325218 0.16576798 0.19522963 0.28708747 0.2412389 0.21202317 0.17772152 0.21066183
0.24576159 0.23504768 0.23629135 0.2019256 0.24878556 0.22166637 0.2126241 0.2138095
0.26071942 0.21692625 0.27897978 0.2025498 0.27913103 0.26611912 0.23715529 0.20136057
0.20511837 0.23146048 0.25284263 0.26766092 0.23513712 0.2312313 0.25667515 0.29334825
0.2474476 0.25088197 0.2075943 0.23159197 0.19933316 0.2630912 0.21351743 0.24574079
0.23872183 0.21347499 0.22628796 0.20466521 0.20772056 0.21984862 0.26330015 0.29663208
0.22380237 0.24077374 0.24907222 0.23619485 0.29659536 0.20266353 0.23212405 0.2250105
0.20887527 0.25207493 0.19979389 0.17479159 0.2263904 0.2617551 0.21434188 0.23378477
0.2454452 0.25244454 0.2886512 0.24187593 0.2320922 0.23128897 0.23123144 0.22841722
0.23189068 0.25538698 0.2259109 0.28076285 0.22495757 0.21623497 0.21148239 0.24981724
0.21996969 0.17319989 0.18411143 0.2759529 0.21333288 0.22761452 0.21478702 0.2112434
0.24951507 0.21276395 0.18764062 0.21805334 0.2086849 0.23164631 0.23665382 0.21435858
0.24813929 0.26457223 0.20586818 0.21249664 0.20680235 0.22679424 0.244514 0.26767457
0.23390971 0.26376694 0.2224522 0.2473262 0.23738721 0.27289528 0.24573205 0.21554036
0.255123 0.21652476 0.22864296 0.21518415 0.24566197 0.2570793 0.2458556 0.21668525
0.2243676 0.24954864 0.21816476 0.23408403 0.28405285 0.25316504 0.23948397 0.20648006
0.22786668 0.20415562 0.22307949 0.22095601 0.17912589 0.21264018 0.2563913 0.2340834
0.19445774 0.24059856 0.22673257 0.25284344 0.22656636 0.17307481 0.2697627 0.26714715
0.2745928 0.22222641 0.26811075 0.25184578 0.22971508 0.22048616 0.24068812 0.25770313
0.28129223 0.2659285 0.24128558 0.20323828 0.24448763 0.25300816 0.22917843 0.22127357
0.22495317 0.2201564 0.21811531 0.27035603 0.3064237 0.22529192 0.22418508 0.21135212
0.22547725 0.2521725 0.22214846 0.2413065 0.28923348 0.29159975 0.27663 0.18910056
0.26140934 0.23546058 0.23710501 0.282214 0.20973474 0.29100367 0.2603783 0.22508286

bottleneck.weight f4 [256, 512]
00000000: 6782 5b3c 75d7 003d 6602 c53b 4f22 f43c
00000010: 6b4b e43c 4388 373c 6a6c 90bd 753f b93c
00000020: 3258 563d a324 54bd f93d efbc f10b 6ebc
00000030: bdbf 15bd 3ef9 d7bc 8dd3 90bb 8643 893c
00000040: 018e c03c 5ee9 d33b ab1e bf3c 20b8 0fbd
00000050: e3e4 a93c e552 66bc caf9 5c3c 6c89 2fbc
00000060: 4635 48bc 7545 41bc 19d5 4dbd b0d9 273c
00000070: 004c d23c c894 213d 84ae 14bd 377e 90bd
00000080: d554 423c f558 18ba e026 023d 1722 05bd
00000090: 9bcc e7bb 03b9 453d 8bef 0bbc 44e5 013d
000000a0: 79e7 6cbd 7463 143d 8c80 303d d785 bb3c
000000b0: 4495 da3c 4af4 6dbd fe66 1abd 3dfd 71b9
000000c0: d01c b2bb 8d50 ae3b 5c63 4fbb baaf 74bd
000000d0: 1bc5 fcbc d747 c73c d43e 79bb d402 07bd
000000e0: 8a8a 853b 1de8 903b fa0a 0dbd 2a6e 14bd
000000f0: 7cf6 843c 73d9 a1bc 89ad 493c 1781 02bd
00000100: 2712 37bd cc5e 283d 4e08 54bd a390 85bd
00000110: a49f 6e39 1f66 563d c928 52bd 4cd8 8abc
00000120: 7a0b a43b 8d5d 503b af7b 383d 79c6 ce3b
00000130: 4984 523d a621 58bc 70d5 3bbc 397b 7bbc
00000140: 3e61 2b3c 50ad cabc 3ac0 82bb 6a7e 4dbc
00000150: effe 02bc a001 9abd de32 493b 3ca8 493d
00000160: 56e5 2c3d ad83 313d 711a 44bd 2e22 0a3d
00000170: 7c4f a339 b235 adbc f20f 393d 6cfb b43c
00000180: 0ade 523c 0e15 363d 09c0 fd3c d70f f0bc
00000190: 2bfd bfb9 6585 8abc fdb8 383a 684a 20bb
000001a0: 83bc d3bc 9f57 6539 c9e9 26bc e7ab be3b
000001b0: 7cf7 04bc a186 f23c 4f4e 313d d024 07bd
000001c0: 6ef4 febc b3e9 213d b96c 54bc b2bd f33c
000001d0: 418e fdbc d15b 55bd 23f4 3d3d c18b a03d
000001e0: 1cbf 1dbd 2693 70ba 0ab9 a3bc 19c0 70bc
000001f0: f4f9 7dbd 4476 8a3c 7f45 273d e8ea 76bb
00000200: be6a 873d a0c0 683d aa61 32bd e276 6abc
00000210: 7059 0d3d c002 8b3d 04ce 333c 99f0 62bc
00000220: 066d c73d 11b4 a53a 0cc6 ab3d 1d18 993d
00000230: 5b51 a83c a008 933b 2339 b03c f48d 103b
00000240: dfae d23b e110 473d 458a 26bc 6adf 4c3d
00000250: 5509 0d3c 3bd0 7e3a 6eaf 9d3c 66c6 30bd
00000260: 1659 043d bbfd ecbc 3284 0a3c 0799 3b3d
00000270: c8ef ac3c d8be 4a3d 12b4 22bd 036c 63bb
00000280: 8cb9 88bd a043 953d 25f0 57bb 5b74 413d
00000290: 542c 04bc 268e abbb 1a8c e53d 6d4a d2bc
000002a0: 0ba2 e63b e37e d33b bdd8 033d 90e4 5f3d
000002b0: 9d66 bd3c e792 83bc 4125 44bc f43b aabd
000002c0: c4aa eb3c 57fa b5bc 8675 ac3c 0d1b 21bc
000002d0: 52f7 0e3d e686 9fbc 5ffa 78bd fa5f 9fbc
000002e0: 77d9 49bc c990 b53c c2cb f13c 424e 4dbd
000002f0: 7201 ddbc 6ac2 25bb b1fa 0cbc b24f 67bd
00000300: 91ef 0dbc a04f 93bb 7252 83bc 6a34 dd3c
00000310: 5c3c 3c3d c80c a43c 1a8e c1bc bdae 34bd
00000320: 3e79 0a3d a1dd 25bd 86e1 56bd 933e f73a
00000330: 72bf 96ba 7888 57bc f395 9abc 629b 883c
00000340: eb35 6f3d 4e16 e63b 8c60 0a3d d71d 8dbd
00000350: 7564 f2ba b92c 75bd 934b 84bc f52b 033d
00000360: 365b f9bc de29 66bb c329 fcbb ed40 a7bc
00000370: 81ef 733c 9854 093d eb99 553d fc56 4fbd
00000380: 2063 22bd 11c8 b23c bdad 2a3c 0bc2 09bd
00000390: 9139 053d 9840 e43b dadd f03b cb89 853d
000003a0: 6ef8 fa3a f1ba 32bc a040 103d 74e6 d83c
000003b0: bcb6 d7bc 4d1d 8bbc f49e 983c cef4 f0bc
000003c0: 2a54 e0bc ce71 1e3d fa27 d43c de5c 14bd
000003d0: 3282 db3c 2c8f 3b3d 43aa 41bd d976 98bc
000003e0: 83e8 4c3d 59e8 8cbd d051 49bd 0b92 83bc
000003f0: 1dcc f03c 9460 15bc 2b83 453d d260 e53c
0.01339779 0.031455476 0.006012249 0.029801516 0.027867993 0.011201921 -0.07051928 0.022613266
0.052330203 -0.051792752 -0.029204356 -0.014529214 -0.03655981 -0.026363965 -0.00441975 0.01675583
0.023505213 0.0064670285 0.023330053 -0.035087705 0.020739025 -0.0140578495 0.013487289 -0.010713916
-0.012219733 -0.011796345 -0.050252054 0.010244772 0.025671005 0.03944853 -0.036299244 -0.070553236
0.011861046 -0.00058115955 0.031775355 -0.032503214 -0.0070739514 0.048272144 -0.008540998 0.031712785
-0.057837937 0.03622766 0.04309134 0.022890968 0.026682504 -0.0580943 -0.037695877 -0.0002307789
-0.0054355636 0.005319661 -0.0031644916 -0.0597379 -0.030855706 0.024326248 -0.0038031833 -0.03296168
0.004075353 0.0044222013 -0.034434296 -0.036237873 0.016230814 -0.019757008 0.01230944 -0.03186139
-0.044695046 0.04110603 -0.051765732 -0.06521728 0.0002275692 0.052343484 -0.051308427 -0.016948842
0.005006251 0.0031794042 0.04503983 0.006310281 0.05139569 -0.013191616 -0.011464462 -0.015349203
0.010460196 -0.024740845 -0.0039902003 -0.0125423465 -0.007995351 -0.07519841 0.0030700485 0.049232706
0.0422109 0.043338466 -0.04787678 0.033724003 0.00031149003 -0.021143768 0.045181222 0.022092544
0.012870321 0.044453673 0.030975359 -0.029304428 -0.00036618984 -0.01690931 0.00070466084 -0.0024458412
-0.025846725 0.00021871783 -0.010187575 0.005818832 -0.0081156455 0.029605212 0.04328757 -0.03299409
-0.031122413 0.039529514 -0.012965375 0.02975354 -0.030951621 -0.052089516 0.046375405 0.07839156
-0.038512334 -0.00091772 -0.019985694 -0.014694237 -0.062005952 0.016902097 0.04083776 -0.0037676636
0.06612156 0.056824327 -0.04355017 -0.01431057 0.034509122 0.06787634 0.010974411 -0.013851308
0.097375914 0.0012642165 0.08387384 0.07475302 0.020546606 0.004487112 0.02151162 0.0022057267
0.0064295377 0.04860008 -0.010164802 0.05001775 0.008608182 0.000972036 0.01924869 -0.043157957
0.03231152 -0.028929582 0.008454369 0.045800235 0.02111043 0.04949841 -0.03972251 -0.0034701831
-0.06676015 0.07288289 -0.0032949534 0.047230106 -0.008067209 -0.0052354513 0.11208363 -0.025670255
0.00703836 0.006454335 0.03218912 0.054661334 0.023120219 -0.01606126 -0.011971773 -0.083122164
0.02876795 -0.022214098 0.021052133 -0.00983311 0.03490383 -0.019473504 -0.060785647 -0.019454945
-0.012319914 0.022163766 0.029516105 -0.05012346 -0.026978228 -0.0025292882 -0.008604691 -0.056472488
-0.008663074 -0.004495576 -0.016030524 0.027002532 0.045956 0.020025626 -0.02362733 -0.044111956
0.03380703 -0.040494565 -0.05246117 0.0018863253 -0.0011501147 -0.013155095 -0.01887033 0.016675655
0.05840103 0.007021702 0.03378348 -0.06890457 -0.0018493073 -0.059857104 -0.016149318 0.032024343
-0.030439 -0.003512017 -0.007695408 -0.020416701 0.014888645 0.03352794 0.05214874 -0.050620064
-0.039645314 0.021823915 0.010417399 -0.03363232 0.032525603 0.006965708 0.0073506655 0.065204225
0.0019147524 -0.010908828 0.03521788 0.026477076 -0.026332252 -0.016981745 0.018630482 -0.029413607
-0.027383883 0.03868275 0.025897969 -0.036221378 0.02679548 0.045790836 -0.047281515 -0.018611358
0.050026428 -0.06880254 -0.049150288 -0.01606085 0.029394204 -0.009117264 0.048220795 0.02800027

bottleneck.bias f4 [256]
00000000: 6112 8331 fc17 b230 c785 5131 f294 d9b0
00000010: 208b 7e31 a50b 0e32 c67a 2bb1 60ad b52f
00000020: dbe4 90b2 37e5 66b1 ab19 3231 4acb 6db2
00000030: f625 37b2 f8e8 b6b2 c288 7db1 f9ab 13b0
00000040: f505 0d32 a000 3bb2 6478 3f32 163f 1ab2
00000050: f22b 87b1 580d 3cb2 108c 9631 9b50 d331
00000060: 076b cd31 e8e9 28b1 6397 e031 5d90 41b2
00000070: d545 48b1 da91 27b2 7be6 f832 9252 dcb0
00000080: 389c 812f 8cc1 d731 50bc 08b1 caf4 66b0
00000090: e340 3232 c991 83b2 5895 f230 dc0c 7e32
000000a0: 6090 9cb1 829d ddb1 842a c132 21ad f830
000000b0: 52ed 02b1 71ae feb1 1086 a831 ed2c 8931
000000c0: 42af 4432 b7ee 1a32 d874 5bb1 35e2 bfb1
000000d0: 41eb 8030 be7a 60b0 9452 86b1 27ac 6631
000000e0: 0d43 d5b1 dafd 27b2 c17f 03b1 408d 81b0
000000f0: a2f0 26b1 67c2 aa31 2eb2 b3b2 4068 3cb2
00000100: 7809 ce30 2492 35b1 47c8 87b1 9f3e ccb1
00000110: 5da9 adb1 18af 5f32 d6af a931 dc3e 7031
00000120: 83f7 abb1 6e42 d62e 3192 d1b1 2885 3032
00000130: d45f 0230 35f9 2db2 85b6 b032 8f12 ceb1
00000140: 258f 89b2 ac59 f3b1 f1a0 09b2 4912 e130
00000150: 4679 7932 cf7a 03b2 1b58 7bb2 881e 0132
00000160: 9d75 1f32 b1dc 87b2 d4f1 23b2 3ad8 c330
00000170: 7558 4432 9a63 3ab2 8982 beb1 fdd8 6931
00000180: dd8a 4ab2 55cf a8b2 efdd f6b0 4727 d3b1
00000190: 8512 bfb0 f5d2 b532 5b96 aa32 8795 32b2
000001a0: 549c 6e31 851d 82b0 cce1 04b1 f7dd 9631
000001b0: ca8c e430 fe09 f1b1 7cb0 46b1 473e d631
000001c0: 2e21 a8b1 7834 26b2 e1f2 cdb2 32e5 74b2
000001d0: c261 e331 b9d0 1a32 6d7b b3b1 5a73 76b2
000001e0: 30b9 0a32 242b 0831 13e3 b0b2 9ac6 7331
000001f0: e5d4 4cb1 1e00 57b2 e998 6f31 8eaa 51af
00000200: 028d 9931 f031 e430 c32d 1db1 6935 bcb0
00000210: b92a a8b2 20bf 45b1 e385 f6b1 e65d c532
00000220: 69af bb31 8b97 54b2 1477 c7b1 93b6 aeb2
00000230: 0784 46b2 4073 ef30 69c8 20b0 a5b0 f131
00000240: 3cd3 12b2 96b9 be31 6ace 4bb1 6d4d 45b0
00000250: deb2 50b1 312b 6332 e8eb 2432 3753 ec31
00000260: 7093 deb0 c986 4632 d67f d6b1 4fa8 80b0
00000270: 6dc5 9db1 9eff dbb2 ec69 9332 4ed6 44b1
00000280: e1d1 cbb0 6da9 1db1 d188 deb0 717d a531
00000290: 48b6 bab0 028f a0b0 cbf3 7d32 6a52 3632
000002a0: ba4b 9cb2 000e 3eb2 1bae 5ab2 5d27 ee31
000002b0: aa71 9331 b3d5 a532 d978 79b1 6a07 3932
000002c0: 3bf7 4130 74a4 e8b1 e3dc c831 8bf4 b0b2
000002d0: b34b 57b1 9e80 e331 de0b 17b1 754c 3d31
000002e0: 78b2 17b2 0954 34b0 eca0 0b32 6531 2a32
000002f0: 7b29 9eb2 97ce a731 0c25 b031 2773 4932
00000300: 5df8 8131 8dd2 2ab2 905f 1e32 6574 0a32
00000310: 8bb7 bdb1 7346 64b1 1008 cb31 e442 0532
00000320: 6970 3ab2 0381 3ab2 2011 0732 b8a1 90b0
00000330: 7ec6 a231 d8b6 79b2 d433 3232 2c54 c731
00000340: 99f0 a8b1 9a30 3331 338c 4f32 9611 c332
00000350: 53dc 7f32 fcb1 6e31 398a dc31 8a89 5831
00000360: 4fa7 1cb1 45c5 4332 e2ff ddb1 50b0 21b2
00000370: 5f26 0c32 ebfa 68b1 f2c1 4831 ece1 7732
00000380: 9f26 ee31 e104 3fb2 1ed8 0a32 f724 e8b0
00000390: 6f23 80b1 f5de 0eb2 53fc 0ab2 c7f2 7ab2
000003a0: ffa0 9132 41bc 1ab2 a61f 8a32 2605 1fb2
000003b0: e500 4f32 fe83 9d32 f57a 0331 2ba5 1bb2
000003c0: 9105 cf31 5324 2732 bfde 8530 aab2 8ab2
000003d0: b034 922e a70d 27b2 1b83 1632 e5e2 1cb2
000003e0: 7520 0d31 63bc a7b1 e40f c5b1 98ee cd31
000003f0: 200a ee31 434a 2eb2 ae9d 5eb1 2137 b6b1
3.8146912e-09 1.2958021e-09 3.0489546e-09 -1.5831161e-09 3.7040948e-09 8.2681355e-09 -2.4953564e-09 3.3046899e-10
-1.6867878e-08 -3.3599699e-09 2.5917e-09 -1.3841438e-08 -1.0660633e-08 -2.129353e-08 -3.6894083e-09 -5.3722676e-10
8.208635e-09 -1.0884975e-08 1.1145037e-08 -8.978324e-09 -3.934013e-09 -1.0946074e-08 4.381498e-09 6.150072e-09
5.978453e-09 -2.4580178e-09 6.5364687e-09 -1.1266903e-08 -2.9143525e-09 -9.753842e-09 2.897581e-08 -1.6030575e-09
2.3575963e-10 6.2793273e-09 -1.9897648e-09 -8.402138e-10 1.0375717e-08 -1.5316703e-08 1.7650263e-09 1.478767e-08
-4.556611e-09 -6.449853e-09 2.2487491e-08 1.8093581e-09 -1.905239e-09 -7.4122046e-09 4.9046847e-09 3.9923322e-09
1.14485506e-08 9.018257e-09 -3.1935112e-09 -5.5845484e-09 9.380089e-10 -8.166515e-10 -3.9093013e-09 3.3567262e-09
-6.2067387e-09 -9.7783985e-09 -1.9135629e-09 -9.426131e-10 -2.4292963e-09 4.969752e-09 -2.091937e-08 -1.0966744e-08
1.4991164e-09 -2.6422038e-09 -3.951786e-09 -5.9443006e-09 -5.054217e-09 1.302012e-08 4.9385376e-09 3.4960328e-09
-5.004894e-09 9.7433936e-11 -6.0993206e-09 1.02748245e-08 4.7429904e-10 -1.01265885e-08 2.0572097e-08 -5.997499e-09
-1.6013994e-08 -7.0824253e-09 -8.011043e-09 1.6376102e-09 1.4521282e-08 -7.653127e-09 -1.4630156e-08 7.51573e-09
9.28176e-09 -1.5816427e-08 -9.542834e-09 1.4249573e-09 1.1428814e-08 -1.0849272e-08 -5.544568e-09 3.4029306e-09
-1.1789521e-08 -1.9652058e-08 -1.7961933e-09 -6.1453735e-09 -1.3902343e-09 2.1167105e-08 1.9858978e-08 -1.0394962e-08
3.472242e-09 -9.467135e-10 -1.9336879e-09 4.390809e-09 1.6629198e-09 -7.015159e-09 -2.8913112e-09 6.2353e-09
-4.8932156e-09 -9.674402e-09 -2.397559e-08 -1.4254782e-08 6.6176833e-09 9.011438e-09 -5.2236175e-09 -1.43453125e-08
8.074764e-09 1.9815127e-09 -2.0592358e-08 3.5474046e-09 -2.9806924e-09 -1.2514674e-08 3.4865997e-09 -1.9069032e-10
4.468917e-09 1.6603376e-09 -2.287252e-09 -1.369398e-09 -1.9577202e-08 -2.8775915e-09 -7.1747635e-09 2.2976518e-08
5.462358e-09 -1.2374481e-08 -5.8052e-09 -2.0339291e-08 -1.1555136e-08 1.7422295e-09 -5.849246e-10 7.0341053e-09
-8.546348e-09 5.5508265e-09 -2.965772e-09 -7.177821e-10 -3.0369658e-09 1.322296e-08 9.599695e-09 6.8779644e-09
-1.619453e-09 1.15557635e-08 -6.242753e-09 -9.361062e-10 -4.591746e-09 -2.5611197e-08 1.716122e-08 -2.8643572e-09
-1.4829845e-09 -2.2942814e-09 -1.6191511e-09 4.816393e-09 -1.3585089e-09 -1.1682177e-09 1.478197e-08 1.0612533e-08
-1.8195227e-08 -1.1062639e-08 -1.2728857e-08 6.9311867e-09 4.291185e-09 1.9305707e-08 -3.6302963e-09 1.0770103e-08
7.0564327e-10 -6.770785e-09 5.845878e-09 -2.0600302e-08 -3.1329648e-09 6.6211916e-09 -2.1980138e-09 2.754658e-09
-8.829936e-09 -6.560304e-10 8.127454e-09 9.906533e-09 -1.8412484e-08 4.8838262e-09 5.126486e-09 1.17259225e-08
3.7826298e-09 -9.943176e-09 9.218539e-09 8.059122e-09 -5.5214904e-09 -3.3218412e-09 5.908994e-09 7.756828e-09
-1.0852184e-08 -1.0855959e-08 7.861928e-09 -1.0523342e-09 4.7373865e-09 -1.4535281e-08 1.0372748e-08 5.8012315e-09
-4.9167963e-09 2.6075555e-09 1.2080863e-08 2.2708985e-08 1.48930495e-08 3.473473e-09 6.418557e-09 3.1510319e-09
-2.2796092e-09 1.1395348e-08 -6.461037e-09 -9.411522e-09 8.157797e-09 -3.3903074e-09 2.9214076e-09 1.4428661e-08
6.9311024e-09 -1.1118773e-08 8.081797e-09 -1.6890728e-09 -3.7293186e-09 -8.316182e-09 -8.090029e-09 -1.4607116e-08
1.6953434e-08 -9.006784e-09 1.6079706e-08 -9.256189e-09 1.2049189e-08 1.8337229e-08 1.9132902e-09 -9.059742e-09
6.0251257e-09 9.7289385e-09 9.740332e-10 -1.6146561e-08 6.6486705e-11 -9.723784e-09 8.760959e-09 -9.131985e-09
2.053665e-09 -4.8817568e-09 -5.735261e-09 5.99341e-09 6.9278627e-09 -1.0145018e-08 -3.2394882e-09 -5.3031646e-09
