ckps/source/uda/domainnet/sketch_2/source_C.pt (torch, 358186 bytes, 3 tensors)

fc.bias f4 [345]
0.0051552295 -0.009572528 0.015439142 0.009963735 0.0039447607 0.015386022 -0.0144167505 -0.0030864256
0.006077834 -0.017387126 0.0024287961 -0.023359831 -0.019383267 0.005152189 0.013703093 0.004840943
0.01986474 -0.023055451 0.018014295 -0.0074509555 -0.00052294426 -0.0074197836 -0.0008361148 -0.009586637
-0.006662094 -0.0037024068 -0.0028167989 0.008861838 -0.019114323 0.019215964 -0.004189662 -0.008469842
-0.0039976886 0.004728072 -0.013584944 -0.011015507 -0.010536521 0.001109931 0.0013643937 -0.0017127517
0.014538795 -0.013777686 0.0013419498 -0.001823777 -0.007526173 -0.0072879517 0.00886992 -0.0035724007
-0.00067296845 0.016662017 -0.008024716 -0.004007473 0.009989743 0.011060991 0.0065854643 0.008913195
0.0021708258 0.019278105 0.005180501 -0.0062086484 -0.013634114 -0.009750681 0.020691646 -0.0024441008
-0.009138955 0.020181078 0.00050680974 0.014247281 -0.0031431282 0.022994446 0.00613366 -0.0069041965
0.016431542 0.0060641947 0.003963276 0.01251468 0.013020567 0.016412241 0.009510903 -0.0055404566
0.008057371 0.017765798 -0.003061286 -0.020248929 -0.010517571 0.003722991 0.007497252 -0.02012803
0.00065628515 0.00929751 -0.0066401493 0.0066510444 0.0059742113 -0.0028280646 0.0020653664 -0.01717319
0.017767338 -0.0025241142 0.0006828715 -0.0041761314 -0.005988441 -0.014441264 -0.014913869 0.015759371
-0.0060427063 0.005295989 0.013864783 0.013139104 -0.01452152 -0.0056435443 0.0056089186 0.005922567
-0.0093020685 -0.0005470609 -0.011140345 -0.00065450574 0.0033310207 0.002965646 -0.014512915 0.0006188528
-0.02032576 -0.010923506 0.0037804793 -0.013635101 0.00931564 -0.002914823 0.0071582943 -0.013067083
-0.0060337856 0.013098589 -0.015734458 0.0049927277 0.008624254 0.0014805059 -0.002118611 0.0062574386
-0.0067364546 -0.013437225 0.009367519 0.0062198723 0.0011696869 0.01095599 0.009231749 -0.00279774
-0.0024816552 -0.007284766 -0.010043891 -0.0023793385 0.011863729 0.020766065 0.0021574863 0.0061301547
0.014483962 0.0009745661 -0.0022833897 -0.005134797 0.0034783757 -0.008195888 -0.007652495 0.01191141
-0.011698588 0.006215509 -0.00787614 -0.014339446 -0.012362713 0.010983074 -0.0077775326 -0.01952162
-0.010052984 0.010453795 -0.010680097 0.01527682 -0.008178283 0.0146159725 0.0058103395 0.003450937
0.0052569034 -0.004144872 0.00025323112 -0.0021049718 -0.009990654 2.6035283e-05 0.0028959971 -0.013030833
-0.010702826 0.00584979 -0.008811643 -0.001836398 -0.000505111 0.006276439 -0.0040825093 -0.013762695
-0.013102999 -0.0025766762 -0.0019690995 -0.002162708 0.013123404 0.00024172844 0.008394224 -0.001519105
-0.013945076 -0.0066266907 -0.009661484 -0.007189097 -0.0062635955 0.0058755265 0.016675709 -0.0054142964
-0.0023140474 0.0079114875 -0.012996916 0.00840029 -0.008809535 -0.0059506693 -0.006237699 0.004434513
0.0058477013 0.011855316 0.0019066475 0.015946342 0.008303681 -0.0067582014 0.0061021163 -0.007340119
0.024009535 -0.00866253 -0.012914434 -0.008533072 -0.000882283 -0.012570897 -0.0108581865 0.004338101
-0.0049028224 0.006215942 -0.01530372 -0.007089187 0.008792721 -0.007831031 -0.01018622 0.010807767
-0.013318966 0.008502575 0.0002543757 0.015436696 -0.016106285 0.006184057 -0.007940328 0.0041144015
-0.0054593706 -0.01374088 0.004882882 0.010138431 -0.009028824 -0.005393595 -0.0245871 -0.0033452406
00000000: 33ed a83b 18d6 1cbc 74f4 7c3c ef3e 233c
00000010: 0d43 813b a715 7c3c 3c34 6cbc a145 4abb
00000020: 9128 c73b 726f 8ebc 702c 1f3b 1e5d bfbc
00000030: a8c9 9ebc b2d3 a83b f082 603c c6a0 9e3b
00000040: 61bb a23c c9de bcbc b792 933c 2527 f4bb
00000050: 3216 09ba a821 f3bb b72e 5bba 4511 1dbc
00000060: b24d dabb 14a4 72bb 0b9a 38bb 3e31 113c
00000070: a495 9cbc cc6a 9d3c 6f49 89bb 18c5 0abc
00000080: 0bff 82bb f1ed 9a3b 6393 5ebc 637a 34bc
00000090: 5fa1 2cbc 1b7b 913a 75d5 b23a 697e e0ba
000000a0: 2034 6e3c cebb 61bc 5de4 af3a cd0b efba
000000b0: 1d9e f6bb c5cf eebb 2453 113c f01e 6abb
000000c0: 266a 30ba c87e 883c 197a 03bc 1f51 83bb
000000d0: 05ac 233c 2939 353c e1ca d73b a608 123c
000000e0: 6a44 0e3b 1eed 9d3c 31c1 a93b eb71 cbbb
000000f0: 9e61 5fbc 52c1 1fbc 8781 a93c 352d 20bb
00000100: 8ebb 15bc ca52 a53c 6ddb 043a 6d6d 693c
00000110: f1fc 4dbb d95e bc3c dffc c83b 993c e2bb
00000120: 719b 863c 27b6 c63b 5ede 813b 5f0a 4d3c
00000130: 3754 553c f772 863c 9ed3 1b3c b88c b5bb
00000140: 1003 043c 9489 913c db9f 48bb 15e1 a5bc
00000150: e451 2cbc 6dfd 733b 82ab f53b 8ae3 a4bc
00000160: 8d0a 2c3a 9554 183c 9c95 d9bb 01f1 d93b
00000170: 51c3 c33b 0d57 39bb 195b 073b caae 8cbc
00000180: cf8c 913c 9c6b 25bb bb02 333a eed7 88bb
00000190: af3a c4bb 0d9b 6cbc 4d59 74bc cc19 813c
000001a0: e501 c6bb fa89 ad3b 1d29 633c 6545 573c
000001b0: abeb 6dbc 7bed b8bb 05cb b73b 1812 c23b
000001c0: b467 18bc a368 0fba fe85 36bc 2393 2bba
000001d0: 414d 5a3b 495b 423b 94c7 6dbc 823a 223a
000001e0: 3582 a6bc 81f8 32bc ebc1 773b c265 5fbc
000001f0: a0a0 183c 9d06 3fbb 2090 ea3b 5217 56bc
00000200: 10b7 c5bb 779b 563c 8de5 80bc 099a a33b
00000210: be4c 0d3c 890d c23a 65d8 0abb 330b cd3b
00000220: 7abd dcbb ce27 5cbc 397a 193c 12d0 cb3b
00000230: 2e50 993a c180 333c c340 173c 4a5a 37bb
00000240: 44a3 22bb 0cb5 eebb 228f 24bc adee 1bbb
00000250: 1660 423c 981d aa3c 9d64 0d3b 77df c83b
00000260: 244e 6d3c 067a 7f3a eca4 15bb cd41 a8bb
00000270: 76f5 633b 0c48 06bc c8c1 fabb 1328 433c
00000280: 6fab 3fbc 78ab cb3b ed0a 01bc ffef 6abc
00000290: fa8c 4abc 5af2 333c acda febb ceeb 9fbc
000002a0: 45b5 24bc 6546 2b3c 93fb 2ebc a14b 7a3c
000002b0: 35fe 05bc d577 6f3c a964 be3b 1e29 623b
000002c0: 1a42 ac3b b5d1 87bb 1bc4 8439 91f3 09bb
000002d0: d7af 23bc 5866 da37 c5ca 3d3b 467f 55bc
000002e0: e85a 2fbc 98af bf3b b65e 10bc 4bb3 f0ba
000002f0: 6d69 04ba 96aa cd3b 92c6 85bb ed7c 61bc
00000300: f6ad 56bc 74dd 28bb 020c 01bb 38bc 0dbb
00000310: 8c03 573c 7c78 7d39 ed87 093c b51c c7ba
00000320: e379 64bc b624 d9bb 334b 1ebc 8492 ebbb
00000330: d93e cdbb 7d87 c03b 7f9b 883c 696a b1bb
00000340: 46a7 17bb 2f9f 013c 04f1 54bc 5fa1 093c
00000350: de55 10bc d5fd c2bb 9d65 ccbb 644f 913b
00000360: 139e bf3b cd3c 423c 79e8 f93a e7a1 823c
00000370: 2a0c 083c e773 ddbb 43f4 c73b 6285 f0bb
00000380: a5af c43c 49ed 0dbc 1097 53bc 4cce 0bbc
00000390: 0349 67ba 2af6 4dbc 89e6 31bc a126 8e3b
000003a0: dba7 a0bb 1aaf cb3b 74bc 7abc 694c e8bb
000003b0: 580f 103c ba4d 00bc 1ae4 26bc 0f13 313c
000003c0: cb37 5abc 624e 0b3c ba5d 8539 32ea 7c3c
000003d0: 54f1 83bc a1a3 ca3b 2618 02bc 1ad2 863b
000003e0: 85e4 b2bb 6e21 61bc 9500 a03b a91b 263c
000003f0: a2ed 13bc c1bc b0bb e36a c9bc d33b 5bbb

fc.weight_g f4 [345, 1]
0.6655922 0.9258114 0.78547657 0.7786853 0.92843664 0.73021156 0.7598688 0.7794742
0.8194921 0.9531553 0.85880756 0.9232506 0.868697 0.82447493 0.7103578 0.78632176
0.5764882 0.8501418 0.7923121 0.86487186 0.81590134 0.86111134 0.7265379 0.8265001
0.9808008 0.8319551 0.80118096 0.8723453 0.9538441 0.85234195 0.9160042 0.9286453
0.8588758 0.68428934 0.83140063 0.86214846 0.85611695 0.80500025 0.95793706 0.97720885
0.90271896 0.93249613 0.8668242 0.83182305 0.9366043 0.8719555 0.84442663 0.84401375
1.1407663 0.836208 0.7303724 0.7570073 0.6180105 0.6455275 0.75815654 0.7914447
0.7670104 0.7650468 0.6781588 0.79479116 0.8327576 0.78225976 0.6534609 0.7135591
0.81260204 0.57158905 0.7003631 0.6048328 0.79372525 0.6158163 0.6516168 0.8611358
0.6503717 0.65927047 0.792853 0.6150396 0.6210835 0.61989856 0.69709814 0.79371464
0.69729173 0.56631136 0.81210124 0.94978654 0.80832267 0.8339076 0.7771442 0.98807764
0.7548876 0.62747157 0.7512098 0.978375 0.72591054 0.81123585 0.9259797 0.90843254
0.5513046 0.82483083 0.861774 0.936892 0.865901 0.8526162 0.87185663 0.8288579
0.83550674 0.73960644 0.9656308 0.8934537 1.0046154 0.72036177 0.9367245 0.7895048
0.95374316 0.7880885 0.78398234 0.9906925 0.9752544 0.7390854 0.7867731 0.78971064
0.96581656 0.94873565 0.78404826 0.9157757 0.84646404 0.8799673 0.8321873 0.767614
0.8231384 0.8653353 0.92728335 1.1480085 0.8551171 0.8512175 0.7915599 0.79206336
0.76659596 0.92625034 0.6148167 0.7601952 0.8205226 0.73191726 0.839797 0.8972522
0.78415495 0.7412091 0.83083636 0.7598008 0.5733376 0.7842146 0.7551217 0.7139927
0.72823554 0.7845694 0.7936745 0.7799069 0.8543692 0.7135608 0.7909481 0.7404809
0.85980994 0.7028318 0.94586205 0.84197724 0.9077243 0.64917976 0.9271397 0.9856086
0.8286826 0.94210315 0.76344556 0.9070561 0.7202864 0.58908355 0.8772583 0.79316413
0.8242186 0.78463334 0.8480712 0.81307244 0.8757222 0.68685097 0.869759 0.9051432
0.8357892 0.8033364 0.83364105 0.8462334 0.80274224 0.85014915 0.8361952 0.7983003
0.78920674 0.8077047 0.8802902 0.8916391 0.5873278 0.75744635 0.7189566 0.7486386
0.78671163 0.8296571 0.7925544 0.8432683 0.8235383 0.7726994 0.60862917 0.7677904
0.70436317 0.7628627 0.8298725 0.8398181 0.9154381 0.7446209 0.81461793 0.8243098
0.6979395 0.5835934 0.85055107 0.72050637 0.77630717 0.79045224 0.9194706 0.7693101
0.72729445 0.8274533 0.82979417 0.76293963 0.76355106 0.7846658 0.8059312 0.6851244
0.7469804 0.794354 0.9223028 0.7208437 0.9534792 0.8646975 0.9275968 0.6030534
0.82823515 0.6132283 0.8194547 0.7199386 0.76385236 0.71756107 0.8105216 0.9591894
0.7903359 0.81734145 0.9176415 0.94438845 1.0559417 1.0427428 1.0305799 0.8796511
00000000: 4064 2a3f fa01 6d3f fe14 493f eb57 473f
00000010: 06ae 6d3f 25ef 3a3f c386 423f 9f8b 473f
00000020: 3cca 513f fc01 743f d0da 5b3f 275a 6c3f
00000030: ed62 5e3f ca10 533f 02da 353f 624c 493f
00000040: bb94 133f e5a2 593f f7d4 4a3f 3e68 5d3f
00000050: e9de 503f cb71 5c3f 63fe 393f 8395 533f
00000060: c315 7b3f 02fb 543f 321a 4d3f 0652 5f3f
00000070: 202f 743f 1533 5a3f 407f 6a3f b3bb 6d3f
00000080: 49df 5b3f 962d 2f3f acd6 543f c3b5 5c3f
00000090: 7b2a 5b3f 7f14 4e3f 5d3b 753f 5c2a 7a3f
000000a0: 9718 673f 11b8 6e3f 31e8 5d3f 5bf2 543f
000000b0: 4dc5 6f3f 7a38 5f3f 582c 583f 4911 583f
000000c0: a104 923f ba11 563f b0f9 3a3f 3bcb 413f
000000d0: f035 1e3f 4a41 253f 8c16 423f 1f9c 4a3f
000000e0: cb5a 443f 1bda 433f d19b 2d3f 6f77 4b3f
000000f0: 9a2f 553f 2d42 483f 3749 273f cfab 363f
00000100: b006 503f a953 123f ff4a 333f 53d6 1a3f
00000110: 9431 4b3f 23a6 1d3f 5cd0 263f 6573 5c3f
00000120: c27e 263f f3c5 283f 6af8 4a3f 3c73 1d3f
00000130: 54ff 1e3f acb1 1e3f 0675 323f e230 4b3f
00000140: b681 323f c8f9 103f dee5 4f3f 3625 733f
00000150: 3cee 4e3f f87a 553f ecf2 463f a8f2 7c3f
00000160: 5040 413f faa1 203f 494f 403f c976 7a3f
00000170: 46d5 393f 27ad 4f3f 010d 6d3f 098f 683f
00000180: 4c22 0d3f 1d28 533f 399d 5c3f 27d8 6f3f
00000190: b0ab 5d3f 0e45 5a3f ff31 5f3f 0830 543f
000001a0: c5e3 553f d956 3d3f 9533 773f 62b9 643f
000001b0: 3d97 803f a169 383f 2dcd 6f3f fd1c 4a3f
000001c0: 8328 743f 2bc0 493f 11b3 483f 069e 7d3f
000001d0: 46aa 793f b334 3d3f f669 493f 7a2a 4a3f
000001e0: c13f 773f 57e0 723f 63b7 483f 4770 6a3f
000001f0: deb1 583f 8945 613f 3a0a 553f 5a82 443f
00000200: 33b9 523f 9d86 5d3f 7162 6d3f f1f1 923f
00000210: f4e8 5a3f 64e9 593f aba3 4a3f aac4 4a3f
00000220: a23f 443f be1e 6d3f a164 1d3f 279c 423f
00000230: c50d 523f ee5e 3b3f f0fc 563f 52b2 653f
00000240: 61be 483f e1bf 3d3f b1b1 543f 4e82 423f
00000250: 41c6 123f 4ac2 483f a84f 413f 3ac8 363f
00000260: a56d 3a3f 8ad9 483f 412e 4b3f fba7 473f
00000270: f1b7 5a3f ecab 363f 937b 4a3f 2890 3d3f
00000280: 811c 5c3f c9ec 333f 0424 723f d28b 573f
00000290: 9f60 683f a530 263f 0759 6d3f d850 7c3f
000002a0: 8b24 543f ac2d 713f 2b71 433f d434 683f
000002b0: b164 383f 2ece 163f 0094 603f ce0c 4b3f
000002c0: fdff 523f bbdd 483f 321b 593f 8425 503f
000002d0: 552f 603f 77d5 2f3f 87a8 5e3f 77b7 673f
000002e0: 48f6 553f 74a7 4d3f 8069 553f c1a2 583f
000002f0: 8480 4d3f 60a3 593f e310 563f 695d 4c3f
00000300: 7409 4a3f bcc5 4e3f b35a 613f 7642 643f
00000310: 1d5b 163f 01e8 413f 8a0d 383f c7a6 3f3f
00000320: ef65 493f 6864 543f d8e4 4a3f 6ee0 573f
00000330: 68d3 523f a1cf 453f 1fcf 1b3f e98d 443f
00000340: 2551 343f f84a 433f 8672 543f 52fe 563f
00000350: 275a 6a3f 7a9f 3e3f cd8a 503f f805 533f
00000360: 2aac 323f 6166 153f b7bd 593f 1b73 383f
00000370: 11bc 463f 145b 4a3f 6d62 6b3f 82f1 443f
00000380: f82f 3a3f fbd3 533f 646d 543f 0350 433f
00000390: 1578 433f dcdf 483f 8251 4e3f 5064 2f3f
000003a0: 1c3a 3f3f c95a 4b3f 091c 6c3f 3689 383f
000003b0: 3617 743f d15c 5d3f fc76 6d3f b561 1a3f
000003c0: 3807 543f 88fc 1c3f c9c7 513f e54d 383f
000003d0: d48b 433f 15b2 373f 587e 4f3f 708d 753f
000003e0: 7453 4a3f 4a3d 513f 8eea 6a3f 71c3 713f
000003f0: 1929 873f 9978 853f 0bea 833f d130 613f

fc.weight_v f4 [345, 256]
-0.021745125 -0.015420103 0.004820361 -0.006169477 -0.023248086 0.024103578 0.0033850065 -0.0066267196
0.01287484 0.00832505 -0.015471685 0.005596237 0.019011436 -0.0046494436 -0.0028443641 -0.014897449
-0.021835482 0.027128767 0.017762475 -0.0137362955 0.0035187579 0.011500137 0.010101531 0.007902645
-0.010531096 0.008356378 -0.017340451 0.012647375 -0.0029108957 0.009973056 -0.0043197596 0.004237662
0.0035342916 -0.016485779 -0.005290538 0.0007758349 -0.015057575 0.019235048 -0.01695307 -0.0051986654
-0.013649924 -0.009540281 -0.00095802 -0.0018439053 0.004559467 0.016173689 -0.001651393 -0.014930654
0.005590844 0.0036943536 -0.0032901599 -0.001822245 0.004147925 -0.013316257 -0.004040679 -0.00935252
0.017196802 -0.014318091 0.005970971 -0.0013824091 -0.0036593853 0.0062385444 0.001890032 0.00026980395
-0.003762393 -0.0036168392 0.02521969 -0.01923991 -0.008310168 0.003966999 0.008276932 0.0026565685
0.014229883 0.016135452 -0.009481774 -0.0046479306 -0.002367698 -0.028555678 -0.0105357515 -0.0016640769
-0.009143673 0.009199094 0.012838438 -0.0054483837 0.010525468 -0.014139833 -0.0061931335 -0.0074344794
0.010754572 -0.014225747 -0.004873 -0.009290326 0.010546665 -0.0110839065 0.020107947 0.0077935387
-0.014795137 0.01092607 0.014620598 0.008524595 0.0088274935 -0.013132121 -0.00015422529 0.0120783
0.012734961 -0.0035806973 -0.010195111 -0.00784575 -0.0025714643 -0.009169642 0.007754387 -0.013840608
-0.0041980958 -0.008683514 0.008874554 -0.0013326415 -0.00080117217 0.007970447 -0.0014739342 -0.0062296046
-0.0053254734 0.0046082954 0.011669744 0.0108513255 -0.01854443 0.020443188 0.016458962 0.021874154
0.012744499 -0.004100156 -0.012376978 0.0183788 -0.01365255 0.00041408313 -0.01993763 0.009070048
0.002295509 0.020079205 -0.0077877482 0.01428046 0.01250386 0.0054595666 -0.013853043 -0.009488096
0.006586469 0.008523353 0.011708617 -0.0045783664 -0.007856462 -0.018631864 -0.004914463 -0.013646097
0.008551492 0.011077255 0.0091097 0.0038423485 0.004138723 -0.005215735 0.0032800627 0.009904745
0.018321138 0.011091538 0.007287302 0.008467505 -0.0088436585 -0.024617042 0.0007791725 0.004828365
-0.019584237 0.018961847 -0.008808912 -0.02401651 -0.022768572 -0.027025312 -0.012715468 0.013441042
-0.015056929 0.02634221 -0.019391317 -0.016215367 -0.011764797 0.0012402044 0.013604708 0.013707595
-0.0014049131 -0.019654868 -0.015148675 -0.01540153 -0.017096698 0.013795053 0.0034346795 0.000825977
-0.006775034 0.003346269 0.014335695 0.0052151154 0.01779115 -0.014233803 -0.0046690265 -0.0043670153
0.008940369 0.0108745005 0.0060551 0.019165458 -0.0017429412 -0.017548334 -0.005538855 0.0009530677
0.010540431 -0.01344205 0.0078878505 -0.025071172 -0.012468422 -0.00890868 0.015725037 -0.011043719
0.017503705 0.0019910391 0.0006129692 -0.011476826 -0.008330281 -0.014025807 0.0048963083 -0.017929388
-0.003135449 0.020793447 0.0012987066 0.004325574 0.0032485204 0.0062047523 -0.0058881897 -0.013522507
0.023645088 -0.006876301 0.005252606 0.0055911774 0.008266873 0.0022466853 0.01337429 -0.0179342
0.022567945 -0.004228563 0.009712245 -0.022777831 0.008606813 0.011759705 -0.0049361177 0.011940241
-0.015243259 0.009303164 0.0066062976 -0.009158773 0.010888635 -0.010868653 -0.009729607 0.0012238675
00000000: d522 b2bc 9aa4 7cbc 1ef4 9d3b 5329 cabb
00000010: c572 bebc de74 c53c fcd6 5d3b f424 d9bb
00000020: fef0 523c ca65 083c f37c 7dbc a360 b73b
00000030: dfbd 9b3c 5c5a 98bb 8368 3abb 6e14 74bc
00000040: 53e0 b2bc 263d de3c 9c82 913c 330e 61bc
00000050: f69a 663b 126b 3c3c e480 253c 187a 013c
00000060: 9e8a 2cbc 31e9 083c 900d 8ebc f036 4f3c
00000070: bac4 3ebb 0766 233c c58c 8dbb 16dc 8a3b
00000080: 939f 673b 2f0d 87bc 405c adbb 6661 4b3a
00000090: 0cb4 76bc d292 9d3c 2ae1 8abc 9159 aabb
000000a0: eea3 5fbc d74e 1cbc a223 7bba 32af f1ba
000000b0: 9567 953b af7e 843c 8e73 d8ba b49f 74bc
000000c0: 6633 b73b f81c 723b b99f 57bb 65d8 eeba
000000d0: 51eb 873b 6e2c 5abc ac67 84bb 503b 19bc
000000e0: 4fe0 8c3c 6d96 6abc 23a8 c33b f431 b5ba
000000f0: 4cd2 6fbb b46c cc3b f3ba f73a 7974 8d39
00000100: 7b92 76bb 7e08 6dbb 8699 ce3c 049d 9dbc
00000110: 5f27 08bc 99fd 813b f89b 073c d319 2e3b
00000120: 7524 693c 7f2e 843c 7159 1bbc ab4d 98bb
00000130: 612b 1bbb 99ed e9bc 259e 2cbc 281d daba
00000140: 58cf 15bc ccb7 163c 5058 523c 5b88 b2bb
00000150: 0373 2c3c c2aa 67bc c5ef cabb ef9c f3bb
00000160: f233 303c 1c13 69bc b0ad 9fbb 7436 18bc
00000170: ebcb 2c3c 4699 35bc 6cb9 a43c f160 ff3b
00000180: 4d67 72bc 4203 333c 3c8b 6f3c beaa 0b3c
00000190: 31a1 103c 1c28 57bc 89b7 21b9 10e4 453c
000001a0: 4ca6 503c 22aa 6abb 6509 27bc 768b 00bc
000001b0: 0386 28bb 443c 16bc 8318 fe3b b8c3 62bc
000001c0: 2e90 89bb 4c45 0ebc 9466 113c 07ac aeba
000001d0: c105 52ba 7a96 023c 0631 c1ba b621 ccbb
000001e0: 4f81 aebb 2f01 973b 7432 3f3c c2c9 313c
000001f0: 7dea 97bc 7978 a73c f2d4 863c 6d31 b33c
00000200: 4ece 503c 9a5a 86bb cfc8 4abc 238f 963c
00000210: f2ae 5fbc 4c19 d939 3e54 a3bc 8a9a 143c
00000220: 4070 163b 257d a43c 5e30 ffbb 97f8 693c
00000230: fddc 4c3c 2ae6 b23b e0f7 62bc f673 1bbc
00000240: 4ed3 d73b 89a5 0b3c 80d5 3f3c 1f06 96bb
00000250: 64b8 00bc daa1 98bc 8109 a1bb e193 5fbc
00000260: 8f1b 0c3c 607d 353c da40 153c e9cf 7b3b
00000270: 209e 873b c2e8 aabb 52f6 563b 8347 223c
00000280: 3616 963c 48b9 353c 52ca ee3b 4abb 0a3c
00000290: fee4 10bc aea9 c9bc 6241 4c3a 4337 9e3b
000002a0: 1f6f a0bc e055 9b3c 4153 10bc 46be c4bc
000002b0: 2885 babc 3064 ddbc 8a54 50bc d137 5c3c
000002c0: 56b1 76bc 9ecb d73c 8ada 9ebc 17d6 84bc
000002d0: 23c1 40bc 5b8e a23a 48e6 5e3c d295 603c
000002e0: 1025 b8ba 3f03 a1bc 2632 78bc b356 7cbc
000002f0: 600e 8cbc a504 623c 5c18 613b 6186 583a
00000300: 1b01 debb 144d 5b3b 43e0 6a3c 8fe3 aa3b
00000310: bfbe 913c e634 69bc a2fe 98bb 2e19 8fbb
00000320: a07a 123c f62a 323c dc69 c63b e100 9d3c
00000330: 6773 e4ba 86c1 8fbc 497f b5bb 4ad7 793a
00000340: c6b1 2c3c 0b3c 5cbc 0b3c 013c 0f62 cdbc
00000350: 5a48 4cbc b6f5 11bc cbd1 803c b7f0 34bc
00000360: ee63 8f3c 187c 023b abaf 203a 4c09 3cbc
00000370: bb7b 08bc 80cc 65bc 3671 a03b a7e0 92bc
00000380: 1b7c 4dbb 0557 aa3c 5d39 aa3a 8bbd 8d3b
00000390: 21e5 543b 3c51 cb3b b7f1 c0bb 818d 5dbc
000003a0: 58b3 c13c 9852 e1bb 0d1e ac3b 3236 b73b
000003b0: c771 073c 203d 133b d71f 5b3c beea 92bc
000003c0: 69e0 b83c c28f 8abb 1c20 1f3c 9398 babc
000003d0: 9703 0d3c c7ab 403c 28bf a1bb 00a1 433c
000003e0: ddbe 79bc 4c6c 183c a479 d83b ae0e 16bc
000003f0: 3f66 323c 6f12 32bc ee68 1fbc 2e6a a03a
