ckps/source/uda/domainnet/painting_1/source_C.pt (torch, 358186 bytes, 3 tensors)

fc.bias f4 [345]
000000 ac 4d 17 bc 41 ee 37 bc cd 2e 05 ba 33 3a cd 3a
       -0.009234827 -0.011226238 -0.0005080521 0.0015657604
000010 f9 6b 12 bc 33 bf bf 3c 97 78 57 bc 6e d4 31 bc
       -0.0089368755 0.0234066 -0.013151309 -0.01085387
000020 e0 86 90 ba 3d 06 bc bc de 42 86 bb 7c da 86 bc
       -0.0011026524 -0.022952193 -0.0040973267 -0.016461603
000030 52 89 35 bc b7 14 9f 3b fd 2e 16 bc 31 3a 63 3c
       -0.011080103 0.0048547643 -0.009166476 0.013868854
000040 f3 75 0a bc 4a 59 a7 bc 47 c3 16 bb 73 36 84 bc
       -0.008450973 -0.020428319 -0.0023004578 -0.016139245
000050 82 17 62 bb 91 a3 02 3c 7a 4f b3 bb 85 98 30 bb
       -0.0034498875 0.007973568 -0.005472121 -0.0026946377
000060 44 25 17 bc d9 28 ff 3a aa b3 25 bb cf a4 a8 3c
       -0.009225193 0.001946713 -0.002528409 0.0205864
000070 b3 7e 83 bc 86 9a 19 3c c9 c0 87 3b 9c 43 94 bc
       -0.016051626 0.00937522 0.004142855 -0.018098645
000080 47 19 2d bc c3 cc e1 3b 76 9b 26 3c 50 67 cd 3a
       -0.010565109 0.0068908646 0.010168901 0.0015671048
000090 52 eb f9 3b ea 10 ea bb d8 8f 2f 3b f4 4f 48 bc
       0.0076269293 -0.0071431296 0.0026788618 -0.012226094
0000a0 05 d7 f0 bb b9 64 95 bb bb 41 be 3c 2e f7 14 3c
       -0.007349851 -0.004559126 0.023224702 0.009092135
0000b0 a3 63 8d bb bc c8 0a bb 11 6d 16 3b d7 ad 76 bb
       -0.004314856 -0.0021176776 0.0022953192 -0.0037640238
0000c0 40 83 96 b9 9c a7 d7 3c 2a be 09 bc 1c ab ae bc
       -0.00028708018 0.02632504 -0.008407155 -0.021321826
0000d0 76 12 80 3c 26 63 df 3b ab 4b 05 bc 42 a5 01 bb
       0.015633803 0.0068172393 -0.008135716 -0.001978234
0000e0 1b 94 f2 3a b3 9d 63 bc 10 1f 12 3a 78 15 31 3c
       0.0018507274 -0.013892579 0.00055740867 0.010808341
0000f0 cb db 34 bb 50 c8 cc 3b 75 08 9f bb bb 05 0d 3c
       -0.0027596827 0.006249465 -0.004853303 0.008607323
000100 e2 3c 16 3c 79 ba 39 3b ba 5e ef 3a 89 ae 2d bc
       0.009169789 0.0028339906 0.0018262484 -0.010600694
000110 ba 1d b3 3b 3c 09 18 3c 5b 21 36 bb 1b 1a 72 bc
       0.00546619 0.009279545 -0.0027790878 -0.014776732
000120 4b 41 2f 3b f5 5f 6c 3b 49 49 c2 3b ee 62 0e bc
       0.0026741799 0.0036067937 0.0059291464 -0.008690579
000130 b2 46 09 3c b0 0d 9d 3c 26 ac d3 3b fc 6f d7 3b
       0.0083786715 0.019171566 0.0064597307 0.006574629
000140 cf 48 28 3c c5 e1 23 bc 74 16 65 3b 92 ef 62 3c
       0.010271265 -0.010002558 0.003495601 0.013851063
000150 a8 2c b6 bb 56 61 ba ba 4e cc 4c 3c 71 dc 10 bc
       -0.0055595227 -0.0014219682 0.012499882 -0.00884162
000160 96 a6 85 3c aa fd a2 bb f3 9e 53 bc 2a 9c 31 3c
       0.016314786 -0.004974087 -0.012916314 0.010840455
000170 15 e2 a0 bb 48 63 5e 3b ee 83 59 bc a0 60 38 bc
       -0.0049097636 0.0033933688 -0.013276083 -0.011253506
000180 20 00 52 3c 16 d7 3d 3c ee b2 e8 3a e9 af b1 bb
       0.012817413 0.011586925 0.001775352 -0.0054225815
000190 a4 d7 93 3b cb 31 a3 bc 77 75 36 3b eb 81 24 3d
       0.0045117904 -0.019921204 0.002784101 0.040162962
0001a0 f3 c7 ae bc 25 bb 9c 3c e5 33 16 3c 38 00 28 ba
       -0.021335578 0.019132206 0.009167646 -0.0006408724
0001b0 b4 b8 6d 3c 3e b7 f1 3c 21 4f b1 3b 5a 8a 20 3c
       0.014509369 0.029506322 0.005411044 0.009798611
0001c0 d1 0d df 3a a6 e4 76 3c 37 50 81 3c 22 c7 89 3b
       0.0017017667 0.0150691625 0.01578532 0.0042046467
0001d0 46 55 a4 bc 3a 4e 8e 3c bd 80 8d 3b 91 24 2b bc
       -0.020060193 0.017371286 0.0043183253 -0.01044573
0001e0 00 f4 4b 3c e2 56 03 bc 63 2a ba 3a 66 a1 d9 bb
       0.012448311 -0.00801632 0.0014203306 -0.0066415546
0001f0 90 f1 29 bc 28 e9 00 3c 6f cd 84 3a 91 07 a5 bc
       -0.010372534 0.007868089 0.0010132025 -0.02014521
000200 2b b3 77 bc 02 48 42 3b 1b c2 a0 bc e2 95 cd 3b
       -0.015118401 0.002964497 -0.019623807 0.006273971
000210 ef 79 2a bc 9d 8e b0 bc 65 be 56 bb bb f3 f5 3b
       -0.010405048 -0.021552378 -0.0032767293 0.0075058616
000220 c2 fe 21 3b 86 0f 62 bc 58 55 41 bc 86 aa 32 3c
       0.0024718498 -0.013797646 -0.011800133 0.010904914
000230 d6 5d 7f bb 3b 03 54 3c ed 1f 62 bc e9 a6 92 3c
       -0.0038965843 0.012940223 -0.013801557 0.017901855
000240 a0 79 9a bb a3 94 93 bc 86 b6 cf bb 9d c3 00 3b
       -0.004714206 -0.018015211 -0.006338897 0.0019647845
000250 d7 86 16 b7 63 f7 0d 3d e7 02 0c bc 10 6f 26 bc
       -8.972092e-06 0.034659754 -0.008545614 -0.010158315
000260 8c 8b a1 3c 2b 5d 19 3c df 01 8f 3a 8b 4c bd bc
       0.019719861 0.009360592 0.0010910592 -0.023107788
000270 03 68 3b bc 29 33 06 bc 82 c6 a6 3b 06 10 07 bb
       -0.011438373 -0.0081909085 0.005089582 -0.0020608916
000280 ff 0e f4 bb 2c 45 a9 3c 78 ec 8c bc 5d e1 82 3c
       -0.0074480767 0.020662867 -0.0172026 0.015976602
000290 6f 5a b9 3b 39 81 5d bc 72 f5 b1 bb ec 7a ad bc
       0.0056565325 -0.013519579 -0.0054308707 -0.021176778
0002a0 b9 61 d2 bc 05 9c 3d bc 37 80 03 3c 1a 66 35 3c
       -0.025681363 -0.0115728425 0.008026174 0.011071706
0002b0 f6 bd 15 bb b7 67 da 3b cc f7 03 3c 0d f9 86 3b
       -0.0022848821 0.006665196 0.008054685 0.0041190446
0002c0 50 25 8f 3b 96 9a 40 bc 83 2a 0f 3b 9e 49 bf 3b
       0.0043684617 -0.011755606 0.0021845407 0.0058376333
0002d0 8b 5d 3c 3c 18 0e 75 3c e6 37 65 bb 35 fd 9d bb
       0.011496912 0.0149569735 -0.0034975945 -0.0048214444
0002e0 de b8 eb bb 5a 3f 89 3b b8 65 2e ba 0e a0 79 bc
       -0.0071936687 0.0041884603 -0.00066527305 -0.015235914
0002f0 eb 02 02 3b 9b 03 3b bc d1 ca fd 3b be 61 30 b9
       0.0019838165 -0.011414434 0.007745125 -0.0001682108
000300 d0 77 8f bc 6c 9f df 3b 9f b7 92 bc 48 cb ca ba
       -0.017513186 0.0068244245 -0.017909823 -0.001547196
000310 83 ec 4c 3c 78 60 ce 3b 0f e9 96 bc a0 d5 d0 bc
       0.012507561 0.006298121 -0.018421678 -0.02549249
000320 b6 0d 85 3c c0 7c 09 bb 8d 3a 02 3c 83 9a 12 bb
       0.01624189 -0.0020978898 0.00794853 -0.0022369928
000330 9e 02 21 3c a9 38 7c bc 67 fd 81 bc 6d 8e bd 3b
       0.009827284 -0.015394368 -0.015867902 0.0057848007
000340 3a 1a 8e 3c 4a 02 41 bc 8a 7b 47 bc be c1 d3 bb
       0.01734649 -0.011780331 -0.01217545 -0.006462305
000350 ab 9c 26 3b 34 ba 2e 3c 10 62 81 3b a8 9b bc bb
       0.0025422971 0.0106645115 0.0039484575 -0.0057558604
000360 1b 7f 41 bc b1 58 f8 bb a7 14 23 3c c0 e3 6e 3c
       -0.011810089 -0.007578932 0.009953654 0.014580667
000370 65 d6 f3 bb 08 16 97 bc 9c 93 6f bc 13 50 c6 ba
       -0.0074413293 -0.018443123 -0.014622595 -0.0015130065
000380 4f 28 03 3d a9 5f cd 3b f8 aa 93 bc 20 23 04 3b
       0.032020863 0.006267507 -0.01802586 0.0020162538
000390 d7 68 d5 bc e8 29 bb 3a 2c 37 40 bc b8 6d 3d bb
       -0.026050968 0.0014279457 -0.011731904 -0.0028904509
0003a0 14 85 2a bb 32 cb bb 3b c2 a5 31 3c cd ab 6e 3b
       -0.0026019262 0.00573101 0.010842742 0.003641832
0003b0 9c f4 8c 3c 86 38 35 bb 3c 74 97 bc ae 27 0e 3c
       0.017206483 -0.0027652099 -0.018488042 0.008676453
0003c0 66 05 c3 ba 39 4d dc 3a c5 d3 2b bb bd b3 d4 bb
       -0.0014878928 0.0016807682 -0.0026218754 -0.006491153
0003d0 e5 66 b3 bc 92 4b 37 bb 60 d1 da bc f6 24 08 3c
       -0.02189965 -0.0027968627 -0.026711166 0.008309593
0003e0 7f ff 57 bc 13 a1 51 bb 2a c3 10 3c 29 b1 c2 3b
       -0.013183474 -0.0031986877 0.008835593 0.0059415293
0003f0 a5 c3 ef ba 57 da 85 bb 1b cb 40 bc 1a aa f6 ba
       -0.001829256 -0.004084866 -0.011767174 -0.0018819005

fc.weight_g f4 [345, 1]
000000 fe cd 4c 3f 25 16 5a 3f 1e 56 36 3f e4 f6 37 3f
       0.8000182 0.8519004 0.71225154 0.718611
000010 96 44 86 3f 49 f0 82 3f 77 8c 6c 3f b3 df 5c 3f
       1.0489681 1.0229579 0.9240183 0.8627884
000020 3f 3b 84 3f 8f 16 81 3f d1 72 7a 3f ff e3 77 3f
       1.033058 1.0085009 0.97831446 0.9683227
000030 08 ba 5d 3f 74 82 78 3f e0 f3 70 3f 5c c2 6e 3f
       0.86611986 0.97074056 0.94122124 0.9326532
000040 66 84 49 3f a4 7e 4e 3f 82 25 79 3f 1c a5 73 3f
       0.7871765 0.8066199 0.9732286 0.9517381
000050 3e 67 7c 3f 03 df 25 3f d6 2b 82 3f 6e 32 70 3f
       0.98595035 0.64793414 1.0169628 0.9382695
000060 64 b0 74 3f d4 e5 2f 3f 4a e5 6f 3f bd 19 05 3f
       0.9558165 0.68710065 0.9370924 0.519924
000070 91 c9 58 3f 0e f4 4b 3f 0f 75 63 3f ac 0e 62 3f
       0.84682566 0.7966927 0.8885049 0.8830364
000080 94 09 53 3f a1 df 21 3f d0 ce 51 3f 64 59 3f 3f
       0.8243649 0.63231856 0.81956196 0.74745774
000090 40 40 1f 3f 58 08 8b 3f bc c8 72 3f e7 56 5d 3f
       0.6220741 1.0861921 0.94837546 0.8646073
0000a0 00 67 61 3f 46 49 76 3f fd 81 70 3f c3 96 42 3f
       0.8804779 0.96205556 0.93948346 0.76011294
0000b0 a7 c4 47 3f e7 72 38 3f ac 79 2b 3f 91 25 38 3f
       0.7803444 0.7205033 0.6698253 0.7193232
0000c0 25 56 43 3f 9b 26 73 3f ea 4d 49 3f 3d f8 55 3f
       0.7630332 0.9498078 0.7863451 0.83581907
0000d0 4b fe 13 3f 8f 0d 28 3f 94 8a 6d 3f 91 b5 48 3f
       0.57809895 0.6564569 0.9278958 0.7840205
0000e0 fb 4c 39 3f bc e3 5d 3f 20 d9 62 3f 09 8f 37 3f
       0.7238309 0.8667562 0.88612556 0.7170263
0000f0 f3 36 73 3f a7 c8 1f 3f a7 ca 5d 3f 84 74 49 3f
       0.9500572 0.62415546 0.8663735 0.78693414
000100 ec 23 6b 3f 4b c1 19 3f 26 97 4c 3f 2b 3f 56 3f
       0.9185169 0.60060567 0.79918134 0.83690137
000110 a0 b2 22 3f f3 4b 2a 3f 22 d6 4c 3f a9 03 77 3f
       0.6355381 0.6652214 0.8001424 0.9648996
000120 4b 06 45 3f 92 6d 6b 3f af 09 5e 3f 37 5b 52 3f
       0.7696273 0.91964066 0.86733526 0.8217043
000130 d3 b2 2b 3f 37 25 11 3f 7b 0e 3a 3f 47 49 12 3f
       0.6706974 0.5669741 0.72678345 0.5714306
000140 e3 d5 1a 3f d4 98 4c 3f d8 6b 42 3f f7 09 0c 3f
       0.60482615 0.799207 0.75945807 0.54702705
000150 65 e1 46 3f a9 1b 43 3f 4f 3d 48 3f eb 66 82 3f
       0.77687675 0.7621408 0.7821855 1.0187658
000160 f4 ca 0e 3f 5b d5 34 3f f4 a5 49 3f f5 d1 85 3f
       0.5577843 0.70638055 0.7876885 1.0454699
000170 3b 88 7b 3f 2b 67 68 3f 0a d6 6b 3f cc e5 63 3f
       0.98254746 0.9078242 0.9212347 0.8902252
000180 5f 3c 34 3f 77 28 05 3f 46 f6 5e 3f fc 10 71 3f
       0.7040462 0.5201487 0.87094533 0.9416654
000190 2e 8b 59 3f 06 6f 63 3f 5a d2 4f 3f 7c cf 65 3f
       0.84977996 0.88841283 0.81180346 0.8976972
0001a0 3d 83 73 3f 16 12 10 3f aa db 5d 3f 81 d4 43 3f
       0.9512213 0.56277597 0.86663306 0.7649613
0001b0 5a 64 07 3f 57 32 f4 3e fb c0 6d 3f 91 82 2a 3f
       0.528875 0.47694656 0.9287259 0.6660548
0001c0 df 5c 36 3f 33 2a 1a 3f 6e 6a 0b 3f 51 cb 67 3f
       0.7123546 0.6022064 0.54459274 0.9054461
0001d0 bd f4 7d 3f a5 fb 4b 3f ca 10 76 3f 0c c0 64 3f
       0.99201566 0.79680854 0.9611937 0.8935554
0001e0 98 20 17 3f f0 4c 83 3f 79 4b 75 3f 3d f4 4b 3f
       0.5903411 1.0257854 0.9581829 0.79669553
0001f0 cb 3f 3c 3f f3 df 44 3f 3f 39 4b 3f 8b ca 59 3f
       0.7353484 0.7690422 0.79384226 0.8507468
000200 4a 55 6b 3f 68 a8 3d 3f 5a c0 51 3f 50 92 8b 3f
       0.91927016 0.7408509 0.8193413 1.0904026
000210 9e 9d 6d 3f 1b d9 71 3f 0a a9 57 3f 9a 55 3d 3f
       0.9281863 0.944719 0.8424231 0.7395874
000220 e8 4b 28 3f b1 51 77 3f 79 a7 59 3f be eb 79 3f
       0.65740824 0.96609026 0.8502117 0.9762534
000230 2f 06 63 3f c0 86 58 3f 58 a0 66 3f c7 d4 19 3f
       0.8868131 0.8458061 0.90088415 0.600903
000240 fb b4 4f 3f 7f 4e 61 3f 74 1a 56 3f aa 4b 7e 3f
       0.8113553 0.880104 0.83634114 0.99334204
000250 6c db 33 3f 1e e7 6c 3f 12 4d 46 3f d2 7a 52 3f
       0.70256686 0.92540157 0.7746135 0.8221866
000260 be e6 49 3f 46 06 2f 3f 7a dd 78 3f 03 90 5b 3f
       0.7886771 0.6836895 0.97212946 0.8576662
000270 bf ee 71 3f 22 54 62 3f 74 16 30 3f 78 bc 5e 3f
       0.9450492 0.88409626 0.6878426 0.8700633
000280 0d cc 4c 3f 2d 5d 66 3f 4d 88 53 3f 14 75 24 3f
       0.79998857 0.89985925 0.82629853 0.6424115
000290 5c a6 74 3f b5 eb 6e 3f 1d 1a 4c 3f d4 2a 88 3f
       0.95566344 0.9332841 0.79727346 1.063807
0002a0 d7 f4 67 3f f9 62 80 3f c2 6d 15 3f 83 00 6d 3f
       0.9060797 1.0030204 0.583706 0.92578906
0002b0 e2 bb 58 3f e2 99 86 3f a9 f4 78 3f 9f b1 53 3f
       0.84661686 1.0515711 0.9724832 0.82692903
0002c0 95 d7 5e 3f 67 0a 72 3f 34 2d 51 3f 08 f8 81 3f
       0.870477 0.9454712 0.817096 1.0153818
0002d0 2f 83 60 3f 12 45 3c 3f da 25 5b 3f c6 b2 55 3f
       0.8770017 0.7354289 0.8560463 0.8347591
0002e0 33 5d 52 3f cd 7d 16 3f 32 6c 79 3f 2d d6 78 3f
       0.8217346 0.58785707 0.9743072 0.97201806
0002f0 1f fc 3f 3f 2c a1 40 3f 82 6b 6a 3f 57 21 80 3f
       0.7499408 0.7524593 0.91570294 1.0010175
000300 09 f5 75 3f 7a 7d 33 3f a4 71 78 3f c8 4c 65 3f
       0.9607702 0.7011334 0.970484 0.89570284
000310 4a 4d 8b 3f 0b c9 6e 3f 05 28 81 3f 86 14 83 3f
       1.0882962 0.9327552 1.0090338 1.0240638
000320 cd 99 09 3f 81 39 79 3f 3b a3 76 3f d1 a4 1c 3f
       0.53750306 0.9735337 0.9634282 0.6118899
000330 0b e8 7b 3f 5f 78 7e 3f a0 87 57 3f 81 d1 7f 3f
       0.98400944 0.9940242 0.8419132 0.9992905
000340 0a 4b 55 3f bf a9 70 3f a2 5b 45 3f 4f ee 3e 3f
       0.83317626 0.9400901 0.77092946 0.7458238
000350 51 d4 65 3f 5d aa 15 3f 37 f7 4c 3f 70 b7 72 3f
       0.89777094 0.5846308 0.8006472 0.94811153
000360 82 4a 4b 3f 34 5b 56 3f 02 ae 79 3f 1a d1 5c 3f
       0.79410565 0.83732915 0.9753114 0.86256564
000370 dc 67 40 3f c0 93 81 3f 3b 08 6a 3f fc a3 55 3f
       0.75158477 1.0123215 0.9141881 0.83453345
000380 ed 59 5b 3f f9 41 44 3f 87 9e 6d 3f 93 b3 2d 3f
       0.8568409 0.76663166 0.9282002 0.67852134
000390 6c 74 8c 3f eb a1 45 3f be 45 52 3f 57 6f 53 3f
       1.0973029 0.7720019 0.8213767 0.82591766
0003a0 95 d9 2f 3f a0 64 31 3f 4e 11 2b 3f 7d e1 64 3f
       0.6869138 0.69294167 0.6682328 0.8940657
0003b0 be de 49 3f 16 da 31 3f 19 e4 7c 3f 11 0b 44 3f
       0.788555 0.694734 0.9878555 0.76579386
0003c0 a1 6c 3b 3f 5c 3e 45 3f de 06 5c 3f ff 3e 62 3f
       0.7321263 0.7704828 0.8594798 0.88377374
0003d0 69 df 85 3f b8 7c 43 3f 2b 25 6b 3f 8b b4 60 3f
       1.0458804 0.7636218 0.9185359 0.87775487
0003e0 aa 79 44 3f eb 57 5a 3f d4 03 77 3f a6 6e 22 3f
       0.76748145 0.852904 0.96490216 0.63450086
0003f0 60 f8 3a 3f 98 20 4a 3f d3 3b 3e 3f 25 ba 6a 3f
       0.7303524 0.78955984 0.74310035 0.91690284

fc.weight_v f4 [345, 256]
000000 4e 71 55 bc fb 70 7e 3c fc 13 e7 3a 89 8b 1a 3c
       -0.013027502 0.015529866 0.0017629857 0.009432682
000010 82 15 f7 3b 68 81 b6 3b 0d 6b 89 bc 97 be 60 bc
       0.0075404057 0.0055696256 -0.016774679 -0.013717315
000020 4b 63 fe bb b6 0f c3 bc 48 8d 98 bc 4e 0f 74 bc
       -0.0077633015 -0.023811202 -0.018622056 -0.014896227
000030 b8 d4 f2 3c aa b1 1f bc 1e 7f 63 3c 6f f2 4f 3a
       0.029642448 -0.009746948 0.013885288 0.0007932549
000040 82 ea 43 3b 8e 02 c5 bc a3 a8 47 3c fc 27 4f ba
       0.0029894416 -0.02404907 0.012186202 -0.00079023815
000050 fa e5 b8 bb aa 8a bc 3c 6e b1 e0 3b ca 6e c1 bc
       -0.0056426497 0.023015339 0.0068570888 -0.023612399
000060 9a 5a a2 3a 8b 51 5f bc 0a e9 b2 3c df d6 05 bd
       0.001238662 -0.013630281 0.021839637 -0.03267562
000070 72 f3 7b 3c 08 7b 3c bb 13 11 54 3c 02 ad 8b bc
       0.015377866 -0.0028759856 0.012943524 -0.01705027
000080 c4 4c 83 3c e2 e4 ed 3c e9 e1 94 bc 77 e0 77 bb
       0.016027816 0.029039804 -0.018174129 -0.0037823
000090 2f 03 70 bc ab 65 80 bb f9 4e a3 ba d1 bc 8d 3a
       -0.0146491965 -0.0039183698 -0.0012459449 0.0010813718
0000a0 98 c4 db bb ab 38 16 bc d0 fc 4f ba 4f ba 0c 3b
       -0.0067067854 -0.009168784 -0.00079340953 0.0021473353
0000b0 72 ba d3 3c 8b 17 1b bb 1f cc c8 3c cc 66 77 3c
       0.02584574 -0.0023665156 0.024511395 0.015100192
0000c0 a2 31 6d 3c c9 ea f6 bc 07 96 9a 3b 64 13 64 bc
       0.014477165 -0.030141251 0.0047175917 -0.013920639
0000d0 c2 e7 f6 3c 24 09 fa 3c 9e 1b 85 bb c2 68 36 3c
       0.030139808 0.030521937 -0.00406213 0.011133375
0000e0 85 43 ab 3b b8 55 b3 b9 03 c5 5e 3c 58 8d 33 3c
       0.005226555 -0.00034205406 0.013596776 0.010958992
0000f0 25 82 0a bc c4 97 be 3c b8 77 ac bc f9 13 69 bc
       -0.00845388 0.023265727 -0.02105318 -0.014225953
000100 7b b0 d2 3c 5b 6b 28 ba 8c 53 c1 bc 74 4f a9 3c
       0.025718918 -0.00064246886 -0.023599409 0.020667769
000110 31 36 60 bc 64 4c 2c bc bf c2 54 3c 58 64 30 bc
       -0.013684795 -0.01051626 0.012985884 -0.010766111
000120 c6 b3 76 bc b7 a7 c2 ba fc b5 ad 3c a4 94 ba 3c
       -0.01505751 -0.0014851008 0.021204941 0.022775955
000130 f7 5a c2 bc 4e 02 1f 3c 21 93 e6 bb 00 38 89 3b
       -0.023725016 0.009705139 -0.007036582 0.004187584
000140 c1 d7 00 3c a0 cd f4 bb 76 f1 a9 3b 35 17 c5 bc
       0.00786394 -0.0074708015 0.005186255 -0.024058918
000150 e8 69 20 bc 74 3e 69 3a 1f 98 df 39 2f 98 d9 3c
       -0.009790875 0.0008897551 0.00042647214 0.026561825
000160 9c d5 68 bb 05 3b 05 3c 69 1e d3 3c 6b 25 81 bb
       -0.0035527712 0.008131747 0.025771337 -0.003941228
000170 12 86 ac bb 61 56 3c 3c 44 ea 70 3c 14 50 f0 bc
       -0.005265006 0.011495204 0.014704291 -0.02933506
000180 4e aa 91 3c bf c1 10 3d fe eb 7b 3c 98 06 6d bc
       0.017781403 0.03534102 0.015376089 -0.014466904
000190 c8 d6 e5 bc 23 f7 c0 3a 79 1c bb 3c fb 72 05 3b
       -0.028056517 0.001472209 0.022840725 0.0020362723
0001a0 72 24 81 bb c6 89 b1 bb 9c 95 00 3a 65 84 a2 bb
       -0.003941112 -0.005418035 0.0004905106 -0.0049596303
0001b0 d8 38 f4 3b 7f 48 e1 3a df 99 8a 3c 10 97 a0 3c
       0.0074530654 0.0017187743 0.016919075 0.019603282
0001c0 71 58 33 3a 9f 41 a3 ba c2 66 0f bc cd fc 5b bb
       0.0006841487 -0.001245547 -0.008752527 -0.003356743
0001d0 a7 e1 5f bc ce e5 c2 bc 3c c7 a6 bc 88 27 b5 bc
       -0.01366464 -0.02379122 -0.020358674 -0.022113577
0001e0 32 a3 17 3c 40 df bb 3c e3 8b 49 3c d9 2d ce b9
       0.009255217 0.022933602 0.012301418 -0.0003932554
0001f0 02 15 e6 3b 70 05 4c 3b 1b b5 8f bc c0 4e 09 39
       0.0070215473 0.003113117 -0.017542413 0.00013094675
000200 fc 0f 64 3c 9b 7f d2 3c 1e f6 0d 3c 30 d5 24 bc
       0.013919827 0.025695613 0.008664636 -0.0100605935
000210 b3 20 9c bc a5 08 36 bc 4a 89 6e bc ae c6 39 bb
       -0.019058561 -0.011110459 -0.014559099 -0.0028347182
000220 6a 91 b3 bc 61 1c 83 3c c3 78 6b bc 37 ce 6d 3b
       -0.021919925 0.016004743 -0.014372054 0.0036286244
000230 c7 20 b2 3c 97 b8 ed bb 7a a6 98 3c e3 6c f3 3b
       0.021744145 -0.007254671 0.01863407 0.007428752
000240 a5 04 50 ba 6d 1f fa 3b 6b 9a ac 3b a9 06 db 3b
       -0.00079352624 0.007633141 0.0052674315 0.0066841436
000250 a5 64 d1 3c 32 70 18 3b 99 7e e1 3b f0 2f 8a 3c
       0.025560686 0.0023260233 0.0068815467 0.016868562
000260 ae fe a7 3c 10 16 09 3c 61 4f b9 bb c5 b4 fd ba
       0.020507183 0.0083670765 -0.0056552147 -0.0019356242
000270 2d 87 df ba 11 01 f0 ba 6b a8 a0 3b 09 1d 8b ba
       -0.0017053835 -0.0018310865 0.0049028895 -0.0010613512
000280 dd 19 1b bc 8a 07 a9 3c 63 3c af 3b 73 fa a0 3c
       -0.0094666155 0.020633478 0.005347775 0.019650673
000290 0d e4 54 bc 25 d6 3d 3c ff ac 25 38 f9 6a fe 3b
       -0.012993825 0.011586701 3.950018e-05 0.007764217
0002a0 39 3e 37 3c b4 55 0b bc 92 f8 14 bc a1 86 47 bc
       0.011184269 -0.00850432 -0.009092467 -0.012178094
0002b0 8e be bf 3c 5e 91 e6 3b b3 1c b8 bc eb f8 1d ba
       0.023406293 0.007036372 -0.022474622 -0.00060261664
0002c0 b1 da 89 3c 9c ab f1 3b 04 bf 2b 3b 5f 11 43 bc
       0.016827913 0.0073751938 0.0026206383 -0.011905997
0002d0 b8 4e 83 3b 62 fc eb bb ee 30 92 3c 0e c8 f6 ba
       0.0040071867 -0.0072017172 0.017845597 -0.0018827931
0002e0 ca 83 54 3c 28 9a 06 3c 42 78 0e 3c 74 27 08 3c
       0.012970874 0.008215465 0.008695664 0.008310188
0002f0 07 59 a2 3b 0b f2 5b 3c 4d 4a 1b bd d6 1a f1 3a
       0.0049544605 0.013424407 -0.037912656 0.0018394839
000300 e4 2f c3 3c c9 63 cd 3c 15 9e b6 bc 49 44 73 bc
       0.023826547 0.025071995 -0.022292176 -0.014847823
000310 26 1a 19 3d 1a a6 11 bb ea e6 2a bc e1 14 c2 bb
       0.037378453 -0.0022224248 -0.010431031 -0.005922899
000320 60 de 1b 3c 62 c3 6a 3c 4a 68 b1 bc fd e3 a1 3b
       0.009513468 0.014328809 -0.021656174 0.0049405084
000330 92 0d ce 3c f4 a3 03 3b 6a a5 94 bc 56 d4 19 bb
       0.025152955 0.0020086737 -0.018145282 -0.002347251
000340 20 13 b2 3b df 53 ca bb db f9 9e 3c ac ab c9 3c
       0.005434409 -0.006174549 0.01940625 0.024617992
000350 0f e6 5a bb a3 09 f2 bb b4 9f 63 bb a8 22 d2 3c
       -0.0033401286 -0.0073864027 -0.0034732642 0.025651291
000360 3e 01 ee 3c 6f da 3e bb 4b d6 c3 3b 7b c2 5d 3c
       0.029053327 -0.0029121896 0.0059764734 0.013535137
000370 30 43 36 3c 87 d5 32 3c b6 5e 0f 3b 90 f7 3e 3b
       0.011124417 0.010915167 0.002187652 0.0029139258
000380 9a b3 b1 bc 9d d1 d4 bb 4c e3 04 3c 63 f9 a6 3a
       -0.021692086 -0.0064947144 0.008110832 0.0012739118
000390 1d 3f 26 bc 7c 6a f7 ba 69 6c 7e 3c 5f c1 48 3b
       -0.010146883 -0.0018876339 0.015528777 0.0030632836
0003a0 fb fa 8b bc 83 85 cc 3a 31 53 5a bc 76 cf aa bc
       -0.01708745 0.0015603754 -0.013325498 -0.020850878
0003b0 0c 11 8b bb 0c 52 5f 3c d8 2b 84 bc 29 31 39 b9
       -0.0042439755 0.013630401 -0.016134188 -0.00017661288
0003c0 5b 48 52 bc 16 11 a5 ba 30 ee be 3c 72 93 38 3b
       -0.012834634 -0.0012593593 0.023306936 0.0028164056
0003d0 5f 8e d3 3c 2d 2a 87 bc 62 04 35 39 95 5f 0e 39
       0.025824724 -0.016499603 0.00017263138 0.00013577782
0003e0 ef 8f 0b 3a 0f b6 08 3d 47 17 ad bc 04 46 2b bc
       0.0005323877 0.03337675 -0.021129264 -0.010453705
0003f0 78 57 12 3c 11 43 38 3c 91 bd 98 3a d3 e5 5c bb
       0.008931987 0.011246459 0.0011653175 -0.0033706322
