ckps/source/uda/domainnet/painting_1/source_B.pt (torch, 532830 bytes, 6 tensors)

bn.weight f4 [256]
0	0x3f740e85	0.95334655
1	0x3f6ff64b	0.9373519
2	0x3f7cae41	0.9870339
3	0x3f83a2ba	1.0284035
4	0x3f74b37d	0.9558638
5	0x3f72382b	0.94616956
6	0x3f7b47f4	0.98156667
7	0x3f788c61	0.970892
8	0x3f7cd69d	0.98764974
9	0x3f855bc6	1.0418632
10	0x3f7dede0	0.99191093
11	0x3f7642bc	0.9619558
12	0x3f68552b	0.90754956
13	0x3f777b8e	0.96672904
14	0x3f73e586	0.952721
15	0x3f7b0201	0.9804993
16	0x3f744b1b	0.954271
17	0x3f7a3ff5	0.9775384
18	0x3f6d48dd	0.92689306
19	0x3f7063d9	0.93902355
20	0x3f747071	0.9548407
21	0x3f74eb00	0.9567108
22	0x3f7b7c0f	0.98236173
23	0x3f7d5c9c	0.98969436
24	0x3f7d5141	0.9895211
25	0x3f801218	1.0005522
26	0x3f7e55fb	0.99349946
27	0x3f82e24f	1.0225314
28	0x3f832b09	1.0247508
29	0x3f807e7d	1.0038601
30	0x3f823551	1.0172521
31	0x3f6e3a2b	0.9305751
32	0x3f7e136a	0.99248374
33	0x3f77e711	0.96836954
34	0x3f803a0f	1.0017718
35	0x3f841940	1.0320206
36	0x3f75312c	0.95778155
37	0x3f824120	1.0176125
38	0x3f74fab3	0.95695037
39	0x3f7b4faf	0.9816846
40	0x3f83fc36	1.0311344
41	0x3f786181	0.9702378
42	0x3f65977a	0.8968426
43	0x3f7c300b	0.9851081
44	0x3f7fdc41	0.99945456
45	0x3f803340	1.001564
46	0x3f7eb00d	0.9948738
47	0x3f7ded72	0.9919044
48	0x3f7a3582	0.97737896
49	0x3f6fdfc0	0.9370079
50	0x3f86f1f6	1.0542591
51	0x3f81f1c3	1.0151905
52	0x3f71d031	0.944583
53	0x3f7712de	0.96513164
54	0x3f832f5f	1.0248832
55	0x3f71b0f2	0.9441062
56	0x3f76120a	0.96121275
57	0x3f78543b	0.97003525
58	0x3f725a34	0.9466889
59	0x3f8282ad	1.0196129
60	0x3f6bda74	0.9213021
61	0x3f7aecc0	0.980175
62	0x3f6c7fa9	0.92382294
63	0x3f7af6d2	0.9803287
64	0x3f7e94be	0.9944571
65	0x3f7a2f14	0.97728086
66	0x3f7927be	0.97326267
67	0x3f81b3ad	1.0132958
68	0x3f7c4394	0.98540616
69	0x3f7cbb53	0.98723334
70	0x3f7711e6	0.96511686
71	0x3f7536f0	0.9578695
72	0x3f79a399	0.97515255
73	0x3f7507e5	0.9571517
74	0x3f853413	1.0406517
75	0x3f78bdc6	0.9716457
76	0x3f81036f	1.0079173
77	0x3f6ff9af	0.9374036
78	0x3f70abe2	0.9401227
79	0x3f7aa27f	0.979042
80	0x3f805290	1.0025196
81	0x3f7e9d82	0.9945909
82	0x3f75aa1b	0.95962685
83	0x3f808629	1.0040942
84	0x3f80f5f4	1.0075059
85	0x3f6ff804	0.93737817
86	0x3f80f3ff	1.0074462
87	0x3f7c2c07	0.9850468
88	0x3f7de377	0.9917521
89	0x3f776ad4	0.9664738
90	0x3f7590b0	0.959239
91	0x3f6ea44d	0.93219453
92	0x3f6dbc06	0.92865026
93	0x3f7a89a1	0.97866255
94	0x3f7dbd4e	0.9911698
95	0x3f72ab40	0.94792557
96	0x3f806b5d	1.0032765
97	0x3f8059f9	1.0027457
98	0x3f7e0a1a	0.99234164
99	0x3f8126a8	1.0089922
100	0x3f7e551b	0.9934861
101	0x3f782b50	0.9694109
102	0x3f79ac81	0.97528845
103	0x3f745a99	0.9545074
104	0x3f7d8068	0.9902406
105	0x3f748589	0.9551626
106	0x3f78e603	0.9722597
107	0x3f7204aa	0.94538367
108	0x3f7e9a56	0.9945425
109	0x3f81d918	1.0144377
110	0x3f76e429	0.96441895
111	0x3f71708b	0.9431235
112	0x3f70f9c1	0.94131094
113	0x3f821776	1.016341
114	0x3f6ae413	0.91754264
115	0x3f78059a	0.9688355
116	0x3f7ae09e	0.9799899
117	0x3f795c7e	0.97406757
118	0x3f7a6de8	0.97823954
119	0x3f7e57df	0.9935283
120	0x3f7c2a0b	0.9850165
121	0x3f7be717	0.9839949
122	0x3f76b712	0.96373093
123	0x3f7d42c3	0.98929995
124	0x3f76997f	0.96327966
125	0x3f7ca5ad	0.986903
126	0x3f802db1	1.0013944
127	0x3f72c11c	0.9482591
128	0x3f6dfeaf	0.9296674
129	0x3f851461	1.0396844
130	0x3f706376	0.93901765
131	0x3f738948	0.9513135
132	0x3f7d9c80	0.99066925
133	0x3f7fcd18	0.99922323
134	0x3f76cbb3	0.9640457
135	0x3f704b31	0.93864733
136	0x3f6ee95d	0.93324834
137	0x3f7250d4	0.94654584
138	0x3f7a6f99	0.97826535
139	0x3f7b962c	0.9827602
140	0x3f772789	0.965447
141	0x3f76371c	0.9617784
142	0x3f7cd596	0.98763406
143	0x3f7c6f29	0.98607117
144	0x3f799844	0.97497964
145	0x3f7c565e	0.98569286
146	0x3f6a060e	0.9141549
147	0x3f74f571	0.95687014
148	0x3f76be74	0.9638436
149	0x3f74a7a1	0.9556828
150	0x3f81839f	1.0118293
151	0x3f7f40e2	0.9970838
152	0x3f829d6b	1.020429
153	0x3f6a8650	0.91611195
154	0x3f86d276	1.0532978
155	0x3f7afdd0	0.9804354
156	0x3f75cbe2	0.96014225
157	0x3f8383f9	1.027465
158	0x3f70b491	0.9402552
159	0x3f7d3d62	0.9892179
160	0x3f6c5244	0.9231303
161	0x3f77358e	0.9656609
162	0x3f7208d2	0.9454471
163	0x3f69d29d	0.91336995
164	0x3f80fb8f	1.007677
165	0x3f7b7a0b	0.982331
166	0x3f6a90c2	0.9162713
167	0x3f7c8937	0.98646873
168	0x3f68efc2	0.9099084
169	0x3f783096	0.96949136
170	0x3f73a946	0.95180166
171	0x3f77f27c	0.96854377
172	0x3f6ce128	0.9253106
173	0x3f80b4ef	1.0055217
174	0x3f80798d	1.0037094
175	0x3f721281	0.94559485
176	0x3f7a871a	0.978624
177	0x3f7a8c88	0.97870684
178	0x3f734223	0.9502279
179	0x3f7639ad	0.96181756
180	0x3f76275a	0.96153796
181	0x3f847ce5	1.0350615
182	0x3f7bc01b	0.98340005
183	0x3f775ee6	0.9662918
184	0x3f6a2698	0.9146514
185	0x3f6debf0	0.9293814
186	0x3f7d4431	0.98932177
187	0x3f78c655	0.9717763
188	0x3f7585de	0.9590739
189	0x3f7be4e1	0.98396116
190	0x3f77c57b	0.96785706
191	0x3f79ab6e	0.97527206
192	0x3f74f8d2	0.9569217
193	0x3f785bfd	0.9701536
194	0x3f780dbd	0.9689596
195	0x3f757bf6	0.95892274
196	0x3f7efccb	0.9960448
197	0x3f75915f	0.95924944
198	0x3f7be9ea	0.984038
199	0x3f8128aa	1.0090535
200	0x3f7db49f	0.9910373
201	0x3f73258c	0.94979167
202	0x3f706a07	0.93911785
203	0x3f7a7b27	0.97844166
204	0x3f7d9039	0.9904819
205	0x3f806acc	1.0032592
206	0x3f74025e	0.9531611
207	0x3f69e998	0.9137206
208	0x3f6cc250	0.92484
209	0x3f69bfe7	0.91308445
210	0x3f70beb4	0.9404099
211	0x3f6c1c54	0.92230725
212	0x3f86a0e3	1.0517849
213	0x3f7377bd	0.9510458
214	0x3f7e99b7	0.994533
215	0x3f8227f6	1.0168445
216	0x3f730562	0.9493009
217	0x3f79fbc5	0.97649795
218	0x3f774af5	0.9659875
219	0x3f8562ac	1.0420737
220	0x3f8a0708	1.0783396
221	0x3f851177	1.0395955
222	0x3f76ce72	0.9640876
223	0x3f76ee2b	0.96457165
224	0x3f7ec40c	0.99517894
225	0x3f81a10d	1.0127274
226	0x3f79c4de	0.9756602
227	0x3f80c5ed	1.0060402
228	0x3f76938c	0.9631889
229	0x3f814b31	1.0101072
230	0x3f6f2df8	0.9342952
231	0x3f7a5a82	0.97794354
232	0x3f7b57e4	0.98180985
233	0x3f84705b	1.0346788
234	0x3f82f702	1.0231631
235	0x3f74fa8d	0.9569481
236	0x3f6cb7ef	0.9246816
237	0x3f843e8b	1.0331587
238	0x3f7d2fe6	0.9890121
239	0x3f7994c8	0.9749265
240	0x3f804175	1.0019976
241	0x3f727914	0.94716
242	0x3f828d75	1.0199419
243	0x3f825389	1.0181743
244	0x3f75d859	0.96033245
245	0x3f828609	1.0197154
246	0x3f771105	0.96510345
247	0x3f6b5adf	0.91935533
248	0x3f70a946	0.9400829
249	0x3f6d5c28	0.92718744
250	0x3f7937ac	0.97350574
251	0x3f8360c2	1.0263903
252	0x3f75f2af	0.9607343
253	0x3f6f35a5	0.9344123
254	0x3f771cd5	0.9652837
255	0x3f8007d8	1.0002394

bn.bias f4 [256]
0	0xbb9133d9	-0.0044312296
1	0x3d4cd848	0.05001095
2	0xbcd57899	-0.026058482
3	0x3beaeeec	0.007169595
4	0x3cf46552	0.02983347
5	0xbca88f69	-0.020576196
6	0x3ca5cff4	0.020240761
7	0x3bdfa458	0.006825011
8	0xbca9cfda	-0.020728994
9	0x3ba280a6	0.0049591837
10	0xbc116d93	-0.008876222
11	0x3aa7fd12	0.001281651
12	0x3c57a991	0.013162986
13	0x3c0aead0	0.008478835
14	0xbc36028d	-0.011109007
15	0x3cd1921f	0.025582371
16	0xbd125c5c	-0.035732612
17	0xbce84e57	-0.028357668
18	0x3922586b	0.00015482462
19	0x3c5531e5	0.013012384
20	0xbb6fb098	-0.0036573764
21	0x3c059d92	0.0081552435
22	0xbb9731c8	-0.0046140887
23	0xbc8d464a	-0.01724543
24	0xba8be3d7	-0.001067276
25	0xbc65418f	-0.013992681
26	0x3c9b791a	0.018978644
27	0x3bcf90f6	0.0063344194
28	0xbcda4abd	-0.026646966
29	0x3b0f8787	0.002190085
30	0x3c5d509f	0.013507991
31	0xbc87a939	-0.016560184
32	0xbc1c7f80	-0.009551883
33	0x3ce1c917	0.027561707
34	0xbc54f52b	-0.012997906
35	0xbd1c2c73	-0.038128328
36	0xbd0ac947	-0.03388336
37	0xbcc65c4e	-0.024213936
38	0xbbfbcce7	-0.0076843384
39	0xbd274b52	-0.040843315
40	0x3bf34d5a	0.0074249925
41	0xbb9eaa16	-0.004842053
42	0xbd05cad5	-0.03266414
43	0xbc20ca43	-0.009813848
44	0xbcc8f228	-0.024529532
45	0x3bdc9984	0.0067321677
46	0x3d04f7db	0.032462936
47	0xba665051	-0.0008785772
48	0xbbadf8f8	-0.0053092204
49	0xbbb0e86e	-0.0053988015
50	0xbc20042a	-0.009766618
51	0xbc900bdb	-0.017583778
52	0xbc0f203f	-0.008735715
53	0x3ca90f41	0.020637156
54	0xbca8bcc9	-0.020597832
55	0xbc3a8b7b	-0.011385794
56	0x3c14e9f6	0.009088984
57	0x3c8eb4c3	0.017420178
58	0xbc3dc619	-0.011582875
59	0xbcb615bb	-0.022227159
60	0xbb30c7b2	-0.0026974496
61	0x3c3a4941	0.011370004
62	0xb8995712	-7.3118266e-05
63	0xbc5a0b26	-0.013308322
64	0xbad3122a	-0.0016103436
65	0x3c2c2ad8	0.010508262
66	0xbcbed230	-0.023293585
67	0xbd301e52	-0.042997666
68	0xbc888bf5	-0.0166683
69	0xbb81f376	-0.0039657904
70	0x3bf96945	0.007611426
71	0x3c2cc504	0.010545019
72	0x3b7ab304	0.0038253674
73	0x3c0126bc	0.00788277
74	0xbcd27d69	-0.025694566
75	0xbb8e7c5f	-0.0043483223
76	0xbc6b2a53	-0.014353353
77	0x3c8ff544	0.017573006
78	0xbc534846	-0.012895649
79	0xbce2d78e	-0.027690675
80	0x3c2f6a52	0.010706501
81	0xbc0c1cfc	-0.008551832
82	0x3c12b669	0.008954623
83	0x3c94d844	0.01816953
84	0xbca2f483	-0.019891983
85	0x3ce8f35c	0.028436355
86	0x3cd5e41f	0.026109753
87	0x3c27dd0f	0.010245576
88	0xbc914235	-0.017731765
89	0xbbed3013	-0.007238397
90	0x3bf20168	0.0073854215
91	0xbba31b2e	-0.0049776053
92	0xbc835b73	-0.016034817
93	0xba31185e	-0.0006755645
94	0xba69b688	-0.0008915444
95	0xbb54f81b	-0.0032496515
96	0xbd1d0cc3	-0.03834225
97	0xb9a9eb50	-0.00032409513
98	0xbcdfcace	-0.027318384
99	0xbcb2ee3f	-0.02184212
100	0x3b559408	0.0032589454
101	0xb9dd60d9	-0.00042224562
102	0xbcc6a897	-0.024250312
103	0xbca5b6c4	-0.020228751
104	0xbb291b69	-0.0025803691
105	0x3cd84244	0.026398785
106	0xbb5b1159	-0.0033427088
107	0xbacfe0a9	-0.0015859801
108	0xbc8013a7	-0.015634371
109	0xbbff3673	-0.0077884733
110	0xbc2ca97b	-0.010538454
111	0x3d36a428	0.044590145
112	0x3c43a8ee	0.011942131
113	0xbc0c8e10	-0.008578792
114	0xbb199b20	-0.002343841
115	0x3b6d9b43	0.0036255873
116	0xbd00ae9c	-0.03141652
117	0xbca0123d	-0.019539947
118	0xbcb9dcb4	-0.022688247
119	0xbc165715	-0.009176035
120	0xbb787ce8	-0.0037916247
121	0x3ce06821	0.027393403
122	0x3cc58f06	0.02411605
123	0x3ca9fe48	0.020751134
124	0xbd087c5b	-0.03332172
125	0x3c2db863	0.010603043
126	0x3c94af8c	0.018150114
127	0x3c4f6179	0.012657517
128	0x3c8a9ac6	0.016919505
129	0x3b96b85b	0.0045996136
130	0xbd6546dc	-0.05597578
131	0x3af41bcd	0.0018624008
132	0xba8d7190	-0.001079129
133	0x3b8b773f	0.0042561586
134	0xbc5ec364	-0.013596389
135	0x3c9eed1e	0.019400176
136	0x3c6c9d64	0.014441822
137	0x39c47814	0.00037473498
138	0xbc8bb721	-0.017055096
139	0x3c90f5f4	0.017695405
140	0x3a24a5e7	0.0006280825
141	0xbc2382ea	-0.009979943
142	0xbc096de2	-0.0083880145
143	0x3c0e8d31	0.008700655
144	0x3cf13162	0.029442493
145	0xbc429fbd	-0.011878905
146	0xbcef157f	-0.029185055
147	0x3a852dc6	0.0010160736
148	0x3c916ca4	0.017752
149	0xbcf29574	-0.02961228
150	0xbc6a5c0b	-0.014304171
151	0xbca7c1c1	-0.020478131
152	0xbaaa310c	-0.0012984588
153	0xbc7d71fd	-0.015469071
154	0xbbc8ad53	-0.0061241775
155	0xbbe6fcbb	-0.007049171
156	0xbcb348dd	-0.02188533
157	0x3b2ab550	0.0026048012
158	0xbcbf7831	-0.023372741
159	0x3af0d95c	0.0018375325
160	0x3b44b599	0.0030015467
161	0xbcfc0be8	-0.030767396
162	0x3b88a23d	0.004169731
163	0xb9bd4335	-0.00036098962
164	0xbc2cb87b	-0.01054203
165	0xbc39354d	-0.011304212
166	0xbc3c1eb0	-0.011481926
167	0x3b1a781b	0.0023570124
168	0xbc98c98f	-0.018650798
169	0xbbc04c43	-0.005868466
170	0xbb3d6d16	-0.0028904132
171	0x3c54ea55	0.012995322
172	0xbc03eaf1	-0.00805162
173	0xbc7947b6	-0.015214851
174	0xbc166e04	-0.009181503
175	0xbc608b45	-0.013705079
176	0xbc5a09f6	-0.013308039
177	0x3d279ae8	0.040919214
178	0xbbacf593	-0.005278298
179	0x3d05e28c	0.032686755
180	0x3c27cc9d	0.010241655
181	0xbb3e4aad	-0.002903621
182	0xbcbcb2b9	-0.02303444
183	0xbcec9ddf	-0.028883873
184	0x3b2a98f0	0.00260311
185	0xbc911e63	-0.017714685
186	0x3d313b33	0.043269347
187	0xbb1431f1	-0.0022612775
188	0xbc378ee6	-0.011203503
189	0x3bcb8804	0.0062112827
190	0x3c9c92b1	0.019112917
191	0xbc6f780c	-0.014616024
192	0x3c1e64f4	0.009667624
193	0x3c9ab5d8	0.018885538
194	0xbc53bda9	-0.0129236365
195	0xbce51c65	-0.027967641
196	0x3bddda04	0.0067703743
197	0x3b332b9f	0.0027339233
198	0xbbf1b772	-0.0073766047
199	0x3c6fcf8b	0.014636884
200	0x3b310d4f	0.002701599
201	0x3c9427b2	0.018085334
202	0x3c726639	0.01479488
203	0xbc0919fc	-0.008368012
204	0x3b6df1f2	0.003630754
205	0x3ca1f7e3	0.019771522
206	0xbbc29bb0	-0.0059389696
207	0x3cd4f5cd	0.025996113
208	0xbb2ad9c6	-0.0026069744
209	0xbc649120	-0.013950616
210	0xbcb4eb69	-0.022084909
211	0x3c940256	0.01806752
212	0x3cfbf7a7	0.030757738
213	0x3c52a2e5	0.01285622
214	0x3a110aa0	0.0005532894
215	0x3cbf89b1	0.023381086
216	0xbc7f150a	-0.015568981
217	0xbb871af8	-0.004123088
218	0x3c0e8294	0.008698124
219	0x3c844b80	0.016149282
220	0xbcba1e34	-0.02271948
221	0xbc334083	-0.010940674
222	0xbcb2276d	-0.021747315
223	0x3c08f885	0.008360033
224	0x3c69fa47	0.014280862
225	0x3a73119c	0.00092723384
226	0x3c3da57d	0.0115751
227	0xbca1eb49	-0.019765513
228	0xbc865ab7	-0.016400678
229	0xbc9a32f6	-0.018823128
230	0x3cb79e76	0.022414427
231	0xbbede100	-0.007259488
232	0xbb886367	-0.0041622403
233	0x3d558670	0.052130163
234	0xbc5cde4e	-0.013480736
235	0x3cf2f51b	0.029657891
236	0x3b77c53c	0.003780677
237	0x3a9f762d	0.0012165956
238	0x3d15ad2a	0.036542095
239	0x3c8b80ad	0.01702913
240	0x3ba5788a	0.0050497698
241	0xbca5b34a	-0.020227093
242	0x3ba6527c	0.005075751
243	0x3c51654b	0.012780498
244	0xbcd6b855	-0.026210943
245	0xbc900719	-0.01758151
246	0xbc59b6d7	-0.013288221
247	0x3cecc315	0.028901616
248	0xbc54d111	-0.012989298
249	0xbced8930	-0.02899608
250	0x3c6098ca	0.013708303
251	0xbce418a1	-0.027843775
252	0x3b57d2c9	0.0032932034
253	0x3cb04819	0.021518754
254	0x3cba01f9	0.022706019
255	0xbc07f2bf	-0.008297621

bn.running_mean f4 [256]
0	0xbeaa4fad	-0.33263913
1	0xbd9ebfc2	-0.07751419
2	0xbe8ce5e7	-0.27519152
3	0xbc8b7ba6	-0.017026734
4	0x3e8ccc8e	0.27499813
5	0xbe20257f	-0.15639304
6	0x3e8345a4	0.2563907
7	0x3d96551a	0.073404506
8	0xbd467f77	-0.048461404
9	0x3d47edde	0.048810832
10	0xbd229cf7	-0.039700475
11	0xbcd2ef29	-0.025748806
12	0x3d6ea206	0.058259986
13	0xbd5e6e1e	-0.054304235
14	0xbc44e45f	-0.012017339
15	0x3e41013f	0.18848132
16	0x3e0844a1	0.1330743
17	0xbedfcf5d	-0.43712893
18	0x3e78da13	0.24301939
19	0xbdee9f97	-0.11651533
20	0xbcc12cf5	-0.023581007
21	0xbdc76755	-0.09736506
22	0xbdd110ab	-0.10208257
23	0xbdc40aa3	-0.09572341
24	0x3e60c802	0.21951297
25	0x3e18270d	0.14858647
26	0x3ca5ae12	0.020224605
27	0x3e181f79	0.14855756
28	0xbf236809	-0.6383062
29	0x3e9c98af	0.30585238
30	0x3e9ff2f7	0.31240055
31	0xbecf8bc0	-0.40536308
32	0xbb569cd7	-0.0032747292
33	0x3eaa1d02	0.33225256
34	0xbeb6b574	-0.35685313
35	0xbde5f9fd	-0.11229322
36	0xbdfe859b	-0.12427827
37	0xbe18e975	-0.14932807
38	0xbd71b2b3	-0.05900831
39	0xbe3548fd	-0.17703624
40	0xbcb9cd85	-0.022681007
41	0xbe650780	-0.22366142
42	0xbe0cc2ce	-0.13746187
43	0xbe9eb1ca	-0.30995017
44	0x3cedfeb5	0.029052118
45	0xbe301c54	-0.17198306
46	0x3edca8e0	0.4309759
47	0xbe0c60aa	-0.1370875
48	0x3e61f0a1	0.22064449
49	0xbc404a77	-0.011736504
50	0x3e1f0fe4	0.15533406
51	0xbe124133	-0.14282684
52	0x3d6e4a37	0.058176246
53	0x3ed6f1c2	0.41981322
54	0xbe898ef8	-0.2686689
55	0xbe2b5f58	-0.1673559
56	0xbe168adc	-0.14701408
57	0xbddd2a18	-0.10799044
58	0xbec2fe22	-0.38084513
59	0x3dbaa152	0.09112801
60	0xbd88335d	-0.06650422
61	0xbd00b304	-0.031420723
62	0x3e2574f1	0.16157891
63	0xbdc1e15f	-0.09466814
64	0x3c81ecb9	0.015859948
65	0x3c95022d	0.018189514
66	0xbe973d97	-0.29539177
67	0xbda20439	-0.07910962
68	0xbf006e82	-0.5016862
69	0x3eba81bd	0.36427107
70	0x3e39c7ff	0.18142699
71	0x3d42f2c2	0.047594793
72	0xbe8cd48c	-0.2750591
73	0x3e0399db	0.1285166
74	0xbe087d0c	-0.13328952
75	0x3d4713ad	0.04860275
76	0xbe1409eb	-0.14456908
77	0x3d735031	0.05940265
78	0xbddde029	-0.10833771
79	0xbe04cf3f	-0.12969683
80	0x3ea7ddfd	0.3278655
81	0xbd1f7ce6	-0.03893747
82	0xbccd18f6	-0.025036316
83	0xbe07ae07	-0.1324998
84	0x3d88601e	0.06658958
85	0xbcabb66f	-0.020961015
86	0x3ebca66b	0.36845717
87	0x3e060baf	0.13090394
88	0xbd53097b	-0.051522713
89	0xbe8ee27f	-0.27907178
90	0x3d3a5b52	0.045497246
91	0x3d82e483	0.063912414
92	0xbe9ac5ad	-0.3022894
93	0xbe3408f8	-0.17581546
94	0xbd8a3816	-0.06748979
95	0x3e121560	0.14265966
96	0x3dd9adf5	0.10628883
97	0x3e1b3042	0.15155128
98	0xbecc449f	-0.39896104
99	0xbe86983d	-0.26288024
100	0xbedd3556	-0.43204755
101	0xbcde1d0c	-0.02711346
102	0xbe30d120	-0.17267275
103	0xbd66ccc5	-0.056347627
104	0x3e3cee17	0.18450199
105	0x3ee830a2	0.45349604
106	0xbe195199	-0.14972533
107	0xbd5bb487	-0.05363896
108	0xbde27e25	-0.110592164
109	0xbeffad43	-0.49936876
110	0x3dfa8656	0.12232654
111	0x3eaa2f4b	0.33239207
112	0xbd5b6682	-0.053564556
113	0xbddada9f	-0.1068623
114	0xbea3f42d	-0.3202223
115	0xbe5795d6	-0.21053252
116	0xbedaf431	-0.42764428
117	0x3d65a6da	0.056067325
118	0xbf1b0c51	-0.6056567
119	0x3d720c1d	0.059093583
120	0xbcef3273	-0.02919886
121	0xbdce9a0b	-0.10087975
122	0xbc5a17dd	-0.0133113535
123	0x3de41de7	0.11138516
124	0xbd6f1705	-0.058371563
125	0x3e906e57	0.28209183
126	0x3d9aea36	0.075642034
127	0x3e051da9	0.12999596
128	0x3e99f602	0.30070502
129	0xbce48d68	-0.027899459
130	0xbee0adb1	-0.43882516
131	0x3df30ba4	0.11867455
132	0xbdfabaa7	-0.12242632
133	0xbdcbf0f9	-0.09958071
134	0x3c0b612e	0.008507056
135	0x3da21cd0	0.07915652
136	0x3dfd2674	0.1236085
137	0x3e2ca67c	0.16860384
138	0x3d5e7de0	0.054319263
139	0x3e5a041e	0.21290633
140	0x3e5c70ec	0.21527451
141	0xbdf36550	-0.11884558
142	0x3e9dab3e	0.3079471
143	0x3ea7dbf5	0.32785
144	0x3ea06965	0.3133041
145	0xbaf525e1	-0.0018703305
146	0xbf1276ef	-0.5721273
147	0xbe434c4f	-0.19072078
148	0x3ea4de10	0.3220067
149	0xbdefca52	-0.117085114
150	0x3d5ec5cb	0.05438785
151	0xbd21f700	-0.0395422
152	0x3de09223	0.10965373
153	0xbcee58a0	-0.029094994
154	0x3debb989	0.115099974
155	0x3dc1ddeb	0.094661556
156	0xbe83f8e1	-0.25775817
157	0x3ceeb426	0.029138636
158	0xbe1f22d7	-0.15540634
159	0x3e41fd26	0.18944225
160	0x3e2a529e	0.16633078
161	0xbe514e0d	-0.2043993
162	0x3e89a4c3	0.26883516
163	0xbee458a0	-0.44598866
164	0x3dc7301e	0.097259745
165	0xbdcdfc74	-0.10057917
166	0x3e40716a	0.18793264
167	0x3c89a6ac	0.016803108
168	0xbe88929c	-0.26674354
169	0xbe3291a6	-0.17438373
170	0x3e45bb9c	0.19309849
171	0xbe732864	-0.23745877
172	0x3db8139c	0.08988115
173	0xbebbcb8b	-0.36678728
174	0xbe97ebac	-0.2967199
175	0xbeaefeec	-0.34178865
176	0xbeab3bbd	-0.33444014
177	0x3dff892b	0.124773346
178	0xbe81a242	-0.25319105
179	0x3dc7e2f5	0.097600855
180	0x3ebcbf2d	0.36864606
181	0x3e976a54	0.2957331
182	0xbd6f020d	-0.058351565
183	0x3d5b0a9f	0.053476926
184	0xbd4b196d	-0.049584795
185	0xbd98c5c4	-0.07459596
186	0x3f01a9b5	0.5064958
187	0xbe908bf6	-0.28231782
188	0xbe2b8592	-0.16750172
189	0x3d531352	0.051532097
190	0x3eb1381b	0.34613118
191	0x3e037a28	0.12839568
192	0x3ea61eba	0.32445318
193	0x3da77d03	0.08178141
194	0x3db6e6c1	0.089307316
195	0xbe352480	-0.17689705
196	0xbe37ed6f	-0.17961667
197	0x3d49ed0d	0.049298335
198	0x3cd31da6	0.025770973
199	0xbc8265f2	-0.015917752
200	0x3e098e64	0.13433224
201	0x3e57013d	0.20996566
202	0x3c910a49	0.0177051
203	0x3e729c45	0.23692425
204	0xbc3fdb16	-0.011709949
205	0xbd96ce49	-0.073635645
206	0xbea62c25	-0.32455555
207	0xbde3d23b	-0.11124083
208	0xbd955778	-0.07292074
209	0xbd15d4fa	-0.036580063
210	0xbd756e1a	-0.059919454
211	0x3db3bbef	0.0877608
212	0x3ea3e2b5	0.320089
213	0x3e84a832	0.25909573
214	0x3d3f9a1a	0.046777822
215	0x3e9b025a	0.30275232
216	0x3d9b38e1	0.07579208
217	0x3d93885b	0.07203742
218	0xbe38e45a	-0.18055859
219	0x3d0a2626	0.033727787
220	0x3e0dceda	0.13848439
221	0x3e2d7c0c	0.16941851
222	0xbdaba8ed	-0.083818294
223	0x3df559df	0.11980032
224	0x3e300a8b	0.17191522
225	0x3e1d9252	0.15387848
226	0xbe804717	-0.25054237
227	0xbd8cc7be	-0.06874035
228	0xbea4f3bd	-0.32217208
229	0x3cac74a5	0.021051714
230	0xbe60fca8	-0.2197138
231	0x3d6a2b30	0.057170093
232	0x3e1c0c57	0.15239082
233	0x3e82b69b	0.25529942
234	0xbc7c4960	-0.015398353
235	0x3e144a7a	0.14481536
236	0xbe9ea15b	-0.3098248
237	0xbd99c29c	-0.07507822
238	0x3ecc484a	0.39898902
239	0x3e3f1565	0.18660505
240	0xbe2886a9	-0.16457619
241	0x3d3ca527	0.04605594
242	0xbd6ef36f	-0.058337625
243	0x3cb4e0be	0.022079822
244	0xbdd6b1c5	-0.104831256
245	0x3e527ff0	0.20556617
246	0x3dd07983	0.101794265
247	0x3eb0a05b	0.34497342
248	0xbe058292	-0.1303809
249	0xbe9373fd	-0.2879943
250	0x3e4dee89	0.20110525
251	0xbe847b2e	-0.2587523
252	0xbd57fc19	-0.052730653
253	0x3e71d857	0.23617683
254	0x3eb5a616	0.35478276
255	0xbca7d9d8	-0.020489618

bn.running_var f4 [256]
0	0x3d3f0a3b	0.046640616
1	0x3d5223a0	0.051303506
2	0x3d5afeec	0.05346577
3	0x3d615027	0.05500808
4	0x3d1e2fa2	0.038619645
5	0x3d410bb1	0.04713029
6	0x3d44f16c	0.0480818
7	0x3d51432a	0.051089443
8	0x3d5b684d	0.053566266
9	0x3d5a952c	0.053364918
10	0x3d407b33	0.046992492
11	0x3d43d21c	0.047807798
12	0x3d21ba24	0.03948416
13	0x3d324f7f	0.043532845
14	0x3d35b163	0.044358622
15	0x3d53799c	0.051629648
16	0x3d31a8e7	0.04337397
17	0x3d2574b9	0.04039452
18	0x3d422d78	0.047406644
19	0x3d3c56b8	0.04598114
20	0x3d3641c2	0.044496305
21	0x3d6c2e5d	0.057661403
22	0x3d291cf2	0.04128737
23	0x3d5005a7	0.05078664
24	0x3d469103	0.048478138
25	0x3d5fd741	0.05464864
26	0x3d5d0f5d	0.05396973
27	0x3d5b5c7f	0.053555008
28	0x3d4bab63	0.049723994
29	0x3d42242b	0.047397774
30	0x3d46e38a	0.048556842
31	0x3d309f13	0.043120455
32	0x3d3ab807	0.04558566
33	0x3d282df6	0.041059457
34	0x3d44f7c2	0.048087843
35	0x3d2a2c23	0.041546
36	0x3d3e5971	0.046472017
37	0x3d62529a	0.055254556
38	0x3d2b947c	0.041889653
39	0x3d4c10b5	0.04982062
40	0x3d5d0417	0.05395898
41	0x3d4a7ed6	0.049437366
42	0x3d241f04	0.04006864
43	0x3d5eb56f	0.054372247
44	0x3d4ada80	0.049524784
45	0x3d2a5348	0.04158333
46	0x3d4b64da	0.049656726
47	0x3d4f8620	0.05066502
48	0x3d4fd407	0.050739314
49	0x3d2ba97b	0.041909676
50	0x3d75b00e	0.059982352
51	0x3d492528	0.0491077
52	0x3d326eb6	0.043562613
53	0x3d2bcde2	0.041944392
54	0x3d3f5696	0.046713434
55	0x3d29e12e	0.041474514
56	0x3d0e04b6	0.03467246
57	0x3d33f38f	0.043933447
58	0x3d2897b5	0.041160304
59	0x3d41cb5e	0.047313087
60	0x3d2d866f	0.042364534
61	0x3d4d9ee6	0.050200365
62	0x3d1874e3	0.037220847
63	0x3d44eb22	0.048075803
64	0x3d54f052	0.051987
65	0x3d1ad695	0.037802298
66	0x3d3edcd2	0.04659731
67	0x3d249f2a	0.040190853
68	0x3d46369e	0.04839193
69	0x3d3aec7b	0.04563568
70	0x3d6100d2	0.054932423
71	0x3d2d48d8	0.042305797
72	0x3d2a5e67	0.041593935
73	0x3d3ed047	0.046585348
74	0x3d4c1ce2	0.049832232
75	0x3d2e6c7b	0.042583924
76	0x3d3c466a	0.04596559
77	0x3d32135c	0.043475494
78	0x3d4ba508	0.049717933
79	0x3d2e6769	0.04257909
80	0x3d417b3c	0.047236666
81	0x3d590b9d	0.05298959
82	0x3d388fc9	0.045059
83	0x3d4d1e4f	0.050077733
84	0x3d3f636d	0.04672568
85	0x3d39cd6d	0.045361925
86	0x3d52deae	0.051481895
87	0x3d500c26	0.050792836
88	0x3d428c6c	0.047497198
89	0x3d413e6d	0.047178674
90	0x3d3efd65	0.046628375
91	0x3d3b9c6e	0.04580348
92	0x3d25b545	0.040456075
93	0x3d456d84	0.048200145
94	0x3d3037b5	0.043021876
95	0x3d45d1a2	0.048295625
96	0x3d4c424e	0.04986792
97	0x3d3cc415	0.046085436
98	0x3d177775	0.036979157
99	0x3d3f2761	0.046668414
100	0x3d65d5d9	0.056112144
101	0x3d45a6f3	0.04825492
102	0x3d25cbc8	0.040477544
103	0x3d40afa9	0.047042523
104	0x3d3c026b	0.045900743
105	0x3d4d1b2f	0.050074752
106	0x3d256f15	0.04038914
107	0x3d200ad0	0.03907281
108	0x3d40ad13	0.047040056
109	0x3d535235	0.05159207
110	0x3d2aafb0	0.041671455
111	0x3d301060	0.042984366
112	0x3d2e2696	0.042517267
113	0x3d545456	0.05183824
114	0x3d3cd93a	0.0461056
115	0x3d518692	0.051153727
116	0x3d3e5080	0.04646349
117	0x3d31cc52	0.043407746
118	0x3d603928	0.05474201
119	0x3d579a18	0.05263719
120	0x3d52d191	0.05146939
121	0x3d3130da	0.04325948
122	0x3d44befb	0.048033696
123	0x3d505c88	0.050869495
124	0x3d1c3830	0.038139522
125	0x3d348bc1	0.044078592
126	0x3d2d1947	0.042260434
127	0x3d2ce583	0.042211067
128	0x3d2dc1e0	0.04242122
129	0x3d577aa5	0.052607197
130	0x3d3b11a1	0.04567111
131	0x3d4c4667	0.04987183
132	0x3d38b59e	0.04509508
133	0x3d3f887c	0.04676102
134	0x3d3135d3	0.04326422
135	0x3d2642cf	0.040591057
136	0x3d115c67	0.035488512
137	0x3d354976	0.04425951
138	0x3d340079	0.043945763
139	0x3d32f1f8	0.04368779
140	0x3d49f1eb	0.049302977
141	0x3d3665c3	0.04453064
142	0x3d66b5df	0.05632579
143	0x3d418b71	0.047252122
144	0x3d76eb13	0.060282778
145	0x3d4057f9	0.046958897
146	0x3d3a777d	0.04552411
147	0x3d382c41	0.04496408
148	0x3d3b928f	0.045794066
149	0x3d472be8	0.048625857
150	0x3d507416	0.05089196
151	0x3d35721e	0.044298284
152	0x3d48cc18	0.049022764
153	0x3d2f630f	0.04281908
154	0x3d4f7e63	0.05065764
155	0x3d41f23d	0.047350157
156	0x3d26c135	0.0407116
157	0x3d3b305d	0.04570042
158	0x3d4f002c	0.050537273
159	0x3d3e8ba7	0.0465199
160	0x3d305d7d	0.043057907
161	0x3d3a10a8	0.04542604
162	0x3d239270	0.039934576
163	0x3d3f3780	0.04668379
164	0x3d46fc63	0.04858054
165	0x3d37fa25	0.04491629
166	0x3d4bc1c3	0.049745332
167	0x3d45b57d	0.048268784
168	0x3d361ea1	0.044462804
169	0x3d29f87a	0.04149673
170	0x3d480548	0.04883316
171	0x3d2f099d	0.042733777
172	0x3d277392	0.0408817
173	0x3d3cfc8a	0.046139278
174	0x3d680110	0.05664164
175	0x3d3f6ef9	0.04673669
176	0x3d1e840e	0.038700156
177	0x3d27b522	0.040944226
178	0x3d4dd742	0.050254114
179	0x3d3b1663	0.045675647
180	0x3d3e47af	0.04645508
181	0x3d57f68f	0.05272537
182	0x3d3fedcb	0.046857636
183	0x3d39e019	0.04537973
184	0x3d2bfc81	0.041988853
185	0x3d31178f	0.043235358
186	0x3d4e26ab	0.050329845
187	0x3d3dcf24	0.046340123
188	0x3d394ac6	0.045237325
189	0x3d2bec6f	0.041973528
190	0x3d42653a	0.04745982
191	0x3d379c1a	0.044826604
192	0x3d24efac	0.04026763
193	0x3d2dcc9c	0.04243146
194	0x3d4ba82f	0.04972094
195	0x3d4f5a6d	0.050623346
196	0x3d49438b	0.04913668
197	0x3d2e1e1e	0.04250919
198	0x3d464157	0.048402157
199	0x3d4c7eae	0.0499255
200	0x3d3d496b	0.046212595
201	0x3d502b7d	0.050822724
202	0x3d4170e2	0.047226794
203	0x3d39f309	0.045397792
204	0x3d3e48b5	0.046456058
205	0x3d3b518e	0.045732073
206	0x3d2a16e4	0.041525736
207	0x3d39f9cd	0.045404244
208	0x3d1bd979	0.038049195
209	0x3d2d365b	0.042288166
210	0x3d3fa9da	0.046792842
211	0x3d35e1af	0.04440468
212	0x3d43c557	0.04779562
213	0x3d26fe43	0.040769827
214	0x3d3652b3	0.044512462
215	0x3d60e6e5	0.0549077
216	0x3d39c157	0.0453504
217	0x3d33e4f3	0.043919515
218	0x3d32fadc	0.04369627
219	0x3d446b01	0.04795361
220	0x3d5d4b2a	0.05402676
221	0x3d5de2c2	0.05417133
222	0x3d2804e4	0.04102029
223	0x3d4fe29f	0.050753232
224	0x3d42e0af	0.047577556
225	0x3d1a1a7b	0.03762291
226	0x3d32efe3	0.043685805
227	0x3d288122	0.041138776
228	0x3d379850	0.04482299
229	0x3d36da9e	0.044642083
230	0x3d4c2cfd	0.04984759
231	0x3d72ec81	0.05930758
232	0x3d2ef681	0.042715553
233	0x3d4511a0	0.04811251
234	0x3d5669eb	0.052347105
235	0x3d31e860	0.0434345
236	0x3d520354	0.051272705
237	0x3d5c69df	0.053811904
238	0x3d44887e	0.04798173
239	0x3d3a2d36	0.045453273
240	0x3d49e11b	0.049286943
241	0x3d23bf21	0.039977197
242	0x3d4ae769	0.049537096
243	0x3d4432c7	0.047899988
244	0x3d3a2d92	0.045453615
245	0x3d578e45	0.052625913
246	0x3d3e6489	0.046482597
247	0x3d193ca2	0.03741134
248	0x3d34cf96	0.044143282
249	0x3d36baa9	0.044611607
250	0x3d29231b	0.041293245
251	0x3d447159	0.04795966
252	0x3d264576	0.040593587
253	0x3d2c2451	0.04202682
254	0x3d3d3e1a	0.046201803
255	0x3d4918ce	0.04909592

bottleneck.weight f4 [256, 512]
0	0x3b769861	0.0037627446
1	0x3c1cec9a	0.009577895
2	0xbc33bbec	-0.010970097
3	0xbcf58e1c	-0.02997499
4	0xbcb51313	-0.022103822
5	0x3c67cb02	0.014147522
6	0xbb7e52fe	-0.0038806791
7	0x3cd2f942	0.025753621
8	0xbc50fe33	-0.012755918
9	0x3ca8d74d	0.020610476
10	0x3c079d87	0.008277304
11	0x3c04593e	0.008077918
12	0x3bea48ef	0.0071498076
13	0xbc1d220e	-0.009590639
14	0xbb1431cd	-0.0022612691
15	0xbc268c4b	-0.010165284
16	0x3cb9825c	0.022645168
17	0xbc63cfb6	-0.013904503
18	0xbbf8912f	-0.0075856666
19	0x3a4f0517	0.0007897182
20	0x3c0e9cb6	0.008704355
21	0xbc533174	-0.0128902085
22	0xbb9610f2	-0.0045796568
23	0xbac789c8	-0.0015223557
24	0xbb2f734a	-0.0026771598
25	0xbcbfcb79	-0.023412453
26	0xbc1dff23	-0.009643349
27	0xbc15d9fa	-0.009146208
28	0x3c9b3f85	0.018951187
29	0xbb2f19a8	-0.0026718173
30	0xbbb528ed	-0.0055285604
31	0xbc522fc7	-0.012828774
32	0x3c74867e	0.014924644
33	0x3ca91426	0.02063949
34	0x3cb517a2	0.022105996
35	0xbcdf83b4	-0.02728448
36	0x3ca124d2	0.019670878
37	0xbc821bf9	-0.015882479
38	0x3c036bc2	0.008021297
39	0xbc034db4	-0.008014131
40	0x3c999080	0.01874566
41	0x3c984832	0.018589113
42	0x3bb58327	0.005539316
43	0xbd046cfe	-0.032330506
44	0xba735582	-0.0009282456
45	0x3c571e56	0.013129791
46	0xbb9df8f4	-0.0048209373
47	0xbc11d46b	-0.008900742
48	0xbc402288	-0.011726983
49	0x3cd8d14c	0.026466988
50	0xbb9c82c6	-0.0047763316
51	0xbce3e3f1	-0.027818652
52	0xbbe6d5d6	-0.007044534
53	0xbba58e84	-0.0050523896
54	0xbbc2148c	-0.0059228595
55	0x3bff645c	0.007793946
56	0xbbbaa476	-0.005695875
57	0xba2a15e5	-0.0006488248
58	0xbb812bb7	-0.003941979
59	0x3cf19670	0.02949068
60	0xbbd5766f	-0.0065143625
61	0x3d0c9e6c	0.03433077
62	0xba870d13	-0.0010303579
63	0x3b9decde	0.0048194965
64	0x3c04072e	0.008058352
65	0xba9e1f6a	-0.0012063805
66	0x3c541ab4	0.01294582
67	0xb9d7de33	-0.00041173547
68	0x3c9af775	0.018916825
69	0xbc54f40e	-0.01299764
70	0x3c9c423f	0.019074557
71	0xbc20ef43	-0.009822669
72	0xbc975a84	-0.018475778
73	0x3c92bf3c	0.017913453
74	0xbcc41fba	-0.02394091
75	0xbbad3d27	-0.005286831
76	0xbc89df80	-0.016830206
77	0xbc116b19	-0.008875632
78	0xbd1aa3dd	-0.03775393
79	0xbce006c0	-0.027346969
80	0x3c5835cb	0.013196419
81	0xbc0a1563	-0.008427951
82	0x3c8de949	0.017323153
83	0x3b0bb4a9	0.0021317399
84	0x3acdb82f	0.001569515
85	0xbc4c1425	-0.012455975
86	0xbcb51e9f	-0.022109328
87	0x3c2d8c36	0.010592511
88	0xbd4495b1	-0.04799432
89	0x3cd87ce2	0.026426736
90	0x3d12a62e	0.035803013
91	0xbcde290a	-0.027119178
92	0x3a42d2fb	0.0007431951
93	0x3bb26c1d	0.005445017
94	0x3ce53e8a	0.027983923
95	0x3cafdc9b	0.021467498
96	0x3c088c87	0.008334286
97	0xbccbb86b	-0.02486821
98	0x3c2867b2	0.010278629
99	0x3c454825	0.012041126
100	0x3d1a4690	0.03766495
101	0x3c19a1c2	0.009376945
102	0xbc43c330	-0.011948392
103	0xbc77660e	-0.015100015
104	0x3c307d64	0.010772083
105	0xbc7135b3	-0.014722276
106	0x3cee221b	0.029068997
107	0x3a9722fc	0.0011530812
108	0xbc332a92	-0.0109354425
109	0x3ca3e8b3	0.02000842
110	0x3abcc862	0.001440298
111	0xbc956e8e	-0.018241193
112	0xbbb951df	-0.0056555117
113	0xbd099467	-0.033588793
114	0x3d0e69d7	0.034768905
115	0xbb17ce8d	-0.0023163885
116	0x3b949502	0.0045343647
117	0x3cc3d176	0.02390359
118	0xbc998859	-0.018741773
119	0xbc1cdc9b	-0.009574081
120	0xbb2b3258	-0.0026122537
121	0x3c103bb9	0.0088033015
122	0x3cbc509d	0.022987658
123	0xbbf710f2	-0.007539862
124	0x3b0927be	0.002092823
125	0xbbac77f7	-0.0052633244
126	0xbcc29ac5	-0.02375544
127	0xba503a9d	-0.00079433044
128	0xbc5197ab	-0.012792508
129	0xbc3932c5	-0.011303608
130	0x3b449229	0.0029994345
131	0xbbed7fb9	-0.0072478917
132	0xbbf12ed5	-0.007360319
133	0xbce69aee	-0.028150048
134	0x3b5ca859	0.003366968
135	0x3c875354	0.016519226
136	0xbb1da62a	-0.002405534
137	0xbc1107ae	-0.008851929
138	0xbc0f7c35	-0.008757641
139	0xbae866c3	-0.0017730821
140	0xbc023eb0	-0.007949516
141	0x3c5d6941	0.013513864
142	0xbc60f6ae	-0.013730688
143	0xbc9e3d1e	-0.019316252
144	0x3c0c86e9	0.008577087
145	0x3be3d2ff	0.006952643
146	0xbc5be867	-0.013422108
147	0xbc337fca	-0.01095576
148	0x3c4b9644	0.012425963
149	0x3cab3754	0.020900406
150	0xbc65132f	-0.0139816245
151	0xbcf44825	-0.029819557
152	0xbc566295	-0.013085027
153	0x3c1b43a3	0.009476575
154	0x3cffb953	0.0312163
155	0xbcc64314	-0.024201907
156	0x3c2ae502	0.010430576
157	0x3cab5347	0.020913733
158	0x3c71ce96	0.014758727
159	0x3c9e53cd	0.019327069
160	0xbb42bc7e	-0.00297144
161	0x3ae7d7f3	0.0017688259
162	0x3cd668db	0.026173046
163	0xbc4655e6	-0.012105441
164	0xbc029792	-0.0079707075
165	0x3c897f27	0.016784264
166	0xbbdffec8	-0.006835792
167	0xbd142e41	-0.036176924
168	0x3cff1b10	0.031140834
169	0x3d275f8d	0.04086261
170	0xbbbeb5c5	-0.0058200085
171	0xbce41bec	-0.027845345
172	0xbc1ceb98	-0.009577654
173	0xbbd05002	-0.006357194
174	0x3cc4662a	0.023974497
175	0x3c245386	0.010029679
176	0x3c5b9f66	0.013404703
177	0x3cead0ea	0.028664071
178	0xbb3f26af	-0.0029167344
179	0xbb7ce1f7	-0.0038586834
180	0x3c03042b	0.007996599
181	0x3b9dd4c8	0.0048166253
182	0x3c8f78ee	0.017513718
183	0x3be86858	0.007092517
184	0xbcb948a6	-0.02261765
185	0xbc976fe2	-0.018485967
186	0x3a9e843c	0.0012093852
187	0xbbea2ab6	-0.007146205
188	0x3cde0721	0.027103009
189	0xbc8e9304	-0.017404087
190	0x3b8d8e5c	0.004319949
191	0xbc578942	-0.013155283
192	0x3c1a7ba1	0.0094288895
193	0xbcb56cf1	-0.022146674
194	0xbc70fd31	-0.014708803
195	0xbc5b3775	-0.013379921
196	0xbc9e60c6	-0.019333255
197	0x3c4319f8	0.011908047
198	0x3cb2065b	0.021731546
199	0xbc136a7d	-0.008997557
200	0xbc8b823b	-0.017029872
201	0x3cf1a56d	0.029497826
202	0x3bced0a3	0.0063114925
203	0xba456e6a	-0.00075314066
204	0xbc62280b	-0.013803492
205	0xbbfa5c01	-0.0076403623
206	0x3d00d144	0.03144957
207	0xbc80342e	-0.015649881
208	0xbc0e4c89	-0.00868524
209	0x3d1b1c2b	0.03786866
210	0x3c3cec2a	0.011530915
211	0x3b91b2f8	0.0044463836
212	0xbcebc49f	-0.02878028
213	0x3c034034	0.008010913
214	0x3b933005	0.0044918084
215	0xbba7cc91	-0.0051208218
216	0x3c676964	0.014124248
217	0xbc498723	-0.0123002855
218	0x39b31a4d	0.00034161136
219	0xbc5700c5	-0.013122742
220	0xbc1c1509	-0.0095265
221	0x3cdb731e	0.02678829
222	0xbb1bf87c	-0.0023799231
223	0xbb8d8d82	-0.0043198476
224	0xbd014ad5	-0.031565506
225	0x3be04b88	0.0068449415
226	0x3c609a65	0.0137086855
227	0xbb377141	-0.0027991089
228	0xbc16671c	-0.009179857
229	0xbd3c0e49	-0.04591206
230	0xbccaa65f	-0.024737535
231	0x3c0f7ad7	0.008757315
232	0xbd00a24e	-0.031404786
233	0xbcb8e829	-0.02257164
234	0xbc2a58e3	-0.010397169
235	0xbc558524	-0.0130322315
236	0xbcb34c6a	-0.021887023
237	0xbb8c32f4	-0.004278535
238	0xba2f65ca	-0.0006690888
239	0xbc0a2c47	-0.008433408
240	0xbc87c73d	-0.016574496
241	0x3be9b851	0.007132568
242	0xbb0fee35	-0.002196205
243	0x3cce4a91	0.02518204
244	0x3d04a17a	0.03238056
245	0xbb0a465a	-0.0021099062
246	0xbca137bd	-0.019679898
247	0x3b177dcc	0.0023115752
248	0xbcf181f4	-0.029480912
249	0x3c1230d2	0.0089227725
250	0x3cf164ee	0.029467072
251	0xbc356cd4	-0.01107331
252	0xbc7b6e94	-0.015346188
253	0xbba6a7c4	-0.005085917
254	0xbc2bcc03	-0.010485652
255	0x3bf28666	0.0074012754

bottleneck.bias f4 [256]
0	0xb31a3da7	-3.591199e-08
1	0xb209a133	-8.011102e-09
2	0xb320bcd1	-3.742463e-08
3	0x31011e3a	1.8789152e-09
4	0x332473c2	3.8289507e-08
5	0xb2b6a5b0	-2.1262935e-08
6	0x3304cf20	3.0922024e-08
7	0x31971fdc	4.3983004e-09
8	0x31a69319	4.847959e-09
9	0xaf64efbb	-2.0821649e-10
10	0xb2651572	-1.33344304e-08
11	0x3166cb60	3.358501e-09
12	0x2f3f20db	1.7383021e-10
13	0xb03129ac	-6.4451444e-10
14	0xb201c3cc	-7.553307e-09
15	0x32ef097f	2.782758e-08
16	0x32c8a9ee	2.336034e-08
17	0xb339e3fb	-4.3281016e-08
18	0x331e4ee8	3.6859007e-08
19	0xb206ac28	-7.83897e-09
20	0xb0a46257	-1.196052e-09
21	0xb2825407	-1.5172203e-08
22	0xb2b394c1	-2.0905988e-08
23	0xb256fd1e	-1.2513992e-08
24	0x32a39f61	1.9048175e-08
25	0x32e50263	2.6660194e-08
26	0x3258d96b	1.262229e-08
27	0x32d93d5d	2.529003e-08
28	0xb3838096	-6.1235525e-08
29	0x331da2ba	3.670241e-08
30	0x32ea4f0a	2.7277128e-08
31	0xb34c04b6	-4.7501736e-08
32	0xb27c4c9d	-1.468575e-08
33	0x3334900f	4.2040536e-08
34	0xb34ef046	-4.818164e-08
35	0xb2a03324	-1.8649708e-08
36	0xb21431d5	-8.626064e-09
37	0xb2d6538f	-2.4950877e-08
38	0xb11337da	-2.1423063e-09
39	0xb2e2846a	-2.6370078e-08
40	0x313c2c82	2.73829e-09
41	0xb3114bdf	-3.3829448e-08
42	0xb2d3abae	-2.4641704e-08
43	0xb30c1433	-3.261466e-08
44	0x317f4b36	3.7150136e-09
45	0xb2d57ffc	-2.4854664e-08
46	0x336aa504	5.463245e-08
47	0xb2a9386a	-1.9699844e-08
48	0x32ffb3de	2.9767701e-08
49	0x319424d4	4.311554e-09
50	0x3220d6b3	9.362043e-09
51	0xb28e59d8	-1.6571832e-08
52	0x31d20dfd	6.1133947e-09
53	0x334743b7	4.6394884e-08
54	0xb2d4e346	-2.47834e-08
55	0xb2aae48f	-1.9894541e-08
56	0xb242c77b	-1.1337643e-08
57	0xb232af48	-1.0400818e-08
58	0xb313557c	-3.4303852e-08
59	0x32a212c1	1.886781e-08
60	0xb1e6651d	-6.7053763e-09
61	0xb1aaac23	-4.967221e-09
62	0x32a287ce	1.8921039e-08
63	0xb2cb9a5b	-2.3702503e-08
64	0xb14078db	-2.8008376e-09
65	0x32203f1e	9.327577e-09
66	0xb333d257	-4.1867988e-08
67	0xb2cb9db8	-2.3704033e-08
68	0xb3966826	-7.003864e-08
69	0x33589731	5.0428927e-08
70	0x32f971bb	2.9039134e-08
71	0x3181f4c8	3.7822225e-09
72	0xb32d4910	-4.034615e-08
73	0x323645b8	1.06096465e-08
74	0xb2a72bae	-1.9461222e-08
75	0xb1021153	-1.8927337e-09
76	0xb2949bb3	-1.7300271e-08
77	0x3205d4cb	7.790002e-09
78	0xb23e959e	-1.1093475e-08
79	0xb29643a8	-1.7493065e-08
80	0x331f8916	3.714475e-08
81	0xb1124c4c	-2.1289166e-09
82	0xb197dc85	-4.4197486e-09
83	0xb2b07b02	-2.0545034e-08
84	0x327c852b	1.4698609e-08
85	0x3135b3b0	2.6441107e-09
86	0x33225330	3.7794223e-08
87	0x327a49d8	1.4568705e-08
88	0xb2276339	-9.74324e-09
89	0xb3251080	-3.8432063e-08
90	0xb1736163	-3.5416512e-09
91	0x31205c4f	2.3335536e-09
92	0xb32910d6	-3.936369e-08
93	0xb30ffdde	-3.3525673e-08
94	0x3183c372	3.8348213e-09
95	0x32e23e06	2.6338068e-08
96	0x3244b9be	1.1450934e-08
97	0x3294ad94	1.7308402e-08
98	0xb350f3d5	-4.8650538e-08
99	0xb3017951	-3.014549e-08
100	0xb336d8db	-4.2572406e-08
101	0xb1de107b	-6.462924e-09
102	0xb2faf9c3	-2.9217409e-08
103	0xb247fcb1	-1.164078e-08
104	0x32e05879	2.6117265e-08
105	0x33784eb0	5.7813565e-08
106	0xb2a8eed5	-1.9666382e-08
107	0xb180cb5b	-3.748409e-09
108	0xb21a4c7b	-8.981369e-09
109	0xb39f19ff	-7.408743e-08
110	0x32393ef5	1.0782732e-08
111	0x3322c77f	3.7900005e-08
112	0xb0d6b299	-1.562131e-09
113	0xb239b0ed	-1.08086455e-08
114	0xb302da0c	-3.0466296e-08
115	0xb2d1ae8b	-2.4410175e-08
116	0xb37837c7	-5.779273e-08
117	0x3203845f	7.655301e-09
118	0xb397690d	-7.050594e-08
119	0xb0092f6c	-4.99077e-10
120	0xb1e6d0e2	-6.7176282e-09
121	0xb2120e7c	-8.501612e-09
122	0x3180246b	3.7294305e-09
123	0x32463f64	1.153953e-08
124	0xb22057d5	-9.333196e-09
125	0x333a57dc	4.3386407e-08
126	0x3250235f	1.2115236e-08
127	0x3276d96b	1.436852e-08
128	0x331b0934	3.609712e-08
129	0xb1f14a00	-7.022436e-09
130	0xb3620df7	-5.2632426e-08
131	0x31de381b	6.467429e-09
132	0xb256a6c2	-1.2494356e-08
133	0xb2c30bd1	-2.2706361e-08
134	0xb0aa62f0	-1.2397248e-09
135	0x3195ede0	4.363514e-09
136	0x32a5f410	1.9319515e-08
137	0x3281de0c	1.5118552e-08
138	0x306398b7	8.279914e-10
139	0x32c4e7b0	2.2922762e-08
140	0x32c72003	2.3181206e-08
141	0xb2b98bdd	-2.1600437e-08
142	0x3306b00e	3.1359427e-08
143	0x33461801	4.61223e-08
144	0x330430b8	3.0777954e-08
145	0xb26ea3e7	-1.389069e-08
146	0xb3a7d4dc	-7.8152624e-08
147	0xb2f5f786	-2.8634314e-08
148	0x331136ce	3.3810288e-08
149	0xb28a172e	-1.6075855e-08
150	0x3227ffcf	9.7788435e-09
151	0xb11d932f	-2.293017e-09
152	0x32d88177	2.5204583e-08
153	0x31f4bd38	7.1228463e-09
154	0x326b2e2f	1.3689301e-08
155	0x330887ed	3.178859e-08
156	0xb307ac50	-3.1588854e-08
157	0x3166326d	3.3498069e-09
158	0xb2769eaf	-1.4355165e-08
159	0x3307fa91	3.1660026e-08
160	0x326ceeb1	1.379128e-08
161	0xb31597e5	-3.4829913e-08
162	0x333ebe26	4.441076e-08
163	0xb326b9cd	-3.881887e-08
164	0x3255a01d	1.2434637e-08
165	0xb294ac8b	-1.7307931e-08
166	0x32c4c825	2.2908418e-08
167	0x30feb1a0	1.8531416e-09
168	0xb31d7664	-3.6662087e-08
169	0xb29cd7f5	-1.8258996e-08
170	0x32cd9c00	2.3936082e-08
171	0xb3178b9e	-3.528441e-08
172	0x327d6cfc	1.4751318e-08
173	0xb373f288	-5.6798427e-08
174	0xb33b4454	-4.3601474e-08
175	0xb30bc4ad	-3.2542335e-08
176	0xb3494794	-4.686406e-08
177	0x31fdc445	7.3855824e-09
178	0xb2df2813	-2.597884e-08
179	0x32d8d68e	2.5243278e-08
180	0x333c456f	4.383531e-08
181	0x32dc19ab	2.5623043e-08
182	0xb2a14d6e	-1.8778078e-08
183	0x32338d53	1.0451305e-08
184	0xb2779db2	-1.4413148e-08
185	0xb1ed9dc8	-6.9155455e-09
186	0x3396d0da	7.022909e-08
187	0xb3281d4d	-3.9142197e-08
188	0xb2830fb1	-1.5257543e-08
189	0x31dcce6a	6.4263093e-09
190	0x332257e7	3.779851e-08
191	0x32555e20	1.2419633e-08
192	0x33319bfd	4.1352894e-08
193	0x30c1f367	1.4111777e-09
194	0x3280cf0e	1.4995319e-08
195	0xb279181e	-1.4499191e-08
196	0xb31e4e14	-3.6858253e-08
197	0x31ebe7ed	6.865767e-09
198	0x32538675	1.2312388e-08
199	0xb192aef6	-4.26905e-09
200	0x326c4ae8	1.375404e-08
201	0x32cb5131	2.3669232e-08
202	0x31d426ca	6.174422e-09
203	0x330b029e	3.236584e-08
204	0x30c99ce9	1.4669271e-09
205	0xb291bab0	-1.6965117e-08
206	0xb3285ebc	-3.920171e-08
207	0xb217aaa1	-8.828153e-09
208	0xb29357d2	-1.7152988e-08
209	0xb0f9d210	-1.8176838e-09
210	0xb19e9dfa	-4.616365e-09
211	0x328ac555	1.615505e-08
212	0x33151997	3.471504e-08
213	0x333c12cf	4.3789267e-08
214	0x310c4c8b	2.041619e-09
215	0x331df849	3.6780225e-08
216	0x324b9020	1.1848925e-08
217	0x31ecdd3e	6.8936563e-09
218	0xb307e98b	-3.1644543e-08
219	0xb2088e37	-7.948578e-09
220	0x2fcf59fd	3.771702e-10
221	0x32b9b61b	2.1619647e-08
222	0xb28327b0	-1.5268455e-08
223	0x324e1ebd	1.1997767e-08
224	0x326d64dc	1.3818148e-08
225	0x3319d863	3.581989e-08
226	0xb2e7231c	-2.6907905e-08
227	0xb29efc30	-1.8508302e-08
228	0xb2fe3b24	-2.9596386e-08
229	0x323058e2	1.0264758e-08
230	0xb302df4d	-3.0471075e-08
231	0x31a696f9	4.8483995e-09
232	0x3281ce44	1.5111375e-08
233	0x32c7d420	2.3263112e-08
234	0x32adc0a8	2.022746e-08
235	0x32a41c05	1.9104855e-08
236	0xb3008d5b	-2.9930884e-08
237	0x30048633	4.821203e-10
238	0x3336cf71	4.2563844e-08
239	0x32d71940	2.5040777e-08
240	0xb280966e	-1.4969569e-08
241	0x3167333d	3.364405e-09
242	0xb25184bd	-1.2195582e-08
243	0x321f0648	9.256446e-09
244	0xb1b218d9	-5.1833067e-09
245	0x33093116	3.194244e-08
246	0x328bd5b4	1.627891e-08
247	0x3356d283	5.0017217e-08
248	0xb1ead62c	-6.834645e-09
249	0xb3288f68	-3.9245975e-08
250	0x32e3d1f6	2.6521757e-08
251	0xb31284eb	-3.4114162e-08
252	0xb2012a25	-7.518371e-09
253	0x33170416	3.5161143e-08
254	0x33005bd8	2.9885854e-08
255	0xaffab3dc	-4.5602533e-10
